weight/save_380.pth (torch_old, 72900 bytes, 8 tensors)

layer.0.weight f4 [32, 139]
0.080220856 -0.28034413 -0.02429014 -0.08035723 -0.06096125 -0.029471267 -0.06644063 0.009821591
-0.057777617 -0.11173058 -0.053489957 0.03469019 0.045467097 0.059830453 -0.09588399 -0.0133861825
-0.009578201 0.012835636 0.031621683 0.023113603 -0.059003614 0.03294183 -0.04640808 0.0010760403
-0.024910223 0.03874426 0.07462248 0.057084553 0.00474755 -0.034692623 0.044172216 -0.040023632
0.034476824 -0.038454097 -0.07182775 -0.019051021 -0.00093181303 0.0010069822 0.0151054775 -0.059156604
0.015991786 0.054811426 0.044932228 -0.023252752 -0.009214423 0.023128493 0.016879292 0.00822509
0.060751107 -0.06594841 -0.033557948 0.016173877 0.04101978 0.07113762 -0.04519645 0.0826406
-0.026362497 -0.0526478 0.018118236 -0.053433105 -0.015892401 -0.038784284 -0.009434569 0.065831326
-0.06162532 0.026068995 -0.046368077 -0.024585828 -0.031669077 -0.02539036 -0.06524307 -0.058348946
0.009449589 0.0027436935 -0.023381196 0.012543966 0.025138922 -0.031709753 -0.075371765 -0.066152826
-0.024649655 -0.015876036 0.048357375 0.035916977 -0.023797797 -0.08190155 -0.02562366 -0.04964879
-0.05570708 0.052726574 0.009323642 -0.048141252 0.012366589 -0.025067523 0.017597198 -0.058650944
-0.0064216945 0.003222712 0.049293198 -0.04301534 -0.053349867 -0.045914456 -0.07432812 0.008385509
-0.0050144996 0.00051436544 0.016614646 -0.08406666 -0.004501535 0.056674205 -0.07713206 0.050913695
-0.010038584 -0.06998873 0.035661586 -0.011563432 -0.0027879602 0.04868193 -0.0395218 0.06134365
0.023129834 -0.008362195 0.027720837 -0.050897073 -0.06976055 0.057487722 -0.034912486 -0.049402945
-0.004306357 -0.049376544 -0.014689667 -0.044310886 -0.0738341 -0.07400258 -0.06555156 -0.083012745
0.048176028 -0.0030605379 -0.00095104997 0.04839898 -0.44759953 0.5038285 0.060156174 0.45050958
0.04555718 -0.07061819 -0.009519016 -0.1979104 -0.21684715 -0.31021842 0.013123563 0.084161416
0.006400556 -0.18410324 0.0057823476 -0.094254054 -0.0108445855 0.05413966 0.002762538 0.011373382
0.054003328 0.061829355 -0.026928874 0.040033117 -0.024361055 0.024048073 -0.08051013 -0.04052804
0.0016120983 0.06482609 -0.017357068 -0.018423747 -0.025542032 -0.058954738 -0.017931616 -0.006165732
-0.056005213 -0.016877538 -0.057774927 -0.00547309 0.06843893 -0.06856852 0.025059031 0.022100216
0.01196011 0.012868882 -0.043753967 -0.03150576 0.03585548 0.003360198 0.09586842 0.012693356
-0.038033564 -0.02056812 -0.01068257 -0.01611948 -0.011022367 0.00039507818 -0.07387425 -0.01775549
-0.044821624 0.042715635 -0.08417498 -0.063566774 0.03954194 0.0007724914 -0.089047074 -0.12445524
-0.027024716 -0.05747642 0.013827373 0.01918774 0.005460847 -0.073524386 0.002198625 0.04149693
-0.037515603 0.08249671 -0.064186424 0.019118756 -0.012259344 -0.06755006 0.095275484 -0.048427835
-0.053802513 -0.0625706 -0.01575881 -0.0954562 0.035684735 0.0717127 -0.032417126 0.0066037364
0.013578108 0.018634535 0.032092184 0.03985688 -0.004779237 0.04496277 -0.057786535 -0.034729283
-0.00044097204 0.014396421 -0.054185875 -0.039494965 -0.019226614 -0.0087337755 -0.08828104 0.022211997
0.027935112 -0.024965545 -0.07646394 0.016785253 0.0018289236 -0.058147825 0.03444958 0.0037626936
00000000: d54a a43d 4489 8fbe 1efc c6bc 5592 a4bd
00000010: 81b2 79bd ba6d f1bc 0612 88bd bdea 203c
00000020: 39a8 6cbd 01d3 e4bd 4918 5bbd 4d17 0e3d
00000030: b53b 3a3d c710 753d d35e c4bd b851 5bbc
00000040: e3ed 1cbc 8f4c 523c bd85 013d bd58 bd3c
00000050: c6ad 71bd 03ee 063d 6616 3ebd ec09 8d3a
00000060: 8610 ccbc 4db2 1e3d acd3 983d 7ed1 693d
00000070: 5691 9b3b da19 0ebd eded 343d d2ef 23bd
00000080: 9237 0d3d 0b82 1dbd 6d1a 93bd e310 9cbc
00000090: ea44 74ba b7fc 833a f77c 773c 324e 72bd
000000a0: 3501 833c f281 603d db0a 383d 8e7c bebc
000000b0: 17f8 16bc f777 bd3c 7146 8a3c 87c2 063c
000000c0: 27d6 783d f60f 87bd 0f74 09bd 147f 843c
000000d0: 5b04 283d 9ab0 913d ea1f 39bd 7a3f a93d
000000e0: 2af6 d7bc 38a5 57bd b26c 943c acdc 5abd
000000f0: c830 82bc 45dc 1ebd 7393 1abc 93d2 863d
00000100: d56a 7cbd a58e d53c 74ec 3dbd 3868 c9bc
00000110: 6fb7 01bd 72ff cfbc 299e 85bd 4eff 6ebd
00000120: 73d2 1a3c 8acf 333b ec89 bfbc 3585 4d3c
00000130: 24f0 cd3c 16e2 01bd 835c 9abd 227b 87bd
00000140: 13ee c9bc 760e 82bc 6212 463d ae1d 133d
00000150: 99f3 c2bc 00bc a7bd b6e8 d1bc 885c 4bbd
00000160: 1b2d 64bd d2f7 573d 30c2 183c c32f 45bd
00000170: 3c9d 4a3c 685a cdbc 0028 903c f93b 70bd
00000180: 146d d2bb 2334 533b aae7 493d da30 30bd
00000190: 6485 5abd cc10 3cbd 5739 98bd 6063 093c
000001a0: ac50 a4bb 7bd6 063a 701b 883c 242b acbd
000001b0: 9d81 93bb 3623 683d 6af7 9dbd e18a 503d
000001c0: df78 24bc 4056 8fbd e211 123d 8d74 3dbc
000001d0: 36b6 36bb b466 473d 9ce1 21bd 7b43 7b3d
000001e0: c77a bd3c 9701 09bc cf16 e33c 7379 50bd
000001f0: 9fde 8ebd 3f78 6b3d 6500 0fbd be5a 4abd
00000200: 571c 8dbb 0f3f 4abd eeac 70bc 557f 35bd
00000210: 5536 97bd aa8e 97bd e53f 86bd 9602 aabd
00000220: 3a54 453d 4e93 48bb e24f 79ba 023e 463d
00000230: c42b e5be e8fa 003f 5266 763d 31a9 e63e
00000240: 2a9a 3a3d 45a0 90bd a6f5 1bbc 06a9 4abe
00000250: 2e0d 5ebe f3d4 9ebe 3604 573c d25c ac3d
00000260: c1bb d13b 8f85 3cbe d979 bd3b 4508 c1bd
00000270: 7dad 31bc 8cc1 5d3d b20b 353b 6c57 3a3c
00000280: 9832 5d3d c740 7d3d f199 dcbc c4f9 233d
00000290: d690 c7bc 7700 c53c 7fe2 a4bd bb00 26bd
000002a0: 0b4d d33a 8bc3 843d 6930 8ebc 66ed 96bc
000002b0: 863d d1bc 867a 71bd 53e5 92bc e909 cabb
000002c0: b965 65bd c342 8abc 67a5 6cbd 9b57 b3bb
000002d0: b629 8c3d a76d 8cbd 9948 cd3c 830b b53c
000002e0: 56f4 433c 01d8 523c 5c37 33bd 2f0c 01bd
000002f0: 32dd 123d c536 5c3b aa56 c43d cbf7 4f3c
00000300: 15c9 1bbd 797e a8bc f205 2fbc 000d 84bc
00000310: 2897 34bc 7f22 cf39 624b 97bd f673 91bc
00000320: e196 37bd 97f6 2e3d ef63 acbd 4c2f 82bd
00000330: bbf6 213d 0581 4a3a 505e b6bd 64e2 febd
00000340: f062 ddbc 656c 6bbd 358c 623c 9b2f 9d3c
00000350: e8f0 b23b f493 96bd ce16 103b aff8 293d
00000360: f6a9 19bd 09f4 a83d 2c74 83bd f09e 9c3c
00000370: 6adb 48bc b057 8abd cb1f c33d 445c 46bd
00000380: 0660 5cbd 0425 80bd 9f18 81bc 8a7e c3bd
00000390: 282a 123d 1cde 923d d2c7 04bd 2864 d83b
000003a0: b676 5e3c 74a7 983c 1873 033d f840 233d
000003b0: 259b 9cbb e22a 383d 93b1 6cbd 4b40 0ebd
000003c0: 4432 e7b9 f7de 6b3c 02f2 5dbd 79c5 21bd
000003d0: 2281 9dbc 1c18 0fbc b1cc b4bd eff5 b53c
000003e0: 2dd8 e43c 8b84 ccbc 2099 9cbd 3a81 893c
000003f0: 7eb8 ef3a 6a2c 6ebd 011b 0d3d 8697 763b

layer.0.bias f4 [32]
0.01342478 0.45221847 -0.017360367 0.0034842629 -0.10126201 0.037161447 0.017992996 0.03597049
-0.05687126 0.06283448 0.061236963 0.14242002 -0.07195334 0.44069633 0.10421951 0.041853916
-0.015388968 -0.017229086 0.22498365 0.4657956 -0.11341292 0.49328074 -0.07814419 0.1586654
-0.08044663 0.46039155 -0.078222066 0.060209695 0.66112626 0.020008912 -0.1361893 -0.01833263
00000000: 9cf3 5b3c 2e89 e73e 5437 8ebc 3b58 643b
00000010: 7562 cfbd 9a36 183d 0c66 933c cb55 133d
00000020: d7f1 68bd 5daf 803d 9cd3 7a3d 8ed6 113e
00000030: 465c 93bd f3a2 e13e 0a71 d53d 036f 2b3d
00000040: 0322 7cbc 0324 8dbc 1d62 663e c37c ee3e
00000050: 0845 e8bd 4b8f fc3e 100a a0bd 2f79 223e
00000060: 34c1 a4bd 71b8 eb3e e432 a0bd 719e 763d
00000070: 923f 293f bbe9 a33c 3575 0bbe 502e 96bc

layer.2.weight f4 [64, 32]
0.03502726 -0.078150086 -0.0966013 0.079614505 0.062256746 -0.028675172 0.063507274 0.14044613
0.16349812 -0.15201484 0.09012175 0.007599629 0.13718595 -0.085190885 0.14987734 0.03116339
0.15698542 -0.084014155 0.11722606 0.010645292 -0.06467564 -0.15718229 -0.03748403 -0.0035734635
0.0073407446 0.024766479 0.14056194 0.08268987 0.0015893138 0.16840318 -0.07821018 -0.15881297
-0.04784849 -0.10772973 0.04635919 -0.05482246 -0.10553765 -0.12033696 -0.07349607 0.07155257
-0.11791955 0.08953151 -0.05254883 0.02560988 -0.12602969 -0.03717943 0.15462005 -0.07458669
0.054106146 0.16028337 0.0035169374 0.01989851 0.074649155 0.02497707 -0.24858187 -0.111830376
-0.04091211 -0.049936615 -0.14411215 -0.047620356 -0.06483704 0.0634398 0.12654151 0.023600308
-0.15460567 -0.20308602 0.091073275 -0.17597187 -0.16893104 -0.20418875 0.031964142 0.0657244
0.03664847 0.08231493 0.119281605 -0.08263619 0.07815324 -0.097674206 -0.16696638 0.10673371
0.01908333 0.060022034 0.02664896 0.08523032 0.1253905 0.037564225 -0.06123037 0.13787167
-0.16783139 -0.08353625 -0.101805255 -0.113744296 -0.047995258 0.11587269 -0.08433734 -0.0023686166
0.092336535 0.13824603 -0.16490199 -0.084747955 -0.17855138 -0.22066909 -0.039984416 0.046244472
-0.10071401 0.046100862 0.12153685 0.41272375 0.034753997 0.37251702 0.09934743 -0.16293317
0.06649639 0.09016 0.009133255 0.34987292 -0.041870814 -0.10489113 -0.11891573 0.068572275
0.1621415 0.055589106 -0.060795184 0.07757526 0.6176573 -0.14567137 0.034089584 0.019492114
-0.018477196 0.082314976 0.14737225 -0.06319826 0.04853172 -0.09246984 0.08122594 0.15524529
-0.04496803 -0.028778387 -0.084575996 -0.10140206 0.026846575 0.11424757 0.057525583 0.1204593
-0.1529671 0.122296676 -0.19611757 -0.009967098 -0.0052784993 0.006756533 0.059320897 -0.019332675
-0.023962116 -0.11337851 -0.010201236 -0.03293643 -0.03605699 0.14823492 -0.11195668 -0.05368291
-0.11110114 -0.17437829 0.028117828 -0.06743734 0.048327416 0.039930813 0.015352156 0.047713365
0.020944022 0.04342149 0.1745292 -0.2131392 0.028032 -0.06290581 -0.12579641 -0.18622455
0.044245105 0.14586 -0.09063178 0.078104675 -0.28563344 -0.09796525 -0.004968894 0.11324231
-0.24647439 -0.088872865 -0.19188015 0.015788788 -0.13428071 -0.15221466 0.015674097 0.11288145
0.0858103 -0.034278262 0.09059933 -0.06302601 0.009273871 -0.16426498 0.08122915 -0.18636213
-0.10307141 -0.055092886 0.038046315 0.0792237 -0.11424369 0.1744702 0.1565356 0.08702579
-0.024253035 -0.106195286 -0.13926642 -0.01435653 -0.0664198 -0.09842236 0.16984318 0.092576966
-0.015043382 -0.08172523 0.12107491 0.13336137 -0.03436917 0.018789519 -0.10316017 -0.15875891
-0.08759299 0.1396915 -0.032708645 -0.08978751 0.09837445 -0.21744129 -0.036626857 -0.16706717
0.098129906 0.006134077 0.102887765 0.0851115 -0.12755571 -0.062620215 -0.18631156 -0.005021911
-0.084959194 -0.07875478 -0.038465686 -0.065899864 -0.19770499 0.0002513137 0.00918455 0.09810097
-0.17835477 0.1257522 -0.20031793 0.0345635 -0.17062084 0.09620635 0.02707484 -0.074459285
00000000: bf78 0f3d 270d a0bd e7d6 c5bd ee0c a33d
00000010: ee00 7f3d 32e8 eabc 1a10 823d 1cd1 0f3e
00000020: 0d6c 273e c7a9 1bbe c191 b83d 4f06 f93b
00000030: 797a 0c3e 8f78 aebd 7279 193e 5e4a ff3c
00000040: c9c0 203e 9d0f acbd 3714 f03d 9769 2e3c
00000050: a974 84bd 65f4 20be db88 19bd c530 6abb
00000060: a18a f03b 12e3 ca3c 78ef 0f3e 4e59 a93d
00000070: 8650 d03a e271 2c3e a92c a0bd de9f 22be
00000080: c7fc 43bd 68a1 dcbd 22e3 3d3d 848d 60bd
00000090: 2024 d8bd 3973 f6bd 1c85 96bd 278a 923d
000000a0: ce7f f1bd 4c5c b73d 713d 57bd d0cb d13c
000000b0: ed0d 01be 7549 18bd b854 1e3e e8c0 98bd
000000c0: 689e 5d3d 5321 243e 6b7c 663b 3302 a33c
000000d0: a8e1 983d b69c cc3c 3f8c 7ebe 5307 e5bd
000000e0: 7593 27bd 568a 4cbd 2392 13be 900d 43bd
000000f0: 48c9 84bd baec 813d 1994 013e 6f55 c13c
00000100: f350 1ebe c8f5 4fbe a084 ba3d f831 34be
00000110: 42fc 2cbe db16 51be d5ec 023d 849a 863d
00000120: b51c 163d bb94 a83d ea49 f43d 2a3d a9bd
00000130: ce0e a03d 6a09 c8bd 3cf9 2abe 3497 da3d
00000140: a554 9c3c aad9 753d eb4e da3c 3c8d ae3d
00000150: 5e66 003e f2dc 193d b2cc 7abd 3b2e 0d3e
00000160: fedb 2bbe 0e15 abbd 467f d0bd c5f2 e8bd
00000170: ad96 44bd a94e ed3d 0eb9 acbd cb3a 1bbb
00000180: f01a bd3d 5e90 0d3e 11dc 28be 5690 adbd
00000190: 2cd6 36be 14f7 61be b3c6 23bd d86a 3d3d
000001a0: 2643 cebd 42d4 3c3d 50e8 f83d 8750 d33e
000001b0: 355a 0e3d 8dba be3e aa76 cb3d f4d7 26be
000001c0: 422f 883d cea5 b83d a6a3 153c 8b22 b33e
000001d0: bb80 2bbd 29d1 d6bd 178a f3bd 9f6f 8c3d
000001e0: 6c08 263e 67b1 633d 5f04 79bd c7df 9e3d
000001f0: ca1e 1e3f e02a 15be 85a1 0b3d edad 9f3c
00000200: 7d5d 97bc c194 a83d c0e8 163e 176e 81bd
00000210: 32c9 463d d460 bdbd c959 a63d 9ff8 1e3e
00000220: 6630 38bd a7c0 ebbc 2e36 adbd e2ab cfbd
00000230: 59ed db3c a1fa e93d f29f 6b3d 5eb3 f63d
00000240: 68a3 1cbe ae76 fa3d 0bd3 48be 0a4d 23bc
00000250: 43f7 acbb e865 dd3b 78fa 723d 8f5f 9ebc
00000260: 334c c4bc fe32 e8bd 1623 27bc 5ae8 06bd
00000270: 7fb0 13bd e5ca 173e 8b49 e5bd 9ce2 5bbd
00000280: ff88 e3bd 3990 32be 5c57 e63c 971c 8abd
00000290: f8f2 453d 7e8e 233d 9c87 7b3c 176f 433d
000002a0: cc92 ab3c bbda 313d c8b7 323e 2a41 5abe
000002b0: 5da3 e53c c3d4 80bd c6d0 00be a6b1 3ebe
000002c0: 5b3a 353d 535c 153e 289d b9bd 58f5 9f3d
000002d0: 8c3e 92be 01a2 c8bd 1bd2 a2bb 96eb e73d
000002e0: c863 7cbe fa02 b6bd 3b7c 44be 7d57 813c
000002f0: e280 09be 29de 1bbe f766 803c 642e e73d
00000300: 50bd af3d 5d67 0cbd 248c b93d c813 81bd
00000310: 6ff1 173c 1435 28be 785b a63d b7d5 3ebe
00000320: 1a17 d3bd 14a9 61bd 74d6 1b3d 0940 a23d
00000330: 99f8 e9bd 51a8 323e de4a 203e 943a b23d
00000340: 4dae c6bc ea7c d9bd db9b 0ebe a737 6bbc
00000350: 1b07 88bd aa91 c9bd 5feb 2d3e fe98 bd3d
00000360: 8478 76bc 8f5f a7bd 1ff6 f73d e28f 083e
00000370: b0c6 0cbd 7aec 993c a445 d3bd b291 22be
00000380: f463 b3bd 4a0b 0f3e 80f9 05bd 84e2 b7bd
00000390: 8b78 c93d eea8 5ebe 0b06 16bd a813 2bbe
000003a0: 55f8 c83d 5e00 c93b d2b6 d23d f04e ae3d
000003b0: f79d 02be 073f 80bd 75c8 3ebe d88e a4bb
000003c0: 16ff adbd 304a a1bd 328e 1dbd 82f6 86bd
000003d0: 2d73 4abe c1c2 8339 cb7a 163c 29e9 c83d
000003e0: a2a2 36be 2fc5 003e 2520 4dbe 7592 0d3d
000003f0: 3bb7 2ebe d607 c53d 0ecc dd3c 1c7e 98bd

layer.2.bias f4 [64]
0.52582675 -0.10718004 0.42667493 0.15130706 -0.03945145 1.0540739 -0.09894161 0.14002366
0.34637555 0.048333272 -0.1205519 -0.0013768948 0.121986605 0.1524706 -0.14315024 -0.099080294
0.1800442 -0.0026438946 -0.021665864 0.13241416 -0.103237815 0.23025608 -0.0040647127 8.525712e-05
-0.003725064 0.1907246 -0.08095033 -0.0024995322 0.03174979 0.051136192 0.38301018 0.25460464
-0.00079432514 -0.08926944 0.30379698 -0.111796156 0.00045360476 -0.15762596 -0.0026190963 0.1430243
-0.11450116 0.028105617 -0.031586304 0.3915918 0.01468437 0.15065052 0.054113943 -0.070381135
-0.095420465 0.3254032 0.28504878 0.3960834 0.13984378 0.7528611 0.0006087434 0.04651054
-0.0009239717 0.29625592 -0.041051187 0.25837424 0.40688142 0.37729296 -0.011261021 0.2853946
00000000: 959c 063f 3581 dbbd 2375 da3e 3df0 1a3e
00000010: d897 21bd e5eb 863f e6a1 cabd 5d62 0f3e
00000020: 2358 b13e 1cf9 453d eae3 f6bd ec78 b4ba
00000030: 1dd4 f93d 4121 1c3e fa95 12be 9cea cabd
00000040: 825d 383e 3145 2dbb 9c7c b1bc 9497 073e
00000050: 596e d3bd 40c8 6b3e 4831 85bb 11cc b238
00000060: 3420 74bb 4f4d 433e 49c9 a5bd 31cf 23bb
00000070: 110c 023d 2f74 513d e919 c43e 8a5b 823e
00000080: 423a 50ba e5d2 b6bd 478b 9b3e 62f5 e4bd
00000090: cdd1 ed39 b368 21be 25a5 2bbb f674 123e
000000a0: 967f eabd c03d e63c a460 01bd b87e c83e
000000b0: b696 703c 2144 1a3e 95a6 5d3d fc23 90bd
000000c0: ce6b c3bd 409b a63e eaf1 913e 72cb ca3e
000000d0: 3533 0f3e 81bb 403f 1494 1f3a d681 3e3d
000000e0: b136 72ba dbae 973e 4a25 28bd a149 843e
000000f0: c352 d03e 8b2c c13e 2580 38bc 3e1f 923e

layer.4.weight f4 [128, 64]
-0.021498187 -0.09021029 0.101002485 -0.06302738 0.062085122 -0.027379693 0.10979777 0.020787036
-0.07837448 -0.0031006807 -0.024511993 -0.02865092 -0.043102685 0.018326256 -0.07816518 0.022705402
0.059350435 -0.006678746 0.094447084 0.033072095 0.0757659 -0.09365334 -0.0824261 0.111028686
-0.056761835 0.0077863066 0.0037827434 0.006748177 -0.11373875 0.072075166 0.06683051 0.10947729
0.021745857 0.06293252 -0.05022072 0.01835866 -0.023173003 0.0071566594 -0.08561127 0.055679176
-0.029894616 -0.07971289 -0.0026260377 0.10972104 0.08911133 0.014065698 0.10325985 0.062889874
0.060025427 -0.022665707 0.084416546 -0.01414832 0.04166963 0.0318343 -0.04413108 -0.0976771
0.0027470363 -0.0608171 0.09948969 -0.08314454 0.033969928 0.0586953 0.072510645 0.023957524
-0.048308857 -0.011162934 0.025162796 0.057222158 -0.028517654 -0.27446324 -0.104149744 -0.028498415
0.07401419 0.025020622 0.011693836 0.06782231 0.10801744 0.005977098 -0.026947204 -0.030515062
-0.044103753 0.12559725 -0.030405687 -0.010949853 -0.02292887 0.001609511 -0.03255497 -0.08392649
0.39642164 0.16747966 -0.19499946 0.30434433 0.14259374 0.118713215 0.008196294 0.06532711
-0.04747662 0.015511071 0.010166723 -0.03305162 -0.016876118 0.035271488 0.27119 0.11325692
0.076734975 0.30508217 -0.02937918 0.036800973 0.21486257 0.06070817 -0.17290702 0.08476335
-0.092640646 0.030229066 -0.1014478 -0.11727197 0.043791734 -0.119077004 0.0247967 0.08437436
0.016901646 0.065440744 -0.19834383 0.058632042 -0.06958825 0.12937486 -0.0013133177 -0.091583624
-0.011568357 -0.11153002 0.048929904 0.037924152 -0.1229322 0.5508257 0.11801766 0.0433018
0.10016037 0.005421845 -0.052500516 0.0866578 0.021753438 -0.010070136 0.004841753 0.11229585
-0.02019117 0.0038565046 0.020286152 0.00086219504 0.03655769 0.09424829 -0.051016167 0.04642261
0.061150376 -0.05117539 0.0091408 -0.040779468 0.06570416 -0.0022035064 -0.06856927 0.040227495
0.093348004 -0.12607844 -0.059150137 0.119017005 0.023020606 -0.00031096864 -0.21541062 -0.07867673
0.0012960455 -0.10315134 -0.05367425 0.096488155 0.0074582375 -0.05870361 -0.07810086 0.031513803
-0.09406369 0.03087084 0.0494506 0.04978338 -0.030421466 0.13605504 -0.0022641406 0.089940384
-0.022396771 0.007880869 -0.13123378 0.004923304 -0.07913752 0.074620225 -0.052806847 -0.055956602
-0.07509974 -0.045746613 -0.21982616 -0.009219261 -0.10370312 -0.5253934 -0.0076889964 0.09987606
0.023579597 -0.14036247 -0.01823705 -0.007799756 0.15215953 0.15512435 -0.08181239 0.0010271363
-0.12631762 0.39131886 0.12256297 -0.0056554247 0.0061110477 -0.035583325 -0.12337047 0.05986099
0.22585973 0.21510668 0.12189162 0.26478097 0.22186568 0.045988925 -0.15900747 0.049800042
0.058483567 0.058486886 -0.06986919 -0.089255325 -0.043547846 0.044582553 0.26077124 0.20073375
-0.098414965 0.17246109 -0.018919654 0.0959932 0.12673612 0.10666614 -0.06374559 0.058890868
-0.11660132 -0.13628389 0.079628035 0.08510382 0.01748638 -0.20686224 0.19562009 0.07857894
0.10520871 0.029297486 -0.15982297 0.25476557 0.02994122 0.38642597 0.12430819 0.30082905
00000000: f71c b0bc 2cc0 b8bd 64da ce3d 8014 81bd
00000010: f84c 7e3d 614b e0bc a7dd e03d 9349 aa3c
00000020: cd82 a0bd ca34 4bbb 60cd c8bc 56b5 eabc
00000030: 718c 30bd f220 963c 1115 a0bd ae00 ba3c
00000040: 7119 733d 62d9 dabb 796d c13d 9b76 073d
00000050: 272b 9b3d 53cd bfbd 04cf a8bd 0263 e33d
00000060: 197f 68bd 4624 ff3b e7e7 773b d01f dd3b
00000070: ddef e8bd 259c 933d 6fde 883d a135 e03d
00000080: 5e24 b23c c4e2 803d 3eb4 4dbd e764 963c
00000090: 4fd5 bdbc 6982 ea3b f654 afbd d90f 643d
000000a0: 8ee5 f4bc 8340 a3bd 9a19 2cbb 6db5 e03d
000000b0: 0080 b63d d073 663c e679 d33d 68cc 803d
000000c0: 39dd 753d 6fad b9bc 95e2 ac3d 5bce 67bc
000000d0: c6ad 2a3d af64 023d cbc2 34bd ee0a c8bd
000000e0: 9f07 343b 5a1b 79bd 40c1 cb3d af47 aabd
000000f0: 0d24 0b3d 7c6a 703d 7680 943d 9242 c43c
00000100: 82df 45bd bde4 36bc 3522 ce3c c861 6a3d
00000110: db9d e9bc 7286 8cbe 764c d5bd 8275 e9bc
00000120: c094 973d 0cf8 cc3c 8197 3f3c 6ce6 8a3d
00000130: 3f38 dd3d 88db c33b 62c0 dcbc b9fa f9bc
00000140: 23a6 34bd 919c 003e 5915 f9bc 0367 33bc
00000150: 53d5 bbbc 3af6 d23a 5c58 05bd a7e1 abbd
00000160: c7f7 ca3e ca7f 2b3e f0ad 47be 05d3 9b3e
00000170: 1804 123e ea1f f33d c049 063c 38ca 853d
00000180: d876 42bd 2622 7e3c 5492 263c 2361 07bd
00000190: c93f 8abc d678 103d 6ad9 8a3e 3ef3 e73d
000001a0: 3a27 9d3d bb33 9c3e 9bac f0bc 9ebc 163d
000001b0: ef04 5c3e 21a9 783d 8a0e 31be 6898 ad3d
000001c0: 61ba bdbd f2a2 f73c ddc3 cfbd 492c f0bd
000001d0: f65e 333d a5de f3bd 7322 cb3c 77cc ac3d
000001e0: 5275 8a3c cc05 863d a51a 4bbe 2728 703d
000001f0: 4984 8ebd d87a 043e a123 acba 3290 bbbd
00000200: 3589 3dbc da69 e4bd b96a 483d 5b56 1b3d
00000210: e1c3 fbbd ea02 0d3f 3eb3 f13d 3a5d 313d
00000220: e120 cd3d bba9 b13b c80a 57bd a579 b13d
00000230: 4434 b23c 36fd 24bc 91a7 9e3b 5efb e53d
00000240: f467 a5bc 69bd 7c3b 252f a63c ee04 623a
00000250: 84bd 153d 3f05 c13d 54f6 50bd a225 3e3d
00000260: d178 7a3d 499d 51bd 4bc3 153c 5f08 27bd
00000270: e78f 863d b468 10bb 0c6e 8cbd 96c5 243d
00000280: 3d2d bf3d b51a 01be 6a47 72bd 30bf f33d
00000290: b695 bc3c 8109 a3b9 9a94 5cbe 4421 a1bd
000002a0: 12e0 a93a 0241 d3bd 88d9 5bbd 959b c53d
000002b0: 3b64 f43b 3273 70bd 58f3 9fbd 9e14 013d
000002c0: 77a4 c0bd d8e4 fc3c b68c 4a3d a8e9 4b3d
000002d0: 7036 f9bc 0352 0b3e fa61 14bb aa32 b83d
000002e0: 6f79 b7bc c31e 013c 2662 06be ab53 a13b
000002f0: da12 a2bd 7dd2 983d fe4b 58bd c032 65bd
00000300: e4cd 99bd cd60 3bbd 1c1a 61be 620c 17bc
00000310: 4d62 d4bd 2f80 06bf faf3 fbbb d28b cc3d
00000320: 002a c13c 2ebb 0fbe de65 95bc 1895 ffbb
00000330: b5cf 1b3e ebd8 1e3e 418d a7bd faa0 863a
00000340: 6859 01be f25a c83e 4b02 fb3d 2451 b9bb
00000350: 2f3f c83b d2bf 11bd a8a9 fcbd cc30 753d
00000360: c647 673e ed44 5c3e 50a2 f93d 5f91 873e
00000370: c230 633e e25e 3c3d dbd2 22be 21fb 4b3d
00000380: 778c 6f3d f28f 6f3d 9417 8fbd 7fcb b6bd
00000390: 3a5f 32bd 329c 363d cf83 853e 268d 4d3e
000003a0: c98d c9bd a499 303e 64fd 9abc 1598 c43d
000003b0: 1dc7 013e c773 da3d 0c8d 82bd 8d37 713d
000003c0: accc eebd 018e 0bbe 0614 a33d e94a ae3d
000003d0: 993f 8f3c b2d3 53be a250 483e ffed a03d
000003e0: aa77 d73d 4801 f03c a2a8 23be a270 823e
000003f0: 4a47 f53c a0d9 c53e 4b95 fe3d 4406 9a3e

layer.4.bias f4 [128]
0.064198405 0.20925386 0.13968986 0.16362739 0.04962052 0.07446293 0.077476 -0.086550295
0.039974514 0.105452605 0.15397254 -0.016963566 0.0475813 -0.12712818 0.027892072 0.23713636
-0.043391716 0.15499549 -0.13087958 0.01605221 0.33249933 -0.032922592 -0.028696291 0.18785264
0.19846515 -0.018012838 0.14555945 0.0038941721 0.079602204 -0.027837943 0.20465966 -0.01904478
0.12213102 0.28456432 -0.10227519 0.08115683 -0.14191346 0.11228709 0.054597724 -0.11225296
-0.14436935 0.006445879 0.16901435 0.025034634 0.07237147 0.025033852 0.047166377 0.21821782
0.089594886 -0.022509167 0.15639314 0.03310732 -0.08325826 0.41667506 -0.07312585 0.073429585
-0.0014634001 0.15449643 -0.08601372 0.23082596 0.07458923 -0.080106296 0.47838864 -0.018810255
0.07453273 -0.028902695 0.01050865 0.123423055 0.117360115 0.1231854 0.114720754 0.010855751
-0.115693174 -0.04808803 0.12671182 0.023363538 -0.02833708 0.22195514 0.08448269 0.019630242
-0.014003436 0.06396666 0.18504703 0.07193784 0.27528542 -0.09186683 0.08705127 -0.036769874
-0.15667367 -0.044377245 0.81962144 0.05136029 0.07935058 0.15510172 0.10889068 -0.06584407
-0.028781584 0.011723505 0.25341177 0.10233923 0.13121526 0.33428416 -0.039418917 -0.11869698
0.17573048 -0.07107514 0.13514699 -0.011232451 0.032095984 -0.07857325 0.006002599 0.06263286
-0.023021515 -0.05078334 0.29624522 0.027190616 0.053251542 0.019920055 -0.0052741603 0.11457052
-0.11902424 0.00062296126 0.13312085 -0.0084170215 -0.04639046 -0.09983232 -0.115874626 0.15924263
00000000: 747a 833d a546 563e dc0a 0f3e f08d 273e
00000010: e33e 4b3d 0580 983d bdab 9e3d 4841 b1bd
00000020: 51bc 233d 89f7 d73d faaa 1d3e 2df7 8abc
00000030: 9ce4 423d e42d 02be ea7d e43c e0d3 723e
00000040: 83bb 31bd 23b7 1e3e 4c05 06be ed7f 833c
00000050: 5a3d aa3e d7d9 06bd 7c14 ebbc 715c 403e
00000060: 733a 4b3e a98f 93bc 890d 153e 5e35 7f3b
00000070: 7b06 a33d 660c e4bc 4d92 513e cc03 9cbc
00000080: d41f fa3d 6ab2 913e a875 d1bd 8d35 a63d
00000090: c351 11be c6f6 e53d dda1 5f3d e1e4 e5bd
000000a0: 8fd5 13be f437 d33b 1912 2d3e 6f15 cd3c
000000b0: 7e37 943d cb13 cd3c 8831 413d 7e74 5f3e
000000c0: 867d b73d 2565 b8bc 8625 203e 8b9b 073d
000000d0: 4e83 aabd 6f56 d53e 01c3 95bd 4062 963d
000000e0: 8fcf bfba 5034 1e3e f627 b0bd a45d 6c3e
000000f0: 3dc2 983d c50e a4bd 5bef f43e f717 9abc
00000100: 9ea4 983d 58c5 ecbc 792c 2c3c 3ac5 fc3d
00000110: 805a f03d a148 fc3d b7f2 ea3d 52dc 313c
00000120: 8bf0 ecbd f4f7 44bd bec0 013e e464 bf3c
00000130: 2a23 e8bc 3548 633e 4305 ad3d 9acf a03c
00000140: ab6e 65bc f400 833d f87c 3d3e 2554 933d
00000150: 36f2 8c3e ad24 bcbd f047 b23d 029c 16bd
00000160: 106f 20be eac4 35bd b6d2 513f 2b5f 523d
00000170: 8f82 a23d fcd2 1e3e 1402 df3d 41d9 86bd
00000180: 5bc7 ebbc f213 403c 30bf 813e 3b97 d13d
00000190: 4b5d 063e 4b27 ab3e bb75 21bd 6717 f3bd
000001a0: b1f2 333e d88f 91bd f963 0a3e 5008 38bc
000001b0: 1477 033d 03eb a0bd 73b1 c43b a845 803d
000001c0: 9e97 bcbc 3102 50bd 74ad 973e dbbe de3c
000001d0: 4a1e 5a3d 622f a33c ddd2 acbb f3a3 ea3d
000001e0: fbc2 f3bd 394e 233a d550 083e 8ce7 09bc
000001f0: ec03 3ebd e374 ccbd ad4f edbd 8010 233e

layer.6.weight f4 [23, 128]
-0.03894293 -0.030566633 0.023168135 -0.0024474799 0.023678208 0.0055477815 0.04174669 -0.03167003
-0.009718092 0.0016056964 -0.024337249 -0.015845401 -0.0027401804 0.010769245 0.059926923 0.0066038794
0.013874356 0.052357063 -0.076336294 -0.055973873 -0.052251447 -0.002914218 -0.030864 0.024730582
-0.054849725 0.04928534 0.04224379 -0.04964274 -0.019750683 -0.017966844 0.011170324 0.027243521
0.03865766 0.03665361 -0.069118045 0.045958802 -0.029540699 -0.007894211 -0.014385119 -0.009761622
-0.0006703468 0.0556132 0.014222004 -0.03882783 0.043830037 0.012996827 -0.022272052 -0.02679782
-0.02963052 -0.008245036 -0.035936825 -0.035263143 -0.029571963 0.040834192 0.019779345 0.06343564
-0.017939236 0.02710684 0.06706213 0.019188304 -0.030757379 -0.037407685 -0.045024198 -0.026485758
0.019956412 -0.07635649 -0.006630486 -0.06526307 0.009369223 0.003901412 -0.037145182 -0.035719473
-0.058897495 -0.01997319 -0.0018798439 0.00430994 -0.031563524 -0.0011597816 0.036972173 0.0135996435
-0.057131313 -0.046988662 -0.03528143 0.011868359 0.06820304 0.026406417 -0.008280241 0.010840554
0.0022140662 0.07146771 -0.042065494 -0.043217223 -0.058267992 -0.032685418 0.08371071 -0.0070094205
-0.053167533 0.022781102 -0.011067141 0.0090008695 -0.016275447 0.07945091 0.030674163 -0.00318351
-0.034970388 -0.0072804117 0.027393322 -0.003502124 -0.002870943 0.034153946 0.06806442 0.08443288
-0.013376504 0.011328263 0.038456958 -0.019140627 -0.027604645 0.0015131879 -0.053932194 0.01819089
-0.017874075 0.03688181 0.026518876 -0.019757038 0.06925969 -0.029617678 -0.024555773 -0.050154667
-0.028697519 -0.019506572 -0.037627205 -0.01587066 -0.059296798 0.034225557 -0.025127714 0.039055448
-0.0031313759 -0.0063897064 0.012769082 -0.003970585 0.009391698 0.06248505 0.020722086 -0.01820245
-0.013606159 -0.040685818 0.01583032 0.014485927 0.05175882 0.009333522 0.010549803 0.009404759
0.03190476 -0.050122403 0.03351146 0.0074781245 -0.025994496 0.03321079 0.015227147 0.006079612
0.039600745 -0.006626382 -0.011591159 -0.0328684 0.040467475 0.021693664 -0.005252641 0.019718455
0.052026745 -0.021839006 0.00090945594 -0.029098898 -0.074515976 -0.047136597 -0.0077248327 0.015113585
-0.032208275 -0.00018245669 0.0096165 0.011641228 -0.021062346 0.005717267 0.05069012 0.06186311
-0.022039084 -0.03518549 0.028724907 0.02140163 -0.014707747 -0.0463572 0.038808074 0.017703142
-0.03364772 -0.016540254 0.006996973 -0.047036797 0.0045998865 -0.0088980105 -0.036137544 0.019891586
0.018597748 0.006125609 0.038019918 -0.036520075 0.05402861 -0.014939832 -0.017071446 0.0015165176
0.0212736 -0.004671141 -0.024918638 0.0047148354 0.0418212 -0.050465673 0.036592536 -0.0063254605
-0.0053011305 -0.0076428894 -0.014597018 0.018806433 0.03286617 0.0023523567 -0.00871778 0.0016216384
-0.01802013 0.016757304 -0.04779267 -0.023788614 -0.044199556 0.016547995 -0.057554 0.0126097975
0.00058587466 0.036341973 0.018605147 -0.026273819 0.0041342345 -0.00889031 0.060166497 0.03465432
0.018801663 0.0057619456 0.0034797727 -0.02166176 -0.011253643 -0.0035128663 -0.033946704 0.00832852
0.047558118 -0.021389036 0.03854292 0.03438766 0.0039003491 -0.011425535 -0.007152764 0.035101384
00000000: 9f82 1fbd e066 fabc 1acb bd3c e665 20bb
00000010: cdf8 c13c 2aca b53b 94fe 2a3d 6fb8 01bd
00000020: a238 1fbc 3b76 d23a e95e c7bc 37ce 81bc
00000030: 9994 33bb 7d71 303c ef75 753d 5b65 d83b
00000040: 4451 633c 5c74 563d 3456 9cbd dc44 65bd
00000050: 9d05 56bd 77fc 3ebb 80d6 fcbc ca97 ca3c
00000060: 1baa 60bd 6ddf 493d d307 2d3d 3056 4bbd
00000070: 2fcc a1bc 342f 93bc bc03 373c ce2d df3c
00000080: 7f57 1e3d 1922 163d c38d 8dbd 4c3f 3c3d
00000090: 56ff f1bc b956 01bc 90af 6bbc 36ef 1fbc
000000a0: 36ba 2fba abca 633d 6903 693c ee09 1fbd
000000b0: 2087 333d a5f0 543c e173 b6bc 1a87 dbbc
000000c0: b4bb f2bc 3016 07bc 7e32 13bd 1670 10bd
000000d0: e740 f2bc c141 273d 4b08 a23c 8bea 813d
000000e0: 4ef5 92bc 2a0f de3c df57 893d ca30 9d3c
000000f0: e6f6 fbbc cd38 19bd 4b6b 38bd a9f8 d8bc
00000100: a17b a33c cb60 9cbd 8c44 d9bb a5a8 85bd
00000110: 5f81 193c d5ae 7f3b 8c25 18bd 954e 12bd
00000120: 803e 71bd d19e a3bc 1865 f6ba 663a 8d3b
00000130: c148 01bd d003 98ba 2270 173d 0ad1 5e3c
00000140: 8602 6abd 2f77 40bd 4383 10bd 8173 423c
00000150: 09ae 8b3d 4552 d83c d9a9 07bc 949c 313c
00000160: de19 113b aa5d 923d de4c 2cbd 8b04 31bd
00000170: 6baa 6ebd 25e1 05bd 8570 ab3d 48af e5bb
00000180: 33c6 59bd 6f9f ba3c f452 35bc 6278 133c
00000190: 1654 85bc 29b7 a23d 6248 fb3c 6fa2 50bb
000001a0: 1c3d 0fbd 8590 eebb f667 e03c e483 65bb
000001b0: 6e26 3cbb 02e5 0b3d 5c65 8b3d 25eb ac3d
000001c0: 2029 5bbc 2e9a 393c 0b85 1d3d cecc 9cbc
000001d0: 2323 e2bc 2956 c63a 01e8 5cbd 1005 953c
000001e0: a76c 92bc 6111 173d 1d3e d93c 83d9 a1bc
000001f0: 06d8 8d3d c6a0 f2bc 3029 c9bc fb6e 4dbd
00000200: 0f17 ebbc 3fcc 9fbc fc1e 1abd 3003 82bc
00000210: 33e1 72bd 1930 0c3d a3d8 cdbc 9bf8 1f3d
00000220: c537 4dbb be60 d1bb 6935 513c ae1b 82bb
00000230: a3df 193c 53f0 7f3d 5dc1 a93c 4e1d 95bc
00000240: 5eec 5ebc 2ca6 26bd 96ae 813c 6256 6d3c
00000250: 0e01 543d a1eb 183c 15d9 2c3c 6b16 1a3c
00000260: 91ae 023d 264d 4dbd 5043 093d 0e0b f53b
00000270: 69f2 d4bc 0a08 083d 497b 793c 7b37 c73b
00000280: 6434 223d 1f22 d9bb d8e8 3dbc 04a1 06bd
00000290: 39c1 253d e9b6 b13c 591e acbb 9988 a13c
000002a0: ff19 553d b7e7 b2bc 8e68 6e3a d060 eebc
000002b0: d59b 98bd 4e12 41bd 9820 fdbb f89e 773c
000002c0: d3ec 03bd d851 3fb9 868e 1d3c d9ba 3e3c
000002d0: f18a acbc e957 bb3b 71a0 4f3d 2c64 7d3d
000002e0: 4f8b b4bc a91e 10bd 7f50 eb3c 7952 af3c
000002f0: c3f8 70bc 0ce1 3dbd 37f5 1e3d 2e06 913c
00000300: 31d2 09bd 6d7f 87bc dd46 e53b a8a9 40bd
00000310: a5ba 963b f6c8 11bc f604 14bd aef3 a23c
00000320: 4e5a 983c 55b9 c83b c6ba 1b3d 1396 15bd
00000330: 1b4d 5d3d 32c6 74bc 6bd9 8bbc e3c5 c63a
00000340: f945 ae3c 5f10 99bb 2c22 ccbc e87e 9a3b
00000350: b54c 2b3d 18b5 4ebd 0ee2 153d cf45 cfbb
00000360: 1bb5 adbb 3471 fabb 5528 6fbc f30f 9a3c
00000370: ad9e 063d ff29 1a3b 05d5 0ebc 288d d43a
00000380: f49e 93bc 9d46 893c 3fc2 43bd 57e0 c2bc
00000390: 980a 35bd a98f 873c bebd 6bbd 5399 4e3c
000003a0: 6295 193a 52db 143d d269 983c 313c d7bc
000003b0: 7978 873b aaa8 11bc 2571 763d b0f1 0d3d
000003c0: f205 9a3c b4ce bc3b e60c 643b 0174 b1bc
000003d0: 3361 38bc 1e38 66bb b30b 0bbd 5874 083c
000003e0: 4dcc 423d 0f38 afbc 2edf 1d3d 13da 0c3d
000003f0: 009d 7f3b 2b32 3bbc bc61 eabb 78c6 0f3d

layer.6.bias f4 [23]
0.1287936 0.005154618 0.22625695 -0.043472867 0.05419533 0.2166711 0.0711849 0.23649943
0.017390246 0.17324637 0.07433821 0.07946905 0.09756859 -0.038833093 0.0388999 0.0026353793
0.051707517 0.5022169 0.022045905 0.03674314 0.028937597 0.098533 0.024349576
00000000: 78e2 033e 12e8 a83b e7af 673e 9b10 32bd
00000010: ecfb 5d3d 07df 5d3e 64c9 913d e82c 723e
00000020: fd75 8e3c 7f67 313e a23e 983d abc0 a23d
00000030: 0ad2 c73d 730f 1fbd 8055 1f3d 54b6 2c3b
00000040: 43cb 533d 4991 003f 9d99 b43c fa7f 163d
00000050: 8a0e ed3c abcb c93d c378 c73c
