weight/save_1_s21.001829540575038_lr5e-05.pth (torch_old, 67476 bytes, 8 tensors)

layer.0.weight f4 [64, 40]
0	0x3d42d8c9	0.047570024
1	0xbbb61b80	-0.0055574775
2	0xbcccb8f8	-0.024990544
3	0xbdb5ccb1	-0.088769324
4	0xbbc60eef	-0.0060442607
5	0xbe08a334	-0.13343507
6	0xbdb951b9	-0.090487905
7	0xbd9dd1b1	-0.07706011
8	0xbda01a1c	-0.0781748
9	0xbc2680a7	-0.010162509
10	0x3d50385c	0.050835
11	0x3dcead4e	0.10091649
12	0x3da32362	0.07965733
13	0xbe142dec	-0.14470643
14	0xbca26ed4	-0.019828238
15	0xbc650cf7	-0.013980142
16	0x3ded3579	0.11582465
17	0x3e124bd6	0.14286742
18	0x3dfe26bf	0.12409734
19	0xbdfe22c1	-0.124089725
20	0xbd928608	-0.07154471
21	0xbd83b346	-0.06430678
22	0x3d470b19	0.048594568
23	0x3b27858b	0.0025561776
24	0x3d9e8443	0.07740071
25	0xbdf9d4ff	-0.12198829
26	0xbe0aae18	-0.13542974
27	0xbd82666b	-0.06367191
28	0x3e1195fd	0.14217372
29	0xbd6760a6	-0.056488656
30	0x3d531d45	0.051541585
31	0xbe01f0b8	-0.12689483
32	0xbe248548	-0.16066468
33	0x3d956fce	0.07296716
34	0xbd771aa2	-0.060328133
35	0x3cb349bd	0.021885747
36	0x3dde6c7f	0.10860538
37	0xbe213021	-0.15741016
38	0xbe092425	-0.13392694
39	0x3cf90eb8	0.030402526
40	0x3dafaf1b	0.085783206
41	0xbbbfeb60	-0.0058569163
42	0x3da9494a	0.08265932
43	0x3d39392c	0.04522054
44	0xbd3fbe19	-0.04681215
45	0xbd31941e	-0.043354146
46	0x3d8325f8	0.06403726
47	0x3dafaa76	0.08577435
48	0x3d85dbf3	0.065360926
49	0xbe082214	-0.1329425
50	0x3e1f741b	0.15571634
51	0x3d914b1b	0.07094403
52	0x3c96af27	0.018394066
53	0xbd06c92e	-0.032906704
54	0x3c052e40	0.008128703
55	0xbc6ddbf0	-0.014517769
56	0xbda1e621	-0.07905222
57	0xbdc25572	-0.09488954
58	0x3df844e6	0.12122516
59	0xbe12cdd0	-0.14336324
60	0xbd15b566	-0.03654995
61	0x3ce2c188	0.027680174
62	0x3dbbc7dd	0.0916898
63	0x3d36cee5	0.044630904
64	0xbd9d5997	-0.076831035
65	0xbd5c7ed6	-0.053831898
66	0x3e12fbc6	0.14353856
67	0x3c18b56f	0.009320601
68	0xbdc07061	-0.093964346
69	0xbdf6487e	-0.120255455
70	0x3e011d78	0.12608898
71	0xbd59e727	-0.05319896
72	0xbdf55c8f	-0.11980545
73	0xbda23dac	-0.07921919
74	0xbdc0b564	-0.094095975
75	0xbcadb300	-0.021203518
76	0xbdeeeebb	-0.11666628
77	0x3e212803	0.1573792
78	0xbccfd7a8	-0.025371388
79	0xbdbc3131	-0.0918907
80	0x3db47149	0.0881067
81	0xbd5d8396	-0.05408057
82	0x3d90d83a	0.07072492
83	0xbdde53e4	-0.108558446
84	0xbbe01036	-0.00683787
85	0xbe1ad54e	-0.15120432
86	0xbb4307c8	-0.0029759277
87	0xbdcac67e	-0.09901141
88	0xbd9418e0	-0.07231307
89	0x3dc05662	0.09391476
90	0x3df020ba	0.11724992
91	0xbd72c82f	-0.05927294
92	0x3e06b400	0.13154602
93	0x3e15fbb2	0.14646795
94	0xbdadf4f8	-0.0849399
95	0xbcf5b747	-0.02999462
96	0x3d5eccff	0.05439472
97	0x3d9facdb	0.077966414
98	0x3dd2ae0d	0.10287104
99	0xbdf1ca33	-0.118061446
100	0x3c5efdd9	0.013610327
101	0xbe085bd7	-0.13316284
102	0x3c584550	0.013200119
103	0xbd49c415	-0.049259264
104	0xbd2f163c	-0.042745814
105	0x3e0243a0	0.1272111
106	0xbd430b74	-0.047618344
107	0xbe228801	-0.15872194
108	0xbe1829fc	-0.14859766
109	0xbd61afc8	-0.05509928
110	0x3d0f1682	0.034933574
111	0x3e0af459	0.13569774
112	0x3da4216a	0.08014186
113	0x3d86b6da	0.06577845
114	0x3dbc20eb	0.09185966
115	0x3d4bc18d	0.04974513
116	0x3dae2f86	0.08505158
117	0xbd805a4b	-0.06267222
118	0x3e179a40	0.14804935
119	0xbdccb862	-0.09996106
120	0x3d1bd5b2	0.038045593
121	0xbd344540	-0.044011354
122	0x3e050257	0.12989174
123	0xbe045d52	-0.12926224
124	0xbc86c39c	-0.016450696
125	0xbd42a7aa	-0.04752318
126	0xbcedfa65	-0.029050061
127	0xbcf5ce4a	-0.030005593
128	0xbe14931b	-0.14509241
129	0x3dde5a70	0.10857093
130	0x3ddaadb0	0.106776595
131	0x3e19f252	0.15033844
132	0xbdf6c7ad	-0.12049804
133	0x3d376157	0.044770565
134	0xbbc04f7a	-0.0058688493
135	0x3e21f29b	0.15815203
136	0x3e01ffac	0.12695187
137	0x3dccc1ff	0.09997939
138	0xbdb5e005	-0.08880619
139	0xbd3815da	-0.044942714
140	0xbdc53aed	-0.0963038
141	0x3d695f2b	0.056975525
142	0xbdb09fc9	-0.086242266
143	0xbde88add	-0.11354611
144	0x3de660a1	0.11248899
145	0x3de1b77d	0.11021326
146	0x3df6a98b	0.120440565
147	0x3d0a2507	0.03372672
148	0xbd9e529d	-0.07730601
149	0xbbd2331c	-0.006414784
150	0xbdfb4598	-0.12269133
151	0xbd6edc9c	-0.05831586
152	0xbda097c0	-0.07841444
153	0xbe18b93a	-0.14914408
154	0x3c9c478e	0.019077089
155	0x3e1ddd6b	0.15416496
156	0x3dd8511a	0.10562344
157	0xbe057e84	-0.13036543
158	0x3dad913c	0.08474967
159	0xbdceec57	-0.10103672
160	0xbd384725	-0.044989724
161	0x3df9e0ee	0.12201105
162	0x3d488d50	0.04896289
163	0x3d820426	0.063484475
164	0x3e0e9211	0.13922907
165	0x3d4a725f	0.04942548
166	0xbe1a2e9b	-0.15056841
167	0xbdbd1fef	-0.092346065
168	0x3d1af477	0.037830796
169	0x3dca5b5e	0.09880708
170	0xbd6703d6	-0.056400143
171	0x3d5d8be3	0.054088484
172	0x3d9c6530	0.076364875
173	0xbd2a04f1	-0.04150862
174	0x3de1e0e7	0.11029225
175	0x3d7cf36e	0.06175559
176	0x3dc61ebc	0.09673831
177	0xbe0251f7	-0.1272658
178	0xbdc08681	-0.094006546
179	0x3cc3a154	0.023880638
180	0xbdd3647e	-0.10321902
181	0xbdbf6f7e	-0.09347437
182	0x3d87aaeb	0.06624397
183	0x3d7ceda3	0.061750066
184	0x3cdc4077	0.026886208
185	0xbd91a889	-0.07112224
186	0xbd887da8	-0.06664592
187	0xbe0fc451	-0.14039733
188	0x3dad7103	0.08468821
189	0xbd19aabe	-0.037516348
190	0xbdbf4f43	-0.0934129
191	0xbd3c2c87	-0.045940902
192	0xbe034d7e	-0.1282253
193	0xbcc70719	-0.024295377
194	0x3dc70dca	0.09719427
195	0x3d825659	0.06364126
196	0xbd377cf4	-0.0447969
197	0x3ceec7e0	0.029148042
198	0xbd88ee94	-0.0668613
199	0xbe0ceadd	-0.13761468
200	0xbe0890d9	-0.13336505
201	0xbe08c11c	-0.13354915
202	0xbda87bef	-0.082267635
203	0x3d3c81dc	0.04602228
204	0xbd42b9e2	-0.047540553
205	0x3c6bae76	0.014384856
206	0x3d1c7255	0.038194973
207	0x3dea2f9b	0.11434861
208	0xbbd412af	-0.006471954
209	0xbcf9dc38	-0.030500516
210	0x3dfcdd7b	0.123469315
211	0xbde80578	-0.11329168
212	0xbc69278d	-0.014230621
213	0x3dea2a75	0.11433879
214	0x3d7e48a2	0.062080987
215	0xbdfb91b6	-0.122836515
216	0x37380ff8	1.0970973e-05
217	0x3e2739f0	0.16330695
218	0x3df82af3	0.12117567
219	0xbc9daa71	-0.019246312
220	0xbdf53975	-0.1197385
221	0x3d0eee44	0.034895197
222	0x3df3cefb	0.11904713
223	0xbdac178f	-0.08402931
224	0x3d834d0d	0.06411181
225	0x3d0fd206	0.035112403
226	0x3dcdb3b2	0.1004404
227	0xbc19ad11	-0.009379641
228	0x3d6a53cc	0.05720882
229	0xbdc1514f	-0.094393365
230	0xbd80450e	-0.06263171
231	0x3dfa60c4	0.12225488
232	0xbd61e1ca	-0.05514697
233	0x3ad3493d	0.0016119849
234	0xbded2ab3	-0.1158041
235	0xbd162133	-0.036652755
236	0x3dfd0813	0.12355056
237	0xbe101f34	-0.14074403
238	0x3e13d176	0.14435372
239	0xbdb595e4	-0.0886648
240	0xbe01bed7	-0.12670456
241	0xbd5c3fc0	-0.053771734
242	0x3ca314f0	0.019907445
243	0x3dfa9b92	0.12236704
244	0xbc673a5d	-0.014113036
245	0x3ce8ab27	0.028401924
246	0xbdddf144	-0.108370334
247	0x3cbf72a9	0.023370104
248	0x3e0a206f	0.13488935
249	0x3df76212	0.12079252
250	0x3dfb8576	0.12281315
251	0x3d13153d	0.035908926
252	0x3d097e59	0.03356776
253	0xbda3292d	-0.07966838
254	0xbe058b3e	-0.13041398
255	0x3d9c53e3	0.076331876

layer.0.bias f4 [64]
0	0xbdc39429	-0.09549744
1	0xbdd2686d	-0.10273824
2	0xbc7f55b7	-0.015584401
3	0x3da7fdfc	0.082027406
4	0x3db57149	0.08859498
5	0x3d4eb2a5	0.050463337
6	0xbe0f7e65	-0.1401306
7	0x3d5493d0	0.051898777
8	0x3db84c3b	0.08998915
9	0xbe1d9382	-0.15388301
10	0xbdea5dfc	-0.11443707
11	0x3d51f046	0.051254533
12	0x3dab6119	0.08368129
13	0x3e210be1	0.15727188
14	0x3d0b328c	0.033983752
15	0xbe16f8df	-0.14743374
16	0xbde33416	-0.11093919
17	0x3dca5d5b	0.098810874
18	0x3c1bc335	0.00950699
19	0xbd3b794c	-0.045769975
20	0x3d2a19d7	0.04152855
21	0x3ca31cc1	0.019911172
22	0x3df78d6f	0.12087523
23	0xbdd96b7d	-0.10616205
24	0x3d92ff9a	0.071776584
25	0x3de9db4a	0.11418779
26	0xbde65be4	-0.112479955
27	0x3c28da83	0.0103060035
28	0x3dd9aee5	0.106290616
29	0x3e01c05c	0.12671036
30	0x3def1068	0.11673051
31	0xbdb7d481	-0.08976079
32	0x3dc2ecbc	0.0951781
33	0xbd4ee147	-0.05050781
34	0xbd6a126c	-0.057146475
35	0xbd29a127	-0.041413452
36	0x3cc26ad9	0.02373259
37	0xbd88a499	-0.066720195
38	0xbd6cef0d	-0.057845164
39	0xbda86ec8	-0.08224255
40	0xbdf37a72	-0.11888589
41	0xbc3b65b2	-0.01143782
42	0x3d9c2ee2	0.0762613
43	0x3e22a011	0.15881373
44	0xbd837c91	-0.064202435
45	0x3df342d0	0.11877978
46	0x3d4b6d44	0.04966475
47	0x3d02e36b	0.031955164
48	0x3db52466	0.08844833
49	0x3cb1e1ff	0.021714209
50	0xbdba4722	-0.09095599
51	0x3dd9984b	0.10624751
52	0x3d7f7f49	0.062377248
53	0x3d1337c1	0.035941843
54	0xbe164d82	-0.14678004
55	0x3dd58d34	0.10427323
56	0xbdbb3a92	-0.09142031
57	0xbe185961	-0.14877845
58	0xbdb60fbf	-0.08889722
59	0x3cc556ae	0.024089184
60	0xbd8ce6fb	-0.068799935
61	0x3e02882e	0.12747261
62	0x3d3d8a51	0.046274487
63	0xbe2287bb	-0.1587209

layer.2.weight f4 [64, 64]
0	0xbdd24206	-0.10266499
1	0x3daabeb8	0.08337158
2	0xbdcc9e99	-0.099911876
3	0x3c8cbb12	0.017179046
4	0x3d65b005	0.05607607
5	0x3de33fab	0.11096128
6	0xbcd22f80	-0.025657415
7	0xbdf289c5	-0.11842684
8	0x3d81917a	0.063265756
9	0x3dc34919	0.09535427
10	0xbdd4b13e	-0.10385369
11	0x3d1080d6	0.035279118
12	0x3bb55ed4	0.005534986
13	0x3c35144a	0.011052201
14	0x3df0b94a	0.11754091
15	0xbd031f3c	-0.03201221
16	0x3dda754d	0.106669046
17	0xbd20dcec	-0.039273188
18	0x3c3d8db9	0.011569434
19	0xbd5eee8e	-0.054426722
20	0x3db359c3	0.08757355
21	0x3d4c9dcf	0.049955186
22	0x3da7bcda	0.081903175
23	0xbda2ceec	-0.079496235
24	0xbd2f463c	-0.04279159
25	0xbdb9e966	-0.0907772
26	0xbc25f015	-0.010128041
27	0x3d8ab3f4	0.067726046
28	0xbd91b53a	-0.07114644
29	0x3d516f26	0.05113139
30	0x3da55bac	0.08074126
31	0x3dbc973e	0.09208535
32	0x3d42202c	0.047393963
33	0x3d6dd263	0.05806197
34	0xbd82d1e3	-0.06387689
35	0x3d46691c	0.048440084
36	0x3c4ffa55	0.012693961
37	0x3d59ced3	0.05317576
38	0x3d2bede4	0.041974917
39	0xbdad7dae	-0.08471237
40	0xbbc61465	-0.0060449117
41	0xbb96c4df	-0.0046011056
42	0xbd9fe97c	-0.078082055
43	0x3dbdcf35	0.09268037
44	0x3d37896a	0.044808783
45	0x3e011baf	0.12608217
46	0x3cd72ece	0.026267435
47	0xbda4f491	-0.0805446
48	0xbdd4b524	-0.10386112
49	0xbcbfe8f1	-0.023426505
50	0xbdf4b7c8	-0.11949116
51	0xbdafe4c7	-0.08588558
52	0x3cbe0f32	0.023200605
53	0xbdb9ab3f	-0.09065866
54	0xbd450452	-0.048099823
55	0xbdd6ab09	-0.10481841
56	0xbd89c482	-0.06726934
57	0xbd7b420c	-0.061342284
58	0x3dc944c0	0.09827566
59	0xbdee6123	-0.11639621
60	0xbce15df1	-0.027510615
61	0xbde04bfa	-0.109519914
62	0xbcaf0f11	-0.021369489
63	0x3db4b66e	0.08823858
64	0xbd904318	-0.07044047
65	0xbd9a427a	-0.07532211
66	0x3d828cd2	0.063745156
67	0x3c1c3b20	0.009535581
68	0xbcbd1640	-0.023081899
69	0xbdacea38	-0.08443111
70	0x3d6b9420	0.05751431
71	0xbdbab9a2	-0.09117438
72	0xbd6e0774	-0.058112577
73	0x3c9af028	0.018913344
74	0xbdd40532	-0.103525534
75	0x3cb5fba8	0.022214726
76	0xbdb6e69c	-0.08930704
77	0x3d3edd74	0.046597913
78	0x3befa960	0.0073138922
79	0xbd9ce592	-0.076609746
80	0x3df73cce	0.120721444
81	0x3d722db4	0.059125617
82	0x3c18b5d0	0.009320691
83	0x3dc4630c	0.09589204
84	0xbdcd9674	-0.10038462
85	0xbdc53af0	-0.09630382
86	0x3d819f74	0.063292414
87	0x3c9c99e8	0.019116357
88	0x3c108810	0.008821502
89	0x3d3bd1f4	0.045854524
90	0xbde91526	-0.11380987
91	0xbd691cd8	-0.056912273
92	0xbce56db0	-0.028006405
93	0xbdf9a750	-0.121901155
94	0x3c2f5310	0.010700956
95	0xbd51e564	-0.051244155
96	0xbd8cdbe6	-0.0687788
97	0xbdc44f28	-0.0958541
98	0xbd2c2464	-0.042026892
99	0x3c12bad0	0.008955672
100	0xbd95e8da	-0.073198035
101	0xbdb222ae	-0.08698021
102	0x3cd72318	0.026261851
103	0x3d1c1c38	0.03811285
104	0xbcc90330	-0.024537653
105	0xbcbf8a70	-0.023381442
106	0xbdb871b0	-0.09006059
107	0xbd0d5b5c	-0.034510955
108	0x3d333ba4	0.04375805
109	0x3d60065c	0.054693565
110	0x3dbd62b2	0.0924734
111	0x3ccfbb30	0.025357813
112	0x3d0dd590	0.034627497
113	0x3dac9286	0.08426385
114	0xbb5ebe40	-0.003398791
115	0xbc06a7b0	-0.008218691
116	0x3de62b58	0.11238736
117	0xbd55895c	-0.05213295
118	0xbd988b6a	-0.07448466
119	0x3d689b90	0.05678898
120	0x3dd26eb4	0.10275021
121	0xbc097800	-0.008390427
122	0xbc7bb5c0	-0.015363157
123	0xbd6a0584	-0.057134166
124	0xbcde13e0	-0.027109087
125	0xbb7970c0	-0.003806159
126	0x3d4bfce0	0.049801707
127	0xbd8c9c0e	-0.068657026
128	0xbd3c1e22	-0.045927174
129	0x3d2d6091	0.04232842
130	0xbde4f2f6	-0.111791536
131	0xbde34a29	-0.11098129
132	0xbdcd339c	-0.10019609
133	0xbdb2aaa4	-0.08723953
134	0x3c875187	0.016518367
135	0x3dce0e6e	0.10061346
136	0xbc4ec0d2	-0.012619214
137	0xbdfaf36a	-0.12253459
138	0xbde9720a	-0.11398704
139	0xbddfcd79	-0.10927863
140	0xbcb6c860	-0.022312343
141	0x3dca115f	0.098665945
142	0xbc70ee6a	-0.01470528
143	0x3df9fb5e	0.122061476
144	0x3cea2e55	0.028586546
145	0x3cb5edee	0.02220818
146	0x3d2aea97	0.04172763
147	0x3d144dd3	0.03620703
148	0x3dd30b4f	0.10304891
149	0x3df898a5	0.1213849
150	0xbda7ff6b	-0.08203014
151	0xbdc6c6dc	-0.09705898
152	0x3d97267e	0.07380389
153	0xbac0d4c8	-0.0014711851
154	0x3db95a18	0.09050387
155	0xbd30fdc6	-0.043210767
156	0x3dee7ddb	0.11645099
157	0xbc223c14	-0.009902019
158	0x3d691bb6	0.056911193
159	0x3c4fac03	0.012675288
160	0xbbd448cc	-0.0064784046
161	0xbd496469	-0.049168024
162	0x3dfbd410	0.12296307
163	0x3dacaade	0.08431028
164	0xbd0342e5	-0.032046217
165	0x3dbf7968	0.09349328
166	0x3df36a1f	0.11885475
167	0xbdcf0ddf	-0.101100676
168	0x3d09c157	0.03363165
169	0xbbff47c5	-0.007790538
170	0x3dbb3488	0.09140879
171	0xbddda1e2	-0.10821892
172	0x3d5bb737	0.053641524
173	0xbdfe49b6	-0.12416403
174	0x3dfa3cbb	0.12218615
175	0x3d8323f3	0.06403341
176	0x3bd85b76	0.0066027
177	0xbd9272e7	-0.07150822
178	0x3d95c102	0.07312204
179	0xbdca9691	-0.098919995
180	0xbe0020b1	-0.12512471
181	0xbdea9e8d	-0.114560224
182	0xbd00823a	-0.031374194
183	0xbddc7af7	-0.10765641
184	0x3de0a90e	0.109697446
185	0xbdb513f4	-0.088416964
186	0x3dc6d329	0.09708244
187	0x3d3a9d11	0.045559946
188	0x39b87d2d	0.00035188478
189	0x3d378c01	0.044811253
190	0x3cf90d44	0.030401833
191	0x3d43b2ad	0.04777782
192	0x3dfff7be	0.12498425
193	0x3c957f68	0.018249229
194	0x3cf10ad8	0.029424116
195	0xbd987a44	-0.07445195
196	0x3d9583de	0.07300542
197	0xbc08da40	-0.008352816
198	0x3d84258e	0.064524755
199	0x3d36cc84	0.044628635
200	0x3bfed800	0.007777214
201	0x3defa574	0.117014796
202	0xbdd5a50a	-0.10431869
203	0x3d41dff4	0.04733272
204	0xbc9f0b90	-0.019414693
205	0x3d9ce9c2	0.07661773
206	0xbd4b6344	-0.049655214
207	0x3d412bb8	0.047160834
208	0xbd5e7768	-0.054313093
209	0xbd867790	-0.065657735
210	0xbd9ffc72	-0.07811822
211	0x3d7164e0	0.058934093
212	0xbc1ef1d0	-0.009701207
213	0x3dcdba10	0.10045254
214	0xbd4a5a00	-0.049402237
215	0x3d67f140	0.05662656
216	0x3c8eb828	0.017421797
217	0xbdfcb124	-0.123384744
218	0xbdfd8c40	-0.12380266
219	0xbde6aeec	-0.112638324
220	0xbd83460c	-0.06409845
221	0xbdb99986	-0.090624854
222	0x3c822c28	0.015890196
223	0xbd31e3b4	-0.043430045
224	0xbdb9e6e2	-0.090772405
225	0xbd912b74	-0.07088366
226	0x3de884b0	0.11353433
227	0xbcf5c5e8	-0.030001596
228	0x3d990e74	0.0747346
229	0xbddedadc	-0.10881588
230	0xbd9ad66a	-0.075604275
231	0xbdf79a6e	-0.12090002
232	0xbc663b30	-0.014052197
233	0xbced6d10	-0.02898267
234	0x3dcc3e92	0.09972872
235	0x3dcf056e	0.101084575
236	0xbd8e936c	-0.06961712
237	0x3bd128a0	0.0063830167
238	0xbd9711ee	-0.07376467
239	0x3d495118	0.049149603
240	0xbcb20c28	-0.021734312
241	0xbdd803c4	-0.10547593
242	0x3dca5638	0.09879726
243	0xbda721e2	-0.081607595
244	0xbdfbc26a	-0.12292941
245	0xbdc65d26	-0.096857354
246	0x3cba54a0	0.02274543
247	0xbc884230	-0.016633123
248	0xbda128a2	-0.07869078
249	0x3d0e4338	0.034732074
250	0xbdc1b0d8	-0.094575584
251	0x3cfbc4f0	0.030733556
252	0x3d7caa60	0.06168592
253	0x3d0d8a1c	0.03455554
254	0xbd6bf774	-0.057609037
255	0xbd31775c	-0.04332672

layer.2.bias f4 [64]
0	0x3d9890c4	0.07449487
1	0x3d3fcd8c	0.046826884
2	0x3b2e276f	0.0026573797
3	0x3de3eb36	0.11128847
4	0x3d14f26a	0.036363997
5	0xbdf3e45f	-0.11908793
6	0xbd3251d1	-0.043535057
7	0xbbc36ecf	-0.005964137
8	0xbd93ff11	-0.072263844
9	0xbd91d65c	-0.07120964
10	0x3daeaebc	0.08529422
11	0xbdd2978a	-0.1028281
12	0xbd1ca60b	-0.03824429
13	0x3d776155	0.060395557
14	0xbdf98aa9	-0.121846505
15	0xbd8b7ae8	-0.06810552
16	0x3d89aa08	0.06721884
17	0xbdd2ca47	-0.102924876
18	0xbdd0b432	-0.101906195
19	0xbd9adcde	-0.07561658
20	0xbc6e244c	-0.014535021
21	0xbd917fe6	-0.07104473
22	0xbc9d63f9	-0.01921271
23	0x3dd56b30	0.10420835
24	0x3de80b94	0.11330333
25	0x3df44559	0.119272895
26	0x3dc13e06	0.09435658
27	0xbd3a77db	-0.04552446
28	0xbd979ef6	-0.07403366
29	0xbde9d2b4	-0.114171416
30	0xbd31890b	-0.043343585
31	0xbd24593e	-0.04012417
32	0xbde08b7c	-0.109641045
33	0x3cd29179	0.025704132
34	0xbcdfb012	-0.027305637
35	0x3dab3d7f	0.08361339
36	0xbdf1b5c8	-0.1180225
37	0xbdebe7d5	-0.11518828
38	0x3d485d44	0.04891707
39	0x3d59d3fc	0.05318068
40	0xbdf6df99	-0.120543666
41	0x3d0a2ccd	0.03373413
42	0x3dacbe62	0.0843475
43	0x3d87c9e5	0.06630305
44	0x3d813134	0.06308213
45	0x3c710822	0.014711412
46	0xbd688d00	-0.056775093
47	0x3d90e3ca	0.07074697
48	0xbdbbb577	-0.09165471
49	0x3daeb44f	0.08530485
50	0xbdd9a32e	-0.10626827
51	0xbc3b8a8b	-0.011446605
52	0xbd408d68	-0.047009856
53	0x3cc38674	0.023867823
54	0xbc882316	-0.016618293
55	0x3de2f57f	0.11081981
56	0x3cabef50	0.020988137
57	0x3d988856	0.07447879
58	0x3dfcbaf0	0.12340343
59	0xbd922e0c	-0.07137689
60	0xbd1d404e	-0.038391404
61	0xbdf197c7	-0.11796527
62	0xbc0f4158	-0.0087436065
63	0x3d588149	0.05285767

layer.4.weight f4 [128, 64]
0	0xbaaf0095	-0.0013351614
1	0xbcd51260	-0.026009738
2	0xbc0b5c77	-0.008505932
3	0xbd932dc4	-0.071864635
4	0xbcd240f2	-0.025665734
5	0xbcdfd770	-0.027324408
6	0x3c94428b	0.018098136
7	0xbda9c84e	-0.08290158
8	0x3d0fcef7	0.035109486
9	0xbc0605e5	-0.008180116
10	0xbda3b806	-0.07994084
11	0xbd8d7ede	-0.069089636
12	0x3d0d6b3f	0.034526106
13	0x3cd23724	0.025661059
14	0x3da62c76	0.08113949
15	0x3de22cb7	0.11043685
16	0xbcdee760	-0.027209938
17	0x3cf36ddb	0.02971547
18	0xbd9e492d	-0.07728801
19	0x3d6d6ed3	0.05796702
20	0x3d9e5611	0.077312596
21	0x3da4bd69	0.080439396
22	0x3dc22886	0.094803855
23	0x3cd52f8a	0.026023645
24	0x3cc75fd0	0.02433768
25	0x3d965885	0.073411025
26	0xbcbe8bd2	-0.02326003
27	0x3d1efe62	0.038816817
28	0xbdad6b97	-0.08467787
29	0x3d7e1271	0.062029306
30	0x3df8c895	0.12147633
31	0x3da065fe	0.078319535
32	0x3d470744	0.048590913
33	0x3da9e35d	0.08295319
34	0x3ca99562	0.020701114
35	0x3d3856cb	0.045004647
36	0xbce7fa06	-0.028317463
37	0x3dbfdc83	0.09368231
38	0xbdd45850	-0.10368407
39	0x3bf5e6a0	0.0075042993
40	0x3c969c93	0.018385207
41	0xbd907ec7	-0.07055431
42	0x3d4d0f6e	0.050063543
43	0x3c00e186	0.007866269
44	0x3dbfac35	0.09359018
45	0x3d194a09	0.03742412
46	0x3d3b4d60	0.045728087
47	0xbc8aac3e	-0.016927835
48	0xbdb915ee	-0.09037386
49	0x3d0f076d	0.03491919
50	0xbdbe1880	-0.09282017
51	0xbd8e64f0	-0.06952846
52	0x3ddabc65	0.10680465
53	0xbcbca29c	-0.023026757
54	0xbd93822a	-0.07202561
55	0x3d3133f1	0.043262426
56	0x3d02ec68	0.031963736
57	0xbdf1ed64	-0.11812857
58	0x3d94426d	0.07239232
59	0xbd8a92a8	-0.06766254
60	0xbdbdeeca	-0.09274061
61	0xbd2dec7d	-0.04246186
62	0x3deffe98	0.11718482
63	0xbc1e1e34	-0.009650756
64	0x3db7b7a4	0.089705735
65	0xbd53faf0	-0.051752985
66	0xbdcc9d10	-0.09990895
67	0x3d87abbc	0.066245526
68	0xbda74dce	-0.08169137
69	0x3dba0964	0.09083822
70	0x3d3d277c	0.046180233
71	0xbd8cd4f8	-0.06876558
72	0x3d81507c	0.06314179
73	0x3df509e8	0.1196478
74	0xbd7b4ad4	-0.06135066
75	0x3df93166	0.12167625
76	0x3d2807b4	0.04102297
77	0x3c550820	0.013002425
78	0xbdae0c2c	-0.08498415
79	0xbd00c3f0	-0.03143686
80	0xbd8ec796	-0.06971662
81	0x3d8001ae	0.062503204
82	0xbdf8759a	-0.12131806
83	0xbcfe4938	-0.031040773
84	0x3dc6746c	0.096901745
85	0x3a340a00	0.0006867945
86	0x3b2ecb40	0.002667144
87	0xbda176b8	-0.07883972
88	0xbde6c638	-0.11268276
89	0xbd7cb674	-0.06169744
90	0x3dbc91f2	0.09207524
91	0xbc29bff0	-0.010360703
92	0x3d7048ec	0.058663294
93	0xbcfd4c68	-0.030920222
94	0x3be5de60	0.0070150346
95	0x3da508da	0.08058329
96	0xbc406620	-0.0117430985
97	0xbccf7248	-0.025323048
98	0xbdcac552	-0.09900917
99	0x3ddaba9c	0.10680124
100	0xbd4c7720	-0.049918294
101	0xbd6210a0	-0.055191636
102	0xbd200d70	-0.039075315
103	0xbd3a9410	-0.04555136
104	0x3cbfe0d0	0.023422629
105	0x3d5bed78	0.053693265
106	0x3d7d371c	0.061820135
107	0xbccde648	-0.02513422
108	0x3d9b5e52	0.075863495
109	0x3bc984e0	0.006149873
110	0x3da663ee	0.08124529
111	0x3ca4dac0	0.02012384
112	0xbd8a170e	-0.067426786
113	0xbdecfc26	-0.11571531
114	0x3ddee9c4	0.10884431
115	0x3dc35602	0.09537889
116	0xbdea5ac4	-0.114430934
117	0xbd522898	-0.051308244
118	0x3d11d0cc	0.035599515
119	0xbd2dd228	-0.04243675
120	0x3d8d9792	0.06913675
121	0xbd3af260	-0.045641303
122	0x3d60f8b8	0.054924697
123	0xbdf0db8e	-0.11760627
124	0x3d3d3870	0.0461964
125	0x3c6a2980	0.014292121
126	0xbc48b9d0	-0.012251332
127	0x3b128040	0.0022354275
128	0xbd1c56fe	-0.0381689
129	0x3c5df030	0.013546035
130	0xbcad23e2	-0.021135274
131	0xbdd76b24	-0.10518482
132	0x3d8a80da	0.06762858
133	0xbd24d1fe	-0.040239327
134	0x3d347b70	0.04406303
135	0x3d5bd7fd	0.05367278
136	0x3db1c137	0.08679431
137	0x3cb1c64e	0.021701004
138	0x3ded73f3	0.11594381
139	0x3cfa0f3f	0.030524848
140	0xbd3ef513	-0.04662044
141	0xbc5ea0af	-0.013588115
142	0x3bb680ae	0.005569539
143	0x3dc43681	0.09580708
144	0x3dcd8468	0.1003502
145	0x3dbaa58f	0.09113609
146	0x3b36f85b	0.0027919027
147	0x3dc3b242	0.09555484
148	0xbc951275	-0.018197278
149	0xbd9b01d5	-0.07568709
150	0xbc5e7c8b	-0.013579498
151	0xbdb1922d	-0.08670459
152	0xbdaba276	-0.08380596
153	0x3dc064b4	0.093942076
154	0x3db3aa72	0.08772744
155	0x3dd3ef70	0.103484035
156	0x3d6c4b47	0.057688978
157	0xbde2bc97	-0.11071127
158	0xbd1dcc4b	-0.038524907
159	0x3ddd0fdf	0.10794043
160	0xbd40c9d8	-0.047067493
161	0x3d56bdd2	0.05242712
162	0x3c061c87	0.008185512
163	0x3dbe94b6	0.09305708
164	0x3db43a38	0.08800167
165	0xbe003d36	-0.1252335
166	0x3da3091d	0.079607226
167	0xbc981bc0	-0.01856792
168	0x3d325f15	0.04354771
169	0x3d9cc189	0.076541014
170	0x3b03092a	0.0019994476
171	0xbd983388	-0.07431704
172	0x3d4b2bf8	0.04960248
173	0x3dc7819e	0.097415194
174	0x3d12206c	0.03567545
175	0x3cf1857e	0.0294826
176	0x3d788092	0.06066949
177	0xbbfa955d	-0.0076472
178	0xbd90a448	-0.07062584
179	0x3d85a94c	0.065264314
180	0xbc9c82ca	-0.019105334
181	0xbbd492f1	-0.0064872433
182	0x3b97d71f	0.0046337987
183	0x3d47954c	0.048726365
184	0xbdd0c570	-0.10193908
185	0xbcd53192	-0.026024614
186	0x3d80a02d	0.06280551
187	0x3dd36170	0.10321319
188	0xbbccff84	-0.006256046
189	0xbcf1be02	-0.029509548
190	0x3d3b72f6	0.045763932
191	0xbdb73f55	-0.089476265
192	0x3da569f2	0.08076848
193	0xbd827f46	-0.06371932
194	0xbd9b56bc	-0.07584903
195	0xbc439a90	-0.011938706
196	0xbdae7ace	-0.08519517
197	0x3db0d460	0.08634257
198	0x3c4c0660	0.012452692
199	0xbdad8b4e	-0.08473836
200	0xbc555c10	-0.013022438
201	0xbd27ed8c	-0.040998027
202	0xbd0b8514	-0.03406246
203	0xbd5853f8	-0.052814454
204	0xbdf28356	-0.118414566
205	0x3db7843e	0.0896077
206	0x3db41344	0.08792737
207	0xbdb285d2	-0.087169304
208	0xbdac75b4	-0.084208876
209	0x3d3291c0	0.04359603
210	0xbd864c80	-0.0655756
211	0xbbb3f840	-0.00549224
212	0x3dc2946a	0.09500964
213	0x3d9a0f5e	0.07522462
214	0xbdc648ce	-0.09681855
215	0xbda6d73e	-0.08146523
216	0x3d53439c	0.05157815
217	0xbd767b4c	-0.06017618
218	0xbcb887e0	-0.022525728
219	0x3dcd6cb2	0.100304976
220	0x3da4c258	0.08044881
221	0xbdd95910	-0.106126904
222	0xbdc75eb0	-0.09734857
223	0xbd390dc8	-0.04517916
224	0xbd09d224	-0.03364767
225	0x3afa7300	0.0019107759
226	0x3d2bb780	0.041923046
227	0x3dbc6744	0.09199384
228	0xbde6251a	-0.11237545
229	0xbde88bec	-0.11354813
230	0xbd9e9bb0	-0.07744539
231	0xbb0315c0	-0.0020001978
232	0xbdd705f2	-0.10499181
233	0xbdc2f7c2	-0.09519912
234	0xbde3df2c	-0.11126551
235	0xbdc79958	-0.09746045
236	0x3df064a2	0.11737944
237	0x3d793630	0.060842693
238	0x3d129cc4	0.035794035
239	0xbd5e9d78	-0.054349393
240	0xbdba469a	-0.090954974
241	0xbde101f2	-0.10986699
242	0x3dd3673c	0.10322425
243	0xbd4258cc	-0.047447965
244	0x3cefc858	0.029270336
245	0x3c8c6270	0.017136782
246	0xbca27268	-0.019829944
247	0x3d2f3bf0	0.04278177
248	0xbce887f8	-0.028385147
249	0x3da6eec6	0.08151011
250	0xbdfaef32	-0.12252654
251	0x3cd7c118	0.026337191
252	0x3dc9a4c8	0.09845883
253	0x3dc52238	0.09625667
254	0xbd333698	-0.043753237
255	0x3d3c1ca4	0.04592575

layer.4.bias f4 [128]
0	0x3dc1a9fe	0.094562516
1	0x3dfd9936	0.12382738
2	0x3df558b6	0.11979811
3	0x3d502778	0.05081889
4	0xbd73fbea	-0.059566416
5	0xbd1983b6	-0.037479125
6	0x3dccde5b	0.100033484
7	0xba905b2c	-0.00110135
8	0x3d524f10	0.05134493
9	0xbd3e5d28	-0.04647556
10	0x3d453706	0.048148178
11	0xbd945de8	-0.07244474
12	0xbd6e3cb5	-0.058163363
13	0xbd8769ea	-0.066119984
14	0x3de63698	0.11240882
15	0x3dd85ec2	0.105649486
16	0x3d1ea283	0.038729202
17	0x3d7cb433	0.06169529
18	0xbdcb07a4	-0.09913567
19	0x3df0ce90	0.11758149
20	0xbcfb519c	-0.030678563
21	0xbc3eadf0	-0.01163815
22	0x3da26cc0	0.07930899
23	0x3d964a39	0.073383756
24	0xbdf3c79a	-0.11903305
25	0x3bb01f8e	0.0053748554
26	0xbde240c2	-0.11047508
27	0xbd273f5d	-0.040831912
28	0x3b90d8b4	0.0044203643
29	0x3da56187	0.080752425
30	0x3df1a997	0.11799925
31	0xbd6da9dc	-0.05802332
32	0x3d8bac67	0.068199925
33	0xbd8920d7	-0.06695717
34	0x3c77bb36	0.015120318
35	0xbca6b2e0	-0.020348966
36	0x3c21d163	0.009876582
37	0x3c3888f7	0.011263124
38	0x3d7d103b	0.061783057
39	0x3cc95b07	0.024579538
40	0x3cb7b759	0.022426294
41	0x3d6fa2e1	0.058504943
42	0x3a80bed6	0.0009822499
43	0x3d2e4acb	0.042551797
44	0x3d3e73bd	0.046497095
45	0xbd2d8920	-0.0423671
46	0xbcb58f4b	-0.022163054
47	0x3d85280a	0.065017775
48	0xbb9ddaa6	-0.0048173247
49	0xbda2c805	-0.07948307
50	0xbdb2bf9f	-0.08727955
51	0x3cc65a0a	0.024212856
52	0x3c945f5d	0.018111879
53	0xbdcb637a	-0.09931083
54	0xbb3e8105	-0.00290686
55	0xbda9d349	-0.082922526
56	0x3df2d039	0.118561216
57	0xbd416060	-0.04721105
58	0x3d4d6747	0.05014732
59	0xbd998b70	-0.07497299
60	0xbd8fc5ec	-0.070201725
61	0x3daf719e	0.08566593
62	0xbd1d09e8	-0.038339525
63	0xbdce7bff	-0.10082244
64	0xbc510ee0	-0.012759894
65	0xbd0e2c85	-0.034710426
66	0xbdf19a4f	-0.1179701
67	0x3d8f76a9	0.070050545
68	0x3db3c09f	0.08776974
69	0x3b5f3ca3	0.0034063242
70	0x3d356397	0.04428443
71	0xbdd926e9	-0.10603125
72	0xbd64f6bc	-0.055899367
73	0x3cad420e	0.021149661
74	0x3d36d62a	0.044637837
75	0x3d53daff	0.051722523
76	0x3c241042	0.010013642
77	0x3df38dcf	0.11892282
78	0xbdcd6aaa	-0.1003011
79	0xbd23e193	-0.040010046
80	0x3d339b2b	0.04384915
81	0x3d9ff962	0.07811238
82	0x3db4256b	0.087961994
83	0xbd9fa75e	-0.07795595
84	0xbdbb7743	-0.09153607
85	0xbb5e5b3d	-0.0033928894
86	0xbd17d2a5	-0.03706612
87	0x3be5cc3c	0.007012872
88	0xbdc86e0e	-0.09786616
89	0x3d9a7608	0.07542044
90	0x3defe408	0.117134154
91	0x3d668506	0.056279205
92	0xbd5fc064	-0.054626837
93	0xbd72149a	-0.05910168
94	0xbde08c3c	-0.109642476
95	0xbc3a6e20	-0.011378795
96	0xbc645fe9	-0.013938882
97	0xbc846be2	-0.016164724
98	0x3b1cf140	0.0023947507
99	0x3ddd2739	0.10798497
100	0xbb7cb125	-0.0038557735
101	0x3c32eecb	0.0109211905
102	0xbdb1c104	-0.08679393
103	0x3d533057	0.051559772
104	0xbdf5a681	-0.11994649
105	0x3d911c21	0.07085443
106	0x3daaa57f	0.08332347
107	0x3def82f4	0.11694899
108	0xbca35234	-0.019936658
109	0x3dcfc264	0.10144499
110	0x3ca094f0	0.019602269
111	0x3d952a8c	0.07283506
112	0xbdc61b4d	-0.09673176
113	0x3daf94f6	0.08573334
114	0xbda1ffb4	-0.079100996
115	0x3da9ac83	0.08284857
116	0x3b682845	0.0035424393
117	0xbdbf72ce	-0.09348069
118	0xbca501df	-0.020142494
119	0x3d8e384f	0.06944334
120	0xbd8df804	-0.06932071
121	0xbd93461d	-0.071911074
122	0xbdf36948	-0.11885315
123	0xbc830cb7	-0.015997274
124	0xbdb619fc	-0.08891675
125	0x3db72c5b	0.08944007
126	0x3db82b85	0.08992676
127	0x3d544e82	0.051832683

layer.6.weight f4 [11, 128]
0	0x3c836b58	0.016042396
1	0xbbcb4c60	-0.006204173
2	0xbd585485	-0.05281498
3	0xbd418186	-0.047242664
4	0xbdab4138	-0.08362049
5	0x3d9b20b9	0.07574601
6	0xbd862031	-0.06549109
7	0x3d811372	0.06302537
8	0x3c9bc816	0.019016307
9	0x3d0e76dd	0.034781326
10	0x3db82206	0.089908645
11	0x3d795d5e	0.060880058
12	0xbd038f4b	-0.032119077
13	0xbc8696b1	-0.016429277
14	0xbd9aa3f7	-0.07550805
15	0x3d522990	0.05130917
16	0x3cff5b49	0.031171458
17	0x3da1a77a	0.07893272
18	0x3d79581e	0.06087505
19	0xbda3fad9	-0.0800683
20	0x3d9227f7	0.07136529
21	0x3d49d57c	0.04927586
22	0xbd4f9d65	-0.050687212
23	0x3c524220	0.012833148
24	0x3cdfdb38	0.027326211
25	0xbd29fb8f	-0.04149967
26	0x3d789f17	0.060698595
27	0xbd9fa997	-0.077960186
28	0xbcec3d90	-0.028837949
29	0x3d2a4355	0.04156812
30	0xbd619880	-0.055077076
31	0xbbcaa4e0	-0.0061842054
32	0x3d5f8a90	0.054575503
33	0xbd13b917	-0.036065187
34	0xbd1fae55	-0.038984615
35	0x3d9390f7	0.07205384
36	0x3d79633d	0.060885657
37	0xbda56b11	-0.08077062
38	0xbd7c94ae	-0.06166523
39	0xbd944c10	-0.0724107
40	0xbc8cde2c	-0.017195784
41	0xbd53f70b	-0.05174927
42	0xbd5a95a1	-0.053365353
43	0xbaca75d2	-0.001544649
44	0x3d4ea1e6	0.050447367
45	0x3d14b5ac	0.03630607
46	0xbc1b4559	-0.009476983
47	0x3d2f003b	0.04272483
48	0xbd269441	-0.04066873
49	0xbccfa360	-0.025346458
50	0xbd8fa0ed	-0.07013116
51	0x3d0df0cb	0.034653466
52	0x3d89a504	0.06720927
53	0x3cabb2fb	0.020959368
54	0x3d86a636	0.06574671
55	0xbb19e320	-0.0023481324
56	0xbc8b3999	-0.016995238
57	0xbd320209	-0.043458972
58	0x3d4eab3e	0.050456278
59	0xbd5726f2	-0.052527376
60	0x3b543915	0.0032382656
61	0x3c0c8f28	0.008579053
62	0x3bf447c0	0.0074548423
63	0xbb242a48	-0.0025049616
64	0x3cfbe254	0.03074757
65	0xbc692b07	-0.01423145
66	0xbd20ec00	-0.039287567
67	0xbd42676e	-0.04746192
68	0xbd67a5e0	-0.056554675
69	0xba423229	-0.0007407987
70	0xbb6b634a	-0.0035917335
71	0x3b401cb9	0.0029313995
72	0x3dbd0f37	0.092314176
73	0xbcc1cbde	-0.023656782
74	0x3d87937f	0.066199295
75	0xbd8d8420	-0.069099665
76	0x3ca01086	0.019539129
77	0xbd4a74fb	-0.049427968
78	0xbd6ec8fe	-0.05829715
79	0xbd4e5f3a	-0.050383784
80	0xbcb1f46a	-0.021722991
81	0x3c14a93d	0.009073553
82	0xbd24af2e	-0.040206127
83	0x3d397ec5	0.045286912
84	0xbd871bea	-0.06597121
85	0x3d1167c2	0.03549934
86	0x3d97a852	0.074051514
87	0x3db3ab75	0.08772937
88	0xbcd95771	-0.026530953
89	0x3d084b62	0.033275016
90	0x3db30ab1	0.087422736
91	0x3d536251	0.051607434
92	0xbd3e02e8	-0.04638949
93	0xba863ecd	-0.0010242105
94	0x3d8d3c21	0.06896234
95	0x3d28738e	0.041125827
96	0xbd94f7f0	-0.07273853
97	0xbd13eee1	-0.036116485
98	0x3d86a66b	0.065747105
99	0xbd031f50	-0.032012284
100	0x3cffec3b	0.031240573
101	0x3ccc7330	0.02495727
102	0xbae4e433	-0.0017463028
103	0xbda4d5e0	-0.08048606
104	0x3d4b702f	0.049667533
105	0xbd228018	-0.03967294
106	0xbd26554f	-0.0406087
107	0xbd98a389	-0.07453067
108	0xbd70ca86	-0.05878689
109	0x3c323235	0.010876228
110	0x3c296500	0.010339022
111	0xbd9f6202	-0.077823654
112	0x3d84d200	0.06485367
113	0xbdb1a06f	-0.086731784
114	0xbd6573fa	-0.056018807
115	0x3d951d22	0.07280947
116	0xbb22c344	-0.0024835626
117	0x3d26f528	0.040761143
118	0xbd148c67	-0.03626671
119	0x3da930f6	0.08261292
120	0xbd9fde79	-0.07806105
121	0x3cf6b15d	0.03011387
122	0x3d7c182f	0.0615465
123	0xbd95b969	-0.07310755
124	0x3c3a780e	0.011381162
125	0xbd236215	-0.03988846
126	0x3d50ac3f	0.050945517
127	0x3d50e7d8	0.051002353
128	0x3d14f0b2	0.036362357
129	0xbbf57af0	-0.007491462
130	0xbcb88eaa	-0.022528965
131	0xbd6b02b0	-0.05737561
132	0xbd1a8e07	-0.037733104
133	0xbda3bc51	-0.07994903
134	0xbcf76c0f	-0.030202894
135	0xbdb5808f	-0.08862411
136	0xbda00da0	-0.07815099
137	0x3d59f4a3	0.05321182
138	0x3d112f89	0.035445724
139	0x3c459f0d	0.012061846
140	0xbc708b96	-0.014681717
141	0xbc8f8c05	-0.017522821
142	0xbd9650a2	-0.07339598
143	0x3d16dedd	0.036833633
144	0x3c74b4a3	0.014935645
145	0xbd0f1afa	-0.034937836
146	0x3c65ee20	0.014033824
147	0x3d8da8aa	0.06916936
148	0xbbc18f37	-0.005906965
149	0xbcc8df5b	-0.024520567
150	0xbb030bc0	-0.0019996017
151	0xbc50437a	-0.0127114
152	0xbd7b4894	-0.061348513
153	0x3cbef90b	0.023312112
154	0x3d4ee47e	0.050510876
155	0x3d778aad	0.060434986
156	0x3d1202cf	0.03564721
157	0x3b877a4a	0.004134451
158	0x3d5372b6	0.05162307
159	0xbab81900	-0.0014045537
160	0xbd19a6ba	-0.03751252
161	0x3d5b38e7	0.053521063
162	0x3d44964c	0.047994897
163	0xbc3841c3	-0.011246148
164	0xbdb25f44	-0.08709577
165	0x3d1ec7ce	0.038764767
166	0xbd134aee	-0.03596013
167	0x3d505783	0.050864708
168	0x3d1024b7	0.035191264
169	0x3d89bcc0	0.06725454
170	0xbbb3b109	-0.0054837507
171	0x3d82be96	0.06384008
172	0xbd85c418	-0.065315425
173	0x3d006027	0.031341698
174	0x3d4c1403	0.049823772
175	0xbd36979c	-0.04457818
176	0xbd958d7e	-0.07302378
177	0x3cfd64ad	0.030931795
178	0xbd947344	-0.07248548
179	0x3cbc0f91	0.022956641
180	0x3d2134da	0.039357044
181	0xbd5c2039	-0.053741667
182	0x3d81a36d	0.06329999
183	0x3b2984cd	0.002586651
184	0x3d8b8b45	0.06813673
185	0xbd94ba5e	-0.07262109
186	0xbbda74a0	-0.006666735
187	0xbd0ced58	-0.034406036
188	0xbd82133d	-0.06351326
189	0x3bbe6210	0.00581003
190	0x3d670b47	0.05640724
191	0x3cd84218	0.026398703
192	0xbb4640d5	-0.0030251045
193	0xbd1bbe7e	-0.038023464
194	0xbd2f155a	-0.04274497
195	0xbd1f7a40	-0.038934946
196	0xbc17f961	-0.009275765
197	0x3c2fe30c	0.010735285
198	0x3d9c2e87	0.07626062
199	0x3b9e1421	0.004824177
200	0x3c7208c7	0.0147726005
201	0x3c80594f	0.015667586
202	0xbd8b063d	-0.06788299
203	0x3dabd068	0.0838936
204	0x3b45f0dd	0.003020338
205	0x3d023177	0.031785455
206	0x3d7b34de	0.061329715
207	0x3cec1e03	0.028822904
208	0x3d864022	0.06555201
209	0x3d1bc479	0.038029168
210	0xbc8b2503	-0.016985422
211	0x3da43b39	0.08019108
212	0xbb742bf9	-0.0037257655
213	0x3d19cc0b	0.037548106
214	0x3d7a24ab	0.061070126
215	0xbd6b2997	-0.05741271
216	0xba591991	-0.0008281703
217	0xbcff2706	-0.031146538
218	0xbda20281	-0.07910634
219	0x3ce8f199	0.028435515
220	0x3d57d131	0.052689735
221	0x3dabc2a2	0.08386733
222	0x3d73c3b3	0.059512805
223	0xbd0b9758	-0.03407988
224	0xbd408a95	-0.047007162
225	0xbd2c6df5	-0.04209705
226	0x3db49119	0.08816738
227	0x3c914c71	0.017736645
228	0x3dae816b	0.08520778
229	0xbb59eeb7	-0.0033253857
230	0xbc98eb07	-0.018666757
231	0xbd8f9948	-0.07011658
232	0x3d7f297b	0.06229542
233	0xbd97d149	-0.07412965
234	0xbd3ad447	-0.0456126
235	0x3d267539	0.040639136
236	0x3da15a88	0.078785956
237	0x3cadbb60	0.021207511
238	0xbd5ef5fb	-0.054433804
239	0xbd96394e	-0.07335149
240	0xbbd8c7a0	-0.006615594
241	0x3a90af40	0.0011038557
242	0x3d8d6bff	0.06905364
243	0x3d95d8c1	0.07316733
244	0x3d0e3071	0.034714166
245	0xbd6b555c	-0.057454452
246	0x3c6bfbf7	0.014403335
247	0xbd6ca5d9	-0.057775352
248	0x3d71a87a	0.058998562
249	0xbd0b2eaf	-0.033980068
250	0x3d185005	0.037185688
251	0x3da6a89a	0.08137627
252	0x3d2053dd	0.03914248
253	0xbd0993c3	-0.033588182
254	0xbd19811d	-0.037476648
255	0x3d94f11f	0.07272553

layer.6.bias f4 [11]
0	0xb90428e7	-0.00012603738
1	0xbbab54ea	-0.0052286284
2	0xbd2dae2e	-0.04240244
3	0xbbaa65f4	-0.005200142
4	0xbd191be0	-0.0373801
5	0x3d6aec6f	0.057354387
6	0x3b8cabd4	0.0042929444
7	0x3d8d97c7	0.06913715
8	0xbd0cf43f	-0.03441262
9	0x3d539300	0.051653862
10	0xbda07383	-0.07834532
