weight/save_510.pth (torch_old, 72900 bytes, 8 tensors)

layer.0.weight f4 [32, 139]
00000000: d54a a43d 6301 dbbd bada 89bd 5592 a4bd
00000010: 4b10 7dbd ba6d f1bc 0612 88bd 4a0f 013c
00000020: d396 5c3d a153 87bc 0c7c 5d3d 7a0a fb3c
00000030: 52e9 703c 28bb 623d 1231 c4bd 22aa 7bbc
00000040: f635 04bd fd73 b73b 88bb 823c 976d 713c
00000050: b4c4 a4bd 0378 3c3d 22a0 31bd 0113 a5bb
00000060: bacf 3dbd f60a 0b3d 9658 863d 7a80 333d
00000070: c263 30bd d706 4fbd 0778 1a3d cf35 40bd
00000080: 6ba2 f53c 3f7e 33bd 3838 9ebd 4439 d1bc
00000090: 2377 473c 960c acbb 637a 723c 8f41 7bbd
000000a0: 05a6 0a3d a22b 5d3d 48e4 3d3d a704 ccbc
000000b0: 40cd 953c ada7 a63c 15f6 813c f91f 043c
000000c0: 98ad 373d 193f 8abd 63a8 01bd 89c5 7f3c
000000d0: 6ef1 9c3c 7d87 8b3d 17af 2dbd 76f8 ab3d
000000e0: 538f ebbc fb3d 56bd 515e ae3c 8ffc 4fbd
000000f0: 9aff 41bc df1e 14bd 4069 efbb 971d 8c3d
00000100: ca52 8cbd 5649 f03c c5db 41bd 33ca ccbc
00000110: 34c4 84bd 95c3 d1bc 8c88 89bd 3cd4 76bd
00000120: d5a9 c1bc b211 5a3a ec89 bfbc 3585 4d3c
00000130: 6b77 a8bc 16e2 01bd 835c 9abd 227b 87bd
00000140: d35d 9cbd 760e 82bc 6212 463d ae1d 133d
00000150: 1a09 6fbd 00bc a7bd b6e8 d1bc 885c 4bbd
00000160: b559 80bd d2f7 573d 30c2 183c c32f 45bd
00000170: 8a3e c8ba 685a cdbc 0028 903c f93b 70bd
00000180: 899b 05bd 2334 533b aae7 493d da30 30bd
00000190: 5f75 6bbd cc10 3cbd 5739 98bd 6063 093c
000001a0: 4448 14bc 7bd6 063a 701b 883c 242b acbd
000001b0: bc96 4f3b 3623 683d 6af7 9dbd e18a 503d
000001c0: 18b6 a1bc 2ccd 97bd e211 123d 8d74 3dbc
000001d0: bb71 a4bb 619a 213d 9ce1 21bd 7b43 7b3d
000001e0: 30bd 023c 611e 9abb cf16 e33c 7379 50bd
000001f0: d24e 95bd ea45 803d 6500 0fbd f948 5bbd
00000200: 7d08 1fbd 879e 34bd eeac 70bc 33ca 5abd
00000210: 579f bcbd acd0 8cbd e53f 86bd 528e a5bd
00000220: 8e7f 993c 20c4 c83a ca9b a6bb 023e 463d
00000230: 2187 87bf 0c9b 363f 5266 763d 3219 1f3f
00000240: 2a9a 3a3d 45a0 90bd a72a 55bd 37a8 0cbf
00000250: ae5b 08bf 411c 0bbf 2b1b f3bb 5dc1 823d
00000260: 2059 12bc 1e01 31be 0d3b b83b 71dc 72bd
00000270: cabf 99bc d3f2 473d cc91 693a ab17 9f3d
00000280: 2fe6 4e3d 653e 633d 7496 c8bc c518 403d
00000290: e9e2 95bc f326 fe3c b418 a0bd 829d 173b
000002a0: 0b1f 213a 2b19 863d ad88 92bc 18ad 9fbc
000002b0: 6d4c b4bc 55dd 79bd 762b 9dbc 126f 63bc
000002c0: 3599 71bd 4b08 b5bc edf8 7dbd 3067 77bc
000002d0: c2f4 803d 293a 81bd 0f52 aa3c 352f 8b3c
000002e0: d71d 5b3c 6cd2 c13b c0f3 39bd 9804 6bbc
000002f0: e6aa 173d 3bc7 123b 147e bd3d 8e41 c83c
00000300: d0e2 36bd 7eb4 27bc 632d babb c572 89bc
00000310: 97e0 8dbb 031a dc3a 9283 86bd 039f 10bc
00000320: 9552 1cbd a12e 463d 3553 adbd cd9c 26bc
00000330: 14d0 203d 96aa 4abc 3334 b8bd 407f c6bd
00000340: b7bb e5bc 80e0 41bd 8c94 4a3c dc84 2b3d
00000350: c8c9 cd3b 82d2 9fbd fb0b 253b 576e 373d
00000360: f680 05bd 92e9 a13d 6f33 8bbd 086d 973c
00000370: 73bf b8bc 91e9 5ebd e5a6 cf3d d11f 8ebd
00000380: 0bf7 46bd c63b 34bd de0f 913b 27b0 e8bd
00000390: 763b 513d 8382 a43d 8acd 80bc 8c32 8b3c
000003a0: 01f0 083d a6c4 9f3c a748 c43c b0eb d23c
000003b0: 44c4 1fbc fdf9 5f3d cee5 54bd c03c 28bd
000003c0: 238a 413c 8274 313c 21ce 74bd a9ed 65bd
000003d0: 8ac8 ccbc e33e 92bc db1f d3bd 6e62 7d3c
000003e0: ad5f ed3b a186 7ebc 9ff4 93bd 89b6 653b
000003f0: 5fc4 053c fc7c 77bd d799 d83c 521d ed3a
0.080220856 -0.10693624 -0.06731172 -0.08035723 -0.061783116 -0.029471267 -0.06644063 0.00787718
0.053854775 -0.01651937 0.05407338 0.030644644 0.014704065 0.055354267 -0.09579672 -0.015360387
-0.032278024 0.0055985437 0.015958562 0.014735601 -0.08045331 0.04601289 -0.043365605 -0.005037666
-0.04634068 0.033946 0.06559865 0.043823697 -0.043063886 -0.050543632 0.037712123 -0.046926316
0.029984673 -0.04382157 -0.077255666 -0.025540002 0.0121744005 -0.005250524 0.014799687 -0.06134182
0.033849735 0.05399669 0.046360284 -0.024904562 0.018286347 0.020343626 0.015864411 0.0080642635
0.044843286 -0.06750316 -0.031654727 0.015611061 0.019158091 0.06812952 -0.042403307 0.083969995
-0.028754866 -0.052305203 0.021285208 -0.050777968 -0.011840725 -0.036162253 -0.007306248 0.06841581
-0.06851728 0.029331844 -0.04732873 -0.02499876 -0.06482735 -0.025605956 -0.067154974 -0.060260996
-0.023640553 0.0008318677 -0.023381196 0.012543966 -0.020564755 -0.031709753 -0.075371765 -0.066152826
-0.07635083 -0.015876036 0.048357375 0.035916977 -0.05835829 -0.08190155 -0.02562366 -0.04964879
-0.0626711 0.052726574 0.009323642 -0.048141252 -0.0015277427 -0.025067523 0.017597198 -0.058650944
-0.032619033 0.003222712 0.049293198 -0.04301534 -0.05748498 -0.045914456 -0.07432812 0.008385509
-0.009050433 0.00051436544 0.016614646 -0.08406666 0.0031675538 0.056674205 -0.07713206 0.050913695
-0.01974015 -0.0741218 0.035661586 -0.011563432 -0.0050184405 0.039453868 -0.0395218 0.06134365
0.007979676 -0.0047033285 0.027720837 -0.050897073 -0.072904244 0.06263335 -0.034912486 -0.05353639
-0.038826454 -0.044096496 -0.014689667 -0.05341549 -0.09210079 -0.068757385 -0.06555156 -0.08083786
0.01873758 0.0015317239 -0.0050844895 0.04839898 -1.0588113 0.7133033 0.060156174 0.6214782
0.04555718 -0.07061819 -0.05204263 -0.54944175 -0.5326489 -0.5433999 -0.00741901 0.06384537
-0.008932382 -0.17285582 0.005622274 -0.05929226 -0.01876821 0.04881556 0.000890997 0.07768186
0.05051249 0.055479426 -0.024485804 0.046898622 -0.018296676 0.031024432 -0.07817212 0.0023134653
0.00061462884 0.06547769 -0.017887438 -0.019491717 -0.022009099 -0.061002094 -0.019185763 -0.013881462
-0.058984 -0.022098681 -0.062004972 -0.015100285 0.06296684 -0.06309921 0.020791082 0.016990284
0.013373814 0.005914977 -0.045398474 -0.014344357 0.037028216 0.0022396583 0.09252563 0.024445321
-0.0446499 -0.010235904 -0.00568168 -0.01677836 -0.0043297517 0.001679242 -0.06568064 -0.008826974
-0.038164694 0.048384313 -0.08463136 -0.01016922 0.03926094 -0.012369772 -0.08994331 -0.0969224
-0.028043611 -0.04733324 0.012364518 0.04187475 0.0062801577 -0.07803823 0.0025184143 0.044782963
-0.03259369 0.07905878 -0.067969196 0.018484607 -0.022552228 -0.054421965 0.101392545 -0.06939662
-0.048575442 -0.044002317 0.0044269403 -0.113617234 0.051082097 0.08032706 -0.015723009 0.016991876
0.03343201 0.019502949 0.023960425 0.02574715 -0.009751383 0.054681767 -0.05197697 -0.04107356
0.0118127195 0.010831 -0.059766892 -0.056134854 -0.024997968 -0.017852252 -0.1030881 0.015465362
0.0072440715 -0.015535028 -0.07224392 0.0035051426 0.008164494 -0.06042193 0.026440544 0.0018090403

layer.0.bias f4 [32]
00000000: bc7b 4e3c 2d89 1f3f 421c 54bc bde6 d63c
00000010: 53d8 cbbd 5a4c 143d beaa 54bc e749 d63c
00000020: 6f81 2dbd 1cad 783d 3a5d a13d 09d9 bf3e
00000030: 9cc8 9fbd 024c 2d3f ded5 023e b3a5 633d
00000040: 78fe 533d 1e31 3dbc c8cb de3e bb3e 343f
00000050: 4f41 cabd 7234 2e3f 7f59 1ebd bab1 bb3e
00000060: ea27 a6bd a0f4 203f 8008 98bc 2375 4a3d
00000070: 2c5e 643f 1565 d23c 48b7 0cbe b7d3 c4bc
0.012602743 0.6231869 -0.01294619 0.026233071 -0.0995337 0.036205627 -0.012980161 0.026158286
-0.042359766 0.060711965 0.0787911 0.37470272 -0.07801935 0.67694104 0.12776896 0.055577945
0.051756352 -0.011547355 0.43514848 0.7040822 -0.09875738 0.68048775 -0.03865957 0.36659032
-0.08113082 0.6287327 -0.01855874 0.049428117 0.89206195 0.025682965 -0.13741791 -0.024026735

layer.2.weight f4 [64, 32]
00000000: ca34 693d 2b17 abbd 8417 0f3d 87a3 c63d
00000010: cf9d b63d 574d 43bd 710a 883d b702 0d3e
00000020: 522e 3b3e 3859 14be 5d2b f43d fcb7 8d3d
00000030: 07ce 003e c192 9ebd 43c0 343e 4c3c f43d
00000040: 4808 353e 1e21 99bd ec55 8a3e bbd1 463d
00000050: f417 0a3d 2b4c 1fbe 50ea 8cbc a1bb 953b
00000060: 304a 9e3c 9899 67bc f685 3e3e 1c21 ba3d
00000070: eea6 9c3d 8b19 633e 4636 b2bd 3cb6 1ebe
00000080: 1568 e7bb 181a b7bd d813 fa3d 620d 22bd
00000090: 643c 6fbd e179 fcbd 3e43 21bd 5582 b43d
000000a0: de29 aebd c3f3 cb3d 82dd e3bc 8cce a83d
000000b0: 4efa 95bd 0da3 47bd 6356 3c3e 03bb 9fbc
000000c0: e9f0 9d3d bfe4 513e 27b6 9e3d f288 5c3d
000000d0: 09eb 133e 82e8 383d a209 33be a05d ccbd
000000e0: 88e3 a9bc f95a 22bd 96ae 1cbe 4350 08bd
000000f0: e8e6 033d 4158 f33d 1767 d83d c9dc de3c
00000100: 3518 edbd 372f 4bbe 6a25 233e fc11 31be
00000110: 0209 35be 94bb 50be 8d6b 0e3d f31d aa3d
00000120: a74f d03c 92f5 ed3d b1a9 1a3e c6b4 21be
00000130: fd89 903d b165 d6bd 8b25 20be eb62 363e
00000140: 7901 673d c5c3 8a3d daac c2bc a5b5 693d
00000150: 0ba4 1c3e cdb4 a33c 8a76 91bd 316e 183e
00000160: 2d00 1abe 3134 ddbd 9417 17be c5f2 e8bd
00000170: 7d1f 4bbd 7e8d 1f3e b360 c4bd cb3a 1bbb
00000180: 693a 9f3d 4c5a 1a3e 8447 8fbe 3e41 d2bd
00000190: 8dd8 60be 502a 5fbe bcb0 59bd c4b3 353d
000001a0: 455c cebd 44f3 423d 988c eb3d bcbe 243f
000001b0: 1636 263d 60f8 1c3f 9378 b03d e4b0 6cbe
000001c0: 730f 653d 00ae 5d3d fe12 693e 2476 193f
000001d0: 5504 57be 7992 8cbd 9a9e 0dbe 1eee b03d
000001e0: 7e5e ea3d 1a6f d53d dfea e7bd b54f 833d
000001f0: a0ea 5a3f 86f6 25be c19a 653d 8534 723c
00000200: 8e35 223c 14ea b03d e57f 523e de04 57bd
00000210: c6ac 4d3d f7d5 8fbd 55ce a23d c6f0 1e3e
00000220: 0bba 37bd 5a48 00bd 0541 a4bd afa7 f7bd
00000230: 02d6 bf3c db33 123e bafa 9c3d e7a8 333e
00000240: b408 13be 2d56 323e f94e 4cbe f3c4 213d
00000250: b29c 243d da26 3d3b 540c 9a3d 7c5c 9abc
00000260: 5386 9bbc f7e1 f3bd c82e 653c af20 fcbc
00000270: c839 d3bb 1291 433e b4f2 17be 5f24 46bd
00000280: 9412 05be 812b 3bbe 2fb7 863d f119 eabd
00000290: 52a3 0d3d 52ad 0c3d 7343 7b3c 9255 593d
000002a0: cc92 ab3c b5bb 1b3d 8e53 453e 349c 56be
000002b0: 78eb d43c adaf 5fbd b2a8 e8bd 33ce 48be
000002c0: 6612 c23d 8148 0e3e 3c53 b8bd c4db 843d
000002d0: 6e68 94be 9323 97bd da7c 10bc db37 1a3e
000002e0: 543b 58be 220f a2bd f8ee 2fbe 7d57 813c
000002f0: 1709 00be c684 08be c89e d33c 642e e73d
00000300: 62fd d93d 1802 dabc 95d9 3f3e 97da 14bd
00000310: fd72 3c3d 8797 3bbe 5020 ba3d 622e 35be
00000320: 5b2d dbbd b1a6 62bd b5de 6a3d c5ce 863d
00000330: 17ca e1bd 21de 133e 7183 3c3e 24f5 eb3d
00000340: 8880 e83b d2d6 0cbe 44c0 06be 4e63 9abc
00000350: d4e5 013d ec0d 1bbd bda0 473e 3fe1 ce3d
00000360: 602c 09bc 9a72 bfbd 875e 213e 4469 183e
00000370: 1401 d1bc 8b45 9c3d 6560 dcbd b291 22be
00000380: 3966 7ebd ce28 0e3e e79c c4bd 7628 cbbd
00000390: b5bd b53c 5452 5cbe c168 70bd 0cf8 1fbe
000003a0: bc82 8c3d 349f 723c a6a7 963d f69c 7b3d
000003b0: a148 7bbd 88f3 a5bd 11b5 32be 7d40 2dbd
000003c0: f7d4 97bd 3118 29be c551 36bd 4764 2cbe
000003d0: 1bce 58be 0522 e53c 4286 bc3d ea70 0b3e
000003e0: 4dc1 44be 847a 293e ba07 64be 7592 0d3d
000003f0: e03b 71be d4b7 1e3e 274d 153d 1c7e 98bd
0.05693511 -0.08354028 0.034934536 0.09699159 0.08916818 -0.04768118 0.066426165 0.13770567
0.18279389 -0.14487159 0.119223334 0.06919858 0.12578593 -0.07742835 0.17651467 0.11925563
0.1767894 -0.0747702 0.27018678 0.04853986 0.03371425 -0.155564 -0.017201573 0.0045694862
0.019322485 -0.014135741 0.1860579 0.09088346 0.07649027 0.22177713 -0.08701758 -0.15499204
-0.007061968 -0.08940524 0.12210816 -0.039563544 -0.058407202 -0.12327934 -0.039370768 0.08813921
-0.08504079 0.09958603 -0.027815584 0.08242521 -0.073231325 -0.04873948 0.18392329 -0.019498354
0.077119656 0.20497416 0.077495866 0.05384154 0.14445128 0.04514361 -0.17484143 -0.09978795
-0.020738378 -0.03963754 -0.15300974 -0.03327967 0.03220263 0.118820675 0.10566538 0.027204888
-0.11576883 -0.1984223 0.15932241 -0.17292017 -0.17679217 -0.20384055 0.034770537 0.083064936
0.025428606 0.116191044 0.15103795 -0.15791616 0.07057569 -0.10468615 -0.15639322 0.17811172
0.05639789 0.06775621 -0.023764063 0.057057995 0.15296952 0.019983673 -0.07102688 0.14885785
-0.1503913 -0.1080097 -0.14755088 -0.113744296 -0.049590576 0.15581319 -0.095887564 -0.0023686166
0.07774813 0.15073508 -0.2798425 -0.1026635 -0.21957608 -0.21793485 -0.053147063 0.04436089
-0.10076193 0.047595277 0.115014255 0.6435354 0.040578924 0.6131649 0.08616748 -0.23114353
0.055922937 0.054121017 0.22761151 0.59945893 -0.20997746 -0.06863875 -0.13830033 0.08639167
0.11443804 0.104215816 -0.11324095 0.06411687 0.8551426 -0.16207322 0.056055788 0.014783029
0.009900464 0.08638397 0.205566 -0.052494876 0.050213598 -0.070232324 0.07949511 0.15521535
-0.04485516 -0.031319 -0.08020214 -0.1209253 0.023417477 0.14277594 0.0766501 0.175449
-0.14358789 0.17415686 -0.19952 0.039494466 0.0401885 0.0028862269 0.07521883 -0.018842928
-0.01898495 -0.11908334 0.013988204 -0.030777304 -0.006446097 0.19098309 -0.14838678 -0.04837453
-0.12995368 -0.18278314 0.06577908 -0.11430729 0.034579583 0.03434498 0.015335905 0.05306012
0.020944022 0.03802081 0.19270155 -0.20958024 0.025991186 -0.054610897 -0.11360301 -0.19609909
0.094761655 0.13894846 -0.09000251 0.064872295 -0.28985924 -0.07379832 -0.008818829 0.1506037
-0.21116382 -0.079130426 -0.17181003 0.015788788 -0.12503468 -0.13331899 0.025832549 0.11288145
0.10644032 -0.026612327 0.18735345 -0.036341276 0.0460081 -0.18319522 0.09088194 -0.17693475
-0.1070201 -0.05533475 0.057341296 0.06582407 -0.11024874 0.14440204 0.18409516 0.11521366
0.0070954002 -0.13753822 -0.13159281 -0.01884618 0.03171332 -0.037855074 0.1949491 0.10101556
-0.008372396 -0.093480304 0.15758716 0.14883906 -0.02551321 0.07630452 -0.10760573 -0.15875891
-0.062109206 0.13882753 -0.09600239 -0.09919827 0.022185186 -0.2151578 -0.05869365 -0.15621966
0.06860873 0.014808465 0.07356195 0.061428986 -0.06134856 -0.081030905 -0.17451884 -0.04229783
-0.07413667 -0.16513135 -0.044511575 -0.16835128 -0.21172373 0.027970323 0.09205295 0.13617292
-0.19214363 0.16550642 -0.22268572 0.0345635 -0.23557997 0.15499812 0.03645053 -0.074459285

layer.2.bias f4 [64]
00000000: 90af 1c3f b148 a73c 4e46 e63e 0293 b83e
00000010: d96c 2e3d 63fb 843f 55b0 0ebd 704b 2f3e
00000020: 59a2 a73e b9d1 0b3e b57f ffbd e583 593e
00000030: c762 ac3e 3adc 903e 1745 01bd ee95 a3bd
00000040: 3976 543e de4a 453e 5de9 233e 9426 503e
00000050: d628 6fbd 0761 833e d587 9f3d 8027 263d
00000060: 0a15 0f3e 0f8e 933e 0bb0 c43d a745 233e
00000070: 85b4 363e 1893 513e cf55 d13e a177 013f
00000080: 2b59 5b3e ab2d 80bd c45d ac3e 59b4 9b3a
00000090: e23b 1b3d 1722 90bd 0963 5a3e 8b2b ae3e
000000a0: d615 2abd 247a 0f3e f270 17ba 4656 273f
000000b0: 7a8b 573e d398 a63e ef1c b13d 114b 16be
000000c0: aa4f 90bd f733 c13e 3f1c a53e 0b59 c93e
000000d0: 33bd b43d 706f 443f b91b 1e3e e35e 2d3e
000000e0: e632 563e 6458 ef3e 77fb f03c be2b d13e
000000f0: 3741 ee3e f086 0e3f b149 523d 9bfc d13e
0.6120539 0.020420404 0.44975513 0.36049658 0.042584274 1.0389217 -0.034836132 0.17118621
0.3274105 0.13654222 -0.1247553 0.2124172 0.3366911 0.2829302 -0.03156003 -0.07987581
0.20748223 0.19266841 0.1600699 0.20327216 -0.058388554 0.25659963 0.0778958 0.040565014
0.1397287 0.2881932 0.0960389 0.15944539 0.178423 0.20466268 0.4088578 0.50573164
0.21420734 -0.062587105 0.33665287 0.0011879309 0.037898906 -0.07037752 0.21326841 0.34017596
-0.04152473 0.14011437 -0.0005777023 0.6536602 0.210493 0.3253847 0.08648097 -0.14677073
-0.07046445 0.3773496 0.32248113 0.39325747 0.088251494 0.7673254 0.15440263 0.16930728
0.20917854 0.46747124 0.029416783 0.40853685 0.4653413 0.5567465 0.05133981 0.41013035

layer.4.weight f4 [128, 64]
00000000: 14eb 843c f4ad b9bd 9f4f c23d 0812 8cbd
00000010: d8d4 dd3d 492e 613d 6bf0 413e 6c33 183d
00000020: a7f0 9dbc 79fd 513c 2afc f7bd 7d13 9fbd
00000030: 1731 80bd f046 b8bb 460c 5eb9 f392 6b3d
00000040: 5987 283e 4e9d 8ebd 9e20 4abd 4393 7a3d
00000050: b857 eb3c 8096 74bd aba6 8ebd d30a 0b3e
00000060: 729c 59be 6055 dcbd fe25 adbd 47d2 b8bd
00000070: 28e7 f4bd 21e9 e83d a2ef bd3d df94 c93d
00000080: aea5 863c cec6 4f3d cbb4 d7bc b9d1 333d
00000090: 64f5 033e d3a5 d53c 1172 5cbe 70e8 773d
000000a0: 1f5f f3bb 7328 48be aca5 b43c a950 093e
000000b0: ed45 563d 676c 47bc d3ba c63d 84a4 8f3d
000000c0: bab7 a83d d506 303d e66a d43d 8f9c 12bd
000000d0: b8f1 933d 7d34 233d 7898 f9ba 2ccb 34be
000000e0: 01bd d53c 563f 15be 1c38 333e 2744 58be
000000f0: 1925 923d 33f1 83bb 61f6 453d 54ce 68bd
00000100: b3c2 9abd f680 0bbd 7c3b cebd 7526 623d
00000110: ac47 8abd a51e bcbe 5568 70be dc90 463c
00000120: d35a 3cbd 055f f53c 25f4 393d 4eeb 513e
00000130: 5d57 0c3e c393 843d fde7 edbd 8705 24bd
00000140: 8629 6fbe 2fd5 9a3e fcac 273e 8d86 8cbd
00000150: 9eea 8d3d bbd2 92bd f8e5 59bd 1148 babd
00000160: ced9 193f fa88 b63e 96db a4bd 6100 f03e
00000170: d54a 873e e186 183e f735 c9bb 6e77 963d
00000180: 4687 63bc ac04 b13d f157 7e3b 1d91 83bd
00000190: 0937 20bd 47af 4a3d 9979 e93e 384c 1c3e
000001a0: 8f81 be3d d174 ff3e 7b32 2fba 7e70 063d
000001b0: 1808 af3e 961e 133e e17b 02be ba79 2f3e
000001c0: 591d b8bd 09d3 b7bd f0a7 15be 841d eebd
000001d0: c6f9 183d e5af 4ebe 1809 d13d 79d4 7e3e
000001e0: 4ac2 143d 2a87 853e b377 97be 4757 633e
000001f0: 95ce f1bd 5bed 953e fa29 f83d 0378 593d
00000200: 8863 b63c c34d d3bd 9f21 b03d 35aa 993d
00000210: 0c1b bfbd 268a 0c3f e483 393e c3fd 9c3d
00000220: 1896 533e f8a5 993d 716d 0bbe a084 423d
00000230: 446e 6db9 ef19 303d b440 8b3d 2137 193e
00000240: f84d 753d 4096 9cbd 60e6 14be 82f8 f03c
00000250: 7371 a03d 247d 0a3e 3ff4 67bd a0e1 bc3d
00000260: e85e aebd 84ea 62be 633f 17be d7af c7bd
00000270: 8236 f23c 3677 173d 411f 31bd 62c3 543d
00000280: 5c35 be3d 41cf 01be b13d 03bd d39f 0f3e
00000290: 9c75 97bc 0e63 d83c 5c08 9abe cbd0 71bd
000002a0: ab0b cc3c b82e 5ebe f96a 18bc 47cc d13d
000002b0: 2684 f8bc 88b9 7bbd 7e44 43bd 0190 703d
000002c0: 6b6e 88bc b3eb ae3d 98da 833d 6be4 d8bc
000002d0: 5ef5 953c 59c5 083e e0ca 403c fe7c 183c
000002e0: 7325 843b cbac 99bd 2dc2 e6bd a458 b5bd
000002f0: 0b6b 95bc 8978 bb3b 7a27 89bd 18c0 00be
00000300: 3f8a fcbd f398 92bd 06cc cabe 9a47 843b
00000310: c210 2cbe 16be 21bf 6756 fcbd c60e f53d
00000320: 10e4 b5bd a23a 49be 0cb1 8cbd 4dc1 3a3e
00000330: d459 483e 758e 7a3e 2b91 71be f94a b5bc
00000340: f18a c0be f836 1a3f 6dda bb3e cd1c 95bd
00000350: c817 d53d 3ac0 b6bd 7574 1fbe 32bc 0fbb
00000360: 042e f63e 2199 e53e a7d1 5e3e 1c8b f33e
00000370: 2109 bf3e b7cf e53d d97a 31be a3bd 913d
00000380: 8bfb d03d f906 0a3e ec01 bcbd 5135 fabd
00000390: 11e0 08be b74e 533d bba0 f13e 06f2 8b3e
000003a0: 7b3b 70bd a85b cd3e 1f59 c7bb c06b c53d
000003b0: f434 963e 7c32 5f3e 7358 8dbc ee75 203e
000003c0: ef8e fcbd a952 95be 8cd4 0c3d 721b 0ebc
000003d0: 1a86 ee3b 6fb6 9bbe 1070 963e 12dc 8f3e
000003e0: 4c7f 273e 6172 823e fd3a b2be dbac e53e
000003f0: 04c7 6cbd 6ef8 153f 472c 8e3e 688b f23e
0.016225375 -0.09066382 0.09487843 -0.06839377 0.10831612 0.05497578 0.18939368 0.037158415
-0.019279791 0.01281678 -0.12108643 -0.07767389 -0.06259363 -0.005623691 -0.00021176142 0.05751319
0.16457881 -0.06963597 -0.049347512 0.061175596 0.028728351 -0.05971384 -0.06965383 0.13578348
-0.21251085 -0.107584715 -0.08454512 -0.09024482 -0.11958152 0.11372591 0.09274222 0.09842848
0.016436424 0.050726704 -0.026331326 0.04390118 0.12886578 0.026080048 -0.21527888 0.060524404
-0.007427111 -0.1954668 0.022051655 0.13409676 0.05231278 -0.012171841 0.09703603 0.07013801
0.08238168 0.042975266 0.10371952 -0.035793837 0.072238386 0.03984498 -0.0019042632 -0.17655629
0.0260911 -0.14574942 0.17501873 -0.21119748 0.07135982 -0.004026556 0.04833067 -0.056837395
-0.07556667 -0.034058534 -0.100699395 0.055212457 -0.067519516 -0.3674213 -0.234773 0.012119498
-0.045985054 0.029952535 0.04539885 0.20499918 0.13705201 0.06473496 -0.11616514 -0.040044334
-0.23355684 0.3024077 0.16374582 -0.06861601 0.06929515 -0.071691 -0.05319783 -0.09095777
0.6009797 0.3565138 -0.08049695 0.4687529 0.2642428 0.14895202 -0.0061404663 0.07346998
-0.013887232 0.08643469 0.0038809741 -0.064241625 -0.039114986 0.049483564 0.45600584 0.1526345
0.09302055 0.4989381 -0.00066832424 0.032822125 0.34185863 0.14367136 -0.12742569 0.17136279
-0.089899726 -0.08975799 -0.14614844 -0.116267234 0.037347578 -0.20184286 0.102068126 0.2488574
0.0363181 0.26079684 -0.2958351 0.22201262 -0.118069805 0.2928265 0.121173814 0.053092968
0.022264257 -0.10317566 0.08600163 0.075031675 -0.09331331 0.548983 0.18116719 0.07665589
0.20662725 0.07502359 -0.13615967 0.047489762 -0.00022643158 0.042993482 0.067994505 0.14962436
0.05988881 -0.076458454 -0.14541006 0.029415373 0.07834139 0.135243 -0.056629416 0.09222722
-0.08514196 -0.22159773 -0.14770274 -0.09750336 0.029567007 0.036978923 -0.043242697 0.051944144
0.09287521 -0.12676717 -0.032041255 0.14025812 -0.018488698 0.02641442 -0.30084503 -0.05903701
0.024907907 -0.2169751 -0.009302848 0.10244041 -0.03033645 -0.061456233 -0.04767274 0.058731083
-0.016654214 0.0854105 0.06438178 -0.026476106 0.018305477 0.13356532 0.011767119 0.009307144
0.0040327846 -0.07503661 -0.11267505 -0.088547975 -0.018239519 0.005721156 -0.06696983 -0.12573278
-0.12331056 -0.07158079 -0.39608783 0.004036856 -0.16803268 -0.63180673 -0.123211674 0.119657084
-0.0888139 -0.19651273 -0.068697065 0.18237801 0.19565517 0.24468406 -0.23590533 -0.022130476
-0.37606004 0.60240126 0.36690083 -0.07280884 0.104049265 -0.08923383 -0.15571769 -0.0021932242
0.48081982 0.4484339 0.21759664 0.4756707 0.37311652 0.11221259 -0.17332019 0.071162485
0.10204228 0.13479222 -0.09180054 -0.122172005 -0.13366725 0.05158874 0.4719294 0.27333087
-0.058650475 0.4010899 -0.006083622 0.09639692 0.29337275 0.21796602 -0.01725409 0.15669987
-0.1233195 -0.29164627 0.034382388 -0.008673536 0.0072791697 -0.30412623 0.29382372 0.28097588
0.16357154 0.2547789 -0.3481063 0.4485844 -0.057806984 0.585822 0.27768156 0.47371984

layer.4.bias f4 [128]
00000000: b6b4 253e ddcc 933e 1f4d 153e 1c21 923e
00000010: 3f9d dabb 624d ad3d ed60 543e 0538 99bd
00000020: adf6 4b3e b22f 833e 71f9 cd3e 0cb8 ecba
00000030: 5d29 2e3e d026 7fbd 0cb4 653e 535e 9e3e
00000040: 9c41 2b3d e48a 0e3e b57e ecbd dd5d 25bd
00000050: 5d10 ef3e 1d70 fdba e793 eb3c 886d e73e
00000060: afab 9d3e 44c8 0e3e 9831 963e c8aa 0f3e
00000070: 3ed9 5d3e dc6e 0b3d 080e 843e 0355 9d3c
00000080: ab84 523e 2ba8 f73e f03c f53a 0869 a83e
00000090: 061e 5fbe 5617 863e 1991 eb3d 22d0 23bd
000000a0: 5f1c dbbd ae96 053e bc25 c93e 7411 223e
000000b0: 24d0 8b3e f850 413c 98cc 343e 0e11 353e
000000c0: ce19 a53e 8e6c 0fbd 75c9 d13e f9d4 243e
000000d0: 01b0 5bbe 4f35 293f 27e0 dabc dae9 453e
000000e0: bc5e 2a3e db4a f73d 1fc8 51bd 4d1a 5b3e
000000f0: a1ea 2d3e df3f 2e3e 2430 363f 3440 53bd
00000100: 81d0 d3bc a965 a3bd 1cfe 893d e378 ab3e
00000110: b674 8a3e 440d 8e3e 0b6d 823e 1cd0 1f3e
00000120: ab39 58be 243a 63be 6650 293e d700 e73d
00000130: 6281 9c3d 5c8b ba3e ca5c f63e c5d2 6e3e
00000140: 032c a5bb 3a06 183e 6c56 643e 56a7 693e
00000150: e550 123f 41c1 3d3a b9aa a5bc 2d8d 6d3b
00000160: b8aa 4bbe dcba 923d e9c7 3a3f 6eb8 9b3d
00000170: 310a 813e f07d a13e f630 bd3c d502 08be
00000180: b557 8bbc 82ca 153e f8ba 823e ee93 253e
00000190: b6c7 c03e 4d22 943e d95a a73c ae61 d1bc
000001a0: 2009 753e 9704 113e 727c 853e 1604 00be
000001b0: dba7 1f3e 07fb bd3d 6a64 073e 37ff 293e
000001c0: ff37 be3d 2d5a 0d3d 753c 8c3e ea71 603e
000001d0: d9ad 6f3d 22fb 793d 50c7 b93b 1030 b03e
000001e0: 362a 553c 6b87 6b3d 9bb7 4e3e d2a1 ccbc
000001f0: 2286 623d 8617 ae3c 23e6 cc3d 3bbb 273e
0.16182217 0.28867236 0.145802 0.28540885 -0.006671577 0.08462025 0.20740099 -0.07481388
0.19918318 0.25622326 0.4022937 -0.0018060221 0.17007966 -0.062292874 0.22431964 0.3093134
0.041810617 0.1392017 -0.11547605 -0.040372718 0.46692172 -0.001933578 0.028757049 0.45200753
0.30795047 0.13943583 0.29334712 0.14029992 0.21664903 0.03404127 0.25791955 0.019205576
0.20558421 0.4837049 0.0018710177 0.32892632 -0.21788797 0.2618968 0.115022846 -0.039993413
-0.10698771 0.13045761 0.39286602 0.1582697 0.27307236 0.01179909 0.17656171 0.17682287
0.3224625 -0.035015635 0.40974012 0.16096868 -0.21453859 0.6609697 -0.026718212 0.19327489
0.16637701 0.120748244 -0.05121624 0.21396752 0.16984035 0.17016552 0.71167207 -0.0515749
-0.025856258 -0.079783745 0.06737921 0.33490667 0.27042168 0.27744496 0.25473818 0.15606731
-0.21115749 -0.22190148 0.16534576 0.11279457 0.07641865 0.36434448 0.48117667 0.2332259
-0.005040647 0.14846125 0.22298592 0.2281774 0.57154685 0.0007238575 -0.020223008 0.0036247477
-0.19889343 0.07164547 0.7296129 0.076035365 0.25203088 0.31541395 0.023094635 -0.1328233
-0.017009595 0.14628032 0.2553327 0.16169712 0.37652367 0.2893242 0.020429062 -0.025559273
0.23929262 0.14161907 0.26071507 -0.12501559 0.15591376 0.09276395 0.13221899 0.16601263
0.09288024 0.034509826 0.27389875 0.21918455 0.058515403 0.061030515 0.005669512 0.3441167
0.013010552 0.05750219 0.20187227 -0.024979506 0.0553037 0.021251451 0.100048326 0.16380017

layer.6.weight f4 [23, 128]
00000000: e26c 04bd 481e 29bd 2a57 6d3c 6a3a 073c
00000010: 96b8 e53c f017 9bba 7a42 733d 20d5 1ebd
00000020: 833c ae3a c970 413c 41b8 06bc 1c3a b5bc
00000030: f021 663c b027 df3c 3b65 a83d 7fe2 bf3c
00000040: 22f2 843d b443 8f3d 51e4 48bd 1f0d 59bc
00000050: 699f 5ebd f118 32bb fd4e b1bc a8fd 5e3d
00000060: 16d5 9abd 0fc2 f23c c8c7 bc3c 20bf 47bd
00000070: a3da 08bd cc80 1ebc 56c2 fb3c 4f7e 4ebc
00000080: 7f28 2c3d 7855 1a3d e2ad 40b7 ef38 0f3d
00000090: 9061 82bd 184a a539 ea72 63bc 22c1 183d
000000a0: f904 a5ba 0ccc 983d 0c2a c43c 6afd ef3c
000000b0: 27ab 503d 3f82 193d 3f01 3cbd 59e6 413d
000000c0: fcc2 183d 80f8 36bd 7b2a 07bd 6fa0 42bd
000000d0: bedd acba c4fc 8c3d b140 643c 8b60 3a3d
000000e0: 96df 2abd 3e92 2a3c c03f 2b3d 3e48 d63c
000000f0: ffce 19bd 23f5 f8bc eb7f a9bc 3ad1 36bd
00000100: f47f 75b9 42a3 d2bd 1e44 db3c 167a 20bd
00000110: 5956 6f3c 2b83 d33a abea dbbc b577 61bd
00000120: a835 a1bd 4fe5 3abd 268e ec3c 8f26 e4ba
00000130: 52f6 2fbd 3819 e8bc c068 653d 7f74 bebb
00000140: 29ca 2b3d 9cc2 7dbd 6044 d3bb 6821 04bb
00000150: 624b 973d 643c 203e e4ff 65bc c2aa 963b
00000160: 7d42 51bc 064c a13c 1483 babd 915b b2bc
00000170: 378d a73c 1797 76bd 531f 1b3d 20bf 553c
00000180: 9450 e7b7 3f3b 5a3a e711 a6bc bdfb 1bbc
00000190: df07 e1bb 4154 3f3e af4a 7d3d 39b4 3c3d
000001a0: 6dd2 8cbd cb65 0f3d ae68 a33b 5346 abbd
000001b0: 0cf3 3abb 78c1 f03c 0763 933d b0fe 583d
000001c0: e666 98bc b6cc bb3c f43b c93d fce2 6cbd
000001d0: 1e72 b4bd 50fe 233d 0cce 68bd cb39 bc3d
000001e0: 63cf 973c dbe9 713d 2455 923d 4186 eebd
000001f0: d7b6 d43d fff6 e33c 6339 c4bc 41a4 38bd
00000200: 7a0e c8bc 5db2 8abb 9cb2 61bc 3dc2 9fbc
00000210: 6dd3 40bd d867 9a3c c411 003c 2c9b bd3c
00000220: 6d5a 663b 606a acbb d8ee 02bb 8e93 f0bb
00000230: 6c75 7b3b cd84 de3b f72f 303c 8b04 66bb
00000240: 58df 7bbc 2c57 eabc da0a 643c aa39 f03b
00000250: c998 363d d5f8 a1bb f925 b43b 2474 cabb
00000260: 85e6 513c 95ba c6bc 310a 1d3c e9a3 193c
00000270: 6736 d339 e3be f23c 6c52 34bb 41a3 e03b
00000280: 4140 a73c 5eb5 723c 49be 4a3c 9221 00bd
00000290: fde6 273d 8675 be3c c573 44bc 8e2e 043d
000002a0: 5bec 2f3d 676f a4bc 91f5 913b f3e8 d5b9
000002b0: fd3c 93bd a804 9b3c d841 8dbc 1949 123d
000002c0: 27ca 7abc f4f5 cbbc acaf 973c f40a f9bb
000002d0: 342e 303a b658 b5bb 1218 e53c f37e df3c
000002e0: db7e 633c 4635 1abd 3663 8b3c fef8 39bc
000002f0: cb0a 5abc 25a6 0cbd c26f 0f3d ea75 783b
00000300: 8701 9abc 0aff d5bb 737b 0fbb ff7b 0abd
00000310: 9eb6 82ba 0a77 6bbc b851 00bd 3031 4e3c
00000320: b8c8 4b3c c530 d9ba 446c d93c 30d2 66bc
00000330: e31e c73c 3eee 7abb 8bf4 1abc 2ac6 ad3c
00000340: 13b8 f4bc 5277 733b bdd2 8bbc 9a3a 933a
00000350: 6e0f ca3c d3f2 55bc 6407 323b aea1 bfbc
00000360: ff0c 6c3c 2219 3bbc 8560 99bc 96db 8e3c
00000370: 8376 e13b 5539 4cbb 104a deb9 75a4 003d
00000380: 20a4 433c 9045 933c 36d1 2abd 9959 00bd
00000390: ee08 2cbd 56fa 6bbc 17b5 33bd 0d79 52bb
000003a0: e876 30bc e2d6 073d a9ac b43c c72d f5bc
000003b0: 6c34 cbb9 4b36 4ebb f82c 713d 1430 4a3c
000003c0: b0c5 433c 8454 52bb 39b8 f5bb 1e02 12bc
000003d0: 09fa 1d3c 2e5b 113b f994 bdbc f2b9 4ebb
000003e0: 4490 d73c 1854 b5bb bebb f13c 1265 d93c
000003f0: 285f 1d3b 7eb5 56bc c4ab b73c cbe3 d33c
-0.0323304 -0.041288644 0.014486114 0.008253673 0.028042119 -0.0011832695 0.05938957 -0.03877747
0.001329318 0.011806675 -0.0082226405 -0.022122435 0.014046177 0.027240604 0.08222433 0.023423431
0.06491496 0.06995335 -0.049045864 -0.013247757 -0.054351244 -0.002717551 -0.02164411 0.054441124
-0.07560174 0.02963355 0.023044482 -0.048766255 -0.033411633 -0.009674262 0.030732315 -0.0126033565
0.042030808 0.037679166 -1.1484577e-05 0.034966405 -0.06366265 0.00031526457 -0.013882378 0.03729356
-0.0012589983 0.07460794 0.02394583 0.029295642 0.050944474 0.037477728 -0.045899626 0.047338817
0.037295327 -0.04467058 -0.032999497 -0.047516283 -0.0013188643 0.06884149 0.013931439 0.045502227
-0.041717134 0.010410843 0.041808844 0.026157495 -0.037550922 -0.030390328 -0.020690879 -0.044633128
-0.00023412687 -0.10285045 0.02676588 -0.03917893 0.014607989 0.0016137114 -0.026845297 -0.055045802
-0.07871562 -0.045628842 0.028876375 -0.0017406511 -0.04295952 -0.028332338 0.0560081 -0.0058122273
0.04194084 -0.061953172 -0.00644736 -0.0020161513 0.07387425 0.15648037 -0.01403806 0.0045979926
-0.0127722 0.019689571 -0.091070324 -0.021772178 0.020453079 -0.060202684 0.03787167 0.013046056
-2.7574868e-05 0.00083248684 -0.020272208 -0.009520468 -0.0068673934 0.18684484 0.061838802 0.04607031
-0.06876073 0.035009187 0.004986844 -0.08363023 -0.0028526215 0.029389128 0.07196622 0.052977264
-0.018603753 0.022924762 0.09825888 -0.057833657 -0.088108286 0.040037453 -0.056837127 0.09190711
0.018531507 0.059060913 0.071451455 -0.11646701 0.103864364 0.027827738 -0.023953145 -0.04507852
-0.024420965 -0.0042326883 -0.013775494 -0.0195018 -0.04707663 0.018848345 0.007816736 0.02314528
0.0035149113 -0.0052617043 -0.0019978788 -0.0073418086 0.003836955 0.0067907334 0.010753623 -0.0035097923
-0.0153730735 -0.02860602 0.013918603 0.007331093 0.0445793 -0.004942993 0.0054976908 -0.006178396
0.012811308 -0.024258891 0.009584949 0.009377458 0.0004028559 0.029632038 -0.0027514948 0.006855399
0.02041638 0.014813749 0.012374469 -0.031282015 0.040991772 0.023249399 -0.011990492 0.03227096
0.042950016 -0.020072652 0.0044543226 -0.00040800087 -0.07189367 0.018923119 -0.01724331 0.035714243
-0.015306986 -0.024897553 0.018516384 -0.0076001827 0.0006720752 -0.005534257 0.02796558 0.027282214
0.013885225 -0.03764846 0.01701508 -0.011350868 -0.013308237 -0.034338135 0.03501869 0.003791208
-0.018799556 -0.006530647 -0.002189365 -0.03380966 -0.0009972637 -0.014371643 -0.031327933 0.012584969
0.012437992 -0.0016570321 0.026540883 -0.014088199 0.02430672 -0.0038288976 -0.009457718 0.021212656
-0.02987293 0.0037149978 -0.017068261 0.0011232675 0.02466556 -0.013058382 0.002716505 -0.023392525
0.014407395 -0.011419566 -0.018722782 0.017438691 0.006880583 -0.0031162102 -0.0004239832 0.03140684
0.011940986 0.017977506 -0.041703425 -0.031335447 -0.042000704 -0.014402946 -0.043873873 -0.003211561
-0.010770537 0.033163913 0.022054987 -0.029929055 -0.00038758235 -0.0031465467 0.058880776 0.012340564
0.011948988 -0.0032093832 -0.0074987677 -0.008911638 0.009642133 0.0022179591 -0.023142325 -0.0031543938
0.026313908 -0.0055337064 0.029508468 0.026537452 0.0024013016 -0.013104795 0.022420771 0.025865456

layer.6.bias f4 [23]
00000000: 8870 eb3e a1e3 9a3d 85c8 943e 5ad4 353d
00000010: a641 8c3d 0d69 da3e 9fe8 ec3e 14d2 a13e
00000020: 6cb6 c83d 9b6c ee3e 9ba5 f43d cb4c bc3d
00000030: c28a a63d 6cd5 19bc 82dc 303c 96a2 2e3d
00000040: 884f 893d c8f2 063f a5eb db3d c219 923c
00000050: 19a5 45bd c3f6 233e 6404 4d3d
0.45984292 0.07562948 0.29059234 0.044391967 0.06848459 0.42658272 0.46271226 0.3160559
0.09800419 0.46567234 0.11945649 0.091943346 0.08131935 -0.009389263 0.010794761 0.042635523
0.067046225 0.52714205 0.10738305 0.017834548 -0.048253153 0.16012101 0.050053015
