weight/save_480.pth (torch_old, 72900 bytes, 8 tensors)

layer.0.weight f4 [32, 139]
000000 d5 4a a4 3d a2 d8 7e be 74 04 2e bd 55 92 a4 bd
       0.080220856 -0.24887326 -0.042484716 -0.08035723
000010 af d5 7f bd ba 6d f1 bc 06 12 88 bd 7f 27 77 3b
       -0.062459644 -0.029471267 -0.06644063 0.003771275
000020 a2 8c 86 bb 36 bd cb bd 64 04 1d bb 7a d9 f2 3c
       -0.00410612 -0.099481985 -0.0023958916 0.029644717
000030 5f a0 34 3d 28 bb 62 3d 12 31 c4 bd 19 03 8d bc
       0.044098254 0.055354267 -0.09579672 -0.017213391
000040 59 5b 86 bc 1e d5 18 3c 51 bb a3 3c 93 51 81 3c
       -0.01640098 0.009328155 0.01998678 0.015785968
000050 01 fe 82 bd 2e 43 3e 3d 9c 76 2b bd 71 89 8d 3a
       -0.06396104 0.046450786 -0.04186116 0.0010798407
000060 94 4a 13 bd f9 86 26 3d 85 58 8c 3d d5 24 40 3d
       -0.035959795 0.040656064 0.06852821 0.046910126
000070 fd 44 c4 bc 74 61 3e bd 8f ab 24 3d a3 45 36 bd
       -0.023958677 -0.046479657 0.040202674 -0.044500005
000080 98 e8 02 3d af d3 27 bd 1c c4 96 bd ec 75 bf bc
       0.0319601 -0.04097336 -0.07361624 -0.02337166
000090 21 0d 8b 3c 9f 68 54 bb 81 aa 92 3c 1c 4a 6c bd
       0.016974034 -0.0032410992 0.017903568 -0.057687864
0000a0 31 17 d5 3c 0f 46 68 3d 1e 70 4d 3d ce a1 a7 bc
       0.026012035 0.056707438 0.05015575 -0.020462897
0000b0 d4 46 38 3c cf b0 c7 3c 82 83 8d 3c 77 e2 29 3c
       0.0112473555 0.024376301 0.017274622 0.010368935
0000c0 c7 53 32 3d 40 ed 85 bd 78 68 00 bd 75 19 8a 3c
       0.043536928 -0.065393925 -0.03134963 0.016857842
0000d0 ea 7b 64 3c 6d a0 8e 3d b2 57 34 bd 6d 9e aa 3d
       0.013945559 0.069641925 -0.044028945 0.083309986
0000e0 6e 4d 0b bd 3f b3 55 bd d8 0f 97 3c e4 6d 5a bd
       -0.03400939 -0.052172896 0.018440172 -0.053327456
0000f0 f8 d2 80 bc 1a 18 1d bd 40 ae 2f bc 38 f7 86 3d
       -0.015725598 -0.038353063 -0.010722697 0.06590122
000100 77 80 91 bd d2 f2 de 3c 2e e9 53 bd 2f e5 f0 bc
       -0.07104581 0.027215395 -0.05173605 -0.029406158
000110 3f 55 3c bd 91 de f5 bc 8c 88 89 bd 3c d4 76 bd
       -0.045979735 -0.030013354 -0.067154974 -0.060260996
000120 95 a0 2b 3c b2 11 5a 3a ec 89 bf bc 35 85 4d 3c
       0.010475297 0.0008318677 -0.023381196 0.012543966
000130 2f fe de 3c 16 e2 01 bd 83 5c 9a bd 22 7b 87 bd
       0.027220814 -0.031709753 -0.075371765 -0.066152826
000140 a3 2a 23 bd 76 0e 82 bc 62 12 46 3d ae 1d 13 3d
       -0.039835583 -0.015876036 0.048357375 0.035916977
000150 2f 3e fb bc 00 bc a7 bd b6 e8 d1 bc 88 5c 4b bd
       -0.0306693 -0.08190155 -0.02562366 -0.04964879
000160 c4 14 49 bd d2 f7 57 3d 30 c2 18 3c c3 2f 45 bd
       -0.04909207 0.052726574 0.009323642 -0.048141252
000170 1f ec 20 3b 68 5a cd bc 00 28 90 3c f9 3b 70 bd
       0.0024554802 -0.025067523 0.017597198 -0.058650944
000180 ae 47 aa bc 23 34 53 3b aa e7 49 3d da 30 30 bd
       -0.020786133 0.003222712 0.049293198 -0.04301534
000190 af 95 3c bd cc 10 3c bd 57 39 98 bd 60 63 09 3c
       -0.046041187 -0.045914456 -0.07432812 0.008385509
0001a0 32 62 68 bb 7b d6 06 3a 70 1b 88 3c 24 2b ac bd
       -0.003545892 0.00051436544 0.016614646 -0.08406666
0001b0 cf f9 a5 3c 36 23 68 3d 6a f7 9d bd e1 8a 50 3d
       0.02026072 0.056674205 -0.07713206 0.050913695
0001c0 15 b9 38 bc f5 ae 95 bd e2 11 12 3d 8d 74 3d bc
       -0.011274596 -0.07308761 0.035661586 -0.011563432
0001d0 2d 88 72 3c c4 7c 34 3d 9c e1 21 bd 7b 43 7b 3d
       0.014802975 0.0440643 -0.0395218 0.06134365
0001e0 4f 2e c6 3c 1d 64 03 bc cf 16 e3 3c 73 79 50 bd
       0.024192004 -0.008019474 0.027720837 -0.050897073
0001f0 8d 27 5a bd a6 67 5e 3d 65 00 0f bd e5 0b 57 bd
       -0.053260375 0.054298066 -0.034912486 -0.052501578
000200 2c 24 88 3b 82 99 54 bd ee ac 70 bc 25 de 47 bd
       0.0041547026 -0.05190421 -0.014689667 -0.048795838
000210 ad a3 a4 bd f8 cd 9c bd e5 3f 86 bd 59 e1 a9 bd
       -0.08039031 -0.07656473 -0.06555156 -0.08294935
000220 4e 03 22 3d 62 65 bf bb fd b3 84 bb 02 3e 46 3d
       0.039553933 -0.005840943 -0.0040497766 0.04839898
000230 b1 b6 5f bf 9a 5d 27 3f 52 66 76 3d 47 ff 15 3f
       -0.8738814 0.653772 0.060156174 0.5859265
000240 2a 9a 3a 3d 45 a0 90 bd 99 4b 54 bd 9b 9a 00 bf
       0.04555718 -0.07061819 -0.051829908 -0.5023591
000250 a4 f9 e5 be 07 33 ee be 5e fa 17 b9 c2 32 82 3d
       -0.44917023 -0.46523306 -0.00014493751 0.063573375
000260 20 59 12 bc 1e 01 31 be 98 67 c8 3b 56 e4 90 bd
       -0.008932382 -0.17285582 0.006115865 -0.070748016
000270 8d 14 95 bc bb 8d 47 3d bb 0a a3 3a 1f 3f 71 3d
       -0.018198276 0.04871915 0.0012439111 0.058898088
000280 f2 b7 47 3d a4 41 5c 3d 65 3f e7 bc 4e 08 39 3d
       0.04875941 0.053773537 -0.028228471 0.045173936
000290 a7 08 ae bc eb 96 e1 3c 51 0f a5 bd b6 69 07 bd
       -0.02124436 0.027537784 -0.08059562 -0.0330598
0002a0 91 87 78 ba 10 2b 81 3d 68 a3 b3 bc 7c ff 77 bc
       -0.000948065 0.06307042 -0.021928504 -0.015136596
0002b0 41 d5 ce bc 15 b3 80 bd 0e 63 b2 bc 46 cd 06 3a
       -0.025248172 -0.06284157 -0.021775749 0.00051422825
0002c0 f7 37 79 bd 31 92 b9 bc b3 34 83 bd 87 7c 99 bb
       -0.060844388 -0.022652717 -0.06406536 -0.0046840343
0002d0 9d 12 82 3d c4 48 84 bd c3 7a 9b 3c 9c 82 c0 3c
       0.063512065 -0.064591914 0.018979436 0.02349978
0002e0 ed 00 36 3c 02 3e 81 3b 21 16 40 bd fa 78 9e bc
       0.011108619 0.0039441595 -0.046896104 -0.019344795
0002f0 53 62 0c 3d 23 a9 5f 3b e3 cf bb 3d 62 75 8e 3c
       0.034273457 0.0034127913 0.091705106 0.017389957
000300 07 7e 3c bd 07 0a 70 bc 5a 5a e1 bb ba 43 79 bc
       -0.046018627 -0.014650828 -0.006877226 -0.015213901
000310 66 f0 c7 bb d4 98 07 bb 39 d9 8e bd e1 fb 58 bc
       -0.006101656 -0.0020690458 -0.06975026 -0.013243646
000320 50 60 2e bd f1 76 35 3d 92 7b b7 bd b2 6d 5c bc
       -0.04257232 0.044302884 -0.08959116 -0.013453888
000330 5b 20 10 3d 0f 17 84 bc 83 e6 c0 bd 49 fb b1 bd
       0.035187107 -0.016124276 -0.094189666 -0.08690507
000340 a2 18 04 bd 3e aa 49 bd 56 6e 02 3c e8 4c 24 3d
       -0.032250054 -0.04923462 0.007960876 0.040112406
000350 43 79 fe 3a 83 23 ab bd 99 84 e4 ba 61 ab 2c 3d
       0.0019414801 -0.08356383 -0.0017434537 0.042155627
000360 9c 53 1c bd bf 95 a5 3d e8 38 8f bd 75 93 b9 3c
       -0.038165674 0.080852024 -0.06993276 0.02265332
000370 ce 40 bc bc fc fa 7a bd f6 7c ca 3d 00 81 7e bd
       -0.02298012 -0.061274514 0.09887116 -0.062134743
000380 31 9f 44 bd ec d2 62 bd ae 75 0d bc f9 97 d6 bd
       -0.04800338 -0.055376932 -0.008634014 -0.10478205
000390 c2 39 1b 3d c4 9c 8f 3d 80 06 e0 bc c6 9c 70 3c
       0.03789688 0.070123225 -0.02734685 0.014685815
0003a0 47 5f bb 3c 02 83 66 3c 1f 0a 95 3c ee 3e 06 3d
       0.02287258 0.014069321 0.018193303 0.03277486
0003b0 f4 4e 9c bc 32 7f 50 3d e2 59 48 bd 1b 03 10 bd
       -0.019080617 0.050902553 -0.048913844 -0.03515921
0003c0 b5 9d 51 3c 6e a8 0a 3c 4c fe 7c bd 21 66 56 bd
       0.012793948 0.008463008 -0.061765954 -0.05234349
0003d0 a6 90 e2 bc 76 b1 69 bc b5 10 c7 bd 53 67 c4 3c
       -0.027656864 -0.014263501 -0.097199835 0.02397505
0003e0 ce f2 93 3c 46 4c be bc 94 52 9b bd 50 c1 38 3c
       0.018060114 -0.02322973 -0.0758411 0.011276558
0003f0 b1 3c 33 3b 48 8d 84 bd b8 0d ed 3c 85 00 37 3c
       0.0027349407 -0.0647226 0.028937206 0.011169557

layer.0.bias f4 [32]
000000 1d 65 43 3c 42 6f 16 3f 50 d1 57 bc 1b 7b e7 3c
       0.011925963 0.58763516 -0.013172463 0.028256943
000010 7a aa c9 bd 5a 4c 14 3d 32 64 8c bb bb 94 f2 3c
       -0.09846969 0.036205627 -0.004284405 0.029611936
000020 8a 6a 29 bd df b9 72 3d bb 4c a7 3d 87 07 a2 3e
       -0.04136137 0.05925929 0.08168932 0.31646368
000030 2c 52 a0 bd fb 8d 1e 3f 7f d8 01 3e bf 79 6a 3d
       -0.07828173 0.61935395 0.12680243 0.057245012
000040 ba ca 29 3d 3d 64 47 bc 30 e3 c0 3e 60 82 25 3f
       0.0414531 -0.012169895 0.3767333 0.6465206
000050 db 97 c7 bd dc df 24 3f 10 07 46 bd 4e 89 a5 3e
       -0.09745761 0.6440408 -0.04834658 0.32331318
000060 73 3c 9e bd e8 21 19 3f c6 cc bd bc 23 75 4a 3d
       -0.077263735 0.5981736 -0.023168933 0.049428117
000070 e7 a2 55 3f 0d 73 df 3c ac 21 0c be b7 d3 c4 bc
       0.83451694 0.02727654 -0.1368472 -0.024026735

layer.2.weight f4 [64, 32]
000000 68 af 25 3d c8 e2 af bd fc 16 c3 bb ff cc b5 3d
       0.040450484 -0.08588177 -0.0059536677 0.088769905
000010 9a 9d a7 3d 57 4d 43 bd 05 59 77 3d f4 9e 0e 3e
       0.08184357 -0.04768118 0.06038763 0.13927823
000020 89 9a 2e 3e fc 06 15 be cd 74 e5 3d e8 e6 8a 3d
       0.17051138 -0.14553446 0.112039186 0.06782323
000030 15 ef 08 3e 76 3d aa bd 09 8d 2b 3e 01 21 95 3d
       0.13372453 -0.08312504 0.1675302 0.072816856
000040 26 b8 2e 3e d5 e2 d1 bd 03 af 89 3e 62 df 3c 3d
       0.17062435 -0.10248343 0.26891336 0.046111472
000050 7c 3d 1d bc ea 74 21 be cb e3 f6 bc 88 07 86 3b
       -0.009597179 -0.15767255 -0.030137917 0.0040902533
000060 fc 76 64 3c d0 75 8e bb ea 65 2c 3e 1c 21 ba 3d
       0.013944384 -0.0043475404 0.16835752 0.09088346
000070 79 ef 98 3d 71 ee 52 3e e9 89 a4 bd 3c b6 1e be
       0.07467551 0.2059877 -0.08034117 -0.15499204
000080 e2 ef 0e bd 31 73 b6 bd e5 98 b5 3d ed 37 5b bd
       -0.03489674 -0.0890869 0.08867053 -0.05352013
000090 55 5c a9 bd e1 79 fc bd 2b 4e 2c bd 40 83 b7 3d
       -0.08269564 -0.12327934 -0.042066734 0.08960581
0000a0 95 fa d7 bd 2b 3f cd 3d 11 e7 07 bd 83 1c af 3d
       -0.105458416 0.10021814 -0.033179346 0.0855036
0000b0 7e 18 c4 bd 26 d3 41 bd 60 7e 33 3e f6 65 86 bd
       -0.09574984 -0.047320507 0.17528677 -0.06562416
0000c0 49 2b 93 3d bb bd 37 3e 80 4c a5 3d 93 cd 5f 3d
       0.0718599 0.1794347 0.08071232 0.05463941
0000d0 58 5a dc 3d d9 6e 43 3d 48 0f 57 be 9a 9a d5 bd
       0.10759419 0.047713134 -0.21001923 -0.104298785
0000e0 4b 14 15 bd 1a d9 30 bd b0 d2 1c be 43 50 08 bd
       -0.036396306 -0.043175794 -0.15314746 -0.03327967
0000f0 ed ed 0d 3d bf a6 d8 3d c6 ff eb 3d c9 dc de 3c
       0.03465073 0.10578679 0.11523394 0.027204888
000100 ef de 11 be ff 25 46 be 85 cd 07 3e 42 db 4d be
       -0.14245199 -0.19350432 0.13261993 -0.20103171
000110 4d d4 35 be 94 bb 50 be 8d 6b 0e 3d be 8c b5 3d
       -0.17756768 -0.20384055 0.034770537 0.08864735
000120 f6 c8 18 3c 6e 85 f1 3d ee 3a 19 3e cb d8 21 be
       0.009325257 0.11793028 0.14963886 -0.15805356
000130 53 e5 99 3d 9d 3a e6 bd 47 54 26 be 49 fd 08 3e
       0.07514443 -0.11241648 -0.16243087 0.1337787
000140 1f db 5e 3d 82 dd 92 3d cb cc c3 bc 73 df 86 3d
       0.05440819 0.071711555 -0.023901364 0.06585588
000150 c4 d5 1c 3e 7b 0b d5 3c aa c2 f1 bd dd b6 1c 3e
       0.1531592 0.02600645 -0.11804707 0.15304132
000160 da 8c 1a be 9d be c3 bd ae 3b 17 be c5 f2 e8 bd
       -0.15092793 -0.09557841 -0.1476886 -0.113744296
000170 ad 96 44 bd 1d 8b 14 3e 59 6e b2 bd cb 3a 1b bb
       -0.047995258 0.14506193 -0.087124534 -0.0023686166
000180 0a a9 bf 3d 19 0d 1a 3e c4 a8 75 be d2 df c6 bd
       0.093584135 0.15044059 -0.2399016 -0.09710659
000190 9b d3 52 be 50 2a 5f be fe 97 4d bd 0c 0f 34 3d
       -0.20588534 -0.21793485 -0.05019378 0.043959662
0001a0 7a e6 b8 bd c2 d2 48 3d 3b 39 fd 3d 95 b5 14 3f
       -0.09028335 0.04902912 0.123644315 0.5808957
0001b0 2a 20 c3 3c f6 3b 0d 3f 12 2c ba 3d 6c b2 3c be
       0.023819048 0.5516962 0.09090437 -0.18427438
0001c0 8b b6 81 3d 11 e8 a6 3d 45 b9 28 3e 49 d6 09 3f
       0.063336454 0.08149732 0.16476925 0.538426
0001d0 40 95 31 be e8 d8 96 bd 2f 88 04 be ab 91 a8 3d
       -0.1734209 -0.0736559 -0.12942575 0.08230909
0001e0 ea 68 f3 3d d6 2d ad 3d 96 82 cb bd b5 4f 83 3d
       0.11885245 0.08456008 -0.09937017 0.06411687
0001f0 ac 11 4b 3f f7 1a 20 be db 02 3e 3d 85 34 72 3c
       0.7932384 -0.15635286 0.046389442 0.014783029
000200 b9 e2 9d bb 0f a3 b3 3d 29 8f 33 3e 6e c1 66 bd
       -0.004818287 0.08771335 0.1753508 -0.056336813
000210 4d 26 73 3d f7 d5 8f bd 95 13 99 3d fc 03 22 3e
       0.0593627 -0.070232324 0.07474438 0.15821832
000220 ca 18 50 bd b0 d8 f3 bc 94 09 ae bd 0d 05 f8 bd
       -0.05080489 -0.02976641 -0.08497921 -0.12110338
000230 3d 9f c4 3c c3 de 12 3e 29 51 92 3d 43 44 12 3e
       0.024001712 0.1434279 0.07144386 0.14283852
000240 16 41 17 be b0 2e 1b 3e cc 5c 4c be df b0 18 3d
       -0.14770922 0.15154529 -0.19957274 0.037278052
000250 ad c1 36 3d 10 c2 91 3b 88 d6 84 3d 03 54 9d bc
       0.044618297 0.004448183 0.06486231 -0.019205099
000260 09 fa b9 bc 45 48 ea bd 1a df 59 3a af 20 fc bc
       -0.022702234 -0.114395656 0.0008311138 -0.030777304
000270 f0 8f 46 bc 26 ab 39 3e 2b 82 0d be 5f 24 46 bd
       -0.012119278 0.18131694 -0.13819186 -0.04837453
000280 e3 95 01 be e5 3e 3c be 0b 06 02 3d 08 04 d9 bd
       -0.12654833 -0.18383367 0.031744044 -0.10596472
000290 90 db 00 3d 52 ad 0c 3d 73 43 7b 3c ff 64 5c 3d
       0.03145939 0.03434498 0.015335905 0.053807255
0002a0 cc 92 ab 3c 4e 26 72 3d ca b1 44 3e 34 9c 56 be
       0.020944022 0.05911856 0.19208446 -0.20958024
0002b0 b4 e2 e6 3c 4d 11 80 bd 70 68 e0 bd fc 53 3a be
       0.028184272 -0.062533 -0.1095742 -0.181961
0002c0 ae ed 9e 3d 43 58 07 3e 3c 53 b8 bd 2d 24 84 3d
       0.077601776 0.13217263 -0.09000251 0.064522125
0002d0 6e 68 94 be 10 b0 b9 bd e6 0c cf bb 85 4f 0b 3e
       -0.28985924 -0.090667844 -0.0063186763 0.13604553
0002e0 0d 5e 59 be 63 57 8d bd f8 ee 2f be 7d 57 81 3c
       -0.21227284 -0.06901433 -0.17181003 0.015788788
0002f0 47 81 fe bd 22 b2 0c be 14 01 b8 3c 64 2e e7 3d
       -0.124270014 -0.13739827 0.022461452 0.11288145
000300 43 a2 ba 3d 7f 61 be bc da a8 1d 3e dc 00 3a bd
       0.0911298 -0.02323985 0.15396443 -0.045410976
000310 73 b3 2d 3d 87 97 3b be 0e e6 a8 3d 47 fb 2c be
       0.042407464 -0.18319522 0.082470044 -0.1689273
000320 24 ff f4 bd d4 d2 4b bd 5d 0d 63 3d 20 15 99 3d
       -0.11962727 -0.04976161 0.055432666 0.074747324
000330 c5 c9 e0 bd 15 b0 1b 3e 6a 09 39 3e 96 d2 9b 3d
       -0.109759845 0.15203889 0.18069997 0.076085255
000340 6d 2b d3 3b d5 7e 2b be 6c f8 fa bd d2 54 23 bc
       0.0064443857 -0.16747601 -0.12254414 -0.009968953
000350 9b 3f fd bb 3f fd 08 bd c0 c3 39 3e a9 76 d5 3d
       -0.0077285296 -0.03344464 0.18141079 0.10423023
000360 3d 5d 7f bc 24 8b ae bd 4e e5 0f 3e 44 69 18 3e
       -0.015586195 -0.08522633 0.14052317 0.14883906
000370 24 41 8c bc bb a3 88 3d 14 41 bd bd b2 91 22 be
       -0.017120905 0.06671854 -0.09240928 -0.15875891
000380 02 76 4c bd f0 77 08 3e 11 9a 6c bd 82 62 74 bd
       -0.04991723 0.13327003 -0.057764117 -0.059664257
000390 c3 e9 9a 3d 54 52 5c be 55 01 41 bd 85 cb 21 be
       0.07564118 -0.2151578 -0.04712041 -0.15800293
0003a0 da 62 be 3d 4b 5c 97 3c 41 ea af 3d f6 9c 7b 3d
       0.09296198 0.018476626 0.08589602 0.061428986
0003b0 67 af cf bd 2c 84 16 bd aa 90 37 be f2 7f 28 3c
       -0.10140877 -0.036747143 -0.17926279 0.010284411
0003c0 dc 00 8c bd af df dc bd c5 51 36 bd 8c 05 13 be
       -0.068361014 -0.10784852 -0.044511575 -0.14357585
0003d0 91 cf 63 be 8e 45 ba 3b b5 15 bc 3d 24 e3 ed 3d
       -0.22247149 0.005684561 0.09183828 0.11615589
0003e0 12 dd 38 be 58 b0 00 3e 01 88 56 be 75 92 0d 3d
       -0.18053082 0.1256727 -0.20950319 0.0345635
0003f0 96 b7 71 be 7c f8 18 3e 7b 4b b1 3c 1c 7e 98 bd
       -0.23605189 0.1493854 0.021642437 -0.074459285

layer.2.bias f4 [64]
000000 fe 5e 19 3f bc 35 84 3b e1 48 da 3e 7a fd 9a 3e
       0.5991057 0.004034726 0.42633727 0.30271512
000010 8a 25 bd 3c 5a 41 86 3f 73 13 48 bd b6 9d 21 3e
       0.02308919 1.0488694 -0.048846673 0.15782818
000020 c8 5a b2 3e b9 bd f1 3d 77 28 02 be a1 df 2e 3e
       0.34834886 0.11803765 -0.12710749 0.17077495
000030 91 60 92 3e 1b 7d 7c 3e 5b 44 88 bd a2 67 bf bd
       0.285893 0.24657099 -0.06653663 -0.09345938
000040 80 67 4f 3e ba df 14 3e b4 71 f9 3d ab 3c 35 3e
       0.20254326 0.1453847 0.1217989 0.17698924
000050 60 33 8b bd c6 ea 7d 3e b9 ce 71 3d 62 33 21 3d
       -0.067969084 0.2479659 0.059035037 0.039355643
000060 7d 8f de 3d 40 54 81 3e 68 08 de 3c 6d 56 02 3e
       0.10867212 0.2525959 0.027103618 0.12728281
000070 2e 0c 12 3e 5b ca 1c 3e 96 b9 cd 3e 77 4c e7 3e
       0.14262459 0.15311567 0.40180653 0.45175526
000080 52 3b 25 3e 0d 87 95 bd 6e ac a8 3e 1e 6f 73 bc
       0.1613591 -0.073011495 0.32944053 -0.014858035
000090 88 e3 3e 3d c3 cf 9a bd a4 a6 31 3e 47 86 96 3e
       0.04660371 -0.07559159 0.17348725 0.2939932
0000a0 17 3f 52 bd ed 09 e2 3d 4b 8b 32 bc ce fc 13 3f
       -0.0513297 0.110370494 -0.010897468 0.57807624
0000b0 38 32 26 3e 16 77 91 3e 0b cf b7 3d 42 7c 1a be
       0.16230094 0.28411168 0.08975037 -0.15086463
0000c0 82 d9 a4 bd ff 65 bc 3e 64 03 a2 3e c7 7b ae 3e
       -0.08049299 0.36796567 0.31643212 0.3407881
0000d0 9b 0e 88 3d e4 16 3a 3f 39 27 ec 3d e3 dd 0b 3e
       0.06643411 0.7269118 0.11530919 0.13658862
0000e0 b1 65 22 3e e7 bc dd 3e 7e 82 29 3c a3 0c bb 3e
       0.15859105 0.43308184 0.010346053 0.3653308
0000f0 cc e5 e1 3e a9 a1 05 3f ef 6b 30 3d 5e 5b c0 3e
       0.44120634 0.521998 0.043071683 0.37569708

layer.4.weight f4 [128, 64]
000000 da c9 b3 bb 1f c5 b5 bd 35 87 6d 3d 3e c9 80 bd
       -0.005486709 -0.088754885 0.05799027 -0.06288384
000010 fd b0 b5 3d 96 06 be 3c ac 4d 09 3e 5f 38 e4 3c
       0.088716485 0.0231965 0.13408536 0.027858911
000020 d5 b7 94 bd 7e 6f b8 3b 0d 43 be bd 4c bc 6e bd
       -0.07261626 0.0056285253 -0.09290133 -0.058285043
000030 af 1f 59 bd ff b5 94 3b fa c7 16 bd cf d8 df 3c
       -0.05300873 0.004538297 -0.036811806 0.027325062
000040 aa 0e e7 3d 68 4e a5 bc 06 69 0b 3d 2d c7 33 3d
       0.11282094 -0.020178989 0.034035705 0.04389112
000050 f4 e8 2d 3d be e1 bd bd d7 10 9f bd 4e f8 c5 3d
       0.04245849 -0.092715725 -0.07766884 0.09666501
000060 12 3e 0b be 33 72 09 bd f3 57 10 bd 91 90 8f bd
       -0.13597897 -0.033556174 -0.035240125 -0.07009996
000070 0c 74 e9 bd 99 d4 a4 3d 53 d2 a0 3d 81 7f d6 3d
       -0.11399087 0.08048362 0.07852616 0.10473538
000080 22 7b cd 3c 15 f7 11 3d b9 40 37 bd 22 22 f7 3c
       0.025083128 0.035636026 -0.04473946 0.030167643
000090 24 a0 d9 3d 72 26 95 3c 42 97 44 be 0b 22 77 3d
       0.106262475 0.018206809 -0.19198325 0.0603352
0000a0 c5 b2 c0 bc e0 c9 0f be bf 63 80 3c 14 f3 05 3e
       -0.023522744 -0.14041853 0.015672563 0.13081008
0000b0 e8 a3 ad 3d 1d fe 81 bb ed 83 d8 3d 33 ad 49 3d
       0.08478528 -0.0039670602 0.10572038 0.04923744
0000c0 35 0a 8c 3d da 62 67 3a 86 54 b8 3d d0 95 a9 bc
       0.06837884 0.0008826681 0.090004966 -0.020701319
0000d0 e8 39 7e 3d e8 06 85 3b a3 ff 6c bc 65 6b 09 be
       0.062066942 0.004059661 -0.014465245 -0.13419874
0000e0 25 34 a9 3b d6 02 e0 bd eb 8c 12 3e 04 68 19 be
       0.005163687 -0.10938041 0.14311568 -0.14981085
0000f0 85 2f 6f 3d 6b 10 1e 3c 20 3e 5e 3d 85 30 1e bc
       0.058394928 0.009647469 0.054258466 -0.009655123
000100 6c cd 82 bd 3e bb f4 bc b5 0b 43 bd ff 63 62 3d
       -0.06386837 -0.02987444 -0.047618587 0.055271145
000110 5d 4e 38 bd 20 ca 9e be 01 88 28 be 75 58 e2 bb
       -0.044996608 -0.31013584 -0.16458131 -0.0069075176
000120 bc f8 ba 3c 9f 94 4f 3d c3 2d 6a 3d ed 46 1a 3e
       0.022823684 0.050678845 0.057172548 0.15066119
000130 4f 12 06 3e 02 0f 44 3d 7c 0c 90 bd 56 fe 10 bd
       0.13092922 0.047865875 -0.07033631 -0.035398804
000140 b4 36 0f be 4e c9 72 3e b8 36 9c 3d 7f a3 4b bd
       -0.13985711 0.23709604 0.07627624 -0.04971647
000150 69 c6 18 3d c5 32 2a bd 9d b4 39 bd 0a f5 a4 bd
       0.037298594 -0.041552324 -0.045338262 -0.0805455
000160 f6 6f 03 3f cb f9 89 3e 64 22 ee bd a1 91 d7 3e
       0.51342714 0.2694839 -0.11627653 0.42103294
000170 63 d1 60 3e 77 2a 0f 3e 1e 3f 09 ba 2d a0 9d 3d
       0.21954875 0.13981043 -0.00052355404 0.07696567
000180 e9 09 5a bc 71 9b 28 3d a3 3d dc 3b 8c 7d 3c bd
       -0.013308027 0.041163865 0.006721215 -0.04601817
000190 07 99 f7 bc c4 c2 3f 3d 4a ca cb 3e d8 66 13 3e
       -0.030224336 0.046816602 0.39802772 0.143947
0001a0 60 d8 8b 3d 2a 30 d7 3e b1 5a 47 bc d6 1c 4c 3d
       0.0682838 0.42028934 -0.012167619 0.049832188
0001b0 07 ac 99 3e 27 f2 e3 3d 9a 8a 1a be e7 30 f8 3d
       0.3001406 0.11130171 -0.15091935 0.121187024
0001c0 42 39 b8 bd 67 d8 07 bd 6d f7 0e be 0b f8 ba bd
       -0.08995296 -0.03316536 -0.13961573 -0.09129342
0001d0 a0 2c 21 3d 0d 0a 26 be 6e 27 9c 3d 52 9b 34 3e
       0.0393492 -0.16214772 0.07624708 0.17637375
0001e0 56 8f dc 3c 04 9b 46 3e a1 9a 66 be b5 a9 19 3e
       0.026923817 0.19395071 -0.22519924 0.15006144
0001f0 4e 09 aa bd d3 a2 73 3e e2 f9 54 3d 9b 44 89 bc
       -0.08302556 0.23792581 0.05199612 -0.016756346
000200 79 20 2d 3b 48 0f da bd 9e 18 61 3d e3 d6 9c 3d
       0.002641706 -0.10647446 0.054955117 0.07658174
000210 12 5a dd bd 63 9e 1b 3f c1 58 09 3e 95 ee 87 3d
       -0.10808195 0.60788554 0.13412763 0.06637303
000220 be fb 2c 3e 36 ad 8e 3d de 2f 8a bd 62 24 93 3d
       0.16892907 0.06966631 -0.06747411 0.07184674
000230 09 a5 ab 3b 50 e9 3c 3d 5f d1 23 3d 4c d0 f7 3d
       0.0052381796 0.04612094 0.039994594 0.12100276
000240 7b 67 15 3c dc 00 08 bd 26 4f 8e bd a9 7d 7b 3c
       0.00911891 -0.033203945 -0.0694869 0.015349784
000250 db 15 a5 3d c7 48 d0 3d a5 c1 7a bd b8 42 71 3d
       0.08060809 0.10170131 -0.06121983 0.05890152
000260 bb b1 57 bc d3 61 19 be 79 84 a7 bd a9 f0 af bd
       -0.013164933 -0.14978723 -0.08179564 -0.08590824
000270 8c 16 02 3d 9c a4 2c 3b 8e 18 5e bd 12 4e 62 3d
       0.031759784 0.0026343232 -0.054222636 0.055250235
000280 4e 41 c2 3d 8d 03 13 be 5d 40 4d bd 3a 0f 06 3e
       0.09485112 -0.14356823 -0.05011021 0.13091746
000290 31 45 49 3d 4a 1a a4 3c 1b 4d 8c be 6b d0 84 bd
       0.04913825 0.020032067 -0.27402577 -0.06485065
0002a0 fa 1f 11 3c 75 26 27 be 69 f6 a2 bc 6c a5 d7 3d
       0.008857721 -0.16323264 -0.019892888 0.105295986
0002b0 1c 43 19 3a ee 7c 7a bd e7 bb 35 bd 4e 92 39 3d
       0.0005846487 -0.0611543 -0.04436865 0.045305543
0002c0 0c 43 fc bc ef e7 47 3d db f1 5e 3d 1d 3c 7e 39
       -0.03079369 0.048805173 0.05442987 0.00024245722
0002d0 06 73 22 3c 53 e0 d7 3d a6 c7 ca bb 4d c7 38 3d
       0.009915119 0.10540833 -0.0061883507 0.045111943
0002e0 2a 5a 8f bc b6 2e 2a bd 6e ba 13 be 3f 73 03 bd
       -0.017499048 -0.041548453 -0.14426586 -0.03209233
0002f0 15 d3 09 bd 37 49 a5 3c 5b bf 5b bd 13 7d ae bd
       -0.03364857 0.020176513 -0.053649288 -0.0851995
000300 b9 1f e2 bd 77 86 79 bd cf 3f ac be e5 6c 04 3c
       -0.11041207 -0.06091925 -0.33642432 0.008082603
000310 65 31 12 be 0f ec 13 bf 7a 39 53 bd 87 b7 d3 3d
       -0.14276655 -0.5778207 -0.051568486 0.103377394
000320 03 90 8a bc e4 00 2f be 61 a4 68 bd f6 c9 00 3e
       -0.016914373 -0.17090183 -0.05679739 0.12577042
000330 28 95 45 3e a3 7f 6d 3e 3f 72 3d be 29 e7 9b bc
       0.1929518 0.23193221 -0.18500613 -0.019031124
000340 36 36 8d be 8e 9a 0a 3f 2f a1 8f 3e 4b d1 45 bd
       -0.27580422 0.5414208 0.2805266 -0.0482953
000350 3e 1f 99 3d 35 76 80 bd ad b0 13 be ea 25 9f 3b
       0.07476662 -0.06272546 -0.14422865 0.0048568146
000360 89 9b c9 3e e5 ac b9 3e 0f e6 41 3e 9c 33 da 3e
       0.39376476 0.3626472 0.18935417 0.426175
000370 9f 3e a9 3e 60 2d c8 3d 22 d9 28 be 61 91 a3 3d
       0.3305559 0.097742796 -0.1648908 0.07986713
000380 d1 bf dd 3d c6 2c b2 3d 30 87 b2 bd 79 ae cc bd
       0.10827602 0.08699946 -0.08717191 -0.099942155
000390 bc f4 be bd 3e c8 53 3d 49 ea d4 3e e9 0f 89 3e
       -0.09324023 0.051704638 0.41584995 0.2676995
0003a0 59 60 b1 bd 5f 8b a6 3e 1b c5 76 bc 38 1b f1 3d
       -0.08660955 0.32528207 -0.015061642 0.1177277
0003b0 8d 14 81 3e 5b b0 3b 3e aa 89 14 bd f0 c9 d3 3d
       0.25210992 0.18328993 -0.0362641 0.10341251
0003c0 26 b9 f7 bd ec 89 6b be 55 12 33 3d ab 4b 8b 3d
       -0.12095861 -0.23001832 0.043718655 0.06801542
0003d0 a8 8d 41 3c e6 77 86 be f7 1b 88 3e 97 a8 56 3e
       0.011813559 -0.2626335 0.26583835 0.2096275
0003e0 b0 2f 1a 3e 40 d1 3f 3e 75 5e 87 be a3 c2 c1 3e
       0.15057254 0.18732166 -0.26439252 0.3784381
0003f0 04 28 8a bc 70 c6 08 3f fb 62 52 3e fc 55 d0 3e
       -0.016864784 0.5342779 0.2054557 0.406906

layer.4.bias f4 [128]
000000 17 79 02 3e 43 22 86 3e 69 57 f9 3d ab 2e 83 3e
       0.12741505 0.26198015 0.12174875 0.25621542
000010 21 21 18 bd b1 5c 59 3d 22 65 35 3e d2 3f f8 bd
       -0.03714097 0.053066913 0.1771436 -0.12121548
000020 b6 ed 26 3e 38 14 65 3e 80 5c b2 3e 1a 37 c7 bc
       0.16301617 0.22370994 0.34836197 -0.024318267
000030 11 2b 03 3e b8 11 c2 bd ea 01 3e 3e dd 7a 8d 3e
       0.12809397 -0.09476036 0.18555418 0.276328
000040 ce 23 14 bb 58 44 e4 3d ce 64 06 be 76 5b 75 bd
       -0.002260435 0.11145848 -0.13124391 -0.059901677
000050 2c 14 de 3e 90 97 da bc 98 ad e5 bb 26 89 cd 3e
       0.43374765 -0.026683599 -0.0070092194 0.40143698
000060 10 a6 92 3e b4 34 c7 3d 73 9d 85 3e e2 fb e9 3d
       0.2864232 0.09726849 0.26096687 0.11424996
000070 c9 e7 3f 3e 46 41 a8 bb a5 2e 6f 3e 20 30 49 bb
       0.18740763 -0.0051347343 0.23357637 -0.003069885
000080 b4 a9 37 3e a8 15 e7 3e 04 f3 08 bd 32 18 93 3e
       0.1793583 0.4513371 -0.033434883 0.28729397
000090 c2 35 39 be b2 0e 68 3e af 16 a1 3d 03 71 a4 bd
       -0.18086913 0.22661856 0.07865655 -0.08029368
0000a0 ee 95 00 be 45 6c cc 3d 4e 0e a9 3e 20 32 e5 3d
       -0.12557194 0.09981588 0.33018726 0.11191201
0000b0 c9 58 60 3e 40 cc 11 bc 39 62 1d 3e 6f ff 32 3e
       0.21908869 -0.008898795 0.153695 0.17480253
0000c0 2b f8 8e 3e bb 21 73 bd fb 9c af 3e b5 9a 0d 3e
       0.27923712 -0.05935834 0.34299454 0.13828547
0000d0 6a 01 1b be c2 8a 1c 3f c5 36 15 bd 6a 92 2b 3e
       -0.15137258 0.6114923 -0.036429185 0.16755071
0000e0 a7 16 f0 3d ea 6f e3 3d 4a e0 a3 bd f6 d1 40 3e
       0.117230706 0.1110533 -0.08001764 0.18830094
0000f0 57 cd 07 3e cc 54 00 3e e1 8b 26 3f 0a 3b 87 bd
       0.13261925 0.12532347 0.6505719 -0.06603058
000100 c1 5b 84 bc 3c 01 8c bd 1a 94 d4 3c 92 52 68 3e
       -0.016157033 -0.06836173 0.025949527 0.22687748
000110 bb 8d 72 3e 18 d6 77 3e 08 10 68 3e 14 88 01 3e
       0.23686878 0.24202764 0.22662365 0.12649566
000120 52 a5 6a be 61 64 47 be 00 48 f2 3d 71 5e b6 3d
       -0.22914627 -0.19471885 0.11830139 0.08904732
000130 91 04 60 3d ea cb ab 3e a7 14 af 3e 49 aa 44 3e
       0.054691855 0.33554012 0.34195444 0.19205584
000140 ec 47 5e bd 95 5d 01 3e 69 be 43 3e 2d 79 49 3e
       -0.05426781 0.12633355 0.19115604 0.19675131
000150 f4 37 00 3f 93 d3 b5 bc f8 77 c4 bc a0 6f 37 bc
       0.5008538 -0.022195613 -0.023982987 -0.011196047
000160 bb 98 62 be 1b b0 3b 3d eb b0 3c 3f 1b e8 7f 3d
       -0.22128575 0.045822244 0.73707455 0.062477212
000170 29 45 43 3e 69 68 90 3e 85 46 eb 3c b8 72 0d be
       0.19069351 0.2820466 0.02872015 -0.13813293
000180 52 4a 5b bd 1d 14 f1 3d c9 01 72 3e da 2b 10 3e
       -0.053537674 0.117714144 0.23633493 0.14079228
000190 00 e5 a1 3e 61 70 87 3e d9 2b 05 bc cd 7c 81 bd
       0.31620026 0.26452926 -0.00812813 -0.06322632
0001a0 52 0b 67 3e de 24 bd 3d f8 35 6e 3e dc 00 b1 bd
       0.22562912 0.092355475 0.23262775 -0.08642742
0001b0 88 d5 fc 3d 82 ed 2c 3d 41 24 af 3d 46 ed 0e 3e
       0.12345415 0.042218693 0.08551837 0.139577
0001c0 4e 4b 6e 3d f0 43 33 bc 4e 20 80 3e c6 08 42 3e
       0.058177285 -0.0109414905 0.25024647 0.1894866
0001d0 bd 4e 19 3d 99 3b e9 3c 44 00 0e b9 a7 1f 85 3e
       0.037428606 0.028470801 -0.00013542274 0.2600071
0001e0 3b 00 9c bc 9a 9b ba 3c 07 c3 20 3e 41 09 7b bd
       -0.019043079 0.022779275 0.15699397 -0.061288122
0001f0 07 0d fa bb 9d b8 8d bc b9 a8 70 3d 39 83 21 3e
       -0.0076309475 -0.017299945 0.058754656 0.15772714

layer.6.weight f4 [23, 128]
000000 39 30 df bc 41 42 cf bc 3e 8e 22 3d e0 f7 68 3c
       -0.027244674 -0.025300147 0.039686434 0.014219254
000010 2a 19 03 3d 70 5a 20 bc a4 4d 99 3d e2 e2 33 bd
       0.03200642 -0.009787187 0.07485512 -0.043917544
000020 a0 2d 72 3c 4b 34 b4 3c cb 59 55 bc 32 49 f0 bb
       0.014781386 0.021997591 -0.013021897 -0.0073329443
000030 34 6f 34 3c 0e 84 38 3c 02 59 8d 3d 69 dc 93 3c
       0.011012841 0.011261953 0.069017425 0.018049436
000040 7c 2e 6e 3d d2 ec 74 3d b5 7c 8b bd d8 08 6c bc
       0.0581498 0.059796162 -0.06810895 -0.014406405
000050 3a 0f 70 bd 2b 8c 2b 3c c2 20 88 bc 77 f1 20 3d
       -0.05860827 0.01047043 -0.016617183 0.03929278
000060 25 90 88 bd 26 8b 26 3d 88 9f ee 3c 20 d3 39 bd
       -0.066681184 0.040660046 0.029128805 -0.04536736
000070 42 a4 98 bc bd ba da bb 7e 38 10 3d 51 8f 50 3b
       -0.018633012 -0.006675093 0.035210125 0.0031823704
000080 02 9b 4d 3d 44 18 82 3d 81 35 e3 bc a4 be 8a 3d
       0.050196655 0.063522846 -0.027735474 0.06774643
000090 6b f6 45 bd ed 40 31 3c 90 e6 37 bc 6a 62 93 3c
       -0.048330706 0.010818702 -0.011224404 0.017991263
0000a0 e3 24 09 bb 3c 6f 4e 3d 24 84 56 3c ab 35 39 3d
       -0.0020926527 0.05039905 0.013093028 0.045217197
0000b0 c0 58 2a 3d 76 4a cf 3c 99 3b ae bc cb fc 64 3c
       0.041588545 0.02530406 -0.021268653 0.013976286
0000c0 b1 44 5e 3d 13 2c 3c bd 75 72 34 bd fc bb db bc
       0.054264728 -0.04594047 -0.044054467 -0.026823036
0000d0 c6 ba 4c bd 2f db 99 3d 66 48 91 3c c2 29 69 3d
       -0.04998281 0.07512509 0.017734718 0.05692459
0000e0 08 2f 02 bd 87 15 c6 3c ed 42 64 3d 5c 3a 00 3d
       -0.031783134 0.024180187 0.055727888 0.031305656
0000f0 03 30 34 bd 70 ef b4 bb 1b 02 02 bd 28 24 d2 bc
       -0.0439911 -0.0055217072 -0.03174029 -0.025652006
000100 8e ce 1e 3b 4a a3 d0 bd e4 5a 48 3c 84 4b 2c bd
       0.0024232003 -0.10187395 0.012228701 -0.042064205
000110 ce 96 ca 3b a1 92 db 3b 2a f5 08 bc cd db 45 bd
       0.006182528 0.006700829 -0.008359233 -0.04830532
000120 5f 95 80 bd f8 d0 30 bd 3f 19 cd 3c 86 24 83 3b
       -0.0627849 -0.043168038 0.025036452 0.0040021567
000130 a8 e8 0b bd 1a 8b 77 bc ec 82 51 3d 7a a5 4e 3c
       -0.034157425 -0.015108848 0.051150247 0.012612695
000140 ac 93 1a bd 0b b5 2f bd f3 46 31 bb e0 bd 82 3b
       -0.037738487 -0.042897265 -0.0027050346 0.00398992
000150 69 b0 87 3d de fd 29 3e 23 86 15 bd 2d ef 0e 3b
       0.066254444 0.16600749 -0.036504876 0.002181004
000160 d9 1b 0f bc 29 4c 16 3d 5e 0d af bd 7b 54 57 bc
       -0.008734667 0.036693726 -0.085474715 -0.0131427
000170 8c ba 5a 3c 6d 38 34 bd 0d ea 13 3d b2 d7 86 bb
       0.01335014 -0.043999124 0.03611188 -0.0041150684
000180 da 80 a1 bb c1 6b 80 3c 70 ba e9 bc f3 33 e8 bb
       -0.0049286904 0.015676381 -0.028531283 -0.007086271
000190 5e b5 8f bc e9 55 01 3e 99 4f 7e 3d 6a 24 f9 3c
       -0.017542537 0.12630428 0.06208763 0.030412871
0001a0 f2 57 fb bc 4e 1c 3b 3d f6 5f 16 3c 1d c6 2f bd
       -0.030681584 0.04568129 0.009178152 -0.042913545
0001b0 0a d2 02 bc 62 97 c5 3c 72 24 82 3d ac 9d 8d 3d
       -0.0079846475 0.024120037 0.06354608 0.06914839
0001c0 15 bf 8a bc 4a 5d 07 3d e9 dd 89 3d 79 76 d9 bc
       -0.016936818 0.03304795 0.06731779 -0.02654575
0001d0 23 3a d1 bd e1 77 02 3d 61 c9 75 bd 37 8b a9 3d
       -0.10216167 0.031852607 -0.060006503 0.08278506
0001e0 bd c7 76 3b 42 6c 57 3d 35 80 74 3d 3d d6 f1 bd
       0.0037655674 0.052593477 0.05969258 -0.11808441
0001f0 b4 6b 9b 3d 54 9b 34 bc 6a 4e ab bb f5 13 1e bd
       0.07588902 -0.011023361 -0.0052278535 -0.03859325
000200 a0 2e da bc 52 78 9b bb 8a 12 72 bc 8e 59 ab bc
       -0.02663356 -0.004744568 -0.014774928 -0.020916726
000210 7c 06 53 bd 0f 5d dd 3c 7d 5e 96 3b ae 9f c2 3c
       -0.051519856 0.027021913 0.0045889006 0.023757782
000220 81 73 04 3c 68 c1 13 bc 5b 88 9d ba 4e 78 c6 bb
       0.008084179 -0.00901828 -0.0012018787 -0.006056822
000230 11 39 97 3b fe eb 43 3b a9 ac 86 3c 35 79 61 bb
       0.004614957 0.00298953 0.016439753 -0.003440452
000240 9a 33 df bb bd 7d cd bc 38 86 ad 3c 17 6d ed 3a
       -0.0068115713 -0.02508437 0.021182165 0.0018114176
000250 48 3b 42 3d a8 2f 2e bb 1d 81 55 3b 76 3e 83 bb
       0.047419816 -0.0026578698 0.0032578178 -0.0040052487
000260 6a 09 46 3c 26 cf df bc c9 3f 5b 3c 26 b7 1e 3c
       0.012087205 -0.027320456 0.013381907 0.009687221
000270 07 13 fb 39 9e 10 f7 3c 29 33 12 bb 3f 60 02 3a
       0.00047888627 0.03015929 -0.0022308326 0.0004973448
000280 ab 0e d6 3c ac 37 85 3b 1c ca ac 3c e3 ee 1a bd
       0.026130041 0.0040654745 0.021092467 -0.037825476
000290 65 ec 38 3d 79 a1 c1 3c 54 c2 3e bc 09 22 0a 3d
       0.04514732 0.023636566 -0.011643011 0.033723865
0002a0 1a 51 50 3d 9a 77 b8 bc b2 6f b2 3b 5e 08 ae 3b
       0.050858594 -0.022517968 0.005445444 0.005311056
0002b0 59 e6 8c bd b5 76 3e 3d 1e 05 88 bc 73 0d 88 3d
       -0.06879873 0.046499927 -0.016604003 0.0664319
0002c0 6e 75 32 bc 6e d3 32 bd 59 0d 89 3c 3c 04 a2 bb
       -0.010892255 -0.043658666 0.016729997 -0.0049443524
0002d0 93 6c cd 3b f4 14 11 bc 53 27 da bb 13 53 d4 3c
       0.0062690466 -0.008855093 -0.00665752 0.02591852
0002e0 5e a2 90 3c 7e 50 14 bd 02 a7 7c 3c f1 cc 94 bc
       0.017655548 -0.036209576 0.015420677 -0.01816413
0002f0 6a 95 45 bc 8a 7b 0a bd 9f 6a 17 3d c7 07 25 3c
       -0.012059549 -0.033809222 0.036966916 0.010072655
000300 53 12 e3 bc 74 f6 a9 bc 05 a1 af bb ab 24 21 bd
       -0.027718699 -0.0207474 -0.005359771 -0.03934161
000310 7d b8 69 bb d0 c9 5c bc eb c4 ec bc 18 e1 61 3c
       -0.0035662942 -0.01347585 -0.028902492 0.013786577
000320 ff 77 4e 3c 7d 14 12 3b 5f 40 e4 3c 5f 90 8a bc
       0.0126018515 0.0022290044 0.027862726 -0.016914545
000330 e8 a3 db 3c 76 55 13 bc 47 34 26 bc 81 4b b5 3c
       0.026811555 -0.008992543 -0.0101443 0.02213073
000340 e9 11 59 3c b5 c2 ff 3b bb 31 aa bc 5c 07 22 3b
       0.013248899 0.0078051933 -0.020775666 0.0024723625
000350 ad f4 c1 3c b7 df 19 3d 28 f5 18 3c 07 95 e6 bc
       0.02367624 0.037566867 0.009335794 -0.028147234
000360 2a 96 9c 3c 01 54 81 bc f9 22 f1 bc 8f fd ea 3c
       0.019114573 -0.015787126 -0.029435622 0.02868536
000370 a2 00 24 3c 2b 17 9d bb e1 3f bf 3b 4e f9 26 3c
       0.0100099165 -0.0047940216 0.0058364724 0.010191275
000380 25 6e 3a 3c 2e 9e 43 3c ba 34 1f bd 6e 56 d8 bc
       0.0113788 0.011939568 -0.038868643 -0.0264084
000390 47 b3 32 bd 97 0f 90 bc f3 ff 47 bd d4 a1 88 bb
       -0.043628003 -0.017585559 -0.048828077 -0.004169682
0003a0 ef 17 e1 bc 38 e3 20 3d 99 82 b7 3c 0e c5 89 bc
       -0.027477233 0.039279193 0.022401141 -0.016817596
0003b0 98 0e d3 3a 43 fd 20 bb d5 8d 7a 3d 04 56 5f 3c
       0.0016102372 -0.0024565018 0.061170418 0.013631348
0003c0 bc e9 fc 3b 96 77 2e 3b 87 af 25 bd 75 aa d5 bb
       0.007718293 0.0026621572 -0.0404506 -0.006520564
0003d0 9d 5e 0e 3c 1f 38 90 bb b5 9a 99 bc ca 5a a2 3c
       0.00868955 -0.0044012214 -0.018750528 0.019818682
0003e0 40 a9 18 3d 11 69 cb bb 38 f0 0f 3d 9e 96 87 3d
       0.037270784 -0.0062075933 0.0351412 0.06620525
0003f0 96 0c 8e bb bf d5 7f bc 99 a3 cc 3c 2e b7 0b 3d
       -0.0043349965 -0.015614926 0.024980353 0.03411024

layer.6.bias f4 [23]
000000 c7 c5 ad 3e df 04 08 3e 69 bc 83 3e 10 06 ae 3c
       0.33939955 0.13283108 0.25729683 0.021243125
000010 7a c6 4c 3d eb 83 c4 3e ad 9b a8 3e 36 ba 86 3e
       0.04999397 0.38381895 0.3293127 0.26313943
000020 95 16 e9 3d eb 18 c4 3e f7 9e 9d 3d 68 a5 e4 3d
       0.1138126 0.3830026 0.07696336 0.11164361
000030 7a f6 28 3d ec dc 3e bd d3 59 44 3d 5a b6 3b 3d
       0.041250683 -0.046597406 0.047937226 0.0458282
000040 2f e1 4b 3d 7d a9 fe 3e c2 ac a3 3d f5 7a ac 3c
       0.0497753 0.49738684 0.07991935 0.021054724
000050 e9 e5 17 bc 05 43 19 3e 98 6a 0c 3c
       -0.009271123 0.14966972 0.008570336
