weight/save_520.pth (torch_old, 72900 bytes, 8 tensors)

layer.0.weight f4 [32, 139]
0	0x3da44ad5	0.080220856
1	0xbd65c2b1	-0.056093875
2	0xbd8ff961	-0.07029987
3	0xbda49255	-0.08035723
4	0xbd70993e	-0.058739893
5	0xbcf16dba	-0.029471267
6	0xbd881206	-0.06644063
7	0x3bb70edc	0.005586488
8	0x3d2438dc	0.040093288
9	0xbc09bf4a	-0.008407423
10	0x3d77205d	0.0603336
11	0x3cf00ff2	0.029304478
12	0xba90d634	-0.0011050166
13	0x3d62bb28	0.055354267
14	0xbdc43112	-0.09579672
15	0xbc60413c	-0.013687428
16	0xbd115e8c	-0.035490558
17	0x3bd023f5	0.0063519427
18	0x3c876316	0.01652674
19	0x3c7e663d	0.015527305
20	0xbdaa3d68	-0.083124936
21	0x3d4696d9	0.048483703
22	0xbd2837e8	-0.04106894
23	0x3a176448	0.0005775136
24	0xbd12b299	-0.035814855
25	0x3d2179f4	0.039422944
26	0x3d8d468e	0.06898223
27	0x3d44645d	0.047947276
28	0xbd0b120e	-0.033952765
29	0xbd3d83bd	-0.046268214
30	0x3d2653db	0.040607315
31	0xbd32f365	-0.04368915
32	0x3d0058e6	0.03133478
33	0xbd26a849	-0.040687833
34	0xbd978e00	-0.07400131
35	0xbcb72651	-0.022357138
36	0x3bb8db8a	0.0056414055
37	0xbad19402	-0.0015989544
38	0x3c865f3b	0.016402831
39	0xbd727dda	-0.059202053
40	0x3d2430f9	0.040085766
41	0x3d64cf00	0.055861473
42	0x3d4aaa64	0.049478903
43	0xbcb798d4	-0.022411741
44	0x3c9f543d	0.019449348
45	0x3cb8bca3	0.022550886
46	0x3c99054b	0.018679282
47	0x3c343a25	0.011000191
48	0x3d415601	0.04720116
49	0xbd8429ad	-0.064532615
50	0xbcf06e30	-0.029349416
51	0x3c961655	0.018321196
52	0x3cb26955	0.021778742
53	0x3d9117c3	0.0708461
54	0xbd279518	-0.04091367
55	0x3daf647e	0.08564089
56	0xbcc8c7ce	-0.024509337
57	0xbd4f58a0	-0.05062163
58	0x3cb9dfdf	0.022689758
59	0xbd4bb0e8	-0.049729258
60	0x3a8be713	0.0010673724
61	0xbd11a7e4	-0.035560504
62	0xbbcb6765	-0.006207394
63	0x3d8f2a9a	0.069905475
64	0xbd7d9358	-0.061908096
65	0x3cfe2a36	0.031025987
66	0xbd42fbf4	-0.047603562
67	0xbccf0a4e	-0.025273468
68	0xbd713453	-0.05888779
69	0xbcd403ad	-0.025880659
70	0xbd89888c	-0.067154974
71	0xbd76d43c	-0.060260996
72	0xbc9101bb	-0.01770102
73	0x3a5a11b2	0.0008318677
74	0xbcbf89ec	-0.023381196
75	0x3c4d8535	0.012543966
76	0xbc6f9ec9	-0.01462526
77	0xbd01e216	-0.031709753
78	0xbd9a5c83	-0.075371765
79	0xbd877b22	-0.066152826
80	0xbd90348a	-0.07041271
81	0xbc820e76	-0.015876036
82	0x3d461262	0.048357375
83	0x3d131dae	0.035916977
84	0xbd6f091a	-0.05835829
85	0xbda7bc00	-0.08190155
86	0xbcd1e8b6	-0.02562366
87	0xbd4b5c88	-0.04964879
88	0xbd8059b5	-0.0626711
89	0x3d57f7d2	0.052726574
90	0x3c18c230	0.009323642
91	0xbd452fc3	-0.048141252
92	0xbac83e8a	-0.0015277427
93	0xbccd5a68	-0.025067523
94	0x3c902800	0.017597198
95	0xbd703bf9	-0.058650944
96	0xbd0174c9	-0.031605516
97	0x3b533423	0.003222712
98	0x3d49e7aa	0.049293198
99	0xbd3030da	-0.04301534
100	0xbd407264	-0.04698409
101	0xbd3c10cc	-0.045914456
102	0xbd983957	-0.07432812
103	0x3c096360	0.008385509
104	0x3b0012f4	0.0019542547
105	0x3a06d67b	0.00051436544
106	0x3c881b70	0.016614646
107	0xbdac2b24	-0.08406666
108	0x3c67c39d	0.014145759
109	0x3d682336	0.056674205
110	0xbd9df76a	-0.07713206
111	0x3d508ae1	0.050913695
112	0xbbfdf348	-0.0077499487
113	0xbd992fd5	-0.07479826
114	0x3d1211e2	0.035661586
115	0xbc3d748d	-0.011563432
116	0x3bd37635	0.0064533004
117	0x3d033844	0.03203608
118	0xbd21e19c	-0.0395218
119	0x3d7b437b	0.06134365
120	0x3cab2024	0.02088935
121	0xbb24b0fa	-0.00251299
122	0x3ce316cf	0.027720837
123	0xbd507973	-0.050897073
124	0xbd92367e	-0.071393
125	0x3d849666	0.06473999
126	0xbd0f0065	-0.034912486
127	0xbd5e0df9	-0.054212544
128	0xbd162aec	-0.036662027
129	0xbd2d12f6	-0.04225441
130	0xbc70acee	-0.014689667
131	0xbd759a4a	-0.059961595
132	0xbdb07539	-0.086161084
133	0xbd890b42	-0.066916004
134	0xbd863fe5	-0.06555156
135	0xbda2ba57	-0.07945698
136	0x3cca27e1	0.024677219
137	0x3b4052ff	0.0029346345
138	0xbbbcc676	-0.005760963
139	0x3d463e02	0.04839898
140	0xbf90123c	-1.1255565
141	0x3f3a5330	0.72783184
142	0x3d766652	0.060156174
143	0x3f213d9e	0.62984645
144	0x3d3a9a2a	0.04555718
145	0xbd90a045	-0.07061819
146	0xbd5ff0e0	-0.054673076
147	0xbf15d6ab	-0.5853068
148	0xbf09aca1	-0.53779036
149	0xbf0faf5b	-0.56126946
150	0xbc3b3f71	-0.0114287
151	0x3d7affd8	0.061279148
152	0xbc125920	-0.008932382
153	0xbe31011e	-0.17285582
154	0x3b98b100	0.004659772
155	0xbd698d2c	-0.057019398
156	0xbca3930e	-0.019967582
157	0x3d435ed6	0.047697864
158	0x390dbec4	0.00013517874
159	0x3dab1d64	0.08355215
160	0x3d481bea	0.048854746
161	0x3d5d419c	0.054017648
162	0xbceea48c	-0.029131196
163	0x3d2f2f7b	0.04276989
164	0xbcb7fcd2	-0.022459421
165	0x3ce95c1d	0.028486306
166	0xbda6d20c	-0.08145532
167	0xbafedf80	-0.001944527
168	0xbb5b7508	-0.0033486504
169	0x3d846cb1	0.06466044
170	0xbca245a1	-0.019808592
171	0xbca7d6e6	-0.020488214
172	0xbcc2ac6e	-0.023763862
173	0xbd81bb59	-0.06334562
174	0xbcafb79c	-0.021449856
175	0xbc7ade42	-0.015311779
176	0xbd78b58c	-0.06072001
177	0xbcca3d27	-0.024687363
178	0xbd83a771	-0.06428421
179	0xbc344f5d	-0.01100525
180	0x3d772c87	0.0603452
181	0xbd86bdda	-0.0657918
182	0x3c957e82	0.0182488
183	0x3cae9dd3	0.02131549
184	0x3c239483	0.009984138
185	0x3b7f2f21	0.0038938003
186	0xbd426082	-0.04745532
187	0xbb806d7d	-0.003919302
188	0x3d0cc758	0.034369797
189	0xba108261	-0.0005512592
190	0x3db8c784	0.090224296
191	0x3d05f134	0.032700732
192	0xbd43ad2d	-0.047772575
193	0xbc37d52a	-0.011220256
194	0xbc0891f7	-0.008335582
195	0xbc227ecd	-0.009917927
196	0xbbd9d768	-0.006647993
197	0xba01ee4b	-0.0004956468
198	0xbd89f31b	-0.06735822
199	0x3956195f	0.00020418082
200	0xbd1f8c5c	-0.038952217
201	0x3d3e2451	0.046421353
202	0xbdb3439b	-0.08753129
203	0xbb8664c3	-0.004101367
204	0x3d162b63	0.03666247
205	0xbc773a07	-0.015089518
206	0xbdbe5c17	-0.092949085
207	0xbdbfee24	-0.093715936
208	0xbcf8a468	-0.030351833
209	0xbd4aa120	-0.049470067
210	0x3c252f4b	0.010082076
211	0x3d48253f	0.048863646
212	0x3b8bc2f3	0.004265183
213	0xbda19040	-0.07888842
214	0x3ab7df1f	0.0014028287
215	0x3d438177	0.04773089
216	0xbd09b0fe	-0.03361606
217	0x3d9d2055	0.076721825
218	0xbd8dfc57	-0.06932896
219	0x3ca2c6b0	0.019870132
220	0xbccc72b9	-0.024957048
221	0xbd6868a1	-0.056740407
222	0x3dcce5b5	0.10004751
223	0xbd91e5a6	-0.0712388
224	0xbd50c837	-0.05097219
225	0xbd3a301b	-0.045456033
226	0x3b262566	0.002535188
227	0xbde763c2	-0.11298324
228	0x3d485ff1	0.04891962
229	0x3d9af9a4	0.075671464
230	0xbc94a8a1	-0.018146815
231	0x3cacdd74	0.02110169
232	0x3d026a5e	0.03183972
233	0x3c88b104	0.01668597
234	0x3ca13116	0.019676726
235	0x3cd4a74c	0.02595868
236	0xbc54943f	-0.012974798
237	0x3d59694f	0.053078946
238	0xbd60b93e	-0.05486416
239	0xbd22eb21	-0.039775018
240	0x3c16ff15	0.00921609
241	0x3c4116c9	0.011785218
242	0xbd7898c1	-0.060692552
243	0xbd5abda7	-0.053403523
244	0xbcd69a3b	-0.02619659
245	0xbc69f238	-0.014278941
246	0xbdd11723	-0.10209491
247	0x3c8bd05f	0.017067133
248	0x3bfd4120	0.007728711
249	0xbc0ac8f4	-0.0084707625
250	0xbd8b8367	-0.068121724
251	0x3bfe5249	0.007761274
252	0x3c2ece93	0.010669368
253	0xbd590107	-0.052979495
254	0x3d0a38a5	0.033745427
255	0x3bbd7979	0.005782303

layer.0.bias f4 [32]
0	0x3c802bab	0.015645823
1	0x3f21ad99	0.63155514
2	0xbc2b6f4a	-0.010463545
3	0x3d18f493	0.03734262
4	0xbdcaa9a1	-0.098956354
5	0x3d144c5a	0.036205627
6	0xbc7ebee0	-0.015548438
7	0x3cb1c787	0.021701587
8	0xbd2b1f21	-0.041777734
9	0x3d7f77c8	0.06237009
10	0x3da78afa	0.081808046
11	0x3ec6a937	0.38800976
12	0xbda6ded4	-0.0814797
13	0x3f30b349	0.6902357
14	0x3e05738c	0.13032359
15	0x3d6ed1d6	0.058305584
16	0x3d6e00cb	0.058106225
17	0xbc39adcb	-0.011332939
18	0x3ee59ebb	0.44847664
19	0x3f37a130	0.7173033
20	0xbdc966cb	-0.09834059
21	0x3f308c84	0.6896441
22	0xbd06b122	-0.03288377
23	0x3ec0ccf3	0.37656364
24	0xbdab5f8d	-0.08367834
25	0x3f226b32	0.6344482
26	0xbc198f0d	-0.009372485
27	0x3d4a7523	0.049428117
28	0x3f67bf13	0.9052593
29	0x3cea19e6	0.028576802
30	0xbe0f0801	-0.13967897
31	0xbcc4d3b7	-0.024026735

layer.2.weight f4 [64, 32]
0	0x3d8e364b	0.06943949
1	0xbdaf2b94	-0.08553234
2	0x3d5a91a7	0.05336156
3	0x3dd206ed	0.10255227
4	0x3de031e6	0.10947017
5	0xbd434d57	-0.04768118
6	0x3d83f7b5	0.06443731
7	0x3e0b5d3d	0.13609786
8	0x3e42712b	0.18988483
9	0xbe14c373	-0.14527683
10	0x3df974f0	0.12180507
11	0x3d9205dd	0.071300246
12	0x3e02c92d	0.12772055
13	0xbd9d2c4d	-0.07674465
14	0x3e38edf4	0.18059522
15	0x3e1d9179	0.15387525
16	0x3e38f1a4	0.18060929
17	0xbd6e87d2	-0.058234997
18	0x3e8b1a85	0.2716867
19	0x3d4746c5	0.048651475
20	0x3d7098d3	0.058739495
21	0xbe2440e1	-0.16040374
22	0xbbca8db2	-0.006181442
23	0x3b7ff87f	0.0039058027
24	0x3ca0f28a	0.019646902
25	0xbc86a9f4	-0.016438462
26	0x3e3d79ef	0.18503545
27	0x3dba211c	0.09088346
28	0x3d9d765f	0.07688593
29	0x3e6b5580	0.22981834
30	0xbdbcd41f	-0.092201464
31	0xbe1eb63c	-0.15499204
32	0x39100cfb	0.00013737746
33	0xbdb77155	-0.08957163
34	0x3e0878e4	0.13327366
35	0xbd47af69	-0.04875127
36	0xbd1d9985	-0.038476486
37	0xbdfc79e1	-0.12327934
38	0xbd21433e	-0.039370768
39	0x3db4a727	0.08820944
40	0xbdce96fc	-0.10087392
41	0x3dcf8423	0.10132625
42	0xbcd30a3d	-0.025761718
43	0x3dab11a8	0.08352977
44	0xbd8f7b17	-0.070058994
45	0xbd48f0ae	-0.049057655
46	0x3e3f7ca1	0.18699886
47	0xbbececd9	-0.007230383
48	0x3da461ae	0.080264434
49	0x3e5c85dd	0.2153544
50	0x3d9fbc96	0.07799642
51	0x3d58ef67	0.052962687
52	0x3e2c6884	0.16836745
53	0x3d32d408	0.04365924
54	0xbe2ed0b0	-0.17071795
55	0xbdcac790	-0.09901345
56	0xbca9e388	-0.020738378
57	0xbd2318e9	-0.039818678
58	0xbe02c0bd	-0.12768836
59	0xbd085043	-0.03327967
60	0x3d01707c	0.031601414
61	0x3dfea5f2	0.12433995
62	0x3dd5dfdf	0.10443091
63	0x3cdedcc9	0.027204888
64	0xbdda64bb	-0.10663744
65	0xbe497895	-0.19674905
66	0x3e31cd3a	0.17363444
67	0xbe2811d4	-0.16413051
68	0xbe1e2b70	-0.15446258
69	0xbe50bb94	-0.20384055
70	0x3d0e6b8d	0.034770537
71	0x3dae2c52	0.08504547
72	0x3ce50d2d	0.027960384
73	0x3df59836	0.119919226
74	0x3e1eb770	0.15499663
75	0xbe0940d6	-0.13403639
76	0x3d8f3abe	0.06993626
77	0xbda582b5	-0.08081571
78	0xbe1a8824	-0.15090996
79	0x3e4d174d	0.2002842
80	0x3d802b30	0.06258237
81	0x3db5c020	0.088745356
82	0x3874f17b	5.839903e-05
83	0x3d9e1aed	0.077199794
84	0x3e358d6a	0.17729726
85	0x3cb1c41a	0.021699954
86	0xbd877c99	-0.06615562
87	0x3e1a24ee	0.1505315
88	0xbe1a002d	-0.1503913
89	0xbddeeb15	-0.10884682
90	0xbdfa3c08	-0.12218481
91	0xbde8f2c5	-0.113744296
92	0xbcd7fa88	-0.02636458
93	0x3e28ee35	0.16497119
94	0xbdc3b40d	-0.09555826
95	0xbb1b3acb	-0.0023686166
96	0x3d900443	0.07032063
97	0x3e1de7a6	0.15420398
98	0xbe9687b1	-0.294004
99	0xbdcf4fdb	-0.10122653
100	0xbe77a7b0	-0.24185061
101	0xbe5f2a50	-0.21793485
102	0xbd45206a	-0.048126616
103	0x3d421179	0.047379944
104	0xbdcbdc05	-0.09954075
105	0x3d483fd3	0.048888993
106	0x3de6cfc1	0.11270095
107	0x3f282c2e	0.6569241
108	0x3d39ab61	0.045329455
109	0x3f2088a6	0.6270851
110	0x3db252df	0.08707213
111	0xbe833714	-0.2562796
112	0x3d641f45	0.055693883
113	0x3d004a83	0.03132106
114	0x3e771020	0.24127245
115	0x3f1d1674	0.61362386
116	0xbe6ff5c3	-0.23433594
117	0xbd79b82d	-0.06096666
118	0xbe0dbae3	-0.13840823
119	0x3dbc08e5	0.09181384
120	0x3defe156	0.11712901
121	0x3de737ce	0.11289941
122	0xbdde85e9	-0.10865385
123	0x3d834fb5	0.06411687
124	0x3f5e8289	0.8691793
125	0xbe25d60a	-0.1619493
126	0x3d82bddf	0.06383871
127	0x3c723485	0.014783029
128	0x3c8294a9	0.015940027
129	0x3db0cd6d	0.08632932
130	0x3e5d9a2b	0.21640842
131	0xbd578857	-0.05262026
132	0x3d89a38f	0.067206495
133	0xbd8fd5f7	-0.070232324
134	0x3d9ea118	0.0774557
135	0x3e1f20e2	0.15539888
136	0xbd44364a	-0.047903337
137	0xbcf1dbf7	-0.029523833
138	0xbd9f81d2	-0.07788433
139	0xbdec5a2c	-0.115406364
140	0x3ccba93a	0.024860967
141	0x3e162ad9	0.14664783
142	0x3da2b803	0.07945254
143	0x3e3d5222	0.18488362
144	0xbe0fe908	-0.14053738
145	0x3e429d24	0.19005257
146	0xbe475299	-0.19465102
147	0x3d2a6aeb	0.04160587
148	0x3d81ea11	0.06343473
149	0x3ae31154	0.001732389
150	0x3d9ff21e	0.07809852
151	0xbc95fe8d	-0.018309856
152	0xbca7bb6a	-0.020475108
153	0xbdf45925	-0.119310655
154	0x3c4c6b95	0.012476821
155	0xbcfc20af	-0.030777304
156	0xbb3b9b79	-0.0028626604
157	0x3e489bc8	0.19590676
158	0xbe1935ac	-0.1496188
159	0xbd46245f	-0.04837453
160	0xbe1873bf	-0.14887904
161	0xbe39c826	-0.18142757
162	0x3dbf1f92	0.093321934
163	0xbdebd7f8	-0.11515802
164	0x3c81f566	0.015864085
165	0x3d0cad52	0.03434498
166	0x3c7b4373	0.015335905
167	0x3d5c0a3a	0.05372069
168	0x3cab92cc	0.020944022
169	0x3d09a904	0.03360845
170	0x3e45538e	0.19270155
171	0xbe569c34	-0.20958024
172	0x3cd6d986	0.02622677
173	0xbd18fad0	-0.03734857
174	0xbde80bf7	-0.11330407
175	0xbe45c14c	-0.19312018
176	0x3dd7e746	0.10542159
177	0x3e13471f	0.143826
178	0xbdb8533c	-0.09000251
179	0x3d517172	0.05113358
180	0xbe94686e	-0.28985924
181	0xbd679a87	-0.056543853
182	0xbc0b483b	-0.008501108
183	0x3e1b0dec	0.1514203
184	0xbe583b54	-0.21116382
185	0xbd76f518	-0.060292333
186	0xbe2feef8	-0.17181003
187	0x3c81577d	0.015788788
188	0xbdce3a33	-0.10069694
189	0xbe0b1b34	-0.13584596
190	0x3ce3761c	0.02776628
191	0x3de72e64	0.11288145
192	0x3de7d715	0.113203205
193	0xbcc93863	-0.02456302
194	0x3e4f6916	0.20254931
195	0xbd12c7e8	-0.035835177
196	0x3d878d48	0.06618744
197	0xbe3b9787	-0.18319522
198	0x3db533ae	0.08847748
199	0xbe334a03	-0.17508702
200	0xbdddb714	-0.10825935
201	0xbd537892	-0.051628657
202	0x3d7cfcc9	0.061764512
203	0x3d87d2e0	0.06632018
204	0xbde18f35	-0.11013643
205	0x3e12ff1b	0.14355128
206	0x3e407534	0.1879471
207	0x3e04d2a3	0.12970977
208	0x3c4af2a1	0.012386949
209	0xbdf2f895	-0.118638195
210	0xbe06d833	-0.13168411
211	0xbca60902	-0.020267967
212	0x3d64aaf9	0.055827115
213	0xbd185947	-0.037194517
214	0x3e4adace	0.1981003
215	0x3dd0ad89	0.10189349
216	0xbc201a5a	-0.009771908
217	0xbdc0c835	-0.094131865
218	0x3e1f8745	0.15578945
219	0x3e186944	0.14883906
220	0xbcda6626	-0.026660036
221	0x3daa49c9	0.08314855
222	0xbddb04c8	-0.10694271
223	0xbe2291b2	-0.15875891
224	0xbd9b69d8	-0.075885475
225	0x3e134bae	0.14384338
226	0xbde6c41c	-0.11267874
227	0xbdd8e074	-0.10589686
228	0x3c62843b	0.0138254715
229	0xbe5c5254	-0.2151578
230	0xbd62aafe	-0.055338852
231	0xbe1bcc0a	-0.15214553
232	0x3d7eb558	0.06218466
233	0x3c95524c	0.018227719
234	0x3d90b4a6	0.07065706
235	0x3d7b9cf6	0.061428986
236	0xbd71ff56	-0.059081398
237	0xbdcac07c	-0.09899995
238	0xbe3163ee	-0.17323276
239	0xbda1bf1e	-0.07897781
240	0xbd95e69b	-0.07319375
241	0xbe396edf	-0.181087
242	0xbd3651c5	-0.044511575
243	0xbe2c6447	-0.16835128
244	0xbe58ceb9	-0.21172608
245	0x3d1f1faa	0.038848557
246	0x3dad409a	0.084595874
247	0x3e121368	0.14265215
248	0xbe43e0de	-0.19128749
249	0x3e33b298	0.17548597
250	0xbe615d88	-0.22008336
251	0x3d0d9275	0.0345635
252	0xbe713be0	-0.23557997
253	0x3e1f91cc	0.15582961
254	0x3d40b44d	0.04704695
255	0xbd987e1c	-0.074459285

layer.2.bias f4 [64]
0	0x3f1ed967	0.6205048
1	0x3cdd5f34	0.027022935
2	0x3eef9f51	0.46801236
3	0x3ebf64c2	0.3738156
4	0x3d499d2b	0.049222153
5	0x3f85a062	1.043957
6	0xbcdc7d86	-0.026915323
7	0x3e315bfa	0.17320243
8	0x3ea89093	0.329228
9	0x3e1153dd	0.14192148
10	0xbdf5c345	-0.12000135
11	0x3e6179c1	0.22019102
12	0x3eafe82f	0.3435683
13	0x3e93b22a	0.28846866
14	0xbc9dcda6	-0.0192631
15	0xbd952c32	-0.0728382
16	0x3e598f4a	0.21246067
17	0x3e4cc6d6	0.19997725
18	0x3e2de22f	0.16980813
19	0x3e59927c	0.21247286
20	0xbd8411fb	-0.06448742
21	0x3e881b8e	0.26583523
22	0x3dbe2b46	0.092855975
23	0x3d27e25a	0.04098735
24	0x3e11f488	0.14253438
25	0x3e970a5a	0.29500085
26	0x3dddcffe	0.10830687
27	0x3e269e6f	0.16271375
28	0x3e3b226f	0.18274854
29	0x3e5a0f87	0.21294986
30	0x3ed6fc36	0.41989297
31	0x3f03b458	0.5144706
32	0x3e69497f	0.22781943
33	0xbd93500f	-0.07193004
34	0x3eaf36fa	0.3422163
35	0x3be8ac84	0.0071006436
36	0x3d053319	0.032519434
37	0xbd698a47	-0.057016637
38	0x3e65f36a	0.22456136
39	0x3eb2107a	0.34778196
40	0xbd18e143	-0.0373242
41	0x3e10def1	0.14147545
42	0x3aefc2cc	0.0018292307
43	0x3f29bd02	0.6630403
44	0x3e63d836	0.22250447
45	0x3eab559c	0.33463752
46	0x3db2ea23	0.08736064
47	0xbe1ac9cf	-0.15116046
48	0xbd7d4582	-0.061833866
49	0x3ec46a90	0.3836255
50	0x3ea98c99	0.3311508
51	0x3ed245bc	0.41068828
52	0x3dc9bd3d	0.098505475
53	0x3f497445	0.7869304
54	0x3e22efae	0.15911743
55	0x3e307c9e	0.17235038
56	0x3e5d3661	0.21602775
57	0x3ef0f7a9	0.4706395
58	0x3d2277f1	0.039665166
59	0x3ed5726e	0.41688865
60	0x3ef2d490	0.47427797
61	0x3f0f15b3	0.55892485
62	0x3d4ef330	0.05052489
63	0x3ed36393	0.41286907

layer.4.weight f4 [128, 64]
0	0x3c5d39d9	0.0135025615
1	0xbdabc7cf	-0.0838772
2	0x3daef49f	0.085427515
3	0xbd6e2521	-0.058140878
4	0x3dd6672b	0.104688965
5	0x3da988c3	0.08278038
6	0x3e321018	0.17388952
7	0x3d52af06	0.051436447
8	0xbc9bf117	-0.019035859
9	0x3ba8e35e	0.0051540574
10	0xbe03ec4d	-0.1288311
11	0xbdbd81a3	-0.09253242
12	0xbd52dabf	-0.051478144
13	0x3bf0064c	0.0073249694
14	0xbc341df0	-0.010993466
15	0x3d530c08	0.051525146
16	0x3e1e504e	0.15460321
17	0xbda05a99	-0.0782978
18	0xbda1fc1e	-0.07909416
19	0x3d716526	0.058934353
20	0x3d24fe07	0.04028132
21	0xbd98e72d	-0.07465968
22	0xbd8e9629	-0.069622345
23	0x3e056fc7	0.13030921
24	0xbe752465	-0.23939665
25	0xbe0cd15f	-0.13751744
26	0xbda3bb7f	-0.079947464
27	0xbdb799b1	-0.08964861
28	0xbdeec57a	-0.116587594
29	0x3dfc1184	0.12308028
30	0x3dbcc985	0.09218124
31	0x3ddbd8a3	0.107346795
32	0x3ce04aa4	0.027379341
33	0x3d4ce50a	0.050023116
34	0xbcc1dc8d	-0.023664737
35	0x3d22a509	0.03970817
36	0x3e19e33f	0.15028094
37	0x3cf8e2f8	0.030381665
38	0xbe638890	-0.22220063
39	0x3d94ca97	0.072652034
40	0x3bef2084	0.0072975773
41	0xbe599732	-0.21249083
42	0x3d0c6e04	0.034284607
43	0x3dfe7f94	0.12426677
44	0x3d4fe65d	0.0507568
45	0xbbd429f2	-0.006474727
46	0x3dde14d9	0.1084382
47	0x3d9346c8	0.07191235
48	0x3db0f7d8	0.086410224
49	0x3d012d68	0.031537443
50	0x3dd63535	0.10459367
51	0xbd445fa7	-0.047942784
52	0x3d9e99a5	0.07744149
53	0x3cecd970	0.028912276
54	0x3c4bde09	0.012443074
55	0xbe46f686	-0.19429979
56	0x3d06f591	0.032949034
57	0xbe213e69	-0.15746464
58	0x3e273490	0.16328645
59	0xbe66449b	-0.22487108
60	0x3d8c2e63	0.06844785
61	0x3ab711c5	0.0013967088
62	0x3d39e474	0.045383886
63	0xbd9933aa	-0.07480557
64	0xbda9a9f2	-0.082843676
65	0xbd0d4897	-0.034493055
66	0xbe11dbda	-0.14244023
67	0x3d770d2e	0.060315304
68	0xbd9bf7e5	-0.076156415
69	0xbec859d3	-0.3913103
70	0xbe853b20	-0.2602167
71	0x3c8a75f6	0.016901951
72	0xbd7f0f28	-0.062270314
73	0x3ca0dcb0	0.019636482
74	0x3c4224ba	0.011849577
75	0x3e720247	0.23633681
76	0x3e1429e3	0.14469104
77	0x3d9d622c	0.076847404
78	0xbe0b82d4	-0.13624126
79	0xbd3f599f	-0.04671633
80	0xbe8ce470	-0.27518034
81	0x3eaa5160	0.3326521
82	0x3e4d99ef	0.20078252
83	0xbd9cdbd5	-0.07659117
84	0x3da6dc80	0.08147526
85	0xbdba1e17	-0.090877704
86	0xbd6d721c	-0.05797015
87	0xbdc99073	-0.098420046
88	0x3f23a467	0.63922733
89	0x3eca680c	0.39532506
90	0xbdb68d61	-0.08913685
91	0x3efae902	0.49005896
92	0x3e943100	0.28943634
93	0x3e1a10f4	0.1504553
94	0xbc3b40d4	-0.01142903
95	0x3da0be21	0.07848764
96	0xbbe51f8f	-0.0069922875
97	0x3dbd8001	0.092529304
98	0x39dee75b	0.00042515513
99	0xbd910bb7	-0.070823126
100	0xbd516739	-0.05112383
101	0x3d48e6be	0.049048178
102	0x3ef74ae0	0.48299313
103	0x3e24affe	0.1608276
104	0x3dcf0dff	0.101100914
105	0x3f08eff1	0.5349112
106	0x3a785a6f	0.0009473925
107	0x3ce918a3	0.02845413
108	0x3eb81e41	0.35960582
109	0x3e2334f2	0.15938166
110	0xbdf26a46	-0.11836676
111	0x3e3f01d2	0.18653038
112	0xbdbe33b1	-0.09287203
113	0xbde2f9ea	-0.110828236
114	0xbe1add70	-0.15123534
115	0xbdf710a0	-0.12063718
116	0x3d133af0	0.03594488
117	0xbe61e63e	-0.22060487
118	0x3debe215	0.11517731
119	0x3e91903b	0.28430352
120	0x3d37209e	0.04470884
121	0x3e95ded4	0.29271567
122	0xbea88475	-0.32913557
123	0x3e816073	0.25268897
124	0xbe0d0754	-0.13772327
125	0x3ea34912	0.31891686
126	0x3e11773f	0.14205645
127	0x3db35e2d	0.08758197
128	0x3c8af8bb	0.016964307
129	0xbdc110e0	-0.09427047
130	0x3d9abfab	0.07556089
131	0x3dba3925	0.09092931
132	0xbdcb1da1	-0.09917761
133	0x3f0edf9e	0.5580996
134	0x3e28c062	0.16479638
135	0x3db8b43e	0.090187535
136	0x3e534b1a	0.20634118
137	0x3d88ea2d	0.066852905
138	0xbe0603f3	-0.13087444
139	0x3d080db3	0.03321619
140	0x3c81ca5a	0.015843559
141	0x3d7f6661	0.062353496
142	0x3d616d8c	0.055036113
143	0x3e111028	0.1416632
144	0x3d4917c4	0.04909493
145	0xbda6c0b7	-0.08142226
146	0xbe331409	-0.17488112
147	0x3cd17701	0.02556944
148	0x3dc45349	0.09586198
149	0x3df7bf2f	0.12097012
150	0xbd683cd9	-0.056698654
151	0x3db1f7af	0.0868982
152	0xbde60ccf	-0.11232912
153	0xbe80be92	-0.25145394
154	0xbe104dd1	-0.14092185
155	0xbdc9f15f	-0.09860491
156	0x3d0e9f87	0.034820106
157	0x3d344989	0.04401544
158	0xbd38b63a	-0.04509566
159	0x3d894746	0.067030475
160	0x3de0d4f2	0.10978116
161	0xbe030425	-0.1279455
162	0xbcf45761	-0.029826822
163	0x3e0a9352	0.1353276
164	0xbbd9754e	-0.0066362983
165	0x3cff104c	0.0311357
166	0xbe9cadce	-0.30601352
167	0xbd2d7df7	-0.042356458
168	0x3d219236	0.03944608
169	0xbe719b8c	-0.23594493
170	0x3b850e61	0.004060552
171	0x3dbe2ab6	0.0928549
172	0xbcdf73b7	-0.027276857
173	0xbd5f2695	-0.054480154
174	0xbcf629f8	-0.03004931
175	0x3d6d7e2c	0.057981655
176	0xbc496ac2	-0.012293519
177	0x3d9585b4	0.073008925
178	0x3d8297dc	0.06376621
179	0xbd13421d	-0.035951722
180	0x3cc47ff1	0.023986788
181	0x3df65d30	0.12029493
182	0x3c9e72a4	0.019341774
183	0xbc0a5440	-0.008442938
184	0x3c0656e0	0.008199424
185	0xbdb37b41	-0.08763743
186	0xbdffbd3e	-0.12487267
187	0xbdceb6b1	-0.10093439
188	0xbca31012	-0.019905124
189	0x3c49cb2d	0.012316507
190	0xbd911f82	-0.07086088
191	0xbe1258f4	-0.14291745
192	0xbe03f252	-0.12885407
193	0xbd95d5ad	-0.07316146
194	0xbee05645	-0.43815818
195	0x3c1cfbe0	0.009581536
196	0xbe3397ea	-0.1753842
197	0xbf27d9ba	-0.655666
198	0xbe154324	-0.14576393
199	0x3dffe4f8	0.12494844
200	0xbddaa717	-0.10676401
201	0xbe52737a	-0.20551863
202	0xbdcea2cd	-0.100896455
203	0x3e5c4975	0.21512397
204	0x3e50bc72	0.20384386
205	0x3e836b30	0.25667715
206	0xbe827895	-0.25482622
207	0xbcd400fe	-0.02587938
208	0xbed5b49d	-0.4173936
209	0x3f21ebaf	0.6325025
210	0x3ecef0e1	0.4041815
211	0xbda5e8e8	-0.08101064
212	0x3ded0fb8	0.11575264
213	0xbdd8c890	-0.10585129
214	0xbe23dc50	-0.16002011
215	0xbc0effaf	-0.008727952
216	0x3f04f2d5	0.5193303
217	0x3ef99b01	0.4875107
218	0x3e54a0a8	0.2076441
219	0x3effb9d3	0.4994646
220	0x3ecc5e69	0.3991578
221	0x3deed302	0.1166134
222	0xbe358b3e	-0.17728898
223	0x3d9b9b24	0.0759795
224	0x3dddcfe3	0.10830667
225	0x3e12cd5b	0.1433615
226	0xbdc13266	-0.09433441
227	0xbe0315de	-0.1280131
228	0xbe144d0d	-0.14482518
229	0x3d569d2e	0.052395992
230	0x3f0002e2	0.500044
231	0x3e90b6dc	0.2826451
232	0xbd494cb0	-0.0491454
233	0x3edf9d1b	0.4367455
234	0xbb810f0a	-0.0039385604
235	0x3dbe8fc6	0.09304766
236	0x3e9fd9f2	0.31220967
237	0x3e71ebc1	0.23625089
238	0xbc0dabb1	-0.008646891
239	0x3e30bf43	0.1726046
240	0xbe003a92	-0.12522343
241	0xbe9f18eb	-0.31073698
242	0x3cf73b0b	0.030179521
243	0xbc3e24fe	-0.011605499
244	0x3be297fe	0.0069150915
245	0xbea4540e	-0.3209538
246	0x3e9e02ac	0.30861413
247	0x3ea23de6	0.3168785
248	0x3e32016f	0.1738336
249	0x3e932b68	0.28744054
250	0xbec32ea8	-0.38121533
251	0x3ef579ea	0.47944576
252	0xbda02ed9	-0.078214355
253	0x3f1cb636	0.6121553
254	0x3e98d5db	0.2985066
255	0x3f021a4b	0.5082137

layer.4.bias f4 [128]
0	0x3e2ccb90	0.16874528
1	0x3e94d619	0.29069594
2	0x3e15981d	0.14608808
3	0x3e93c251	0.2885919
4	0xbad21875	-0.0016029017
5	0x3de07305	0.10959438
6	0x3e545f27	0.20739423
7	0xbd75d0c4	-0.060013548
8	0x3e51c9c2	0.20487121
9	0x3e8475f0	0.2587123
10	0x3ecc741f	0.39932343
11	0x3b6bf0b1	0.0036001618
12	0x3e34bc29	0.17649902
13	0xbd821d12	-0.06353201
14	0x3e68c321	0.22730686
15	0x3ea0d951	0.314158
16	0x3d462f55	0.048384983
17	0x3e1225d3	0.14272241
18	0xbdda28ab	-0.10652288
19	0xbd1ffea1	-0.039061192
20	0x3ef487f6	0.4775998
21	0x3b17e4e0	0.0023177192
22	0x3d104123	0.03521837
23	0x3eea5f96	0.4577605
24	0x3e9e7f59	0.30956534
25	0x3e15a35e	0.14613101
26	0x3e9803d6	0.29690427
27	0x3e134739	0.14382638
28	0x3e5f3c91	0.21800448
29	0x3d287b19	0.04113302
30	0x3e856505	0.26053634
31	0x3cba6e0e	0.022757556
32	0x3e538895	0.2065757
33	0x3ef857a5	0.48504367
34	0x3b86fa4c	0.004119193
35	0x3eaae30c	0.33376348
36	0xbe6b2869	-0.22964634
37	0x3e892579	0.26786402
38	0x3dfa14ef	0.12211024
39	0xbd165f15	-0.03671177
40	0xbdc7c9f6	-0.09755318
41	0x3e06039b	0.13087313
42	0x3ed1e6c6	0.4099638
43	0x3e2c3962	0.16818765
44	0x3e93b34e	0.28847736
45	0x3bb435e7	0.0054995897
46	0x3e35c757	0.17751823
47	0x3e3032ef	0.1720693
48	0x3ea56513	0.32303676
49	0xbcfe9162	-0.031075183
50	0x3ed9fa5c	0.42573822
51	0x3e2673d4	0.16255122
52	0xbe50b689	-0.20382132
53	0x3f2a8f27	0.66624683
54	0xbccab66e	-0.024745192
55	0x3e44f991	0.19235827
56	0x3e2ebe03	0.17064671
57	0x3dfbbafa	0.12291522
58	0xbd3f6202	-0.046724327
59	0x3e6bfefe	0.2304649
60	0x3e397e79	0.18114652
61	0x3e2fac18	0.17155492
62	0x3f3a7e57	0.7284903
63	0xbd411a7a	-0.04714439
64	0xbd2f0189	-0.042726073
65	0xbd907f80	-0.07055569
66	0x3d8e0d1d	0.06936095
67	0x3eba80b4	0.36426318
68	0x3e8d5abe	0.27608293
69	0x3e8f87bc	0.28033245
70	0x3e8253b2	0.2545448
71	0x3e228eed	0.15874834
72	0xbe5438ed	-0.2072484
73	0xbe68e55c	-0.22743744
74	0x3e304061	0.17212059
75	0x3de9bf60	0.11413455
76	0x3da21b4f	0.07915365
77	0x3ebc4785	0.36773315
78	0x3f006a10	0.5016184
79	0x3e739038	0.23785484
80	0xbc490081	-0.012268187
81	0x3e180637	0.14846121
82	0x3e687294	0.22699958
83	0x3e6cc050	0.23120236
84	0x3f1624f0	0.5865011
85	0x3c184e1c	0.0092959665
86	0xbc8839a5	-0.01662905
87	0x3b01430f	0.0019723808
88	0xbe4fd36c	-0.20295495
89	0x3d9a6822	0.07539393
90	0x3f39116a	0.72292197
91	0x3dadd524	0.08487919
92	0x3e84dc28	0.25949216
93	0x3ea39d2e	0.31955856
94	0x3cc35e61	0.023848714
95	0xbe07fde0	-0.1328044
96	0xbc488a18	-0.012239955
97	0x3e17cfda	0.14825383
98	0x3e849567	0.25895235
99	0x3e275c0a	0.16343704
100	0x3ec891a2	0.3917361
101	0x3e92fc5f	0.2870817
102	0x3ccd4f44	0.02506221
103	0xbcb25bb8	-0.02177225
104	0x3e7003b9	0.2343892
105	0x3e145988	0.14487278
106	0x3e871657	0.2638423
107	0xbe06b6ae	-0.13155624
108	0x3e2ac910	0.16678262
109	0x3ddaa9a1	0.106768854
110	0x3e139482	0.1441212
111	0x3e2a6a07	0.16642009
112	0x3dca5b60	0.0988071
113	0x3d17a609	0.037023578
114	0x3e86d0c3	0.26331148
115	0x3e62cc67	0.22148286
116	0x3d34de29	0.04415718
117	0x3d83f60f	0.06443416
118	0x3cafb623	0.021449154
119	0x3eb7509c	0.35803688
120	0x3c6e456f	0.014542921
121	0x3d58cca1	0.052929524
122	0x3e515f27	0.20446454
123	0xbc97d99d	-0.018536383
124	0x3d809cfe	0.06279944
125	0x3cbab0bb	0.02278935
126	0x3dd7c27a	0.1053514
127	0x3e25864e	0.16164514

layer.6.weight f4 [23, 128]
0	0xbd12b484	-0.035816684
1	0xbd244bfe	-0.040111534
2	0x3c000ac9	0.007815071
3	0x3c4ac12f	0.01237516
4	0x3c9d1732	0.0191761
5	0xba311dac	-0.00067564356
6	0x3d392f03	0.04521085
7	0xbd40f1f9	-0.047105763
8	0x3be6d47d	0.0070443735
9	0x3c69d679	0.014272326
10	0x3b869b9b	0.004107905
11	0xbcfe7f0e	-0.031066444
12	0x3bffb737	0.0078038233
13	0x3cb18d24	0.021673746
14	0x3da5777a	0.08079429
15	0x3cc2c208	0.023774162
16	0x3d7dd387	0.061969306
17	0x3d850755	0.06495539
18	0xbd81064f	-0.063000314
19	0xbc8b9ef9	-0.017043578
20	0xbd67b26e	-0.05656665
21	0xbba4ce81	-0.0050295
22	0xbce883a6	-0.028383087
23	0x3d67f991	0.05663449
24	0xbd96aca5	-0.07357148
25	0x3d0352b4	0.032061294
26	0x3cb20325	0.021730015
27	0xbd41cbaf	-0.04731339
28	0xbcf51287	-0.029916061
29	0xbc3125fd	-0.01081228
30	0x3cfea6ef	0.03108546
31	0xbc396608	-0.01131583
32	0x3d1e8e68	0.038710028
33	0x3d2aec3d	0.0417292
34	0xbae4d991	-0.0017459859
35	0x3d1d1b08	0.038355857
36	0xbd864e28	-0.06557876
37	0x3bbef93f	0.0058280523
38	0xbcbaadaf	-0.022787897
39	0x3ceddf1a	0.029037047
40	0xbc1783c0	-0.00924772
41	0x3d8a5615	0.067547
42	0x3ca51c39	0.02015506
43	0x3d0edcd3	0.034878563
44	0x3d4a6738	0.049414843
45	0x3d2bb277	0.041918244
46	0xbd2f2d38	-0.042767733
47	0x3d46d6e0	0.048544765
48	0x3d28bec6	0.04119756
49	0xbd5dcbd7	-0.054149475
50	0xbd164445	-0.0366862
51	0xbd459b4f	-0.048243817
52	0xbb138de2	-0.0022514989
53	0x3d8f2a15	0.069904484
54	0x3ce055a5	0.027384588
55	0x3d30e1dd	0.04318415
56	0xbd346fcc	-0.04405193
57	0x3c117213	0.008877295
58	0x3d37d8cd	0.04488449
59	0x3d452760	0.048133254
60	0xbd1b0f4e	-0.037856393
61	0xbcddfb80	-0.027097464
62	0xbccac746	-0.024753224
63	0xbd45a5df	-0.04825389
64	0xba125361	-0.00055818824
65	0xbdcd1746	-0.10014205
66	0x3ca4686f	0.020069329
67	0xbd12e5b1	-0.035863582
68	0x3c9a2e1e	0.018820819
69	0x3bac05a4	0.005249696
70	0xbcc95107	-0.02457477
71	0xbd561f84	-0.05227615
72	0xbda64d26	-0.08120184
73	0xbd3aa764	-0.045569792
74	0x3cd210e8	0.025642827
75	0x3892b48f	6.995454e-05
76	0xbd2632cc	-0.040575787
77	0xbcc7b1da	-0.024376798
78	0x3d5e62c3	0.054293405
79	0x399a4de1	0.00029431193
80	0x3d3206d2	0.043463536
81	0xbd8160bc	-0.06317279
82	0xbc1f7ef7	-0.009734861
83	0xbaaf1de4	-0.0013360349
84	0x3d993ff3	0.074829005
85	0x3e382f07	0.1798669
86	0xbc804b6d	-0.015660966
87	0x3b9469a9	0.0045291972
88	0xbc7235cd	-0.014783335
89	0x3cb56c30	0.022146314
90	0xbdc601b8	-0.096682966
91	0xbcb0f94a	-0.021603245
92	0x3cbdf6b3	0.023188924
93	0xbd60ab78	-0.054851025
94	0x3d1d00d7	0.03833088
95	0x3c55bee5	0.013046001
96	0xbc00eb1c	-0.007868554
97	0x3af92f52	0.0019011295
98	0xbcd0107f	-0.025398491
99	0xbc071eed	-0.008247119
100	0xbc4b65ce	-0.012414409
101	0x3e413f24	0.18871742
102	0x3d5f886a	0.054573454
103	0x3d26577f	0.040610787
104	0xbd97b97f	-0.074084274
105	0x3d1a1a66	0.03762283
106	0x3bd83317	0.0065978873
107	0xbd9fd548	-0.07804352
108	0xbbb1062b	-0.0054023466
109	0x3cc8b619	0.024500893
110	0x3d8b028a	0.06787594
111	0x3d5c3aa4	0.05376686
112	0xbca075c0	-0.019587398
113	0x3c83db12	0.016095672
114	0x3da7f0ee	0.082002506
115	0xbd5cc173	-0.053895425
116	0xbdcd4e83	-0.100247405
117	0x3d0c4d1a	0.034253217
118	0xbd76578a	-0.060142078
119	0x3dc45f49	0.09588487
120	0x3c9282a5	0.017884562
121	0x3d287bc2	0.04113365
122	0x3d89e079	0.06732268
123	0xbdbf0c1a	-0.0932848
124	0x3dbf4bb5	0.09340612
125	0x3cc6894f	0.024235396
126	0xbcb0ae24	-0.021567412
127	0xbd3a6314	-0.045504645
128	0xbccb855e	-0.024843868
129	0xbbbfaa62	-0.0058491686
130	0xbc4853e0	-0.012227029
131	0xbca2b620	-0.019862235
132	0xbd40c7cb	-0.047065537
133	0x3c9513f5	0.018197993
134	0x3bd74d93	0.006570527
135	0x3cbd4fe6	0.023109388
136	0x3b561ecd	0.0032672167
137	0xbbb02cea	-0.005376448
138	0xba5391d6	-0.00080707425
139	0xbbed6d70	-0.007245712
140	0x3b2abc92	0.0026052338
141	0x3bc0e6a8	0.0058868714
142	0x3c372b9a	0.011179829
143	0xbb5a7241	-0.003333226
144	0xbc8ee497	-0.017442985
145	0xbcdda5a7	-0.027056528
146	0x3b97e1d1	0.0046350737
147	0x3c11e1cd	0.008903933
148	0x3d333f52	0.04376156
149	0xbb86d5e7	-0.0041148546
150	0x3b823128	0.003973145
151	0xbbdafabf	-0.0066827233
152	0x3c53d33e	0.012928782
153	0xbcc4ad48	-0.024008408
154	0x3c0729e4	0.008249734
155	0x3c0c7ddd	0.00857493
156	0x3abd3b22	0.0014437179
157	0x3ceec039	0.029144393
158	0xbb83aca8	-0.004018385
159	0x3bb3a0e9	0.0054818285
160	0x3c989cdf	0.01862949
161	0x3c7fe7a5	0.015619193
162	0x3c2d9423	0.010594401
163	0xbd044890	-0.032295763
164	0x3d1f7c88	0.03893712
165	0x3cc1af37	0.02364312
166	0xbc4f2ad4	-0.012644488
167	0x3d013328	0.031542927
168	0x3d28960d	0.041158725
169	0xbc88bbef	-0.016691176
170	0x3bb51aab	0.0055268607
171	0xba3633f5	-0.0006950491
172	0xbd936fa6	-0.071990296
173	0x3c9ab99f	0.01888734
174	0xbc7d897b	-0.015474672
175	0x3c774353	0.015091735
176	0xbc82040e	-0.015871074
177	0xbcc46154	-0.02397219
178	0x3c8fb05f	0.017540155
179	0xbc1121a8	-0.008858122
180	0x3985b89c	0.00025505282
181	0xbbc7e516	-0.006100307
182	0x3c8051aa	0.01566394
183	0x3cdcbce2	0.026945535
184	0x3c3bc9c9	0.011461684
185	0xbd1084a5	-0.03528275
186	0x3c7bb7ec	0.015363675
187	0xbc9b1b98	-0.018934056
188	0xbc6e3444	-0.014538828
189	0xbd0a6738	-0.033789843
190	0x3d116da6	0.03550496
191	0x3bb84a12	0.0056240642
192	0xbc996b1c	-0.018727832
193	0xbbceeca1	-0.0063148295
194	0xbb0a0c11	-0.002106432
195	0xbd0a0d8b	-0.03370432
196	0xba8dc297	-0.0010815439
197	0xbc6a4f63	-0.014301154
198	0xbcff4ac9	-0.03116359
199	0x3c4e5f6c	0.012595993
200	0x3c3ad806	0.011404043
201	0xbb4800f3	-0.0030518144
202	0x3cd789cc	0.026310824
203	0xbc5b612c	-0.013389867
204	0x3ccef216	0.02526192
205	0xbb671ac5	-0.0035263759
206	0xbc235825	-0.009969746
207	0x3caf408f	0.021393089
208	0xbccd8975	-0.025089959
209	0x3b26b77e	0.002543896
210	0xbc93c3ed	-0.01803776
211	0x3a55917f	0.0008146986
212	0x3cc2f43f	0.023798106
213	0xbd010496	-0.031498514
214	0x3b3bd65a	0.00286617
215	0xbc8af0ca	-0.01696052
216	0x3c9ca9ac	0.019123875
217	0xbc365c80	-0.011130452
218	0xbc9c1ca4	-0.019056626
219	0x3ca4d89c	0.020122819
220	0x3be68cbd	0.0070358203
221	0xbb0f8830	-0.0021901242
222	0xbaa79977	-0.0012786825
223	0x3d00a483	0.03140689
224	0x3c78b46e	0.015179737
225	0x3c8ecfa0	0.017432988
226	0xbd2cdbe9	-0.04220191
227	0xbcee574f	-0.029094366
228	0xbd2c9e7f	-0.04214334
229	0xbc8084ef	-0.015688388
230	0xbd37bb0b	-0.044856112
231	0xbb80f6a4	-0.003935652
232	0xbc3b33b3	-0.0114259
233	0x3d04d636	0.03243085
234	0x3cb1c4a9	0.02170022
235	0xbc65230d	-0.013985408
236	0xba773f6c	-0.0009431753
237	0xbb787b31	-0.0037915225
238	0x3d6f4fa1	0.05842555
239	0x3c5bff7c	0.013427611
240	0x3c436dcd	0.011928034
241	0xbb22ff39	-0.0024871363
242	0xbc0c957d	-0.008580563
243	0xbc00ebe8	-0.007868744
244	0x3c2dea5e	0.0106149595
245	0x3b3b0e4c	0.0028542457
246	0xbcc680cd	-0.024231339
247	0xbb97a03d	-0.004627256
248	0x3cd9cbfc	0.026586525
249	0xbb76c450	-0.0037653632
250	0x3cef3517	0.02920012
251	0x3ceb2be7	0.028707458
252	0x3b4df778	0.003142802
253	0xbc1428a8	-0.009042896
254	0x3cb3ab00	0.021932125
255	0x3cf7047e	0.03015351

layer.6.bias f4 [23]
0	0x3ef6aca1	0.4817858
1	0x3d700d44	0.0586064
2	0x3e90a495	0.28250566
3	0x3d880cbf	0.06643056
4	0x3d8d5f2f	0.069029205
5	0x3ee09264	0.43861687
6	0x3effd600	0.49967957
7	0x3eb4a059	0.35278586
8	0x3de20fb6	0.11038153
9	0x3ef6c59c	0.4819764
10	0x3e0dd13e	0.13849351
11	0x3dd90ea1	0.10598493
12	0x3db941bd	0.09045742
13	0xbb972e17	-0.0046136486
14	0x3a4ba3c7	0.000776824
15	0x3d3508f9	0.04419801
16	0x3d948237	0.07251399
17	0x3f0a7264	0.54080796
18	0x3dd671ee	0.10470949
19	0x3c910a80	0.017705202
20	0xbcdc4d1a	-0.026892234
21	0x3e317f1a	0.17333642
22	0x3d757da4	0.059934273
