weight/save_530.pth (torch_old, 72900 bytes, 8 tensors)

layer.0.weight f4 [32, 139]
0.080220856 0.026855862 -0.081168614 -0.08035723 -0.056960177 -0.029471267 -0.06644063 0.012980088
0.068256274 -0.005575406 0.09580095 0.029443089 0.0010179676 0.055354267 -0.09579672 -0.014210877
-0.04076112 0.00585899 0.015888626 0.014975852 -0.08922685 0.050013136 -0.04009591 0.0015966487
-0.041095074 0.040471427 0.06958115 0.048495136 -0.041391302 -0.045327034 0.04105279 -0.04325272
0.029689193 -0.03987084 -0.073910385 -0.02201807 -0.0065451427 -0.0015106335 0.017258754 -0.05899057
0.039279837 0.05531839 0.050551306 -0.021028323 0.025609206 0.02366342 0.019512644 0.012438059
0.056696907 -0.062413253 -0.029855987 0.017986009 0.02364932 0.070987664 -0.04115493 0.08498558
-0.019223977 -0.051557254 0.023526708 -0.049413398 0.012696174 -0.035634242 -0.003987433 0.07130866
-0.05134826 0.031982053 -0.04439939 -0.022069829 -0.049943965 -0.02267702 -0.067154974 -0.060260996
-0.011823292 0.0008318677 -0.023381196 0.012543966 -0.008860697 -0.031709753 -0.075371765 -0.066152826
-0.06975511 -0.015876036 0.048357375 0.035916977 -0.06422522 -0.08190155 -0.02562366 -0.04964879
-0.0626711 0.052726574 0.009323642 -0.048141252 -0.0015277427 -0.025067523 0.017597198 -0.058650944
-0.039601974 0.003222712 0.049293198 -0.04301534 -0.04668497 -0.045914456 -0.07432812 0.008385509
0.002390744 0.00051436544 0.016614646 -0.08406666 0.009499701 0.056674205 -0.07713206 0.050913695
-0.009962171 -0.07226211 0.035661586 -0.011563432 0.0016337615 0.023560917 -0.0395218 0.06134365
0.017489322 -0.0028251063 0.027720837 -0.050897073 -0.078454904 0.057008162 -0.034912486 -0.051676303
-0.028922778 -0.035493087 -0.014689667 -0.06701556 -0.08013975 -0.06194181 -0.06555156 -0.08274471
0.034721747 0.00844232 -0.003224931 0.04839898 -1.2140661 0.7574627 0.060156174 0.6485544
0.04555718 -0.07061819 -0.060110267 -0.62244016 -0.5489849 -0.60645556 -0.013860206 0.063153975
-0.008932382 -0.17285582 0.004839892 -0.054421183 -0.020694299 0.047123287 0.0005795027 0.09224193
0.04844673 0.0538491 -0.029953739 0.03853995 -0.023321195 0.028907694 -0.08130325 -0.0055382205
-0.0035108633 0.064024664 -0.01952243 -0.02139858 -0.023956712 -0.063363954 -0.021727724 -0.017132927
-0.06134372 -0.025537027 -0.06439127 -0.015183885 0.060665146 -0.067407 0.016813533 0.021037089
0.008799331 0.0030576147 -0.049401205 0.0008163872 0.031543404 -0.00056627236 0.09035901 0.0347354
-0.048677836 -0.009471627 -0.0073650153 -0.008697736 -0.005629193 -0.00042719848 -0.06708842 0.0041885288
-0.038042195 0.046088323 -0.08829147 -0.002357206 0.035813894 -0.016216537 -0.09387269 -0.09336084
-0.03136363 -0.049351193 0.009831384 0.050486166 0.004424948 -0.08022638 0.0010285722 0.048994426
-0.03304067 0.073780574 -0.07187802 0.020055335 -0.02837668 -0.05789117 0.098953374 -0.07637969
-0.05248857 -0.046124786 0.0021089192 -0.11907303 0.04842868 0.07413194 -0.018444635 0.017687615
0.032354113 0.013904032 0.016610388 0.02178384 -0.015887417 0.055331614 -0.054665137 -0.042497054
0.009460914 0.01468314 -0.057412688 -0.055188194 -0.021928163 -0.011387704 -0.10007979 0.015833836
0.009062759 -0.00418794 -0.06469303 0.0073536052 0.013438226 -0.04726232 0.038684476 0.006558778
00000000: d54a a43d d300 dc3c bb3b a6bd 5592 a4bd
00000010: 134f 69bd ba6d f1bc 0612 88bd 6faa 543c
00000020: f2c9 8b3d e5b1 b6bb 4a33 c43d a232 f13c
00000030: 536d 853a 28bb 623d 1231 c4bd bdd4 68bc
00000040: 22f5 26bd c5fc bf3b dd28 823c 475d 753c
00000050: 91bc b6bd 93da 4c3d 9c3b 24bd a446 d13a
00000060: 4f53 28bd 5ec5 253d 9080 8e3d d6a2 463d
00000070: ed89 29bd d7a8 39bd f826 283d c429 31bd
00000080: c036 f33c 9b4f 23bd 545e 97bd 3d5f b4bc
00000090: a378 d6bb 7300 c6ba 3b62 8d3c 19a0 71bd
000000a0: e5e3 203d 8995 623d e30e 4f3d 9743 acbc
000000b0: 66ca d13c cad9 c13c fbd8 9f3c 00c9 4b3c
000000c0: 043b 683d 0aa5 7fbd 8b94 f4bc 6557 933c
000000d0: 38bc c13c fb61 913d 1292 28bd eb0c ae3d
000000e0: 9a7b 9dbc b32d 53bd 15bb c03c b465 4abd
000000f0: 9d03 503c 36f5 11bd 03a9 82bb 460a 923d
00000100: 8e52 52bd 9dff 023d 23dc 35bd c9cb b4bc
00000110: 0b92 4cbd 28c5 b9bc 8c88 89bd 3cd4 76bd
00000120: 7bb6 41bc b211 5a3a ec89 bfbc 3585 4d3c
00000130: 752c 11bc 16e2 01bd 835c 9abd 227b 87bd
00000140: c4db 8ebd 760e 82bc 6212 463d ae1d 133d
00000150: 8388 83bd 00bc a7bd b6e8 d1bc 885c 4bbd
00000160: b559 80bd d2f7 573d 30c2 183c c32f 45bd
00000170: 8a3e c8ba 685a cdbc 0028 903c f93b 70bd
00000180: ae35 22bd 2334 533b aae7 493d da30 30bd
00000190: bd38 3fbd cc10 3cbd 5739 98bd 6063 093c
000001a0: 07ae 1c3b 7bd6 063a 701b 883c 242b acbd
000001b0: a2a4 1b3c 3623 683d 6af7 9dbd e18a 503d
000001c0: 6038 23bc 28fe 93bd e211 123d 8d74 3dbc
000001d0: f023 d63a d302 c13c 9ce1 21bd 7b43 7b3d
000001e0: c445 8f3c 6b25 39bb cf16 e33c 7379 50bd
000001f0: f7ac a0bd 6481 693d 6500 0fbd 88aa 53bd
00000200: 76ef ecbc 3361 11bd eeac 70bc 743f 89bd
00000210: 4f20 a4bd b2b6 7dbd e53f 86bd 0f76 a9bd
00000220: 6438 0e3d a851 0a3c 5d59 53bb 023e 463d
00000230: 8566 9bbf 13e9 413f 5266 763d a907 263f
00000240: 2a9a 3a3d 45a0 90bd 2f36 76bd 3d58 1fbf
00000250: 468a 0cbf ac40 1bbf eb15 63bc df56 813d
00000260: 2059 12bc 1e01 31be f597 9e3b bfe8 5ebd
00000270: 1787 a9bc 5904 413d c5e9 173a 56e9 bc3d
00000280: 1470 463d e090 5c3d 8b61 f5bc 11dc 1d3d
00000290: 170c bfbc d4cf ec3c 5182 a6bd f679 b5bb
000002a0: 8316 66bb 5d1f 833d 81ed 9fbc 134c afbc
000002b0: de40 c4bc f6c4 81bd 57fe b1bc 5a5a 8cbc
000002c0: 8d43 7bbd 0733 d1bc 92df 83bd d4c5 78bc
000002d0: 047c 783d ae0c 8abd 89bc 893c f955 ac3c
000002e0: 122b 103c 4362 483b eb58 4abd d102 563a
000002f0: a833 013d e571 14ba 250e b93d b546 0e3d
00000300: 6962 47bd e22e 1bbc 3a56 f1bb f380 0ebc
00000310: 1875 b8bb 9cf9 dfb9 a765 89bd ed3f 893b
00000320: 22d2 1bbd 1cc7 3c3d 29d2 b4bd 5b7b 1abb
00000330: 97b1 123d 8bd8 84bc 5340 c0bd f833 bfbd
00000340: 2677 00bd 7a24 4abd d013 213c 95ca 4e3d
00000350: 27ff 903b ba4d a4bd 28d1 863a 61ae 483d
00000360: a755 07bd 451a 973d c934 93bd 164b a43c
00000370: 3676 e8bc 4b1f 6dbd 11a8 ca3d f46c 9cbd
00000380: 41fe 56bd 58ed 3cbd cb35 0a3b 90dc f3bd
00000390: 275d 463d 7dd2 973d 3419 97bc 9ee5 903c
000003a0: bf85 043d bdcd 633c 8212 883c 0674 b23c
000003b0: 5426 82bc 67a3 623d 8de8 5fbd 6411 2ebd
000003c0: f301 1b3c 8e91 703c 9129 6bbd 040d 62bd
000003d0: b1a2 b3bc 7e93 3abc a2f6 ccbd f6b5 813c
000003e0: f77b 143c fd3a 89bb c87d 84bd 83f6 f03b
000003f0: 012c 5c3c 2296 41bd 9d73 1e3d 05eb d63b

layer.0.bias f4 [32]
0.017425332 0.6502631 -0.011046646 0.037673693 -0.098905995 0.036205627 -0.015807666 0.018240161
-0.041470338 0.061955202 0.080619365 0.41513035 -0.08146109 0.717552 0.12976848 0.057389315
0.059584867 -0.011173221 0.47556546 0.7442917 -0.09812879 0.7101206 -0.032216534 0.39843068
-0.0841356 0.652964 -0.009436198 0.049428117 0.9322398 0.027724912 -0.14053188 -0.024026735
00000000: 92bf 8e3c a477 263f fefc 34bc bb4f 1a3d
00000010: 3a8f cabd 5a4c 143d 147f 81bc 646c 953c
00000020: cddc 29bd bdc4 7d3d c41b a53d f78b d43e
00000030: 12d5 a6bd 7db1 373f 07e2 043e 0f11 6b3d
00000040: 430f 743d e30f 37bc 517d f33e e789 3e3f
00000050: bff7 c8bd 77ca 353f 7cf5 03bd 1bff cb3e
00000060: 494f acbd a628 273f 489a 1abc 2375 4a3d
00000070: 44a7 6e3f 5b1f e33c 97e7 0fbe b7d3 c4bc

layer.2.weight f4 [64, 32]
0.082822666 -0.08584432 0.07278397 0.10644921 0.14272933 -0.04768118 0.06375365 0.13609424
0.19305542 -0.1422577 0.12672253 0.07133855 0.12672599 -0.07665631 0.1847357 0.18076567
0.18529996 -0.035328895 0.27177465 0.048757948 0.09387611 -0.16291684 -0.0024052532 0.0033813412
0.025926799 -0.019564427 0.18578254 0.09088346 0.077053584 0.23603813 -0.09489851 -0.15499204
0.015066415 -0.08989 0.15206052 -0.035105646 -0.02685807 -0.12327934 -0.039370768 0.08833619
-0.09368699 0.10426939 -0.021247692 0.08423873 -0.06910635 -0.04833514 0.19134387 0.024481019
0.08468848 0.2115083 0.078754865 0.053723264 0.19919795 0.041164774 -0.16438559 -0.09895505
-0.020738378 -0.041887738 -0.12768836 -0.03327967 0.03243462 0.13070251 0.10176263 0.027204888
-0.09286756 -0.19689944 0.19251485 -0.15277502 -0.15452592 -0.20384055 0.034770537 0.08501309
0.033164214 0.12326144 0.1595688 -0.13403639 0.06778718 -0.075413905 -0.14693214 0.22938338
0.067067936 0.08818778 5.839903e-05 0.08010696 0.17729726 0.019712187 -0.06244114 0.14981021
-0.1503913 -0.112272985 -0.12218481 -0.113744296 -0.030751884 0.17097253 -0.09756713 -0.0023686166
0.05822436 0.1562193 -0.3123923 -0.10357556 -0.27327684 -0.21793485 -0.04647528 0.04818518
-0.10093045 0.04728949 0.107812755 0.68474025 0.049809363 0.6547983 0.0857294 -0.28145286
0.053174507 0.014914343 0.26906163 0.64134496 -0.26796693 -0.055126708 -0.13870291 0.09555277
0.111287296 0.12099876 -0.108411476 0.06411687 0.89684963 -0.16297168 0.06979681 0.014783029
0.028995778 0.085815564 0.23526049 -0.048718113 0.08362288 -0.070232324 0.076626554 0.15519339
-0.04460481 -0.026860204 -0.073327325 -0.11288376 0.0244042 0.14924428 0.083594605 0.2108447
-0.13614689 0.20164667 -0.19207887 0.044238042 0.0817273 -0.00091660547 0.08221944 -0.01869738
-0.014480157 -0.12189758 0.013091325 -0.030777304 -0.00021476544 0.20207813 -0.15243319 -0.04837453
-0.1635364 -0.16985461 0.10953014 -0.123790555 -0.015199243 0.03434498 0.015335905 0.05372069
0.020944022 0.041032992 0.19270155 -0.20958024 0.02141931 -0.03105595 -0.13765548 -0.19496702
0.12952782 0.14631835 -0.09000251 0.060713585 -0.28985924 -0.029792583 -0.013466393 0.1489526
-0.21116382 -0.034000896 -0.17181003 0.015788788 -0.09497021 -0.14756812 0.027787603 0.11288145
0.1263713 -0.024976145 0.22175007 -0.03193455 0.096470214 -0.18319522 0.08765584 -0.1754522
-0.10510951 -0.049259756 0.06631759 0.06772965 -0.11069385 0.14501134 0.19158502 0.15615794
0.016581565 -0.10370358 -0.13022336 -0.018800175 0.09132819 -0.03989762 0.2019069 0.10101437
-0.0036946048 -0.09714254 0.15638836 0.14883906 -0.025124012 0.089213744 -0.109942585 -0.15875891
-0.08825802 0.14806049 -0.13118246 -0.106996655 0.024826162 -0.2151578 -0.05294878 -0.14940384
0.0627632 0.019208718 0.06692268 0.061428986 -0.05112588 -0.08780031 -0.17156021 -0.10717241
-0.073529534 -0.17012666 -0.044511575 -0.16836275 -0.21172608 0.047908068 0.086170286 0.14987005
-0.19647871 0.18787467 -0.21902776 0.0345635 -0.23557997 0.15761264 0.05603835 -0.074459285
00000000: ee9e a93d 26cf afbd c30f 953d 0b02 da3d
00000010: a327 123e 574d 43bd 4691 823d 4a5c 0b3e
00000020: 52b0 453e 01ac 11be 8dc3 013e f219 923d
00000030: 75c4 013e fcfd 9cbd 5b2b 3d3e a31a 393e
00000040: 46bf 3d3e 08b5 10bd 0c26 8b3e 6ab6 473d
00000050: 1e42 c03d acd3 26be 74a1 1dbb 7e99 5d3b
00000060: 7064 d43c 9445 a0bc c73d 3e3e 1c21 ba3d
00000070: 45ce 9d3d fbb3 713e 265a c2bd 3cb6 1ebe
00000080: 20d9 763c 4018 b8bd c1b5 1b3e f0ca 0fbd
00000090: 7505 dcbc e179 fcbd 3e43 21bd 9be9 b43d
000000a0: f7de bfbd 318b d53d a40f aebc 5b85 ac3d
000000b0: a187 8dbd 11fb 45bd a6ef 433e 6b8c c83c
000000c0: 2771 ad3d a295 583e 3b4a a13d ed0c 5c3d
000000d0: 8cfa 4b3e 659c 283d b254 28be f2a8 cabd
000000e0: 88e3 a9bc 7a92 2bbd bdc0 02be 4350 08bd
000000f0: 2ada 043d e1d6 053e ed68 d03d c9dc de3c
00000100: 5931 bebd 02a0 49be 9d22 453e 0e71 1cbe
00000110: 0b3c 1ebe 94bb 50be 8d6b 0e3d 581b ae3d
00000120: 33d7 073d 7e70 fc3d 0166 233e d640 09be
00000130: 01d4 8a3d 9b72 9abd 6175 16be 7ae3 6a3e
00000140: ea5a 893d cb9b b43d 7bf1 7438 1e0f a43d
00000150: 6a8d 353e 747b a13c 48c2 7fbd d967 193e
00000160: 2d00 1abe 61ef e5bd 083c fabd c5f2 e8bd
00000170: 60eb fbbc 6c13 2f3e 47d1 c7bd cb3a 1bbb
00000180: ab7c 6e3d f4f7 1f3e e2f1 9fbe 6c1f d4bd
00000190: f1ea 8bbe 502a 5fbe dd5c 3ebd d35d 453d
000001a0: a0b4 cebd a0b2 413d efcc dc3d 234b 2f3f
000001b0: e704 4c3d dda0 273f e592 af3d 971a 90be
000001c0: 83cd 593d 4a5b 743c 72c2 893e 2f2f 243f
000001d0: f632 89be 8bcc 61bd 2308 0ebe 2cb1 c33d
000001e0: 98ea e33d 33ce f73d d606 debd b54f 833d
000001f0: f097 653f 0ce2 26be a1f1 8e3d 8534 723c
00000200: 8e88 ed3c 12c0 af3d 20e8 703e a58c 47bd
00000210: 7942 ab3d f7d5 8fbd 62ee 9c3d 04eb 1e3e
00000220: 89b3 36bd ee09 dcbc a32c 96bd 9a2f e7bd
00000230: 51eb c73c 7ed3 183e a633 ab3d ace7 573e
00000240: 176a 0bbe 777c 4e3e 53b0 44be f332 353d
00000250: a560 a73d 5a48 70ba aa62 a83d 3f2b 99bc
00000260: 2e3e 6dbc 70a5 f9bd ff7c 563c af20 fcbc
00000270: a932 61b9 92ed 4e3e 7217 1cbe 5f24 46bd
00000280: 1676 27be 5eee 2dbe 5751 e03d e785 fdbd
00000290: 3f06 79bc 52ad 0c3d 7343 7b3c 3a0a 5c3d
000002a0: cc92 ab3c 3612 283d 8e53 453e 349c 56be
000002b0: 8c77 af3c 0c69 febc 8ff5 0cbe 6fa5 47be
000002c0: f1a2 043e 7ad4 153e 3c53 b8bd cfae 783d
000002d0: 6e68 94be 930f f4bc 25a2 5cbc 0887 183e
000002e0: 543b 58be 8644 0bbd f8ee 2fbe 7d57 813c
000002f0: be7f c2bd 191c 17be d4a2 e33c 642e e73d
00000300: 7a67 013e c69a ccbc 7312 633e cdcd 02bd
00000310: 2d92 c53d 8797 3bbe e884 b33d bea9 33be
00000320: a843 d7bd 99c4 49bd 84d1 873d d8b5 8a3d
00000330: 75b3 e2bd da7d 143e dd2e 443e dee7 1f3e
00000340: 10d6 873c 8b62 d4bd 4659 05be d302 9abc
00000350: 460a bb3d b06b 23bd afc0 4e3e 9fe0 ce3d
00000360: 2f21 72bb abf2 c6bd 4524 203e 4469 183e
00000370: dfd0 cdbc b2b5 b63d 9429 e1bd b291 22be
00000380: 9fc0 b4bd 2b9d 173e b254 06be 1021 dbbd
00000390: 3c60 cb3c 5452 5cbe d2e0 58bd 52fd 18be
000003a0: fe89 803d 9a5b 9d3c c20e 893d f69c 7b3d
000003b0: 5f69 51bd a6d0 b3bd 7bad 2fbe 357d dbbd
000003c0: a796 96bd af35 2ebe c551 36bd 4967 2cbe
000003d0: b9ce 58be 403b 443d 0c7a b03d 8977 193e
000003e0: b731 49be 3862 403e d048 60be 7592 0d3d
000003f0: e03b 71be 3565 213e 7888 653d 1c7e 98bd

layer.2.bias f4 [64]
0.62821484 0.03627142 0.47749892 0.4019484 0.057465803 1.0859233 -0.018932272 0.17945531
0.3297886 0.14935091 -0.121153876 0.24049371 0.36582017 0.3098741 -0.013322833 -0.062298074
0.21685146 0.22214235 0.19225062 0.21764597 -0.06325121 0.27743223 0.10226546 0.049414903
0.16045386 0.31571224 0.12938401 0.18173102 0.20300694 0.2407879 0.42397773 0.53545475
0.25266856 -0.061479293 0.34958136 0.014090033 0.053840168 -0.049532898 0.24807385 0.3697673
-0.028579388 0.15871313 0.021582259 0.6883538 0.24740744 0.3566259 0.10860155 -0.14382856
-0.051502146 0.3892489 0.3395313 0.41824886 0.10673932 0.7986337 0.1797759 0.19064844
0.23851423 0.48927197 0.047927797 0.43742883 0.48017058 0.5781601 0.056966107 0.43276745
00000000: b0d2 203f 5791 143d bd7a f43e 2ecc cd3e
00000010: 4361 6b3d 89ff 8a3f da17 9bbc 22c3 373e
00000020: 0dda a83e 72ef 183e 861f f8bd fc43 763e
00000030: c84c bb3e d1a7 9e3e 0348 5abc 442c 7fbd
00000040: 4f0e 5e3e 4979 633e 59dd 443e 96de 5e3e
00000050: da89 81bd 990b 8e3e 8e70 d13d 4867 4a3d
00000060: 044e 243e 09a5 a13e 3e7d 043e b217 3a3e
00000070: 0de1 4f3e 1a91 763e 9c13 d93e 9013 093f
00000080: c65d 813e b6d1 7bbd 54fc b23e e2d9 663c
00000090: 8287 5c3d 02e3 4abd 1207 7e3e 2452 bd3e
000000a0: 521f eabc b285 223e 47cd b03c f437 303f
000000b0: 6058 7d3e ac97 b63e 7d6a de3d cb47 13be
000000c0: eaf3 52bd a24b c73e 0cd7 ad3e b724 d63e
000000d0: 259a da3d 4273 4c3f 2c17 383e 5839 433e
000000e0: 133d 743e db81 fa3e f04f 443d acf6 df3e
000000f0: ebd8 f53e 4d02 143f 4b55 693d b293 dd3e

layer.4.weight f4 [128, 64]
0.02504232 -0.074892394 0.122297265 -0.058661964 0.1178383 0.06671944 0.20026594 0.053795017
0.00018256373 0.020410614 -0.16293333 -0.12984861 -0.05482995 0.0010362688 0.011890667 0.06140733
0.19068894 -0.11706072 -0.1361524 0.07383226 0.034557685 -0.054490954 -0.05935457 0.1437102
-0.30393165 -0.20201506 -0.06357855 -0.10987042 -0.14016289 0.1314413 0.10245911 0.10815144
0.026966998 0.04589368 -0.0142767215 0.051812813 0.17429695 0.035945155 -0.2480887 0.06793584
0.0035935836 -0.2631713 0.03976778 0.13573605 0.038726445 -0.021073844 0.10595208 0.056097772
0.094805285 0.056080848 0.11509044 -0.041941095 0.08390147 0.05056236 0.0023640417 -0.23898177
0.031354167 -0.20472285 0.19564277 -0.25385872 0.09266323 -0.019039001 0.042273328 -0.1203316
-0.09149335 -0.03728445 -0.18178757 0.06651766 -0.08643718 -0.4336521 -0.286324 0.024840735
-0.06611256 0.005092694 -0.039434075 0.28642038 0.15585926 0.09342097 -0.15692003 -0.052695658
-0.31057858 0.3864192 0.26627854 -0.08733579 0.09666965 -0.110631794 -0.06549298 -0.10494267
0.71330714 0.4688146 -0.09540341 0.52309835 0.33137226 0.160597 -0.018762577 0.08500671
0.0020982858 0.09968907 -0.0042183273 -0.08037323 -0.06924075 0.047262963 0.52370995 0.17259233
0.11285664 0.60300076 0.0025193163 0.027360396 0.38430262 0.18478978 -0.108099595 0.21286748
-0.09821796 -0.13253503 -0.15759291 -0.12770617 0.03376115 -0.24371894 0.14308313 0.34434298
0.06283245 0.35571367 -0.35838407 0.29830164 -0.16254656 0.35948506 0.16582146 0.1469291
0.02919606 -0.08496702 0.11504597 0.090394996 -0.08492049 0.54678553 0.19286175 0.093213074
0.22814249 0.08244614 -0.13073452 -0.004505439 0.012380382 0.05617881 0.07976727 0.15196581
0.088287584 -0.12026794 -0.23223835 0.04115323 0.090264134 0.14167875 -0.04590385 0.10119169
-0.17639394 -0.31575277 -0.124512084 -0.119302735 0.011602404 0.05337202 -0.034336112 0.06770378
0.10920367 -0.13206102 -0.020234527 0.14776005 -0.0063744662 0.036878742 -0.3320836 -0.0473264
0.035957493 -0.2861324 0.010225261 0.105125576 -0.039548066 -0.06914378 -0.032530718 0.04480057
-0.003698695 0.09828043 0.07494663 -0.030667324 0.030826248 0.14344516 0.010459787 -0.053768627
0.0071068034 -0.13474011 -0.09022021 -0.13000028 0.0060013793 -0.0080051925 -0.07485079 -0.18911912
-0.13531412 -0.07688139 -0.4771591 0.016534982 -0.18429938 -0.69761395 -0.1691102 0.13347267
-0.122092634 -0.21831712 -0.15208022 0.26811314 0.21583468 0.27325013 -0.27403376 -0.028735511
-0.45273444 0.68573254 0.4703421 -0.091673896 0.1306067 -0.122768976 -0.16668332 -0.013393569
0.59363014 0.5610603 0.20066905 0.5362191 0.4415602 0.1292683 -0.18290229 0.08239526
0.116765015 0.15364751 -0.09773442 -0.13653706 -0.16171715 0.052239034 0.54231316 0.295998
-0.035637997 0.50308335 -0.0014228796 0.093277454 0.33773753 0.2648372 0.0013803171 0.2004924
-0.12880561 -0.3302872 0.025029406 -0.016998736 0.006013141 -0.34144577 0.33823755 0.3776325
0.19350572 0.35059008 -0.41121587 0.52482677 -0.10350427 0.65278536 0.32440186 0.5670577
00000000: 8d25 cd3c 2f61 99bd fd76 fa3d 8747 70bd
00000010: 3555 f13d 34a4 883d 8412 4d3e 2a58 5c3d
00000020: 946e 3f39 2934 a73c ffd7 26be 09f7 04be
00000030: 5f95 60bd 69d3 873a 12d1 423c 4186 7b3d
00000040: f643 433e 88bd efbd 896b 0bbe 5e35 973d
00000050: 5c8c 0d3d e831 5fbd c71d 73bd c428 133e
00000060: ee9c 9bbe 09dd 4ebe 7935 82bd be03 e1bd
00000070: dc86 0fbe 8c98 063e 15d6 d13d 817e dd3d
00000080: e5e9 dc3c 03fb 3b3d e9e8 69bc ac39 543d
00000090: e67a 323e 3a3b 133d f70a 7ebe f221 8b3d
000000a0: 5482 6b3b 63be 86be 8ae3 223d 64fe 0a3e
000000b0: 9f9f 1e3d 0ea3 acbc 67fd d83d c7c6 653d
000000c0: 4629 c23d 08b5 653d 89b4 eb3d 6dca 2bbd
000000d0: 89d4 ab3d 7a1a 4f3d 0aee 1a3b a3b7 74be
000000e0: 3a6d 003d dea2 51be 9456 483e c5f9 81be
000000f0: 38c6 bd3d aef7 9bbc cc26 2d3d 6a70 f6bd
00000100: de60 bbbd 94b7 18bd 8526 3abe 693a 883d
00000110: fa05 b1bd a607 debe 0f99 92be cc7e cb3c
00000120: 0666 87bd 9de0 a63b a085 21bd b1a5 923e
00000130: 9299 1f3e 7e53 bf3d a5af 20be 67d7 57bd
00000140: 2804 9fbe bdd8 c53e a955 883e 1bdd b2bd
00000150: bdfa c53d ec92 e2bd 2f21 86bd 2fec d6bd
00000160: 4c9b 363f 7808 f03e dd62 c3bd c6e9 053f
00000170: a0a9 a93e 8a73 243e fab3 99bc ff17 ae3d
00000180: 6583 093b c829 cc3d e539 8abb b89a a4bd
00000190: 18ce 8dbd cf96 413d db11 063f 0bbc 303e
000001a0: 6221 e73d 425e 1a3f 1d1b 253b e922 e03c
000001b0: 50c3 c43e 8839 3d3e 5263 ddbd eff9 593e
000001c0: 7f26 c9bd 43b7 07be 0960 21be 68c5 02be
000001d0: 2249 0a3d 7591 79be 6284 123e b94d b03e
000001e0: 4dae 803d 1a20 b63e 1e7e b7be feba 983e
000001f0: 9b72 26be 6d0e b83e 1acd 293e 9574 163e
00000200: 932c ef3c 3003 aebd 399d eb3d 0321 b93d
00000210: cbea adbd 23fa 0b3f 8d7d 453e 7fe6 be3d
00000220: 2f9e 693e 86d9 a83d 45df 05be 5da2 93bb
00000230: 16d7 4a3c c01b 663d 065d a33d ed9c 1b3e
00000240: 1fd0 b43d 0a4f f6bd e4cf 6dbe 4a90 283d
00000250: 67dc b83d 3c14 113e ad05 3cbd 973d cf3d
00000260: 9da0 34be 59aa a1be 3100 ffbd fe54 f4bd
00000270: 0218 3e3c 9f9c 5a3d 06a4 0cbd 48a8 8a3d
00000280: 2ca6 df3d 013b 07be e1c2 a5bc 694e 173e
00000290: e6e0 d0bb 2a0e 173d dd06 aabe 54d9 41bd
000002a0: 2a48 133d f27f 92be da87 273c 144c d73d
000002b0: 27fd 21bd 419b 8dbd ee3e 05bd cd80 373d
000002c0: ce65 72bb 4047 c93d 9e7d 993d 0a3a fbbc
000002d0: 5487 fc3c 4ae3 123e 875f 2b3c 7e3c 5cbd
000002e0: 30e0 e83b 50f9 09be 60c5 b8bd cb1e 05be
000002f0: 38a7 c43b 3628 03bc 5f4b 99bd 71a8 41be
00000300: c98f 0abe fd73 9dbd 334e f4be 5f74 873c
00000310: fab8 3cbe d496 32bf 392b 2dbe 0fad 083e
00000320: b40b fabd 868e 5fbe ebba 1bbe 2046 893e
00000330: c403 5d3e 71e7 8b3e 274e 8cbe bc66 ebbc
00000340: cfcc e7be 2b8c 2f3f aed0 f03e 86bf bbbd
00000350: c3bd 053e 4d6e fbbd 08af 2abe b370 5bbc
00000360: 25f8 173f a6a1 0f3f 307c 4d3e a845 093f
00000370: 2e14 e23e e95e 043e bd4a 3bbe d9be a83d
00000380: 7f22 ef3d c655 1d3e fc28 c8bd 5fd0 0bbe
00000390: 2e99 25be 99f8 553d 09d5 0a3f 0d8d 973e
000003a0: 26f9 11bd 12ca 003f eb7f baba 4008 bf3d
000003b0: efeb ac3e be98 873e c2eb b43a e14d 4d3e
000003c0: 9ee5 03be 671b a9be 780a cd3c ef40 8bbc
000003d0: e209 c53b fbd1 aebe 792d ad3e 0c59 c13e
000003e0: 5d26 463e 8b80 b33e e38a d2be 0c5b 063f
000003f0: 0cfa d3bd f11c 273f 0018 a63e b22a 113f

layer.4.bias f4 [128]
0.18748552 0.30865994 0.16654314 0.30665794 0.017280888 0.1342943 0.22645059 -0.039232258
0.22521959 0.27730525 0.4198255 0.022913342 0.19057441 -0.048936162 0.2462148 0.33317912
0.06620962 0.16211636 -0.09285154 -0.021131188 0.49983627 0.020935027 0.05130139 0.47857863
0.32743478 0.16640663 0.31666613 0.16251539 0.23560862 0.05890059 0.27797619 0.04094463
0.22447218 0.5033616 0.021471422 0.35529402 -0.22661845 0.2877477 0.13884044 -0.018961214
-0.07920773 0.14754894 0.43712333 0.1912438 0.31362322 0.019306647 0.19457296 0.17211866
0.3404637 -0.015610721 0.45217586 0.18011777 -0.18971235 0.6870461 -0.014075159 0.20908116
0.19092101 0.1455026 -0.029962482 0.2475603 0.20299765 0.19147716 0.754606 -0.028612304
-0.02837159 -0.058228295 0.08705345 0.39645928 0.29515645 0.29872674 0.27140734 0.1773594
-0.18866998 -0.22034396 0.18988521 0.13065335 0.09631729 0.38664287 0.5338375 0.2580497
-0.0066353907 0.16459279 0.24486573 0.24974364 0.6140365 0.008918651 4.9798742e-05 0.01935059
-0.18091291 0.09461939 0.7322903 0.10008945 0.28087792 0.33884057 0.023848714 -0.1328044
0.0069230394 0.16673537 0.27505723 0.17989802 0.4180629 0.2945466 0.03929232 -0.0055995933
0.24714226 0.16514786 0.2818963 -0.1293245 0.1878789 0.13041049 0.16651262 0.183076
0.11845534 0.056288924 0.27935803 0.23977742 0.05744171 0.08315881 0.039544974 0.38395873
0.03167624 0.06504341 0.21912196 -0.011040042 0.08424708 0.041744687 0.12622413 0.179556
00000000: 34fc 3f3e ad08 9e3e 498a 2a3e 4502 9d3e
00000010: a690 8d3c 7284 093e aae2 673e 01b2 20bd
00000020: f79f 663e f4fa 8d3e 5ef3 d63e c3b4 bb3c
00000030: f025 433e 4971 48bd bc1f 7c3e 7496 aa3e
00000040: e998 873d d501 263e f328 bebd 501b adbc
00000050: 8aea ff3e ef7f ab3c 6821 523d 4208 f53e
00000060: 88a5 a73e 8066 2a3e 1022 a23e 6f6a 263e
00000070: 6343 713e bf41 713d e552 8e3e 8eb5 273d
00000080: 09dc 653e 4edc 003f d6e4 af3c 19e9 b53e
00000090: ab0e 68be ab53 933e 302c 0e3e 8c54 9bbc
000000a0: aa37 a2bd 1217 173e a1ce df3e 6ad5 433e
000000b0: 3993 a03e f928 9e3c 223e 473e e03f 303e
000000c0: 4251 ae3e 1cc4 7fbc 9883 e73e cb70 383e
000000d0: f443 42be 41e2 2f3f 7f9b 66bc 5f19 563e
000000e0: cc80 433e a2fe 143e e173 f5bc 7380 7d3e
000000f0: 9ede 4f3e 9712 443e dc2d 413f 5a64 eabc
00000100: 896b e8bc cb80 6ebd 1449 b23d b6fc ca3e
00000110: bf1e 973e b6f2 983e e7f5 8a3e b49d 353e
00000120: b432 41be d9a1 61be 4571 423e fec9 053e
00000130: 0042 c53d 0ef6 c53e 93a9 083f 171f 843e
00000140: b16d d9bb 038b 283e 15be 7a3e ccbc 7f3e
00000150: 7f31 1d3f 891f 123c fede 5038 2185 9e3c
00000160: 3c41 39be d0c7 c13d 6177 3b3f b3fb cc3d
00000170: 3bcf 8f3e 837c ad3e 615e c33c e0fd 07be
00000180: aada e23b adbc 2a3e 4dd4 8c3e 3037 383e
00000190: 570c d63e d0ce 963e fcf0 203d cb7c b7bb
000001a0: dc12 7d3e 851c 293e b654 903e a46d 04be
000001b0: 5463 403e 548a 053e 4982 2a3e 4678 3b3e
000001c0: b798 f23d 378f 663d 0408 8f3e 3688 753e
000001d0: 0048 6b3d 2b4f aa3d e9f9 213d 3d96 c43e
000001e0: f2be 013d 7b35 853d 8261 603e 4be1 34bc
000001f0: bc89 ac3d 7afc 2a3d e640 013e 87dd 373e

layer.6.weight f4 [23, 128]
-0.026179671 -0.044493496 0.015998688 0.014971104 0.030062802 -0.0017031834 0.059341762 -0.05295345
0.0060102404 0.017856387 0.011054573 -0.023000646 0.013155481 0.025474489 0.07887996 0.02709801
0.07472472 0.06973241 -0.08687436 -0.011594305 -0.05838899 -0.0124579575 -0.018423857 0.06270908
-0.07411223 0.037209503 0.015949711 -0.048009466 -0.028319178 0.0019324945 0.030457852 -0.014145455
0.048678715 0.038609166 0.005600001 0.031598914 -0.066799335 0.008702598 -0.012835386 0.03546084
0.0017588311 0.06492641 0.017553948 0.03156708 0.04906898 0.046467815 -0.04158508 0.060439657
0.04656297 -0.042767394 -0.039467085 -0.053893197 -0.011016963 0.0715278 0.016311944 0.039689433
-0.048099283 0.026368499 0.06540148 0.0813354 -0.037723802 -0.031323478 -0.027376609 -0.0335095
0.010176084 -0.09036756 0.025349544 -0.034582425 0.023978233 0.0075882664 -0.022906216 -0.051416274
-0.06903467 -0.043488763 0.035455678 0.002029178 -0.040914986 -0.02306317 0.05311459 0.002310667
0.050947085 -0.06606587 0.00054087007 -0.0034298624 0.07800258 0.16929215 -0.019119645 0.023794275
-0.009789848 0.017221319 -0.10635488 -0.0110863075 0.023571271 -0.05209167 0.03833088 0.013046001
0.00024912602 0.0016587302 -0.03098109 -0.007465007 -0.0152851 0.18167365 0.060477197 0.048454296
-0.07772104 0.038433746 0.006545035 -0.064132616 -0.0058534653 0.020559138 0.06539268 0.0540603
-0.021354234 0.026831169 0.08688355 -0.057015214 -0.06615248 0.040303145 -0.06299678 0.10101969
0.018495196 0.019578759 0.07408941 -0.07110341 0.08887407 0.025389658 -0.02584423 -0.02630068
-0.02308756 -0.009679386 -0.009607206 -0.018580612 -0.04592946 0.017223345 0.007843578 0.020764412
0.004788445 -0.0057700677 -0.0036938433 -0.006898056 0.0016711919 0.0069931354 0.008404371 -0.0024470536
-0.017968297 -0.028722571 0.002980437 0.00792029 0.04400916 -0.00224665 0.004472621 -0.0026698576
0.012265056 -0.02379491 0.0076604285 0.00898189 0.0033814248 0.029580694 -0.005032757 0.0037487347
0.020021044 0.016836513 0.0074856756 -0.032424327 0.03776614 0.023133662 -0.011208979 0.030571505
0.03642628 -0.014923868 0.005516414 -0.005241901 -0.07248868 0.018232176 -0.012550851 0.0076130596
-0.01282698 -0.022529414 0.017433705 -0.0090092 0.00013713533 -0.007855823 0.01785698 0.027133487
0.006627349 -0.03487599 0.016241575 -0.0054160943 -0.015301859 -0.03220716 0.03503425 0.0063556754
-0.020074958 -0.007634462 -0.0052070506 -0.032412007 -0.00085687975 -0.012974462 -0.029175026 0.012410722
0.008065608 -0.0032557643 0.025726043 -0.011453225 0.025617478 -0.0043647047 -0.010615399 0.021435244
-0.0134365875 0.0001316818 -0.016901271 0.001355396 0.024675759 -0.02207539 0.0014727367 -0.009870995
0.019391198 -0.011743301 -0.017626323 0.022200277 0.008631557 -0.0011009501 -0.0012786825 0.03140689
0.015428578 0.016157923 -0.042412743 -0.02850251 -0.041851908 -0.016493272 -0.04508545 -0.0054813055
-0.012498114 0.031353366 0.019387776 -0.0075077238 -0.0011913007 -0.0048735063 0.057855647 0.01449135
0.01261718 -0.003860109 -0.0101563865 -0.0076390575 0.012482956 0.0031006788 -0.024064168 -0.0067610024
0.028118499 0.0004402668 0.027416628 0.032989733 0.002968468 -0.0070307152 0.02234843 0.031205352
00000000: c076 d6bc d03e 36bd ae0f 833c 5d49 753c
00000010: 4446 f63c 5a3d dfba 5910 733d b7e5 58bd
00000020: 8df1 c43b 8f47 923c 3d1e 353c da6b bcbc
00000030: 168a 573c e0af d03c d18b a13d a5fc dd3c
00000040: 4609 993d decf 8e3d 2feb b1bd 0af6 3dbc
00000050: 4b29 6fbd 761c 4cbc a1ed 96bc 9e6d 803d
00000060: 27c8 97bd fe68 183d f8a8 823c 93a5 44bd
00000070: 9ffd e7bc c14b fd3a bf82 f93c 57c2 67bc
00000080: 5563 473d a524 1e3d 3780 b73b dd6d 013d
00000090: 17ce 88bd 5795 0e3c 834b 52bc 633f 113d
000000a0: 9488 e63a 23f8 843d 4ccd 8f3c 7c4c 013d
000000b0: 8efc 483d 0955 3e3d 1e55 2abd 938f 773d
000000c0: d0b8 3e3d dd2c 2fbd 3da8 21bd 1dbf 5cbd
000000d0: 7e80 34bc 2b7d 923d a0a0 853c 6391 223d
000000e0: c103 45bd c002 d83c 36f1 853d 2d93 a63d
000000f0: 4684 1abd 0c4d 00bd e944 e0bc 4241 09bd
00000100: 97b9 263c a112 b9bd d9a9 cf3c 4da6 0dbd
00000110: 006e c43c fea6 f83b d1a5 bbbc df99 52bd
00000120: 0d62 8dbd 4621 32bd f939 113d f5fb 043b
00000130: 7996 27bd f9ee bcbc af8e 593d 8f6e 173b
00000140: e4ad 503d 8b4d 87bd 2dc9 0d3a 8bc7 60bb
00000150: d1bf 9f3d ec5a 2d3e cda0 9cbc 36ec c23c
00000160: 9965 20bc b913 8d3c 96d0 d9bd 58a3 35bc
00000170: 8a18 c13c 135e 55bd d700 1d3d e5be 553c
00000180: 219d 8239 c069 d93a 0ecc fdbc 049d f4bb
00000190: 5b6e 7abc a808 3a3e f0b6 773d 0378 463d
000001a0: 352c 9fbd b46c 1d3d bc77 d63b f657 83bd
000001b0: 6dce bfbb a36b a83c 99ec 853d 556e 5d3d
000001c0: 13ef aebc 0acd db3c 01f0 b13d c988 69bd
000001d0: f47a 87bd e914 253d 7504 81bd 69e3 ce3d
000001e0: 3d83 973c a263 a03c 30bc 973d aa9e 91bd
000001f0: 9c03 b63d f9fd cf3c 47b7 d3bc 8674 d7bc
00000200: 1f22 bdbc 4a96 1ebc 8b67 1dbc 5e36 98bc
00000210: 8820 3cbd f917 8d3c 5a82 003c 211a aa3c
00000220: 63e8 9c3b d612 bdbb 6814 72bb 1609 e2bb
00000230: e50b db3a ac26 e53b 7db2 093c bf5e 20bb
00000240: 4032 93bc 994b ebbc 6f53 433b 1bc4 013c
00000250: f342 343d 883c 13bb 108f 923b c7f8 2ebb
00000260: 60f3 483c 8bed c2bc 5504 fb3b c728 133c
00000270: e59a 5d3b 3653 f23c d3e9 a4bb 55ad 753b
00000280: 2c03 a43c baec 893c 664a f53b 5fcf 04bd
00000290: abb0 1a3d ce82 bd3c dea5 37bc 1871 fa3c
000002a0: b933 153d 3d83 74bc 09c3 b43b 41c4 abbb
000002b0: f274 94bd a55b 953c 16a2 4dbc f976 f93b
000002c0: 4128 52bc 9b8f b8bc 21d1 8e3c 539b 13bc
000002d0: fccb 0f39 b6b5 00bc cd48 923c 0c47 de3c
000002e0: 3c2a d93b 20da 0ebd 0d0d 853c 7e79 b1bb
000002f0: a6b4 7abc a8eb 03bd 1380 0f3d 4543 d03b
00000300: 3d74 a4bc 822a fabb e89f aabb 74c2 04bd
00000310: 3aa0 60ba d692 54bc 7700 efbc 5756 4b3c
00000320: 9d25 043c a95e 55bb 6cbf d23c 4fa6 3bbc
00000330: bfdb d13c cc05 8fbb 36ec 2dbc f798 af3c
00000340: 2225 5cbc 1014 0a39 8974 8abc 8ba7 b13a
00000350: d124 ca3c 73d7 b4bc d808 c13a f4b9 21bc
00000360: 4ada 9e3c f966 40bc 1465 90bc 5bdd b53c
00000370: 606b 0d3c c14d 90ba 7799 a7ba 83a4 003d
00000380: 25c8 7c3c 9f5d 843c fcb8 2dbd 197e e9bc
00000390: e86c 2bbd e61c 87bc 85ab 38bd 869c b3bb
000003a0: e4c4 4cbc 636c 003d 1dd3 9e3c 5a03 f6bb
000003b0: 6b25 9cba efb1 9fbb 0bfa 6c3d 216d 6d3c
000003c0: 4ab8 4e3c e2f9 7cbb f966 26bc 0f51 fabb
000003d0: 5085 4c3c c234 4b3b 3822 c5bc 668b ddbb
000003e0: c458 e63c 9cd3 e639 d698 e03c 3e20 073d
000003f0: a18a 423b ea61 e6bb 0e14 b73c 5ea2 ff3c

layer.6.bias f4 [23]
0.51416475 0.041809466 0.2648263 0.07128605 0.08039083 0.4619786 0.5369782 0.3678107
0.12528458 0.5070771 0.153601 0.11202167 0.1005999 -0.004638896 0.0017204325 0.04659728
0.07799947 0.5435023 0.10187979 0.02917851 -0.013154686 0.18175231 0.07991564
00000000: 4da0 033f 6740 2b3d 5097 873e 6cfe 913d
00000010: f3a3 a43d 7688 ec3e 6777 093f af51 bc3e
00000020: 9a4a 003e cecf 013f 9549 1d3e 9e6b e53d
00000030: 5207 ce3d e101 98bb 2380 e13a cadc 3e3d
00000040: 30be 9f3d f722 0b3f 5aa6 d03d c507 ef3c
00000050: c186 57bc 471d 3a3e d0aa a33d
