weight/save_470.pth (torch_old, 72900 bytes, 8 tensors)

layer.0.weight f4 [32, 139]
0	0x3da44ad5	0.080220856
1	0xbea0a9c5	-0.31379524
2	0xbd267441	-0.040638212
3	0xbda49255	-0.08035723
4	0xbd84b5c4	-0.064799815
5	0xbcf16dba	-0.029471267
6	0xbd881206	-0.06644063
7	0xbb8be79c	-0.0042695533
8	0xbd189a89	-0.03725675
9	0xbdd8803c	-0.10571334
10	0xbd031f21	-0.03201211
11	0x3ce5ab96	0.02803592
12	0x3d4224be	0.04739832
13	0x3d62bb28	0.055354267
14	0xbdc43112	-0.09579672
15	0xbc6c5a82	-0.014425876
16	0xbc3b70ea	-0.011440495
17	0x3c71617a	0.014732713
18	0x3cd03eb7	0.02542053
19	0x3c60d0bd	0.013721642
20	0xbd6c039e	-0.057620637
21	0x3d2de89d	0.042458165
22	0xbd354469	-0.044254694
23	0x3ab3b54c	0.0013710647
24	0xbcdd2e2c	-0.026999556
25	0x3d272d7a	0.040814854
26	0x3d8de655	0.06928698
27	0x3d422cb3	0.04740591
28	0xbc4f447c	-0.012650605
29	0xbd3ad94a	-0.04561738
30	0x3d2810c3	0.04103161
31	0xbd36e196	-0.04464873
32	0x3d0ff2ee	0.035143785
33	0xbd25b7b9	-0.040458415
34	0xbd9b3c6d	-0.07579885
35	0xbcc956a1	-0.02457744
36	0x3c763ff9	0.015029901
37	0xbba0e22d	-0.0049097748
38	0x3ca34772	0.019931529
39	0xbd6c8097	-0.05773982
40	0x3c8983e0	0.016786516
41	0x3d67a77c	0.05655621
42	0x3d4fca78	0.0507302
43	0xbc9c6f84	-0.019096144
44	0xbc45f92f	-0.012083336
45	0x3cd7b9ec	0.026333772
46	0x3c833af4	0.016019322
47	0x3c23c817	0.009996436
48	0x3d6deaed	0.05808537
49	0xbd888819	-0.066665836
50	0xbd05a333	-0.032626342
51	0x3c79bef4	0.015243281
52	0x3d1f147f	0.038837906
53	0x3d89ff41	0.06738139
54	0xbd37045c	-0.04468189
55	0x3da92f59	0.08260984
56	0xbccdda96	-0.025128644
57	0xbd588dcd	-0.052869607
58	0x3c72ae2d	0.014812035
59	0xbd5c4e61	-0.053785685
60	0xbcbcc7be	-0.023044463
61	0xbd161c11	-0.03664786
62	0xbc8bacce	-0.017050173
63	0x3d7068eb	0.058693808
64	0xbd94c0ea	-0.07263358
65	0x3ca1846e	0.019716468
66	0xbd644be2	-0.05573643
67	0xbd091bc1	-0.033473734
68	0xbd1c1f7a	-0.038115956
69	0xbd0bb3e9	-0.034107123
70	0xbd8a8c39	-0.067650266
71	0xbd78dbb8	-0.060756415
72	0x3c83523c	0.016030423
73	0x39b05ddb	0.00033639264
74	0xbcbf89ec	-0.023381196
75	0x3c4d8535	0.012543966
76	0x3d0e43eb	0.03473274
77	0xbd01e216	-0.031709753
78	0xbd9a5c83	-0.075371765
79	0xbd877b22	-0.066152826
80	0xbcaeabc8	-0.021322146
81	0xbc820e76	-0.015876036
82	0x3d461262	0.048357375
83	0x3d131dae	0.035916977
84	0xbd017356	-0.031604134
85	0xbda7bc00	-0.08190155
86	0xbcd1e8b6	-0.02562366
87	0xbd4b5c88	-0.04964879
88	0xbd6f6b06	-0.058451675
89	0x3d57f7d2	0.052726574
90	0x3c18c230	0.009323642
91	0xbd452fc3	-0.048141252
92	0xbb157756	-0.0022806725
93	0xbccd5a68	-0.025067523
94	0x3c902800	0.017597198
95	0xbd703bf9	-0.058650944
96	0xbc19ac70	-0.009379491
97	0x3b533423	0.003222712
98	0x3d49e7aa	0.049293198
99	0xbd3030da	-0.04301534
100	0xbd21fff9	-0.039550755
101	0xbd3c10cc	-0.045914456
102	0xbd983957	-0.07432812
103	0x3c096360	0.008385509
104	0xbbddd3b7	-0.006769623
105	0x3a06d67b	0.00051436544
106	0x3c881b70	0.016614646
107	0xbdac2b24	-0.08406666
108	0x3caef812	0.021358524
109	0x3d682336	0.056674205
110	0xbd9df76a	-0.07713206
111	0x3d508ae1	0.050913695
112	0xbc803700	-0.015651226
113	0xbd95aef5	-0.07308761
114	0x3d1211e2	0.035661586
115	0xbc3d748d	-0.011563432
116	0x3c87a15b	0.016556432
117	0x3d347cc4	0.0440643
118	0xbd21e19c	-0.0395218
119	0x3d7b437b	0.06134365
120	0x3cd72fc9	0.026267903
121	0xbc03641d	-0.008019474
122	0x3ce316cf	0.027720837
123	0xbd507973	-0.050897073
124	0xbd4fb0cd	-0.05070572
125	0x3d5e67a6	0.054298066
126	0xbd0f0065	-0.034912486
127	0xbd570be5	-0.052501578
128	0xbc17f85d	-0.009275523
129	0xbd549982	-0.05190421
130	0xbc70acee	-0.014689667
131	0xbd47de25	-0.048795838
132	0xbd9cf398	-0.07663649
133	0xbd9ccdf8	-0.07656473
134	0xbd863fe5	-0.06555156
135	0xbda9e159	-0.08294935
136	0x3d0d11f7	0.03444096
137	0xbbbf6562	-0.005840943
138	0xbb84b3fd	-0.0040497766
139	0x3d463e02	0.04839898
140	0xbf4a2f59	-0.78978497
141	0x3f245918	0.64198446
142	0x3d766652	0.060156174
143	0x3f154fb1	0.58324724
144	0x3d3a9a2a	0.04555718
145	0xbd90a045	-0.07061819
146	0xbd39a3c4	-0.045322195
147	0xbee40f6a	-0.4454301
148	0xbed9f996	-0.4257323
149	0xbed38e14	-0.41319335
150	0x3b723314	0.0036956714
151	0x3d64a77d	0.05582379
152	0xbc125920	-0.008932382
153	0xbe31011e	-0.17285582
154	0x3ba4be98	0.0050276034
155	0xbd9dee05	-0.07711414
156	0xbc95f8e0	-0.01830715
157	0x3d4434ea	0.047902025
158	0x3b4ff9ed	0.003173466
159	0x3d47074f	0.048590954
160	0x3d50f58e	0.05101543
161	0x3d5e5125	0.054276604
162	0xbce46596	-0.027880471
163	0x3d3444e5	0.044011015
164	0xbca87613	-0.020564115
165	0x3ce9de69	0.028548436
166	0xbda45413	-0.080238484
167	0xbd17377e	-0.036918156
168	0x381bd029	3.7148744e-05
169	0x3d84719d	0.064669825
170	0xbcaa33b6	-0.02077661
171	0xbc81f40c	-0.01586344
172	0xbcc2a5c1	-0.023760678
173	0xbd774b17	-0.060374346
174	0xbca06c08	-0.019582763
175	0x395956d6	0.00020727082
176	0xbd702602	-0.058629997
177	0xbca226fa	-0.019793976
178	0xbd7c6a44	-0.06162478
179	0xbb8d6a86	-0.004315677
180	0x3d86ac72	0.0657586
181	0xbd80fb90	-0.06297982
182	0x3cae17f7	0.021251662
183	0x3cbb07b2	0.022830818
184	0x3c558cbc	0.013034042
185	0x3b9de40b	0.0048184446
186	0xbd399385	-0.0453067
187	0xbc9d12fe	-0.019174095
188	0x3d108240	0.035280466
189	0x3b8bcf68	0.004266668
190	0x3dbe4a8c	0.092915624
191	0x3c91a487	0.017778648
192	0xbd368119	-0.04455671
193	0xbc741cbe	-0.014899431
194	0xbbcd002f	-0.0062561254
195	0xbc7328fc	-0.014841314
196	0xbba147cb	-0.0049218885
197	0xbb005866	-0.001958394
198	0xbd8fb93c	-0.070177525
199	0xbc54b80b	-0.012983332
200	0xbd30372d	-0.04302137
201	0x3d36cbbb	0.044627886
202	0xbdb71c20	-0.08940911
203	0xbca67a5c	-0.020322017
204	0x3d0ede89	0.034880195
205	0xbc669450	-0.014073446
206	0xbdbdb9be	-0.09263943
207	0xbdb13297	-0.08652227
208	0xbcfbe351	-0.030748041
209	0xbd41635b	-0.047213893
210	0x3c23aa30	0.009989306
211	0x3d234b0a	0.039866485
212	0x3b9812c2	0.004640908
213	0xbda89a05	-0.08232502
214	0xba0695fe	-0.0005134045
215	0x3d2ebf07	0.042662647
216	0xbd16fdd7	-0.036863174
217	0x3da7641b	0.081733905
218	0xbd8d4046	-0.06897025
219	0x3cd6cac0	0.026219726
220	0xbcb2b5c9	-0.021815198
221	0xbd754bf3	-0.059886884
222	0x3dcc6c4b	0.09981593
223	0xbd787ef7	-0.060667958
224	0xbd405d3a	-0.046963908
225	0xbd5ed640	-0.054403543
226	0xbbff3e30	-0.0077893957
227	0xbdd307b3	-0.10304203
228	0x3d1fbb0c	0.03899674
229	0x3d9345ba	0.07191034
230	0xbcd35699	-0.025798129
231	0x3c091a11	0.008368031
232	0x3cca8ca9	0.024725275
233	0x3c7bac3e	0.01536089
234	0x3cae0dbe	0.021246787
235	0x3d10308f	0.03520256
236	0xbc883353	-0.016626036
237	0x3d5153da	0.051105358
238	0xbd3dcd0c	-0.046338126
239	0xbd0b4339	-0.033999655
240	0x3c66495c	0.014055576
241	0x3c07d11d	0.008289603
242	0xbd759700	-0.059958458
243	0xbd4606e0	-0.0483464
244	0xbccf40c9	-0.025299447
245	0xbc5a0865	-0.0133076655
246	0xbdc434b8	-0.09580368
247	0x3cd24580	0.025667906
248	0x3ca41365	0.02002878
249	0xbcba67be	-0.022754546
250	0xbd989a1b	-0.07451268
251	0x3c15995a	0.0091308
252	0x3b9f7e3d	0.0048673437
253	0xbd7f6e29	-0.062360916
254	0x3cf7b25e	0.03023642
255	0x3be4ac75	0.0069785663

layer.0.bias f4 [32]
0	0x3c1d0e82	0.009585978
1	0x3f15bfac	0.58495593
2	0xbc3b558d	-0.011433971
3	0x3ce4cd36	0.027929883
4	0xbdbd9b83	-0.09258177
5	0x3d144c5a	0.036205627
6	0x3bd7ee8e	0.006589717
7	0x3d0a13da	0.03371034
8	0xbd12e064	-0.035858527
9	0x3d7489c2	0.05970169
10	0x3daaa07b	0.083313905
11	0x3e9eeae3	0.3103858
12	0xbd996fe6	-0.07492046
13	0x3f1d0301	0.6133271
14	0x3e02e46b	0.12782447
15	0x3d77f040	0.060531855
16	0x3d18abaf	0.037273105
17	0xbc0e716a	-0.008694032
18	0x3ebdc685	0.3706552
19	0x3f23f7fc	0.6405027
20	0xbdbbb632	-0.091656104
21	0x3f245fe4	0.6420882
22	0xbd4888d4	-0.048958614
23	0x3ea3d2eb	0.31996855
24	0xbd9c3d96	-0.07628934
25	0x3f18b8b0	0.5965681
26	0xbcae90fd	-0.02130937
27	0x3d4a7523	0.049428117
28	0x3f541853	0.82849616
29	0x3cef71a1	0.029228987
30	0xbe088b74	-0.13334447
31	0xbcc4d3b7	-0.024026735

layer.2.weight f4 [64, 32]
0	0x3cf17f81	0.029479744
1	0xbdb2dce7	-0.0873354
2	0xbd1cbf7e	-0.03826856
3	0x3da80296	0.08203618
4	0x3d9c4c25	0.07631711
5	0xbd434d57	-0.04768118
6	0x3d7b1b94	0.061305597
7	0x3e0d1163	0.13776164
8	0x3e2a4212	0.16626766
9	0xbe16ac8c	-0.14714259
10	0x3dd62271	0.10455788
11	0x3d79ec08	0.061016113
12	0x3e084f77	0.13311563
13	0xbdb72674	-0.08942881
14	0x3e225282	0.15851787
15	0x3d42a88f	0.04752403
16	0x3e279ea4	0.1636911
17	0xbdc59046	-0.096466586
18	0x3e863307	0.26210806
19	0x3d2b1394	0.041766718
20	0xbcce3e76	-0.025176268
21	0xbe21f53c	-0.15816206
22	0xbd1867da	-0.037208416
23	0x3af601d0	0.0018768851
24	0x3c62ffce	0.013854934
25	0xbb013e37	-0.001972092
26	0x3e2bf271	0.16791703
27	0x3dba211c	0.09088346
28	0x3d8bc847	0.06825309
29	0x3e466290	0.19373536
30	0xbda14ce9	-0.078759976
31	0xbe1eb63c	-0.15499204
32	0xbd68355e	-0.05669152
33	0xbdb572a1	-0.08859754
34	0x3d854e10	0.0650903
35	0xbd90152b	-0.070352875
36	0xbda096c7	-0.078412585
37	0xbdfc79e1	-0.12327934
38	0xbd3c03f9	-0.045902226
39	0x3db73411	0.08945478
40	0xbdeb5e08	-0.114925444
41	0x3dccbc0a	0.09996803
42	0xbd17f7f9	-0.03710172
43	0x3da09c39	0.07842297
44	0xbdcc1569	-0.09965021
45	0xbd59e129	-0.053193245
46	0x3e2e70bf	0.17035197
47	0xbda803fe	-0.082038864
48	0x3d8c9912	0.06865133
49	0x3e38ea5d	0.18058152
50	0x3d96dca2	0.07366301
51	0x3d4a0513	0.049321245
52	0x3dc50e07	0.09621816
53	0x3d499512	0.04921443
54	0xbe680941	-0.2265978
55	0xbdd6db09	-0.104909964
56	0xbd116ffc	-0.035507187
57	0xbd2543a2	-0.040347703
58	0xbe1cd2b0	-0.15314746
59	0xbd085043	-0.03327967
60	0x3ce194cf	0.027536778
61	0x3dc954c3	0.0983062
62	0x3df2391f	0.11827301
63	0x3cdedcc9	0.027204888
64	0xbe30e548	-0.17274964
65	0xbe513d72	-0.20433596
66	0x3dba8309	0.09107024
67	0xbe4ddb42	-0.20103171
68	0xbe3934f6	-0.18086609
69	0xbe50bb94	-0.20384055
70	0x3d0e6b8d	0.034770537
71	0x3d8fe718	0.070264995
72	0x3c18c8f6	0.009325257
73	0x3dca47fa	0.0987701
74	0x3e015e9f	0.12633751
75	0xbe21d8cb	-0.15805356
76	0x3d9c044c	0.07618007
77	0xbdeb6405	-0.114936866
78	0xbe34859b	-0.17629091
79	0x3dd6ab00	0.104818344
80	0x3d172d3b	0.03690837
81	0x3d8d8e73	0.06911936
82	0xbcc3cccb	-0.023901364
83	0x3d867046	0.06564383
84	0x3e1cd5c4	0.1531592
85	0x3c98edaf	0.018668024
86	0xbdf61e0d	-0.120174505
87	0x3e1284b9	0.14308442
88	0xbe1abb5c	-0.15110534
89	0xbdc5dfc1	-0.09661818
90	0xbe173bae	-0.1476886
91	0xbde8f2c5	-0.113744296
92	0xbd4496ad	-0.047995258
93	0x3e06eb7a	0.13175765
94	0xbdbf032c	-0.09326777
95	0xbb1b3acb	-0.0023686166
96	0x3dd3d6cb	0.10343703
97	0x3e19d4e4	0.15022618
98	0xbe589f54	-0.21154529
99	0xbdbd5f3f	-0.092466824
100	0xbe514b4b	-0.20438878
101	0xbe5f2a50	-0.21793485
102	0xbd58b72a	-0.052909054
103	0x3d3797da	0.04482255
104	0xbdb5b431	-0.088722594
105	0x3d4bcc09	0.04975513
106	0x3e058b2d	0.13041373
107	0x3f12dcca	0.5736815
108	0x3cb382b2	0.021912906
109	0x3f0b6a11	0.5445872
110	0x3dc4662e	0.09589802
111	0xbe23f1d2	-0.16010216
112	0x3d8c9baa	0.06865628
113	0x3dafa0ef	0.085756175
114	0x3e2142a4	0.15748078
115	0x3f08044c	0.53131557
116	0xbe257b1a	-0.16160241
117	0xbd9ef5b0	-0.07761705
118	0xbdfe821c	-0.1242716
119	0x3da7e469	0.08197863
120	0x3defea07	0.11714559
121	0x3d9e572d	0.07731471
122	0xbdd52ab0	-0.104085326
123	0x3d834fb5	0.06411687
124	0x3f49434f	0.7861833
125	0xbe1a9d85	-0.15099151
126	0x3d29ed41	0.04148603
127	0x3c723485	0.014783029
128	0xbc8b521b	-0.017006924
129	0x3db16119	0.08661098
130	0x3e19d84f	0.15023921
131	0xbd8314ca	-0.064004496
132	0x3d5676bd	0.05235933
133	0xbd8fd5f7	-0.070232324
134	0x3d98211e	0.074281916
135	0x3e205d19	0.15660514
136	0xbd6541b5	-0.055970866
137	0xbcfb9bb9	-0.030713903
138	0xbdba3550	-0.090922
139	0xbe04e006	-0.12976083
140	0x3caf1d17	0.021376176
141	0x3e0a2a23	0.13492636
142	0x3d822002	0.06353761
143	0x3df770c5	0.12082056
144	0xbe1c802e	-0.15283272
145	0x3e181869	0.14853062
146	0xbe553789	-0.20821966
147	0x3cdf3e50	0.027251393
148	0x3d3df565	0.046376605
149	0x3b9564d5	0.0045591393
150	0x3d67d56b	0.056600016
151	0xbcb2d4c4	-0.02182997
152	0xbcc0e826	-0.023548197
153	0xbdea68c5	-0.114457645
154	0x38926bf7	6.9819325e-05
155	0xbcfc20af	-0.030777304
156	0xbcb1c90a	-0.021702308
157	0x3e2f0e8e	0.17095396
158	0xbe0bf5ae	-0.13667938
159	0xbd46245f	-0.04837453
160	0xbe01d250	-0.12677884
161	0xbe3d4df4	-0.18486768
162	0x3d02060b	0.031744044
163	0xbdd90408	-0.10596472
164	0x3cf65d69	0.030073838
165	0x3d0cad52	0.03434498
166	0x3c7b4373	0.015335905
167	0x3d5c64ff	0.053807255
168	0x3cab92cc	0.020944022
169	0x3d727502	0.05919362
170	0x3e44b1ca	0.19208446
171	0xbe569c34	-0.20958024
172	0x3ce6e2b4	0.028184272
173	0xbd80114d	-0.062533
174	0xbde06870	-0.1095742
175	0xbe3a53fc	-0.181961
176	0x3d62e376	0.055392705
177	0x3e0613c8	0.13093483
178	0xbdb8533c	-0.09000251
179	0x3d822a75	0.06355754
180	0xbe94686e	-0.28985924
181	0xbddc0b1e	-0.10744308
182	0xbbf9c1e3	-0.00762199
183	0x3e012318	0.12611043
184	0xbe5a6414	-0.2132724
185	0xbd971e59	-0.07378835
186	0xbe2feef8	-0.17181003
187	0x3c81577d	0.015788788
188	0xbdff1210	-0.12454617
189	0xbe108517	-0.1411327
190	0x3c8066f7	0.015674097
191	0x3de72e64	0.11288145
192	0x3da3e732	0.080030814
193	0xbd22b0f9	-0.039719556
194	0x3df2a9d7	0.11848801
195	0xbd5da9e9	-0.054117117
196	0x3d0b9be1	0.034084205
197	0xbe3b9787	-0.18319522
198	0x3da70975	0.08156101
199	0xbe388541	-0.18019582
200	0xbe012b3c	-0.12614149
201	0xbd8fe089	-0.070252486
202	0x3ce75162	0.028237049
203	0x3da60c2b	0.081077896
204	0xbde68ced	-0.11257348
205	0x3e21fd4a	0.15819278
206	0x3e2971c0	0.16547298
207	0x3d47a338	0.048739642
208	0xbca5e705	-0.02025176
209	0xbe28ccae	-0.16484329
210	0xbdedd952	-0.11613716
211	0xbb6fbfba	-0.0036582784
212	0xbca7ac91	-0.020468028
213	0xbd3d367c	-0.04619454
214	0x3e30e8c5	0.17276295
215	0x3dc2acd2	0.09505619
216	0xbc8ab7d9	-0.016933369
217	0xbdb2e25d	-0.087345816
218	0x3e0dd0f1	0.13849236
219	0x3e186944	0.14883906
220	0xbc3353d8	-0.010945283
221	0x3d456df9	0.04820058
222	0xbdd81289	-0.1055041
223	0xbe2291b2	-0.15875891
224	0xbd79b571	-0.06096405
225	0x3e079598	0.13240659
226	0xbd78a838	-0.0607073
227	0xbd32b2b8	-0.04362747
228	0x3de45589	0.11149127
229	0xbe5c5254	-0.2151578
230	0xbd43bc94	-0.047787264
231	0xbe20d12c	-0.15704793
232	0x3dc85d80	0.09783459
233	0x3c95dee1	0.018294754
234	0x3db2af84	0.08724883
235	0x3d7b9cf6	0.061428986
236	0xbdf8aa5a	-0.12141867
237	0xbcabc598	-0.020968243
238	0xbe3b7242	-0.18305305
239	0x3c60a130	0.013710305
240	0xbd89c8ba	-0.06727739
241	0xbd8f0590	-0.06983483
242	0xbd3651c5	-0.044511575
243	0xbdf0bf58	-0.11755246
244	0xbe39435f	-0.18092106
245	0x3a2f7988	0.000669383
246	0x3da5a14d	0.08087406
247	0x3de704aa	0.112801865
248	0xbe3940d3	-0.18091135
249	0x3de96bbe	0.11397503
250	0xbe568801	-0.20950319
251	0x3d0d9275	0.0345635
252	0xbe6bb93c	-0.2301988
253	0x3e13351a	0.14375725
254	0x3c84c2b6	0.016206127
255	0xbd987e1c	-0.074459285

layer.2.bias f4 [64]
0	0x3f14b854	0.5809376
1	0xbc0e51c0	-0.008686483
2	0x3ed27346	0.41103572
3	0x3e96a7c6	0.29424876
4	0x3c0cda35	0.0085969465
5	0x3f827cee	1.0194376
6	0xbd661f32	-0.056182094
7	0x3e1987c3	0.14993195
8	0x3eb3a04a	0.35083228
9	0x3ddbba44	0.10728887
10	0xbdf99319	-0.1218626
11	0x3e297a02	0.16550449
12	0x3e8eac76	0.27865952
13	0x3e795633	0.24349289
14	0xbd931980	-0.07182598
15	0xbdc923b4	-0.09821263
16	0x3e4ca30b	0.19984071
17	0x3e0bbdbb	0.13646595
18	0x3deeef44	0.1166673
19	0x3e268cc7	0.1626464
20	0xbd9867b4	-0.07441655
21	0x3e6e00b5	0.23242457
22	0x3d3030b0	0.043015182
23	0x3cfa7fc8	0.030578509
24	0x3dde6045	0.10858206
25	0x3e81dfb4	0.25365984
26	0x3c7743f2	0.015091883
27	0x3e0229be	0.12711236
28	0x3e115a51	0.14194609
29	0x3e1bce91	0.15215518
30	0x3ecb2042	0.39673048
31	0x3ee5878f	0.44829985
32	0x3e235a98	0.15952528
33	0xbd97b6e7	-0.07407933
34	0x3ea2a686	0.31767672
35	0xbca9b316	-0.020715278
36	0x3c98352b	0.01858004
37	0xbda53184	-0.08066085
38	0x3e2b713b	0.16742413
39	0x3e9498da	0.29022866
40	0xbd3b347c	-0.04570435
41	0x3de42ab4	0.111409575
42	0xbc32e1ed	-0.010918123
43	0x3f1207c5	0.57043105
44	0x3e1d0f7a	0.15337935
45	0x3e8f9ce0	0.28049374
46	0x3de8ba5d	0.11363671
47	0xbe200cbc	-0.15629858
48	0xbdb5fbf7	-0.08885949
49	0x3eb8e612	0.3611303
50	0x3e9cabe4	0.30599892
51	0x3ea95cef	0.33078715
52	0x3d69c7f1	0.057075445
53	0x3f345569	0.70442826
54	0x3ded05da	0.11573382
55	0x3e0d3c4f	0.13792537
56	0x3e1f2ec5	0.15545185
57	0x3edc7e4b	0.43065104
58	0x3b9860f6	0.0046502305
59	0x3eb71bd7	0.35763428
60	0x3ed9d71e	0.42546934
61	0x3f057355	0.5212911
62	0x3d15ec58	0.036602348
63	0x3ebe77ac	0.37200677

layer.4.weight f4 [128, 64]
0	0xbc36d300	-0.011158705
1	0xbdb36e46	-0.08761267
2	0x3d2564db	0.040379386
3	0xbd807be4	-0.0627363
4	0x3da7599e	0.0817139
5	0xbc42b909	-0.011884936
6	0x3df43e7e	0.11925982
7	0x3ceae3b4	0.02867303
8	0xbdab4b9e	-0.08364032
9	0x3afad4b4	0.0019136877
10	0xbda22903	-0.079179786
11	0xbd439d09	-0.047757182
12	0xbd514419	-0.051090334
13	0x3c12601e	0.008934049
14	0xbd4b65ea	-0.04965774
15	0x3cc1c82e	0.023655023
16	0x3db2ca9a	0.087300494
17	0x3c14a57d	0.009072659
18	0x3d7ff6a1	0.062491063
19	0x3d25d933	0.04049034
20	0x3d49cf29	0.04926983
21	0xbdc2ca12	-0.09511198
22	0xbda67b2b	-0.08128961
23	0x3db78bf8	0.08962244
24	0xbddbc268	-0.107304394
25	0xbb86e5b6	-0.004116739
26	0xbb63a5e5	-0.0034736332
27	0xbd5b12de	-0.05348479
28	0xbdd14b76	-0.10219471
29	0x3d9c1db8	0.07622856
30	0x3d9b6c59	0.07589025
31	0x3dd859f8	0.10564035
32	0x3cdd0fc4	0.026985057
33	0x3d005646	0.031332277
34	0xbd3df503	-0.04637624
35	0x3cd0858f	0.02545431
36	0x3d983891	0.07432664
37	0x3c86569a	0.016398717
38	0xbe28c94f	-0.16483043
39	0x3d83b732	0.06431426
40	0xbcc04eb9	-0.023475038
41	0xbde35301	-0.11099816
42	0x3c6246a5	0.013810788
43	0x3dfdf44c	0.124001116
44	0x3dc51b81	0.096243866
45	0x3bcd368c	0.006262606
46	0x3ddfe769	0.1093281
47	0x3d38397f	0.044976708
48	0x3d88e025	0.06683377
49	0xbc8f4d7f	-0.017493008
50	0x3dae9e85	0.08526329
51	0xbca96b83	-0.020681148
52	0x3d722998	0.0591217
53	0xbc940d66	-0.018072795
54	0xbc22010c	-0.009887945
55	0xbdeb298f	-0.11482536
56	0x3b03aef4	0.0020093294
57	0xbdaca928	-0.084307015
58	0x3e07d579	0.13265027
59	0xbe048d73	-0.12944584
60	0x3d3a5140	0.045487642
61	0x3cf6e04d	0.030136252
62	0x3d8add14	0.067804486
63	0x3c3eab20	0.011637479
64	0xbd532de2	-0.05155743
65	0xbcd304bc	-0.025759093
66	0xbc91bebc	-0.017791145
67	0x3d5a3761	0.05327547
68	0xbcf71eb0	-0.030166
69	0xbe969a06	-0.29414386
70	0xbe056402	-0.13026431
71	0xbc585907	-0.0132048195
72	0x3d2056eb	0.03914539
73	0x3d815613	0.063152455
74	0x3d6eef7f	0.05833387
75	0x3e02405f	0.12719868
76	0x3dfea0e3	0.124330305
77	0x3d0db2bf	0.034594294
78	0xbd2738ac	-0.04082553
79	0xbcd77910	-0.026302844
80	0xbdc11027	-0.09426909
81	0x3e473269	0.19452824
82	0x3d064d28	0.032788426
83	0xbd0b7dc2	-0.03405548
84	0x3c9cc235	0.019135574
85	0xbce83d3d	-0.028349513
86	0xbd1783bb	-0.036990862
87	0xbd93470a	-0.07191284
88	0x3eeffaf0	0.46871138
89	0x3e683783	0.22677426
90	0xbdf1ef2e	-0.11813198
91	0x3ec90bea	0.39266902
92	0x3e456d5b	0.19279997
93	0x3e0e158f	0.13875411
94	0x3bfa5c0a	0.0076403664
95	0x3d9a35e6	0.075298116
96	0xbc87d478	-0.016580805
97	0x3cdd19d7	0.02698986
98	0x3c4c7e68	0.0124813095
99	0xbd080635	-0.033209044
100	0xbc891d2c	-0.016737543
101	0x3d4f689a	0.050636865
102	0x3eb6a5d3	0.3567339
103	0x3e0af0a7	0.13568364
104	0x3d884f1f	0.06655716
105	0x3ec0cb88	0.37655282
106	0xbc62da9f	-0.013846069
107	0x3d77ac02	0.060466774
108	0x3e8e8122	0.27832896
109	0x3dbe6ecb	0.09298476
110	0xbe2331dd	-0.1593699
111	0x3dd27af6	0.10277359
112	0xbdaf2706	-0.08552365
113	0x3bf4d765	0.007471966
114	0xbe0450ac	-0.12921399
115	0xbdb7e485	-0.089791335
116	0x3d365e15	0.044523317
117	0xbe033f91	-0.12817217
118	0x3d87c912	0.06630148
119	0x3e134850	0.14383054
120	0x3ce80738	0.028323755
121	0x3e1baf8e	0.15203688
122	0xbe4893aa	-0.1958758
123	0x3deceab1	0.11568201
124	0xbd83bbb1	-0.06432284
125	0x3e4e2ad8	0.20133531
126	0x3cff7b5b	0.03118675
127	0xbd4a4ee8	-0.049391657
128	0xb95054b0	-0.00019867974
129	0xbddaf0f9	-0.10690493
130	0x3d71a22e	0.058992557
131	0x3d9e2f85	0.077239074
132	0xbde74b6e	-0.11293684
133	0x3f139ac3	0.5765802
134	0x3df78121	0.12085176
135	0x3d8a52fe	0.06754111
136	0x3e2693f5	0.16267379
137	0x3d833478	0.06406492
138	0xbd742fbc	-0.059615836
139	0x3db2e40e	0.08734904
140	0x3c0544d1	0.008134083
141	0x3d4f4fe0	0.050613284
142	0x3cd1595d	0.025555307
143	0x3df5f65f	0.12009882
144	0xbc71a41b	-0.014748598
145	0xba8a86ef	-0.0010568778
146	0xbd15636f	-0.03647178
147	0x3c368e45	0.011142318
148	0x3db454be	0.08805226
149	0x3dd18701	0.10230828
150	0xbd84a1a0	-0.0647614
151	0x3d6c1514	0.05763729
152	0x3ca13bea	0.01968189
153	0xbdf01e7e	-0.11724566
154	0xbd26210b	-0.040558856
155	0xbd87db84	-0.06633666
156	0x3d3011fa	0.042985894
157	0x3ba262bc	0.0049556177
158	0xbd6abb06	-0.057307266
159	0x3d60e48f	0.05490547
160	0x3dc53ed3	0.096311234
161	0xbe0b4ea2	-0.13604215
162	0xbd4c7055	-0.049911816
163	0x3e00245f	0.12513874
164	0x3d42ed49	0.047589574
165	0x3c9b2af9	0.01894139
166	0xbe7d70c4	-0.24750048
167	0xbd76f93d	-0.060296286
168	0x3c509f75	0.01273333
169	0xbe046a41	-0.12931158
170	0xbc9eaebc	-0.01937043
171	0x3dc9b058	0.09848088
172	0x3c0a0f33	0.008426475
173	0xbd3c327c	-0.045946583
174	0xbd2a1001	-0.04151917
175	0x3d6c7984	0.057733074
176	0xbcfcc233	-0.03085432
177	0x3ce1274a	0.027484555
178	0x3d4f54c8	0.050617963
179	0xbc18c3c2	-0.009324016
180	0x3c12185d	0.0089169415
181	0x3db6351c	0.088968486
182	0x3ba170ad	0.004926762
183	0x3d8ceba2	0.06880881
184	0xbc824182	-0.015900377
185	0xbc32d85b	-0.010915841
186	0xbe22175b	-0.15829222
187	0xbc1b272e	-0.00946979
188	0xbd3280f7	-0.04358002
189	0x3d161b26	0.036646985
190	0xbd127ce1	-0.035763625
191	0xbd754f02	-0.0598898
192	0xbdcd3e0c	-0.100216
193	0xbd67b04d	-0.056564618
194	0xbe9dc876	-0.30817002
195	0x3ba7d402	0.005121709
196	0xbe050b1f	-0.12992524
197	0xbf0f42ea	-0.5596148
198	0xbc8e9a0d	-0.017407442
199	0x3dc8329c	0.09775278
200	0xbb9c201a	-0.004764569
201	0xbe2376f1	-0.15963341
202	0xbd5ff94a	-0.0546811
203	0x3dcf27ee	0.10115038
204	0x3e3d99b1	0.1851566
205	0x3e5fe4c3	0.2186461
206	0xbe208ce2	-0.15678743
207	0xbc407b26	-0.011748111
208	0xbe6aea09	-0.2294084
209	0x3f00243c	0.5005529
210	0x3e732637	0.23745047
211	0xbd071894	-0.032982424
212	0x3d670418	0.05640039
213	0xbd51102c	-0.051040813
214	0xbe0c98fa	-0.13730231
215	0x3c4d6528	0.012536325
216	0x3eb2a403	0.34890756
217	0x3ea3bbc1	0.31979182
218	0x3e3eb2cf	0.18622898
219	0x3ecaad00	0.39585114
220	0x3e9bf60c	0.30461156
221	0x3dc13c21	0.09435297
222	0xbe21f3b3	-0.1581562
223	0x3d9fa770	0.07795608
224	0x3dd73df6	0.10509865
225	0x3d932616	0.07184999
226	0xbda8933a	-0.08231206
227	0xbdb530ce	-0.088471994
228	0xbdb9ff70	-0.09081924
229	0x3d5dc574	0.054143384
230	0x3ebfe300	0.37477875
231	0x3e846718	0.25859904
232	0xbdb814d7	-0.0898835
233	0x3e90bd0f	0.2826924
234	0xbc8f0ff2	-0.017463658
235	0x3e00cf10	0.12578988
236	0x3e6ac96f	0.22928403
237	0x3e26e634	0.16298753
238	0xbd3745c6	-0.044744276
239	0x3dac34fd	0.08408544
240	0xbdf1c308	-0.118047774
241	0xbe423860	-0.18966818
242	0x3d5749e6	0.05256071
243	0x3dc12d02	0.09432413
244	0x3c7cadf2	0.015422331
245	0xbe6e44d3	-0.23268442
246	0x3e81f55c	0.25382507
247	0x3e358337	0.17725836
248	0x3e1a2388	0.15052617
249	0x3e147f8a	0.14501777
250	0xbe6bc367	-0.23023759
251	0x3eb068d9	0.34454992
252	0x39bfa8a8	0.00036556018
253	0x3eff9e0c	0.49925268
254	0x3e3cbd6d	0.18431635
255	0x3ec01d3b	0.375223

layer.4.bias f4 [128]
0	0x3df0d550	0.11759436
1	0x3e89b24e	0.26893848
2	0x3df2bba0	0.11852193
3	0x3e85793e	0.26069063
4	0xbd1ae39b	-0.037814718
5	0x3d38a261	0.04507673
6	0x3e2bdee7	0.16784249
7	0xbdfa8260	-0.12231898
8	0x3e2546ed	0.16140337
9	0x3e688e46	0.22710523
10	0x3eb5714d	0.35438004
11	0xbd0b9e8e	-0.034086756
12	0x3dde5d25	0.1085761
13	0xbdd889e4	-0.105731755
14	0x3e3d4ca4	0.18486267
15	0x3e8db27c	0.27675235
16	0xbca7359f	-0.02041131
17	0x3de26ddc	0.1105611
18	0xbe1194cd	-0.14216919
19	0xbd86c561	-0.06580616
20	0x3edde9db	0.4334248
21	0xbcc1dc5b	-0.023664644
22	0xbc82367f	-0.015895126
23	0x3eccc255	0.39992014
24	0x3e9868a9	0.2976735
25	0x3db9d887	0.090745024
26	0x3e88a47c	0.26687992
27	0x3dfe49ab	0.12416395
28	0x3e45c630	0.19313884
29	0xbcb6c7e0	-0.022312105
30	0x3e75ca42	0.24002936
31	0x3b462f65	0.0030240652
32	0x3e2d614c	0.16931647
33	0x3ee8f97f	0.4550285
34	0xbd32e433	-0.04367466
35	0x3e8f6717	0.2800834
36	0xbe27ef8c	-0.16399974
37	0x3e69e941	0.22842886
38	0x3da10156	0.07861583
39	0xbdc17e40	-0.094479084
40	0xbe057e43	-0.13036446
41	0x3dd3a138	0.103334844
42	0x3ea28f48	0.3174994
43	0x3dc807f8	0.09767145
44	0x3e52d18a	0.20587745
45	0x3cc3639f	0.023851214
46	0x3e2b945d	0.16755815
47	0x3e2ce000	0.16882324
48	0x3e8c16f3	0.2736126
49	0xbda09122	-0.07840182
50	0x3ea9a167	0.33130953
51	0x3e14686f	0.14492963
52	0xbdef04c8	-0.11670834
53	0x3f19c7c8	0.60070467
54	0xbd4e2c3b	-0.05033515
55	0x3e318877	0.17337213
56	0x3de7c32d	0.11316524
57	0x3defda3d	0.117115475
58	0xbdaaa3a2	-0.08331992
59	0x3e31cea0	0.17363977
60	0x3e015fc6	0.12634191
61	0x3dfbdc90	0.12297928
62	0x3f24374b	0.6414687
63	0xbd8da6a1	-0.069165476
64	0x3cacfde0	0.02111715
65	0xbd85b6b2	-0.06528987
66	0x3c1d340a	0.009594927
67	0x3e5e5882	0.2171345
68	0x3e76a0a2	0.24084714
69	0x3e7a0641	0.24416448
70	0x3e6dff9d	0.2324204
71	0x3e07fa27	0.1327902
72	0xbe5ac0dd	-0.21362634
73	0xbe274ac1	-0.1633711
74	0x3dc8ea61	0.09810329
75	0x3dc689f1	0.09694279
76	0x3d797e49	0.06091145
77	0x3eae19b3	0.34003982
78	0x3e99a645	0.30009666
79	0x3e3c88b5	0.18411525
80	0xbd7c4313	-0.061587404
81	0x3e0c2687	0.13686572
82	0x3e39dd17	0.18150745
83	0x3e4f5a03	0.2024918
84	0x3ef73d24	0.48288834
85	0xbd24d3a9	-0.040240917
86	0x3bc0fb14	0.005889306
87	0xbc8c7e39	-0.017150031
88	0xbe584ddc	-0.21123451
89	0x3d4ca1a1	0.04995883
90	0x3f43b424	0.7644675
91	0x3d4df1cc	0.050279424
92	0x3e37c073	0.17944507
93	0x3e908bfc	0.282318
94	0x3ce89c27	0.028394772
95	0xbe0ddfac	-0.13854855
96	0xbd80ef48	-0.06295639
97	0x3df9c868	0.121964276
98	0x3e799374	0.24372655
99	0x3e1bc27b	0.15210907
100	0x3e9c99f5	0.3058621
101	0x3e8400df	0.25781915
102	0xbce35a40	-0.027752995
103	0xbd9f5929	-0.07780678
104	0x3e7610a9	0.24029793
105	0x3db63507	0.08896833
106	0x3e73aeb0	0.23797107
107	0xbd9b6b47	-0.07588821
108	0x3df4299d	0.119219996
109	0x3cf6171f	0.030040322
110	0x3d97694e	0.07393132
111	0x3e0d5725	0.13802774
112	0x3d811750	0.06303275
113	0xbca70234	-0.020386793
114	0x3e76c801	0.24099733
115	0x3e4250bd	0.18976112
116	0x3cf0ebec	0.029409371
117	0x3c45746e	0.012051685
118	0x3c3774dc	0.011197295
119	0x3e6b712f	0.22992395
120	0xbc5a7014	-0.013332386
121	0x3c5e3305	0.013561969
122	0x3e0d2a8b	0.1378576
123	0xbd9c3746	-0.0762773
124	0xbcc9bf4d	-0.024627352
125	0xbc9b8f83	-0.01898933
126	0x3d6adc24	0.05733885
127	0x3e21b459	0.15791453

layer.6.weight f4 [23, 128]
0	0xbcf427ca	-0.02980413
1	0xbcbab98a	-0.02279355
2	0x3d03fe05	0.032224674
3	0x3c6bc24b	0.014389585
4	0x3cf59c48	0.029981747
5	0xbb2b89aa	-0.0026174583
6	0x3d48b2c8	0.048998624
7	0xbd1c4e9f	-0.038160916
8	0x3c4e1e5b	0.0125804795
9	0x3ca86972	0.020558093
10	0xbc90aeb3	-0.017661428
11	0xbbce84e3	-0.0063024624
12	0x3bde6f38	0.0067881607
13	0xbc14fac1	-0.0090929875
14	0x3d878e19	0.066189
15	0x3c9b9766	0.01899309
16	0x3d4e319b	0.050340276
17	0x3d59b28f	0.053148802
18	0xbda07d01	-0.078363426
19	0xbd0c5d52	-0.034268685
20	0xbd66d5e7	-0.056356337
21	0x3c4382e6	0.011933064
22	0xbc84b8af	-0.016201345
23	0x3d109768	0.035300642
24	0xbd84ebab	-0.064902626
25	0x3d2d8139	0.042359564
26	0x3cea29af	0.02858433
27	0xbd3b18d5	-0.04567798
28	0xbc9841c7	-0.018586053
29	0xbc2a1839	-0.010381752
30	0x3d199a14	0.037500456
31	0x3bebeefd	0.0072001205
32	0x3d55eb90	0.052226603
33	0x3d7bdb5e	0.0614885
34	0xbd3a2132	-0.045441814
35	0x3d849e42	0.06475498
36	0xbd25c68b	-0.04047255
37	0x3c214752	0.009843664
38	0xbc875d45	-0.016523967
39	0x3bd86988	0.006604377
40	0xba9e37c0	-0.0012071058
41	0x3d4abe9b	0.04949818
42	0x3c1f2f4a	0.009715864
43	0x3d3421e3	0.04397763
44	0x3d2627a7	0.04056516
45	0x3ca16238	0.019700155
46	0xbcbb2c17	-0.022848172
47	0x3ccc8a8a	0.024968404
48	0x3d54e4fa	0.05197618
49	0xbd8e2188	-0.06939989
50	0xbd3e89f6	-0.04651829
51	0xbcc211e5	-0.023690173
52	0xbd2a79c0	-0.041620016
53	0x3d915db3	0.0709795
54	0x3ce9e37c	0.028550856
55	0x3d741033	0.05958576
56	0xbd073809	-0.033012424
57	0x3cd7dac9	0.026349442
58	0x3d7fc33d	0.062442053
59	0x3d2a0205	0.041505832
60	0xbd1ab358	-0.03776869
61	0xbbe506e4	-0.006989347
62	0xbd168302	-0.036746033
63	0xbcc86a96	-0.024464887
64	0x3c081a30	0.008307025
65	0xbdc064ed	-0.0939425
66	0xb89e5f1a	-7.551741e-05
67	0xbd557bf6	-0.05212017
68	0x3becc191	0.0072252234
69	0x3bcd1cdf	0.006259545
70	0xbbe28881	-0.006913245
71	0xbd41f32f	-0.04735106
72	0xbd6d2540	-0.057896852
73	0xbd0863c8	-0.033298284
74	0x3cb0a2fe	0.021562096
75	0x3baa0dbc	0.0051896255
76	0xbcf56633	-0.029955959
77	0xbc363275	-0.011120428
78	0x3d36db83	0.044642936
79	0x3c251f79	0.010078304
80	0xbd244fcc	-0.040115163
81	0xbd1845d3	-0.037175965
82	0xbc012123	-0.007881436
83	0x3bae1a1d	0.0053131715
84	0x3d82afec	0.06381211
85	0x3df3b492	0.118996754
86	0xbcf7d1a5	-0.030251333
87	0xbbeac5f2	-0.00716471
88	0xbc4810d9	-0.012211048
89	0x3d2678a1	0.040642384
90	0xbd900d6d	-0.07033811
91	0xbc97941d	-0.018503243
92	0x3b8c0555	0.0042730966
93	0xbd2ddc28	-0.042446285
94	0x3d13cfc3	0.03608681
95	0xba88e83c	-0.0010445188
96	0xbcb15c9b	-0.021650603
97	0x3c90a6b1	0.01765761
98	0xbccc5db6	-0.024947029
99	0xbb9a6343	-0.00471154
100	0xbca8ea6a	-0.02061959
101	0x3de4c9af	0.111712806
102	0x3d5ec974	0.05439134
103	0x3cac7794	0.021053113
104	0xbcca6f2c	-0.024711214
105	0x3d305e5c	0.043058738
106	0x3c55f844	0.013059679
107	0xbc8db872	-0.017299864
108	0xbbb0cec8	-0.005395744
109	0x3ceb187b	0.028698197
110	0x3d82fa6f	0.06395423
111	0x3d9b52ed	0.07584176
112	0xbc933a9b	-0.017972281
113	0x3cf3ba72	0.02975199
114	0x3d4a95db	0.04945932
115	0xbccb302b	-0.024803242
116	0xbdc2cae0	-0.095113516
117	0x3cad94ff	0.021189211
118	0xbd63686c	-0.055519506
119	0x3d91e06c	0.07122883
120	0xb991656b	-0.00027732117
121	0x3d0a16e0	0.03371322
122	0x3d3b4fd3	0.045730423
123	0xbdc5b9ad	-0.096545555
124	0x3d847844	0.06468251
125	0xbc91f705	-0.017817983
126	0xbb6adb15	-0.003583615
127	0xbd3c051e	-0.045903318
128	0xbce6adcd	-0.028159047
129	0xbc0a91cf	-0.008457615
130	0xbc9763d9	-0.018480228
131	0xbcab1c27	-0.020887448
132	0xbd533847	-0.051567342
133	0x3cf6fd40	0.030150056
134	0x3c7681f0	0.015045628
135	0x3cba0164	0.022705741
136	0x3c3dd00b	0.011585246
137	0xbc28dd2f	-0.0103066405
138	0xb9a259eb	-0.00030966042
139	0xbbaeae82	-0.0053308615
140	0x3b876adf	0.004132613
141	0x3a337803	0.0006846191
142	0x3c6e1622	0.014531644
143	0xbbbebef6	-0.005821104
144	0xbbeb6839	-0.007184055
145	0xbcd03f69	-0.025420861
146	0x3ca35ffc	0.01994323
147	0xba2c2a3a	-0.00065675715
148	0x3d4afc9b	0.04955731
149	0xbbcc9fff	-0.006244659
150	0x3b1db528	0.0024064276
151	0xbbbf504f	-0.005838431
152	0x3c4b417c	0.012405749
153	0xbce2d0a2	-0.027687375
154	0x3c26b3ba	0.010174686
155	0x3baf326d	0.0053465874
156	0xba2b11b6	-0.00065257715
157	0x3cea0634	0.028567411
158	0xbb90032e	-0.0043949103
159	0xbb168b0f	-0.002297107
160	0x3cdf4227	0.027253224
161	0xb9cfd178	-0.00039638183
162	0x3c9d1086	0.019172918
163	0xbd294042	-0.041321047
164	0x3d43ab79	0.04777095
165	0x3ca28ea2	0.019843403
166	0xbc472611	-0.012155072
167	0x3d012a56	0.031534515
168	0x3d52f0ef	0.051499303
169	0xbcab0e25	-0.020880768
170	0x3c259d7d	0.010108349
171	0x3a9a5af4	0.0011776374
172	0xbd86cc46	-0.06581931
173	0x3cebef66	0.028800678
174	0xbc638945	-0.013887708
175	0x3dbdde6b	0.092709385
176	0xbc366862	-0.011133285
177	0xbd1950af	-0.03743046
178	0x3c95a24c	0.018265866
179	0xba51e880	-0.00080073625
180	0x3c104f89	0.008808025
181	0xbc60d382	-0.013722302
182	0x3b702070	0.0036640428
183	0x3cd7d1aa	0.026345093
184	0x3c87fa67	0.016598893
185	0xbd19a3f5	-0.037509877
186	0x3c7caff9	0.0154228145
187	0xbbee662d	-0.007275364
188	0xbc27b48c	-0.010235917
189	0xbd0a94f5	-0.033833463
190	0x3d27d525	0.040974755
191	0x3c31f555	0.010861714
192	0xbcd548f9	-0.026035773
193	0xbc8ea048	-0.017410412
194	0xbbe21a00	-0.006900072
195	0xbd19edc8	-0.03758028
196	0xbba802d4	-0.0051272903
197	0xbc45ac85	-0.012065058
198	0xbceca14b	-0.028885504
199	0x3c4ae2c8	0.01238317
200	0x3c46d2e4	0.012135241
201	0x3bb27653	0.0054462343
202	0x3cdad40c	0.02671244
203	0xbc9b658a	-0.018969316
204	0x3cdcca30	0.02695188
205	0xbc27be8c	-0.010238301
206	0xbc1b61b7	-0.009483746
207	0x3cbb47f3	0.022861456
208	0xbb771640	-0.003770247
209	0x3be5babb	0.0070107854
210	0xbcb195be	-0.021677848
211	0x3b663c5f	0.0035131199
212	0x3cde13d8	0.027109072
213	0x3c43add3	0.011943298
214	0x3c65411a	0.013992572
215	0xbcc9bfbc	-0.024627559
216	0x3c9470db	0.01812022
217	0xbc878ce9	-0.016546683
218	0xbcaee97a	-0.021351565
219	0x3cf61a40	0.030041814
220	0x3c1d78a1	0.00961128
221	0xbab24a8c	-0.0013602539
222	0x3bb59357	0.005541246
223	0x3be59c62	0.0070071677
224	0x3c119be5	0.008887266
225	0x3c0b39b0	0.0084976405
226	0xbd15381f	-0.036430474
227	0xbcc6dc69	-0.024275022
228	0xbd239af0	-0.03994268
229	0x39d0fe00	0.00039862096
230	0xbd4c5ad0	-0.049891293
231	0xbbc0b3f9	-0.0058808294
232	0xbd01a68e	-0.03165298
233	0x3d15f0ac	0.036606476
234	0x3ca7fa1f	0.02050501
235	0xbc71f9ff	-0.014769076
236	0x3ba20c64	0.0049453247
237	0x3a55872a	0.0008145446
238	0x3d80054d	0.06251011
239	0x3c7ce5b1	0.015435622
240	0x3c3be796	0.011468789
241	0x3b148daa	0.0022667446
242	0xbc8f6602	-0.017504696
243	0xbc04de79	-0.008109682
244	0x3c376934	0.011194516
245	0xbba8e87f	-0.005154669
246	0xbc8720a7	-0.016495062
247	0x3c4f7fd8	0.012664758
248	0x3d10529d	0.035235036
249	0x3aac550c	0.0013147905
250	0x3d0fbdff	0.035093304
251	0x3cb1df40	0.0217129
252	0xbb8d1c3c	-0.0043063443
253	0xbc857569	-0.016291337
254	0x3cbceba3	0.02306158
255	0x3d0e4b64	0.034739867

layer.6.bias f4 [23]
0	0x3e9582df	0.2920141
1	0x3df30cb7	0.118676595
2	0x3e7e381f	0.24826096
3	0x3c83594c	0.016033791
4	0x3d496289	0.049166236
5	0x3ebfb4c8	0.37442613
6	0x3e908365	0.28225246
7	0x3e72dcf2	0.23717096
8	0x3dad0010	0.084472775
9	0x3eb77aa2	0.3583575
10	0x3d6dc794	0.05805166
11	0x3df3660b	0.118846975
12	0x3d0769b6	0.0330598
13	0xbd583fba	-0.05279515
14	0x3d1d213e	0.03836178
15	0x3d23e073	0.040008973
16	0x3d4656fb	0.048422795
17	0x3efce06a	0.49389964
18	0x3db23401	0.08701325
19	0x3c725ac7	0.014792151
20	0xbc8a9e91	-0.016921313
21	0x3e1a066b	0.15041511
22	0x3c3b4211	0.011429326
