weight/save_150.pth (torch_old, 72900 bytes, 8 tensors)

layer.0.weight f4 [32, 139]
000000 d5 4a a4 3d 2b d3 ef bd 94 f6 e5 bb 55 92 a4 bd
       0.080220856 -0.11710199 -0.00701792 -0.08035723
000010 ff 81 77 bd ba 6d f1 bc 06 12 88 bd ba d5 c6 3c
       -0.06042671 -0.029471267 -0.06644063 0.024271835
000020 ad 64 1e 3c f3 9e 0d bd 33 ec 75 bc 9f c7 14 3d
       0.009667558 -0.034575414 -0.015009928 0.036323186
000030 0f 3e 2d 3d c7 10 75 3d 2c 06 a1 bd f0 7a 8b bc
       0.04229551 0.059830453 -0.07862505 -0.017026395
000040 85 9c e5 bc db da ac 3b 89 da 09 3d 17 05 d7 3a
       -0.028028736 0.005275113 0.033655677 0.0016404715
000050 f9 b7 c2 bc 80 7e 04 3c 53 7d 34 bd 33 e5 47 bc
       -0.023769366 0.008086801 -0.04406483 -0.012200641
000060 43 6a b3 bc 77 72 cd 3c 05 43 93 3d c2 b6 43 3d
       -0.021901255 0.025078995 0.07190517 0.047781713
000070 18 b0 08 3d 14 7c 33 bd 15 bf 23 3d 01 07 2d bd
       0.03337106 -0.043819502 0.039977152 -0.042243008
000080 98 8e 13 3d 8a ac 22 bd c3 11 a1 bd 0e cb b9 bc
       0.03602466 -0.039715327 -0.07864716 -0.022679832
000090 00 83 25 bc d7 b0 d9 ba cc b3 2c 3c 4c 8c 8f bd
       -0.010102034 -0.0016608489 0.010540914 -0.070091814
0000a0 86 ef 8c 3c f7 e1 27 3d 3c 0a e8 3c 3b 46 e8 bc
       0.017204057 0.04098698 0.028325193 -0.028353801
0000b0 78 e7 06 bc ca cd 7a 3c e4 c1 19 3c 70 10 dd ba
       -0.008233897 0.015307853 0.009384606 -0.0016865861
0000c0 88 54 7c 3d 67 1d 99 bd f4 1d 36 bd 68 99 c4 3b
       0.061604053 -0.07476311 -0.04446216 0.0059997328
0000d0 a5 fd 0f 3d 46 f4 87 3d ea 8b 6b bd 8f a7 93 3d
       0.035154004 0.06638388 -0.05750648 0.07209694
0000e0 27 2c 04 bd 90 63 7c bd cd 05 09 3c 6b 59 88 bd
       -0.03226867 -0.061618388 0.008363199 -0.0665768
0000f0 c7 b3 5e 3b 56 90 5e bd 19 d2 97 bb c9 e5 83 3d
       0.0033981667 -0.05433687 -0.0046332 0.064403124
000100 f9 88 68 bd 8e 27 a3 3c 30 d0 18 bd 22 c2 71 bc
       -0.056771252 0.019916322 -0.037307918 -0.0147557575
000110 09 35 0d bd a9 4c 73 bc 3c 94 86 bd 46 eb 70 bd
       -0.034474406 -0.01484982 -0.06571242 -0.058818124
000120 48 b6 96 3c 63 e9 13 3b 0f f4 c3 bc a3 b0 44 3c
       0.018397465 0.002256953 -0.023920087 0.012005004
000130 41 f9 d1 3c 43 17 04 bd 83 5c 9a bd 22 7b 87 bd
       0.025631549 -0.032248747 -0.075371765 -0.066152826
000140 4d 9f de bc 76 0e 82 bc 62 12 46 3d ae 1d 13 3d
       -0.02717557 -0.015876036 0.048357375 0.035916977
000150 48 ad 5b bc 00 bc a7 bd b6 e8 d1 bc 88 5c 4b bd
       -0.013408013 -0.08190155 -0.02562366 -0.04964879
000160 8a 1d d0 bc d2 f7 57 3d 30 c2 18 3c c3 2f 45 bd
       -0.02540471 0.052726574 0.009323642 -0.048141252
000170 fe d1 47 3c 68 5a cd bc 00 28 90 3c f9 3b 70 bd
       0.012196062 -0.025067523 0.017597198 -0.058650944
000180 87 8d 6a bc b2 fd b5 3b aa e7 49 3d da 30 30 bd
       -0.014315969 0.0055539245 0.049293198 -0.04301534
000190 b9 4a b9 bd 89 84 32 bd 57 39 98 bd 60 63 09 3c
       -0.09047455 -0.043583427 -0.07432812 0.008385509
0001a0 cf 65 90 3c ff 7c 3a 3b 70 1b 88 3c 24 2b ac bd
       0.017626671 0.002845585 0.016614646 -0.08406666
0001b0 3e 4f 8c bb 90 1f 79 3d 6a f7 9d bd 25 17 5a 3d
       -0.0042819073 0.060821116 -0.07713206 0.05324473
0001c0 65 e0 77 38 a3 31 71 bd e2 11 12 3d e8 42 17 bc
       5.9098373e-05 -0.058885228 0.035661586 -0.00923226
0001d0 76 d8 8c bc 5e 46 50 3d 9c e1 21 bd be 67 82 3d
       -0.01719306 0.050848357 -0.0395218 0.063674435
0001e0 da ab 9c bb 91 9f 08 bc 93 2f f6 3c 52 93 3f bd
       -0.0047812285 -0.008338825 0.030051982 -0.046771355
0001f0 d7 9d a0 bd c1 bc 4d 3d 65 00 0f bd 08 af 1c bd
       -0.078426056 0.050228838 -0.034912486 -0.03825286
000200 80 9c 06 3c bc f6 20 bd 4a 7b 4a bc 1c 8b 2f bd
       0.008216023 -0.039297804 -0.012358496 -0.042857274
000210 41 29 98 bd cb 56 87 bd 5f 54 7b bd b0 28 a7 bd
       -0.074297436 -0.06608351 -0.06135976 -0.081620574
000220 c5 00 f6 3c f5 51 9a 3b 48 36 22 3c 02 3e 46 3d
       0.030029664 0.004709477 0.009900637 0.04839898
000230 bf 56 af bc 2a 81 61 3d 52 66 76 3d e7 76 72 b9
       -0.021403668 0.05505482 0.060156174 -0.00023123213
000240 2a 9a 3a 3d 45 a0 90 bd 32 3d ca bc 1d 28 a6 3c
       0.04555718 -0.07061819 -0.024687383 0.0202828
000250 15 af 16 bc 05 ad b0 bc 81 70 a1 3c 81 c9 6f 3d
       -0.009197016 -0.021566877 0.019706966 0.05854178
000260 c1 bb d1 3b ad 94 7d bd 6b 9d cc 3b 0c 0c 21 bd
       0.006400556 -0.061909366 0.0062443516 -0.03931813
000270 a6 f5 87 bc 35 08 7f 3d a9 31 aa 3c 0f 00 27 bc
       -0.016596626 0.062263686 0.020775633 -0.010192885
000280 47 12 81 3d f7 5a 32 3d d7 a5 90 bc 52 df 21 3d
       0.06302314 0.043543782 -0.017657204 0.039519615
000290 d7 16 59 bc 3d 86 a4 3c 76 dd 97 bd 57 cf b8 bc
       -0.013250074 0.020083541 -0.07415287 -0.022559805
0002a0 c2 7f 38 3c 71 0b 78 3d 5c 2e aa bc aa ae 53 bc
       0.011260929 0.060557786 -0.020774059 -0.012920061
0002b0 f7 67 03 bd 27 08 83 bd 78 b1 b0 bc 1f 40 08 bc
       -0.03208157 -0.06398039 -0.021568999 -0.008316069
0002c0 03 8b 7a bd 2f 98 c6 bc 10 5d 7d bd 97 ba 9c 3b
       -0.06116773 -0.024242489 -0.06185633 0.0047829854
0002d0 2e 91 71 3d 68 5c 9b bd fb fe 9c 3c c5 5e ed 3c
       0.058976345 -0.075859845 0.019164553 0.028975854
0002e0 26 78 a1 3b 6c 6d f0 3b 64 ee 61 bd 95 4e dc bc
       0.004927653 0.007337263 -0.055158988 -0.02689294
0002f0 23 bc cb 3c 37 05 d4 bb 4c 9f b9 3d 79 31 e8 3b
       0.024869984 -0.006470348 0.090635866 0.0070859757
000300 90 d4 17 bd 5c 9a da bc 76 b1 be bc cb f5 92 bb
       -0.03706795 -0.026684932 -0.02327798 -0.004484867
000310 34 10 b0 bc a3 29 c3 3b 33 db a3 bd 95 a2 d3 ba
       -0.021492101 0.005955891 -0.08000793 -0.0016146476
000320 b0 6d 5b bd 1f 76 28 3d 38 a7 a5 bd c7 e2 48 bd
       -0.053571403 0.041128274 -0.08088535 -0.049044397
000330 bc 15 2e 3d 84 46 ae bb af 66 c3 bd c3 7b ba bd
       0.042501196 -0.0053184647 -0.0954107 -0.09105637
000340 3c 76 11 bd b6 13 98 bd 81 47 71 3b 7f af 51 3d
       -0.035513148 -0.074256346 0.0036816301 0.051192757
000350 e1 21 b8 bb 7e 64 c5 bd 3d dc 82 bc 4e 31 15 3d
       -0.005619273 -0.09638308 -0.015974158 0.036423974
000360 3d 65 64 bd b4 70 2e 3d 30 a5 c5 bd 88 4e cd 3c
       -0.05576061 0.04258795 -0.09650648 0.02506186
000370 ba 14 2a bd a2 1e e3 bd 5c a4 5d 3d 74 f3 d2 bc
       -0.041523673 -0.11089827 0.054111823 -0.025750853
000380 0f da be bd 8b e6 c5 bd a8 2b 42 bd 02 5d 90 bd
       -0.09318935 -0.09663113 -0.047404915 -0.0704899
000390 c4 8a e7 3b 7b 8b 74 3d af b3 3c bd 4e da fb 3c
       0.0070661027 0.05970333 -0.046069797 0.030743744
0003a0 39 a9 e0 b8 77 6b 34 3c fa f8 c5 3c 10 29 8c 3c
       -0.000107126725 0.01101195 0.024166573 0.017109424
0003b0 34 20 b7 bb a6 6d 1a 3d 01 fa 88 bd f0 ab 0e bd
       -0.0055885557 0.037702225 -0.066883095 -0.03483194
0003c0 f3 32 6c bb 0c ba 3a 3c 12 91 69 bd dc 5a 5d bd
       -0.003604111 0.011396896 -0.057023115 -0.05404173
0003d0 a2 36 cd bc 23 57 42 bc 64 9c ba bd f5 f2 06 3d
       -0.025050465 -0.011861595 -0.091118604 0.032946546
0003e0 76 2b fb 3c 99 78 bf bc 85 c0 8a bd f8 3e f0 3c
       0.030660372 -0.023372935 -0.067750014 0.0293269
0003f0 46 a9 b9 ba 32 a6 67 bd 6b cc 30 3d e3 75 9a 3c
       -0.0014164827 -0.05655498 0.0431637 0.01885504

layer.0.bias f4 [32]
000000 0e af 64 3c 13 ec c1 3a 4f e8 b4 bd 97 06 b8 3c
       0.013957752 0.0014795087 -0.08833372 0.02246408
000010 19 ab d2 bd d6 f4 4c 3d 32 bb 9c 3c f6 9e 3d 3d
       -0.102865405 0.05003818 0.01913223 0.046294175
000020 98 ac 01 bd b9 06 24 3d e1 ca 24 3d f1 6d c1 bd
       -0.03165874 0.040045474 0.040232543 -0.09444798
000030 76 97 97 bd 0c 80 cc bd e3 9b 8e 3d f7 68 4d 3d
       -0.07401936 -0.099853605 0.06963327 0.05014893
000040 be 23 e6 bc a9 cc 69 bd 8c 1c 3d 3d 48 9f 35 bd
       -0.028093215 -0.057079945 0.046169803 -0.044341356
000050 52 62 d4 bd f6 4d e5 ba af bb b4 bd be 48 a4 bd
       -0.103703156 -0.0017494548 -0.0882486 -0.08021687
000060 07 52 b2 bd c3 9b bd 3c 2c 16 a0 bd aa 72 53 3d
       -0.08707052 0.023145562 -0.07816729 0.051623024
000070 93 fa c4 3d 0c 1c 7b 3c e3 90 f7 bd 50 2e 96 bc
       0.09618106 0.015326511 -0.12088182 -0.01833263

layer.2.weight f4 [64, 32]
000000 79 ea 12 3d 0d 2e 9b bd 7b 41 ee bd b2 98 a6 3d
       0.03586814 -0.07577143 -0.11633583 0.08134593
000010 73 10 33 bd f0 38 61 bd ba 4d 90 3d f8 4d 14 3e
       -0.04371686 -0.05498594 0.07046075 0.14482868
000020 3c 5d 2c 3e 1b c0 16 be e7 27 b2 3d a7 0b 17 3d
       0.16832441 -0.1472172 0.08699017 0.036876347
000030 87 8c 16 3e 23 58 7d 3c dc 50 16 3e 9f 5a 2d 3d
       0.14702044 0.015462908 0.14679283 0.04232275
000040 c9 89 1f 3e 79 01 82 bd dd 59 99 3d 18 e4 f6 3d
       0.15579905 -0.06347937 0.07487843 0.12055224
000050 fd 1d 93 bd f2 8e 1b be 53 12 2f bd bf 9f 51 3b
       -0.07183454 -0.15191248 -0.042742085 0.0031986085
000060 be 4b 7d 3c 6a 3b 7d 3d c1 90 23 3e 31 0e 7b 3d
       0.015459953 0.06182424 0.15973188 0.06129283
000070 05 59 1b 3d 16 c8 1e 3e b5 9d 7b bd de 9f 22 be
       0.037926693 0.15506014 -0.061429698 -0.15881297
000080 2b 50 9e bd 2f a1 e2 bd 82 13 54 3d 5d 90 15 be
       -0.077301346 -0.110658996 0.051776417 -0.14605851
000090 96 c9 b8 bd f9 ca 3d be 30 3f 72 bd 30 48 92 3d
       -0.090228245 -0.18534459 -0.05914229 0.07142675
0000a0 bc 81 ba bd ad 5d be 3d 3c 82 3b bd fa d3 ad 3c
       -0.09106776 0.09295211 -0.045778498 0.021219242
0000b0 cc 7d e8 bd d7 d2 07 be a4 eb 13 3e 40 fa a2 bd
       -0.11352119 -0.13264023 0.14445359 -0.07957888
0000c0 42 e3 54 3d 5e 7e 1a 3e 59 61 1f bd bc 5c 81 3c
       0.051974542 0.15087268 -0.038911197 0.01579129
0000d0 a1 a4 bd 3d 54 44 4a 3c c1 9d 6f be ed 6c ee bd
       0.09259916 0.012345392 -0.23400022 -0.1164187
0000e0 b0 37 ad bd 80 0a 87 bd 4f 47 16 be 78 2f 53 bd
       -0.08457887 -0.065937996 -0.1467564 -0.05155894
0000f0 81 7a 1f bd 70 84 1d 3d 6e 04 05 3e 6f 55 c1 3c
       -0.03893519 0.03845638 0.12989971 0.023600308
000100 34 47 b8 bd a5 c1 47 be bd bd 73 3d c3 0d d1 bd
       -0.08997956 -0.19507463 0.05950712 -0.10207703
000110 61 6f 15 be b9 90 28 be 21 12 a9 3d 69 d6 9c 3d
       -0.14593269 -0.16461457 0.08255411 0.07658083
000120 37 23 20 3e 4b 47 bd 3d 11 7b fb 3d e7 37 0f be
       0.15638433 0.09242114 0.122793324 -0.13986169
000130 4b 59 b5 3d 65 1b 10 be 0d d1 33 be b7 8f 9a 3d
       0.08854922 -0.1407295 -0.17560215 0.07546943
000140 53 40 a0 3c d2 2c 94 3d 39 a9 d1 bd c7 7d 3f 3c
       0.019561922 0.07235111 -0.10237355 0.0116877025
000150 e1 0b 06 3e 30 fc a9 3c 0d b3 be bd d5 50 0f 3e
       0.13090469 0.020750135 -0.09311495 0.13995679
000160 61 93 d1 bd 83 dc 9c bd 9c c7 4f bd cc 15 ec bd
       -0.102331884 -0.07659247 -0.05072747 -0.11527595
000170 b9 bc 1b be 75 e0 a9 3d 54 f9 b3 bd cb 3a 1b bb
       -0.1520871 0.08294765 -0.0878779 -0.0023686166
000180 3a dc aa 3d 0d 57 0a 3e d8 e1 ff bd 3d cf ad bd
       0.08342786 0.1350977 -0.12494248 -0.08486793
000190 ec fa cf bd 56 89 1e be 68 ac 49 bd c0 91 38 3d
       -0.101552814 -0.15482077 -0.049236685 0.045060873
0001a0 9e f0 be bd a5 78 38 3d 86 b9 09 3e 59 71 5a 3e
       -0.09323238 0.04503693 0.13449678 0.21332301
0001b0 f4 b5 a6 3c 4e 9c ac bd f6 d2 d7 3d 91 7c 0f be
       0.020350434 -0.0842825 0.105382845 -0.14012362
0001c0 90 02 a2 3d 1d 48 fb 3d 37 2e 29 be 10 dd 70 bd
       0.07910645 0.12269614 -0.16521536 -0.05880457
0001d0 52 9e b9 ba de 7b f8 bd 00 bc 01 be cd 0d 89 3d
       -0.0014161563 -0.12133001 -0.12669373 0.066920854
0001e0 ef 89 21 3e 67 fe 6e 3c b9 59 2b 3d 7e f1 a4 3d
       0.15775274 0.014587021 0.041833613 0.080538735
0001f0 25 f2 12 3e 98 5e 09 be 2a 04 02 3d ed ad 9f 3c
       0.14350183 -0.13414991 0.031742252 0.019492114
000200 17 52 0a bd a2 ca a6 3d c4 6f e3 3d 50 81 87 bd
       -0.033769693 0.08144118 0.11105302 -0.06616461
000210 cd 24 a0 3c 73 ff 01 bd 0a 32 94 3d cc be 1f 3e
       0.019548798 -0.031737756 0.07236107 0.15600127
000220 05 52 99 bd ee 62 e2 bc ba 30 c1 bd db db 39 b9
       -0.07486347 -0.027635064 -0.09433122 -0.00017724877
000230 a1 c6 c3 3b b5 0b c3 3d 9a d0 43 3d 2d 66 b9 3d
       0.005974606 0.09523717 0.04780636 0.090526916
000240 43 f5 21 be ba e3 b7 3d a3 9d d0 bd dc 59 ef bc
       -0.15816216 0.08978982 -0.10186317 -0.029217653
000250 70 a8 ed bc 24 2a 92 bb b5 a1 62 3d b7 90 b8 bc
       -0.029010981 -0.00446059 0.055329997 -0.022529943
000260 0d 55 85 bd 7f 2e 05 be 3e 71 ce bd ee 44 1b bc
       -0.06510363 -0.13006018 -0.10080193 -0.009476883
000270 f4 42 fe bc d9 ee 0a 3e d4 be 03 be 9c e2 5b bd
       -0.031037785 0.13567676 -0.12865764 -0.05368291
000280 cb 1c 03 be f5 5b 46 be b5 fa c4 bc 32 a9 ae bd
       -0.12803952 -0.19371016 -0.024045328 -0.08528365
000290 9a 6d 09 3d c6 ea fb 3c 8d 18 91 3c a2 6a 35 3d
       0.03355179 0.030751597 0.017711902 0.044291146
0002a0 20 f9 90 3c c9 25 ef 3c 2b 9d 37 3e b6 21 2d be
       0.017696917 0.029192822 0.17931049 -0.16907391
0002b0 fa 1a 82 3d 77 2f 23 bd 99 7d 11 be 13 18 3f be
       0.063528016 -0.039840188 -0.14208068 -0.18661527
0002c0 1f 60 cd 3c 33 8a fb 3d 25 fa ba bd fb 3b 69 3d
       0.025070248 0.12282219 -0.091297425 0.056941967
0002d0 22 a8 4c be 5a 1f d4 bd 16 04 8e 3c 9b 33 dc 3d
       -0.19986013 -0.10357542 0.017335933 0.107520305
0002e0 c1 52 34 be 1b 90 3a bd c6 55 0b be e1 5f a3 3c
       -0.17609693 -0.045547586 -0.13606939 0.01994318
0002f0 16 f1 01 be 69 3b 3d be a9 f8 9d 3c 64 2e e7 3d
       -0.12689623 -0.18479694 0.01928361 0.11288145
000300 8d 26 cb 3d 1e 28 b6 bc 6d 9c 21 3e d7 6e 90 bd
       0.09919462 -0.022235926 0.15782328 -0.07052391
000310 9d 98 9e bd ab c8 12 bd 10 e5 b3 3d 25 1f 04 be
       -0.077439524 -0.035835903 0.087839246 -0.12902506
000320 b7 3c d7 bd 5a e1 85 bd 79 8d 46 3d 20 1c d1 bc
       -0.10509627 -0.06537123 0.048474763 -0.025526106
000330 bf e8 e4 bd 85 cf 03 3e f4 1e 21 3e b3 3b 24 3d
       -0.11177205 0.12872131 0.15734464 0.040095996
000340 77 d4 a2 bc 9e c4 ba bd 80 89 00 bc ce 75 37 be
       -0.019876702 -0.09119533 -0.007845283 -0.17916033
000350 89 f8 d2 bd af e5 e4 bd 2c 85 2b 3e ef 24 db 3d
       -0.103013106 -0.11176621 0.1675002 0.10700404
000360 9a 8a 89 bc a7 88 ab bd 76 6e 49 3d 22 ea de 3d
       -0.016789723 -0.08375674 0.04917761 0.10884501
000370 5d 2e 8c bd 65 37 c4 ba fb ff d1 3d b2 91 22 be
       -0.068447806 -0.0014970122 0.102539025 -0.15875891
000380 46 4b d4 bc 30 98 13 3e a7 f8 be bc a4 99 a7 bd
       -0.0259148 0.14413524 -0.023311926 -0.081836015
000390 23 d9 b5 3d d6 63 2b be 62 18 c9 bd 31 12 2a be
       0.08879306 -0.16737303 -0.09819104 -0.16608502
0003a0 26 8e 8e 3c 6f 88 75 3c 20 0e e8 3d c3 55 4e 3d
       0.017401766 0.014986142 0.11330819 0.050374757
0003b0 d6 de ac bd d7 3d 8b bd d9 74 31 be 0d 23 38 3d
       -0.0844094 -0.067989044 -0.1732973 0.044955302
0003c0 c3 ac 97 bd 6f b2 f3 bd 26 b4 62 3c 68 1f 71 3d
       -0.074059986 -0.11899268 0.013836896 0.058867842
0003d0 25 e5 08 be 4c 14 91 3c 31 05 0b bd c1 50 d9 3d
       -0.13368662 0.017709874 -0.033940498 0.10611106
0003e0 6a 12 2d be c0 ea fa 3d 04 61 28 be 8d b0 30 3d
       -0.16901556 0.12251806 -0.16443259 0.043137122
0003f0 5e 06 20 be 76 a5 da 3d 5f 9b e9 3c 1c 7e 98 bd
       -0.15627429 0.106760904 0.02851647 -0.074459285

layer.2.bias f4 [64]
000000 1c b0 26 3e b6 2b 48 be d3 d4 9c bc 3b 8b f1 bb
       0.16278118 -0.19547924 -0.019144451 -0.007371334
000010 33 91 af bd e9 93 41 3e c5 1a 3d be fe ce 95 3c
       -0.085726164 0.1890408 -0.18467243 0.018287178
000020 36 38 ac 3d dd 21 ab bd 45 c1 3e be b6 f2 86 bb
       0.08409159 -0.08356068 -0.18628414 -0.004118289
000030 25 7e ba bc e4 2c 47 3b 61 f5 2b be c3 60 b6 bd
       -0.022765229 0.0030391747 -0.16792823 -0.089051746
000040 48 13 99 bd 2f ee 3f be cb 4b 48 be 76 4d 94 bd
       -0.07474381 -0.18743204 -0.19560163 -0.07241337
000050 6f 6a 02 be c5 8f 1b 3c c9 ae 99 bd 56 07 21 bc
       -0.12735914 0.009494727 -0.07504041 -0.009828409
000060 b4 08 17 be 3b 27 e2 3d c5 d8 3a be 16 67 3b be
       -0.14749414 0.11042639 -0.18246754 -0.18301043
000070 4a 2a 86 bc f0 26 a6 bc 7f 4b 2e 3d 1f 62 bf 3d
       -0.016377587 -0.020282239 0.042552467 0.09344887
000080 48 6e 18 be 0a 69 12 be 45 09 37 3e e5 ef 15 be
       -0.14885819 -0.14297882 0.1787463 -0.14642294
000090 f1 5c d6 bd 80 eb 20 be c0 9c 98 bd bd 92 8b 3c
       -0.10466946 -0.15714836 -0.07451773 0.017037744
0000a0 15 26 27 be ba da e0 bd 32 8d 70 bc 2b e3 dd 3c
       -0.16323121 -0.10979219 -0.014682101 0.027085861
0000b0 c9 d1 ba bd 79 e7 27 3d 43 32 5e bd d8 5a 16 be
       -0.091220446 0.040992234 -0.054247152 -0.14683092
0000c0 17 94 e7 bd ce 44 01 bd 7f ea 09 bd 86 c4 4e bd
       -0.11307543 -0.031559758 -0.0336709 -0.050480388
0000d0 cb 24 6c 3c 45 d7 ca 3e 97 16 05 be cd e3 84 bd
       0.014413069 0.39617363 -0.12996899 -0.06488762
0000e0 ee bc 59 be c9 20 61 3e 79 46 11 be ed 74 bb 3d
       -0.21263477 0.21985163 -0.1418704 0.09153161
0000f0 8d 16 02 3e 9b 84 84 3e 27 6a 1c 3e 85 1f 44 3e
       0.12703915 0.2588242 0.15274869 0.19152649

layer.4.weight f4 [128, 64]
000000 cc 7e d0 bc 34 b9 d7 bd 05 94 5f 3d 1d f3 85 bd
       -0.025451086 -0.105333716 0.05458452 -0.06540511
000010 b2 48 5e 3d b5 fd f2 bc 28 81 e9 3d 69 02 28 3d
       0.054268546 -0.029661993 0.11401588 0.041017924
000020 be 6a aa bd 55 be d9 bc 7f 07 2d bd f7 ae 99 bc
       -0.08321141 -0.026580015 -0.042243477 -0.018760188
000030 bb fe 18 bd 91 05 05 3d 87 4a 82 bd dc 86 00 3d
       -0.037352305 0.03247601 -0.06361871 0.031378612
000040 6c 4c 84 3d d7 e0 5c 3d e7 10 88 3d 6f 3a 10 3d
       0.06459889 0.05392536 0.06643849 0.035211977
000050 9c 62 9f 3d f4 51 c8 bd cd d2 b9 bd 41 17 ea 3d
       0.0778248 -0.09781256 -0.0907341 0.114302166
000060 a8 d5 63 bd 20 bf 28 3a 8c bb 05 3d 0f 92 16 3d
       -0.05562368 0.0006437171 0.03264956 0.036760386
000070 b6 81 a0 bd a7 19 70 3d 59 d3 6b 3d 60 fb cc 3d
       -0.078372404 0.058618214 0.057574604 0.100088835
000080 02 d1 75 3c 59 d4 4b 3d 20 2b 56 bd 16 6a 65 3c
       0.015003445 0.049763057 -0.05228722 0.014002344
000090 99 ed 36 bd 17 ae b1 3b f1 ef 9b 3b 32 52 54 3d
       -0.044660185 0.0054223645 0.004758828 0.0518362
0000a0 3d 94 23 bd c6 94 47 bd 26 cb 0d bc e9 4e c4 3d
       -0.039936293 -0.048725866 -0.008654391 0.095853634
0000b0 c8 66 b4 3d d4 a1 db 3c 6e 60 c7 3d 1c c7 77 3d
       0.088086665 0.026810564 0.097351894 0.06049262
0000c0 50 a4 79 3d 7b 3b 05 bd 52 13 a1 3d 11 a8 e6 bc
       0.060947716 -0.032527428 0.07865013 -0.028156312
0000d0 6a a8 1e 3d b3 74 a9 bc b7 70 59 bd 2c a8 9b bd
       0.03873483 -0.02068553 -0.05308601 -0.076004356
0000e0 b1 fd ea ba a7 fc 8c bc c0 31 3a 3d fe e1 83 bd
       -0.0017928389 -0.017210318 0.0454576 -0.06439589
0000f0 ad 77 02 3d ac 24 36 3d 73 a3 e3 3d 58 d7 d6 3c
       0.031852413 0.044468567 0.1111516 0.02622573
000100 06 68 07 bd 2f 87 0a 3d b6 ed f6 3d de e5 1f 3d
       -0.03305819 0.033820327 0.120570585 0.039037578
000110 8b e0 05 bc aa fb 37 be 0e 35 da bd 2b 0d 73 bd
       -0.008171211 -0.17967096 -0.10654651 -0.05933873
000120 96 44 c9 3d 5f 33 99 3d 5a 9d a7 3d 32 a6 82 bd
       0.09827535 0.074805014 0.08184309 -0.063793555
000130 d3 3e 77 3d 99 68 ea bd b7 dc 0c bd 19 9f b1 bc
       0.06036265 -0.11445732 -0.034390178 -0.021682309
000140 7c f5 ce 3d f0 4a 5c bd 91 6a 2a be d7 fb 52 3c
       0.10105416 -0.053782403 -0.16642214 0.012877426
000150 de 82 56 bd f0 72 65 3c 3f 96 45 bc a7 41 e5 bd
       -0.0523709 0.014004454 -0.012059747 -0.11194163
000160 51 85 46 3e 42 d4 a2 bc 02 b3 27 be 41 80 aa 3d
       0.19386794 -0.019876603 -0.1637688 0.08325244
000170 15 0d 26 bd 3b 59 d7 3d 95 14 c1 3c f0 7c 43 bc
       -0.04053982 0.10515066 0.023569385 -0.011931643
000180 d6 f8 9c bd a2 c3 5f 3c d9 bf e1 3c 51 b9 9e bc
       -0.07664649 0.013657482 0.0275573 -0.019375475
000190 c6 1a 9b bc 83 dd f2 3c ba 83 a2 3b eb 3c d3 3d
       -0.018933665 0.02964664 0.0049595507 0.103143536
0001a0 b3 1b a0 3d ad 2e 0c 3e 05 6a 39 bd 50 7f 87 3c
       0.07817783 0.1368968 -0.045267124 0.0165402
0001b0 bf 71 75 3d d7 4c be bc d3 cd 59 be b9 fa ac 3c
       0.05992293 -0.02323 -0.21269922 0.021115648
0001c0 1f 37 c4 bd 57 11 7c 3d 64 76 b1 bd c0 9e 46 bc
       -0.09580826 0.061539974 -0.08665159 -0.01212281
0001d0 3e ef 2d 3d af e0 f7 bd ac e6 88 bd 2f 8d df bc
       0.042464487 -0.12103402 -0.06684622 -0.027289001
0001e0 24 3b 16 bc 07 19 c4 bd 57 17 81 bd 77 4d 09 be
       -0.009169374 -0.09575086 -0.0630328 -0.13408457
0001f0 c6 f3 89 bd b1 cd 19 bd 89 b5 01 be 05 bc 09 be
       -0.06735949 -0.03754968 -0.12666906 -0.1345063
000200 dd d6 e4 bc 0d fd a5 bd f6 61 73 3d 20 40 93 3c
       -0.027934486 -0.08104906 0.059419595 0.017974913
000210 59 a1 d6 bd 5e d3 28 3e 04 1b ee 3d 99 94 d6 3d
       -0.104799934 0.1648688 0.116262466 0.104775615
000220 ff f4 ac 3d f9 eb 9d bc 51 68 d1 bd 14 61 0a 3d
       0.08445167 -0.01927756 -0.10224975 0.033783987
000230 3b dc 4d bd 2a 94 8e bd 83 f1 25 bc 52 ea c1 3d
       -0.050258856 -0.06961854 -0.010128382 0.09468521
000240 a5 30 bd 3c a8 f3 4b 3c 11 6c 52 bc 74 bf 92 bb
       0.023094485 0.012448229 -0.012843148 -0.0044783894
000250 7d 61 a5 3c 32 1d a6 3d c7 20 0c 3c b1 41 71 3c
       0.020188088 0.08111037 0.008552737 0.014725135
000260 22 fb 26 3c 6c b8 6f bd 18 72 45 3d 00 e4 05 bd
       0.010191711 -0.058525488 0.04820451 -0.03268814
000270 01 17 70 3d 4e 88 a9 bc 30 39 95 bd eb 78 89 3d
       0.05861569 -0.020694878 -0.07286298 0.067125164
000280 ba 58 aa 3d ac db 0f be ab 51 9d bd 86 17 df 3d
       0.083177045 -0.14048642 -0.076815926 0.108931586
000290 30 a8 b5 3c 65 c4 32 3c 37 d0 dc bd 4d 89 db bd
       0.022174925 0.010911082 -0.10781901 -0.107195474
0002a0 48 4f 9b bc 4a 07 98 bd 7f 26 f9 bd 5b 52 ac 3d
       -0.018958703 -0.07423265 -0.12165546 0.084141456
0002b0 05 2b d2 3b ac 66 96 bd bf 09 30 bd 41 6e a5 bc
       0.0064138197 -0.07343802 -0.042978045 -0.020194175
0002c0 53 0c 90 bd 50 f5 41 bc 9a d8 93 3d 67 6c 40 bc
       -0.07033601 -0.011838272 0.07219048 -0.011744595
0002d0 4b 42 4f bd 7b 8a 0e bc dc ec aa bd 35 a7 a8 3d
       -0.05060033 -0.0087000085 -0.083459586 0.08235017
0002e0 e0 3a 19 bd 21 0e 48 3d 89 e4 a9 bd 69 49 85 bc
       -0.037409663 0.0488416 -0.08295543 -0.016270356
0002f0 9f 54 34 bd 6b dc 32 3d 68 3d 28 3b 71 95 ba bd
       -0.044026013 0.04366724 0.0025671367 -0.09110535
000300 be af 1c bd 8b 9e c5 3c 63 e4 51 bd 23 35 ec bd
       -0.03825354 0.02412345 -0.051243197 -0.115335725
000310 51 b8 86 bd c7 84 98 bd 10 d2 a4 3c b8 25 d1 3d
       -0.06578124 -0.074472 0.020119697 0.102122724
000320 7a ae 44 3d bd fb 84 bd f6 f6 40 3d 6a 8f 30 bd
       0.048017956 -0.06493328 0.04711052 -0.04310552
000330 f2 c4 7a bd 05 e7 25 bd d0 a0 ee bc 4e c6 0e 3d
       -0.061222978 -0.04050352 -0.029129416 0.034857087
000340 9e 36 0f 3d 5d 54 d6 3d a3 b0 f8 3c c0 0a 67 3d
       0.034964196 0.1046531 0.030357664 0.056406736
000350 08 63 e9 bc 05 07 a4 3b e1 9d e2 bd 18 84 79 3d
       -0.028489605 0.0050057196 -0.11065269 0.06091699
000360 41 7c fe bc 77 1e 50 bc 14 c9 2d bc 02 33 67 3d
       -0.031065108 -0.012702576 -0.010607023 0.05644513
000370 37 4b 2d bd d3 a7 90 3c 28 42 f3 bd 72 9f 34 bc
       -0.04230806 0.01765815 -0.11877853 -0.011024343
000380 3b e9 6f bd 1e 53 ac 3d 3b 88 77 bd ee 96 82 bd
       -0.058572035 0.08414291 -0.060432654 -0.06376444
000390 7c ec 56 bd 85 56 95 3d da 08 15 3d 01 ba 76 3d
       -0.052471623 0.07291893 0.036385395 0.06023598
0003a0 68 06 bb bd 6c 54 04 be 45 96 0b 3c 4a 07 72 3d
       -0.09132081 -0.1292283 0.008519714 0.059088983
0003b0 0a ad 6f 3c a0 e4 c9 bc 44 db a1 3b eb 4c 07 3e
       0.014628658 -0.02464515 0.0049394686 0.13212936
0003c0 74 81 cf bd fd 39 08 bc a1 c6 bc 3d 73 be c7 3d
       -0.10132113 -0.008314607 0.09217573 0.09753122
0003d0 d0 49 5c 3d a9 fe 9c bd b7 43 8f 3d b4 fd 0b bd
       0.05378133 -0.0766576 0.069953375 -0.034177497
0003e0 6d 4c 8c 3d 53 b6 b4 bd 49 8d b4 3b 60 7f 2c 3d
       0.068505146 -0.08823838 0.0055100066 0.04211366
0003f0 f4 7e 6f 3d 66 f7 91 3d e1 e2 6c 3c 9a 56 42 3d
       0.05847068 0.07127266 0.014458389 0.04744587

layer.4.bias f4 [128]
000000 55 78 da bb 1a c7 c9 3d 45 75 7c bd 1b f6 51 3c
       -0.0066671767 0.09852429 -0.061635274 0.012815024
000010 8b cf d0 ba e6 0a 8f 3d 20 eb 3b 3d 3c 66 a8 bd
       -0.0015930993 0.069845006 0.04587853 -0.08222625
000020 d4 c6 39 bd d8 e0 44 3c 7c f3 06 3e 48 a0 a4 bd
       -0.045355633 0.012016498 0.1317882 -0.08038384
000030 b4 f0 50 3d 22 70 0a be 9d 00 11 bd 8c bf 0d 3e
       0.051010802 -0.13519338 -0.035400975 0.138426
000040 d9 d7 2e bd 69 7a 32 3d 61 1e 0f be c2 9a c3 bd
       -0.042686317 0.04357377 -0.13976432 -0.09551002
000050 a8 93 f5 3d 3f e3 ad bd 5a 0c ca bd 03 10 1f 3d
       0.11991054 -0.084906094 -0.09865637 0.03883363
000060 34 f9 78 ba 93 20 a1 bd db e9 d4 bc 6f df e4 bd
       -0.00094975834 -0.07867541 -0.025990417 -0.11175429
000070 9c b3 cf bc 0f 4a ef bb 08 ac 1e 3e c1 3b f5 bd
       -0.0253542 -0.0073025296 0.15495312 -0.11974288
000080 8d fc 63 3d a1 65 74 3d d5 5b eb bd ff 53 a3 3b
       0.055660773 0.059667233 -0.11492125 0.0049843783
000090 45 37 24 be 74 1f 6f 3d b5 45 83 bb de 7b cb bd
       -0.16036709 0.058379605 -0.0040061125 -0.09935735
0000a0 cf d0 fd bd b5 5e f7 bc 19 4c ed bd fb f0 58 3c
       -0.12393343 -0.030196527 -0.1158678 0.013241048
0000b0 87 e2 03 be da cf 0e 3d 02 4d 9a bd 45 cf f2 3d
       -0.12879382 0.03486619 -0.07534219 0.1185594
0000c0 fc 15 82 3d a7 b9 e6 bd 47 71 27 3d d4 61 c0 bc
       0.063518494 -0.11265879 0.040879514 -0.023484148
0000d0 f3 2d 12 be da df 77 3e 03 65 cf bd aa 1b c9 bc
       -0.1427534 0.24206486 -0.10126688 -0.024549324
0000e0 43 66 85 bd c8 fa e1 3d ba c5 88 bd d0 05 a1 3d
       -0.065136455 0.11034161 -0.06678338 0.07862437
0000f0 6a 85 7c bd 7a 9c 72 bd f9 fb 2e 3e 68 d5 6f bd
       -0.06165067 -0.05923126 0.17088307 -0.05855313
000100 77 fb 99 3d 22 33 98 bd fe 17 70 3c 09 e8 97 3d
       0.07518666 -0.07431628 0.014654158 0.07417304
000110 62 36 a3 3c 06 16 54 bc 5d d5 b8 3d 6e 63 6e bd
       0.019923393 -0.012944704 0.09025071 -0.058200292
000120 12 9c f6 bd dc 36 dc bc b6 0e eb bc 31 c6 a4 bd
       -0.12041487 -0.026881628 -0.028693538 -0.080456145
000130 74 97 2a be bd 31 e1 3c ba 3c f0 3a 09 78 cb bc
       -0.16659337 0.027489537 0.0018328645 -0.02483751
000140 25 05 08 bd 91 7c c3 3d 6f 29 a4 3c d9 c5 c4 bc
       -0.03320803 0.095452435 0.020039288 -0.024020122
000150 68 0f 22 3d e5 02 98 bd d6 ea c0 bd 2e 0d fc bd
       0.039565474 -0.07422427 -0.094197914 -0.12307201
000160 50 5c 0e be 7e 49 f5 bd 58 54 bf 3e b2 c7 d3 3d
       -0.13902402 -0.11976908 0.37369037 0.10340823
000170 12 70 b9 3d e3 8b 59 bd 6b 25 a5 3d 00 35 9b bd
       0.09054579 -0.053111922 0.080637775 -0.07578468
000180 58 fd c0 bd 38 c6 9f bd 37 05 e6 3d 8e 33 15 3d
       -0.094233215 -0.07801479 0.112314634 0.03642612
000190 c7 2f c4 bd 35 23 2c 3e 6d 43 48 3d c5 94 d5 bd
       -0.09579425 0.16810305 0.048892427 -0.10428766
0001a0 50 19 3f 3d 81 32 c9 bd 6e b0 82 3d c3 da 98 3d
       0.046655 -0.09824086 0.063813075 0.074636005
0001b0 e4 8b 89 bd b1 e3 80 bc b0 53 41 bd 96 14 5a bd
       -0.06716135 -0.015733572 -0.04719895 -0.05324229
0001c0 42 1b b0 3d 0c 4c 8b bd d0 83 30 3c 43 56 c0 bd
       0.08598949 -0.06801614 0.010773614 -0.09391453
0001d0 f3 5f 77 3c a0 f6 0c bd 90 af 0a 3d a2 8b ae 3d
       0.01509856 -0.034414887 0.033858836 0.085227266
0001e0 cb 69 5d bd e1 04 97 bc 02 a4 1e 3e 97 c1 ef bc
       -0.05405597 -0.018434944 0.15492252 -0.029267116
0001f0 c7 98 ab bd b5 56 bc bd 1c 6c c4 bd 8e 56 a6 3d
       -0.08378749 -0.091962256 -0.09590933 0.08121978

layer.6.weight f4 [23, 128]
000000 f9 1b 15 bd 41 36 9d bb 94 05 52 3d f9 41 34 3d
       -0.03640363 -0.0047977273 0.05127485 0.04400823
000010 cb 8d b1 3c eb 79 8d 3c 0f 05 6a 3d a1 59 bb bc
       0.021674057 0.01727005 0.05713373 -0.022869887
000020 33 fe a4 bd f6 28 ea bc 0e c9 0e bd 85 e2 a6 bc
       -0.08056297 -0.028583985 -0.03485971 -0.020371685
000030 80 2e d1 3c ff e3 f8 3b 81 ff 5b 3d 08 1e 4e bc
       0.025534868 0.0075955386 0.053710464 -0.012580402
000040 a7 fe ce 3d c8 63 53 3d c3 18 85 bd 30 a0 66 bd
       0.10107165 0.05160883 -0.064988635 -0.05630511
000050 21 79 76 bd 01 62 d6 bc 6f ba 37 bd 3f a7 63 3d
       -0.06017411 -0.026169779 -0.04485553 0.05557942
000060 fe dc 81 bd 8b 32 74 3d b6 e0 61 3d 02 73 9f bd
       -0.06340979 0.059618514 0.05514594 -0.07785608
000070 04 e3 cf bc e3 20 89 bc ee be b3 bb ac 69 88 3c
       -0.025376804 -0.016739314 -0.005485407 0.01665195
000080 53 b4 21 3d 79 88 6f ba 6b 06 c2 bd 47 b7 4b 3d
       0.03947861 -0.00091374625 -0.094738804 0.049735334
000090 d8 46 88 bc ea 96 0b bd 16 d0 11 bc 83 22 8e bc
       -0.016635343 -0.03407947 -0.008899709 -0.01735044
0000a0 25 b4 5c bb 9e 13 dd 3c 03 52 9f 3c c8 bc 7f bd
       -0.003367671 0.026986893 0.019448286 -0.062435895
0000b0 25 2d 3e 3d b5 5e c4 38 9c e2 01 bd 5c 1b 90 3b
       0.046429772 9.363649e-05 -0.031710252 0.0043977927
0000c0 1f 4d f4 bc 4f c7 b9 bb e7 8a 87 bd 4a 1c 14 bd
       -0.02982193 -0.0056695114 -0.066182904 -0.03615979
0000d0 d4 f2 77 bc 49 15 1d 3d e6 5c 1d 3d 9e e2 82 3d
       -0.015133578 0.038350377 0.038418673 0.0639088
0000e0 2d 37 c7 bc 52 a6 f7 3c f9 a8 9c 3d 47 c9 62 3d
       -0.024318302 0.030230675 0.076494165 0.055367734
0000f0 b1 43 84 bb 86 af f2 bc 76 4a 56 bd 79 68 a4 bc
       -0.0040363898 -0.029624712 -0.052317105 -0.020069348
000100 66 e0 a7 3c e5 0e c9 bc 3a 2a c1 bc 46 d0 91 bd
       0.020492744 -0.024543235 -0.023579706 -0.07119803
000110 05 9f 76 bc f9 36 a0 bc c1 24 27 bd dc 5b fc 3b
       -0.015052562 -0.019557463 -0.040806536 0.00770138
000120 35 7f 71 bd 02 d9 d1 bc 95 b0 d6 3a d8 4c be bd
       -0.058959205 -0.025616173 0.001637953 -0.092920005
000130 c7 14 29 bd 7a b0 c1 bc 2e 6c 23 3d a5 a8 05 bc
       -0.04127958 -0.02364372 0.03989809 -0.008157884
000140 f4 2a 80 bd 20 02 5e bd a0 40 bd bc 1f f5 db bb
       -0.06258193 -0.054201245 -0.023102105 -0.0067125703
000150 52 6f 84 3d 61 00 c7 3c eb 2d 3b bb 5d 45 a2 ba
       0.06466545 0.024292173 -0.0028561305 -0.0012380291
000160 ad df 27 3c 02 9d 85 3d fd 99 fd bc d8 3e c7 bc
       0.0102462 0.065240875 -0.030957216 -0.024321958
000170 82 19 9e bd d1 2c 99 bd d2 86 2e 3c f9 c4 7b 3d
       -0.07719709 -0.07479251 0.010652261 0.061467145
000180 eb da 50 bd 97 29 12 3d 0b 63 98 bc 60 ab 71 bc
       -0.050990026 0.035684194 -0.018601915 -0.014750332
000190 e9 92 d2 bc 4b 26 84 3d 8a ec 21 3d b3 fe 6b 3a
       -0.025704818 0.06452616 0.03953222 0.0009002492
0001a0 86 c6 3b bc 91 06 a1 bb 9e 56 10 3d 55 b9 ed bc
       -0.011460906 -0.004914113 0.035238855 -0.029019037
0001b0 00 e4 b4 bb 8d 44 01 3d d1 cf 81 3d a4 d3 c8 3d
       -0.005520344 0.031559516 0.06338466 0.09805992
0001c0 3e 0b 44 bc 47 ce dc 3c c1 b5 53 3d d2 d5 42 bd
       -0.011965571 0.02695383 0.051687006 -0.047567196
0001d0 47 3b 10 bd 9a 97 5b ba 6d cf 69 bd 6e 6f 8c 3c
       -0.03521278 -0.00083767774 -0.057082582 0.017142978
0001e0 4e 72 8b bc f4 85 04 3d 82 fa c0 3c 2d ac a5 bc
       -0.017022278 0.03235431 0.023556951 -0.020223701
0001f0 36 38 85 3d b9 33 9e bc e5 25 91 bc 92 5c 55 bd
       0.06504862 -0.019311773 -0.017718265 -0.052090235
000200 86 52 e2 bc c3 2a c6 bb a1 39 1d bd f8 bf 0c bc
       -0.02762724 -0.006047578 -0.038385037 -0.008590691
000210 32 4a 78 bd 08 5f 60 3d 46 25 17 bd 29 2d 2d 3d
       -0.060617633 0.05477813 -0.03690078 0.042279396
000220 79 77 bc bc d2 9c a1 bc fb d3 ca 3c b0 59 39 bb
       -0.023006188 -0.019728098 0.024759283 -0.0028282218
000230 fc 0d 16 bc da 58 0e 3d 34 6f b6 3c 90 7f cd bd
       -0.009158608 0.034752704 0.022269823 -0.10034096
000240 17 01 23 3b 03 e7 42 bd e4 5b 9c bc 0e eb 1f 3d
       0.0024872476 -0.04758359 -0.019086786 0.039042525
000250 a6 53 46 3d 9c 08 87 3b f9 42 1c bb a4 71 da 3c
       0.048419617 0.0041208994 -0.002384363 0.026665516
000260 0f d4 83 3d 84 2d 48 bd 05 54 5b 3d fb b2 00 3d
       0.06436931 -0.048871532 0.053546924 0.03142069
000270 90 c7 ab bd 56 6a 48 3d 24 11 41 3d 25 e4 81 3b
       -0.08387673 0.048929535 0.047135487 0.0039639645
000280 6b 0e 0f 3d 3f 97 59 3d 74 b6 62 bd d4 58 38 bc
       0.03492586 0.053122755 -0.055349782 -0.011251647
000290 19 d5 09 3d 2c ab 1e 3d fe d9 9a 3d 4b a8 bf 3c
       0.03365049 0.03873746 0.0756111 0.023395678
0002a0 5b 94 46 3d cc e3 9f bc eb 78 f5 3b 19 4b ba 3c
       0.048481327 -0.019517802 0.007491221 0.022740887
0002b0 45 1d 9e bd 59 05 12 bd 1c 57 65 bc 19 5e d8 3c
       -0.077204265 -0.03564963 -0.013997819 0.026412057
0002c0 4b 70 b3 bc 22 e6 64 3d 3d dc 9e 3c 9d 04 df 3c
       -0.021904131 0.055883534 0.019392127 0.02722388
0002d0 8a fe c2 3b b9 5d 04 3d fb 23 6b 3d 95 73 8d 3d
       0.0059507536 0.032315943 0.05740736 0.06906811
0002e0 c5 6a 1a bd a2 6f 0e bd b1 17 18 3d ee a9 19 3d
       -0.03769948 -0.03477443 0.03713197 0.037515573
0002f0 e2 62 8a bd c4 3a 17 bd 9c 4d 25 3d 99 09 96 3c
       -0.06757142 -0.036921278 0.040357217 0.018315123
000300 70 04 71 bd c6 7f e0 3c 44 38 e4 3c 12 61 16 bd
       -0.058842123 0.027404677 0.02785886 -0.036713667
000310 d7 fa 34 3b 19 ac 9c 3c ba 9c 9a bd 17 b6 5a bd
       0.0027615333 0.019125031 -0.075494245 -0.05339631
000320 23 9b e6 3c ae 6c e1 3b d1 25 cf 3c be 01 33 bd
       0.028150147 0.0068794107 0.025286587 -0.043702833
000330 fc f2 8b 3d c3 31 df bc e9 6c 7d bc 98 de 21 bd
       0.06833455 -0.027245408 -0.015467861 -0.039518923
000340 54 c5 ba bb 24 83 b1 bb 6a 6a ca bc 82 4f 00 3c
       -0.005699793 -0.0054172445 -0.024708945 0.007831456
000350 08 1f 59 3d e7 f9 8e bd 88 ea af 3c 7d 5d 7f bb
       0.05300811 -0.06981259 0.021474138 -0.0038965635
000360 3e b3 56 3c 80 c9 2a bd a5 a2 91 3d 67 c4 1f 3d
       0.013104258 -0.04169607 0.071111 0.039005663
000370 90 d4 a1 3c 6d 8f c1 bc 16 e8 88 bb 52 c8 43 3d
       0.019754678 -0.023627961 -0.0041780574 0.047798462
000380 62 81 89 bc 74 34 49 bc dc 49 77 bd 90 db a0 bd
       -0.016785327 -0.012280572 -0.060373172 -0.07854378
000390 55 9e 68 bd c7 88 da bc 9f bf 4b bd 98 2e 0d 3d
       -0.056791622 -0.026676549 -0.04974329 0.034468263
0003a0 c8 92 a5 bd 93 f1 98 3d c7 00 f5 3b bf 39 72 b8
       -0.08084637 0.074679516 0.0074768993 -5.7751076e-05
0003b0 dd 33 5e 3c 2a 69 e1 bc 66 da 9a 3d b3 fd ed 3c
       0.01356217 -0.027515966 0.075611874 0.029051637
0003c0 c7 06 e5 3c eb a5 2a 3c 40 f2 b8 bc 8c d7 0b bd
       0.027957333 0.0104155345 -0.022576451 -0.03414111
0003d0 56 fd 15 3c 8b 67 34 3c 43 8d 82 bd 20 90 95 3c
       0.009154638 0.011011015 -0.063746 0.0182572
0003e0 9a 3e 64 3d 62 74 4d 3c 23 53 31 3d 48 ac 58 3d
       0.055723764 0.012539955 0.043292176 0.052898675
0003f0 f0 4a cb 3c d1 53 2a bc cf b7 6e bb 24 fe 0b 3d
       0.024816006 -0.01039596 -0.0036425476 0.034177914

layer.6.bias f4 [23]
000000 5b a2 bc 3c fb 53 39 bd 9a c5 06 3d 2b 9a a1 bc
       0.023026636 -0.045246106 0.03290329 -0.019726833
000010 d8 87 0b 3d dc b9 c3 3c 25 02 d9 3b 0c 4a 25 3d
       0.034065098 0.023892336 0.00662257 0.04035382
000020 c2 0b 1c bd 7d a1 1d 3d f9 fd cf bb f8 2a 59 3c
       -0.03809715 0.038484085 -0.0063474146 0.013254873
000030 1a f4 c5 3c 4e f1 3c bd 0c 3d 9d 3c a5 22 48 bd
       0.024164248 -0.046128564 0.019194148 -0.048861165
000040 11 50 d0 3c 22 c3 64 3d a2 5e f9 3c 21 41 00 3d
       0.025428804 0.055850156 0.030440632 0.03131211
000050 4a ad 59 3c ce 0a 9e bc 3d 7f fe 3b
       0.013285944 -0.019292261 0.007766633
