weight/save_100_s0_lr2.5e-05.pth (torch_old, 53012 bytes, 8 tensors)

layer.0.weight f4 [32, 32]
-0.045796365 -1.157018 0.55784357 -0.32225338 -0.71424705 0.43284678 -0.5661905 0.7613967
0.73267394 1.5061399 -0.09576678 -0.5170715 -0.055967595 0.29781258 -0.28112194 -0.29640904
0.009737056 -0.024810918 0.0402582 -0.0023427047 -0.085653424 0.15792157 0.038259685 0.035054192
0.037036896 0.08490064 0.04861014 -0.00010582805 -0.05807139 0.04786438 -0.011523409 0.12702785
-0.034105673 1.2777553 1.0346408 0.40855172 0.06814377 0.3772182 -2.0524702 1.61815
-0.37523663 1.2343092 0.00045532966 0.14138688 -0.019982366 -0.05560726 -0.0062933927 -0.07173625
0.0011926227 -0.14981008 -0.16304906 -0.09697958 -0.1703758 -0.15321852 -0.13763198 -0.074495524
0.09048091 0.07155792 -0.14210051 0.017070442 -0.17560244 0.10107678 -0.0051876307 0.1265736
0.1323859 0.0014175875 -0.08065442 1.1326642 0.7716288 0.33308697 0.23049778 -0.283621
-1.0465728 -2.1641266 -0.043261807 0.32669505 0.05832148 0.031262465 -0.25212145 -0.21457893
0.058365498 0.11325221 -0.10126916 0.14530185 0.06225007 0.050290734 0.11201343 0.016316116
0.030732058 0.039899737 0.082646295 0.06616646 0.017375585 -0.010279551 0.046364173 -0.0070513785
0.007385686 0.11055084 0.04408891 -0.036737274 0.11122121 0.17305411 -0.26231527 0.08525134
0.001884779 0.1906495 -0.02478228 0.06554675 -0.17426075 -0.025022417 0.05040887 0.09539716
-0.09317945 0.002514109 0.037889853 -0.17644279 -0.1070488 -0.1399661 -0.051117092 -0.026006013
0.00083470345 0.13087235 -0.14079502 0.04845749 -0.16651982 -0.09388863 -0.105010726 0.044820517
-0.06746488 0.15379976 -0.022807602 -0.17251065 0.033554196 0.071993 0.07085227 -0.17153165
0.13175356 -0.0887844 -0.10767013 -0.01288808 -0.015453219 0.14692302 -0.17092364 -0.14528975
-0.12097355 -0.079873204 -0.034716442 0.039670765 0.16834407 -0.10861993 0.1456634 -0.025293753
-0.02519174 -0.08362885 -0.14933069 0.12597825 0.08235742 0.009731501 -0.03546691 -0.13268624
0.10558586 0.21937421 0.8596612 -1.175671 -0.51880985 0.79314715 -1.3613231 1.1115872
1.3527625 2.3483396 -0.21861638 -0.19044332 0.24739881 0.1894034 0.07746388 0.44801816
0.012238506 -0.08244383 0.22364438 0.20407142 0.15920153 0.045681734 0.050899785 -0.041752264
0.0376826 -0.08611476 0.16152276 0.002820909 0.0139748845 0.15623185 0.00952044 -0.17611888
0.0033453405 0.1641287 -0.08585448 -0.13958341 -0.15268205 -0.04783103 -0.091854945 -0.033168226
-0.15900727 0.08613865 -0.14923814 0.17248942 0.06489761 0.13550119 -0.12658125 -0.085186325
-0.089457825 0.077656016 0.15178369 -0.15607332 0.091203675 0.06207131 0.13784735 -0.09215311
-0.07911901 -0.070744455 -0.041273564 -0.063084535 0.17543988 0.17328872 0.027513742 0.028942406
0.16247396 -0.10752599 -1.310439 -0.26267958 0.3262058 -0.6233012 2.0912962 -1.8388134
-0.5437658 -1.2752117 -0.08438292 0.30803502 0.059339285 0.39352888 0.014300515 -0.23905165
0.055451978 -0.1680168 -0.074529395 0.040648155 0.025114901 0.014169074 0.08652574 0.088618234
-0.0012956341 0.16104671 -0.17391583 -0.11946003 0.057015996 0.04272141 -0.13363001 -0.14316995
00000000: f894 3bbd 2a19 94bf d6ce 0e3f 65fe a4be
00000010: e5d8 36bf 189e dd3e dcf1 10bf e5ea 423f
00000020: 8590 3b3f 31c9 c03f 6021 c4bd cc5e 04bf
00000030: 473e 65bd e47a 983e 37ef 8fbe edc2 97be
00000040: 2c88 1f3c 4440 cbbc c8e5 243d 1088 19bb
00000050: 106b afbd 31b6 213e 30b6 1c3d fc94 0f3d
00000060: 00b4 173d 63e0 ad3d 6d1b 473d 00f0 ddb8
00000070: 44dc 6dbd 710d 443d aecc 3cbc 9713 023e
00000080: 64b2 0bbd 7c8d a33f 1c6f 843f b12d d13e
00000090: f68e 8b3d be22 c13e ac5b 03c0 8a1f cf3f
000000a0: 041f c0be d8fd 9d3f 50b9 ee39 b9c7 103e
000000b0: 0fb2 a3bc 70c4 63bd ce38 cebb 74ea 92bd
000000c0: c751 9c3a d067 19be 55f6 26be 3b9d c6bd
000000d0: fe76 2ebe 51e5 1cbe 66ef 0cbe 1c91 98bd
000000e0: 0e4e b93d f58c 923d cc82 11be 50d7 8b3c
000000f0: 20d1 33be 5801 cf3d 00fd a9bb 839c 013e
00000100: 2b90 073e 58ce b93a 252e a5bd 24fb 903f
00000110: 7789 453f 608a aa3e 9c07 6c3e c636 91be
00000120: 19f6 85bf 0d81 0ac0 4b33 31bd 9344 a73e
00000130: 81e2 6e3d 120d 003d 1016 81be 94ba 5bbe
00000140: a910 6f3d c6f0 e73d 3566 cfbd 02ca 143e
00000150: eef9 7e3d a8fd 4d3d 4c67 e53d 60a9 853c
00000160: ccc1 fb3c e86d 233d 7642 a93d 4882 873d
00000170: 3e57 8e3c 906b 28bc 5ce8 3d3d 400f e7bb
00000180: a003 f23b 7b68 e23d 9396 343d d379 16bd
00000190: f2c7 e33d 1935 313e 304e 86be 4198 ae3d
000001a0: b00a f73a 9f39 433e 3504 cbbc 603d 863d
000001b0: 6971 32be d0fb ccbc 8879 4e3d 965f c33d
000001c0: ded4 bebd c0c3 243b 6432 1b3d 6bad 34be
000001d0: 673c dbbd 4653 0fbe 2860 51bd 900a d5bc
000001e0: 00d0 5a3a 6703 063e 922c 10be 5c7b 463d
000001f0: 2c84 2abe af48 c0bd dd0f d7bd b895 373d
00000200: 072b 8abd af7d 1d3e 02d7 babc a2a6 30be
00000210: 2070 093d 1171 933d ff1a 913d fea5 2fbe
00000220: 68ea 063e 98d4 b5bd 2882 dcbd 8728 53bc
00000230: 802f 7dbc fd72 163e 9b06 2fbe d6c6 14be
00000240: fbc0 f7bd 9094 a3bd d432 0ebd d07d 223d
00000250: 6362 2c3e 2074 debd c928 153e d834 cfbc
00000260: e85e cebc 9a45 abbd 25ea 18be 7100 013e
00000270: 02ab a83d e070 1f3c c045 11bd e7de 07be
00000280: 663d d83d a2a3 603e c212 5c3f 637c 96bf
00000290: b9d0 04bf b10b 4b3f d63f aebf 7d48 8e3f
000002a0: 5227 ad3f 324b 1640 f9dc 5fbe 9303 43be
000002b0: 1d56 7d3e f7f2 413e 62a5 9e3d a362 e53e
000002c0: 0484 483c 50d8 a8bd 0803 653e 19f8 503e
000002d0: ba05 233e c51c 3b3d 4b7c 503d 6c04 2bbd
000002e0: 1259 1a3d ef5c b0bd 3966 253e 00df 383b
000002f0: eaf6 643c 3efb 1f3e 9ffb 1b3c 8258 34be
00000300: 803d 5b3b 5b11 283e 79d4 afbd f4ee 0ebe
00000310: af58 1cbe 78ea 43bd 721e bcbd 68db 07bd
00000320: cdd2 22be 7669 b03d e2d1 18be 11a1 303e
00000330: 0ae9 843d d3c0 0a3e 849e 01be 2b76 aebd
00000340: aa35 b7bd 1e0a 9f3d 2f6d 1b3e afd1 1fbe
00000350: fec8 ba3d 7c3e 7e3d db27 0d3e c5ba bcbd
00000360: 2609 a2bd 78e2 90bd 780e 29bd 7732 81bd
00000370: 83a6 333e 9972 313e 8064 e13c a018 ed3c
00000380: 935f 263e 9636 dcbd 77bc a7bf f07d 86be
00000390: 7204 a73e ab90 1fbf ccd7 0540 3d5e ebbf
000003a0: 3c34 0bbf 233a a3bf f4d0 acbd c4b6 9d3e
000003b0: c00d 733d 9e7c c93e b54c 6a3c f5c9 74be
000003c0: 9d21 633d 990c 2cbe dea2 98bd ae7e 263d
000003d0: c4bd cd3c 6725 683c 6834 b13d 7a7d b53d
000003e0: 44d2 a9ba 6ee9 243e fe16 32be 76a7 f4bd
000003f0: 9b89 693d a5fc 2e3d 4ed6 08be 259b 12be

layer.0.bias f4 [32]
0.11177452 0.09692605 -0.018754605 -0.040630538 -0.058894303 -0.19832054 -0.15972954 0.14315677
-0.012317596 0.20505694 -0.106917985 0.15575445 -0.10788793 -0.19424193 -0.1657114 -0.036286436
-0.019354738 0.10917607 0.13823363 -0.17455617 -0.15314321 -0.20755622 -0.11932561 0.009184146
-0.11861863 -0.14908352 0.18859026 -0.029984094 -0.016390385 -0.04240395 0.026952147 0.077046335
00000000: 0aea e43d 2a81 c63d 42a3 99bc 356c 26bd
00000010: 273b 71bd 8a14 4bbe 2490 23be b097 123e
00000020: becf 49bc 72fa 513e d1f7 dabd 187e 1f3e
00000030: 59f4 dcbd 5be7 46be 40b0 29be 16a1 14bd
00000040: d48d 9ebc b497 df3d 1e8d 0d3e dabe 32be
00000050: 93d1 1cbe 9e89 54be fc60 f4bd 1a79 163c
00000060: 53ee f2bd 5aa9 18be ce1d 413e 34a1 f5bc
00000070: 2145 86bc c4af 2dbd c0ca dc3c 78ca 9d3d

layer.2.weight f4 [64, 32]
-0.14494766 0.112990834 0.08039138 -0.027314318 -0.07775659 -0.14815181 0.17184727 -0.16451275
0.0506953 0.17095603 -0.07499444 0.081265405 -0.12379825 0.061366916 0.00026884364 0.08965471
-0.17707574 0.06191386 0.10501635 0.07430788 0.18201151 0.12479832 0.072181545 -0.049707778
0.121411085 0.07612933 0.098185845 0.10614621 -0.16439897 0.0902196 0.044322878 0.16186087
-0.16692568 0.15602241 -0.16170469 -0.07680419 -0.10987256 -0.13323049 -0.10822217 0.070660554
-0.11130596 -0.107019685 0.13580011 0.10413447 0.074670464 -0.09514624 -0.04649256 0.11454564
-0.09336171 -0.14042221 0.06705449 -0.085980535 -0.06296219 -0.035087336 -0.12557893 0.15567903
0.084696494 0.05675525 0.15277211 -0.06658996 0.11912779 0.11664473 -0.07736195 0.04950801
0.11008188 -0.04619841 -0.12981427 0.061593994 -0.11128559 0.035106402 -0.023542866 0.10609018
0.0579419 -0.0323738 -0.15420677 -0.095837764 0.0018007867 0.16342704 0.0625852 0.17409664
-0.13339859 -0.083693944 0.01644147 0.10469323 0.11572854 -0.05788082 0.1592929 0.07294143
-0.012375638 -0.0988338 -0.104558595 0.15321912 -0.0061381543 -0.11524445 -0.014530122 0.06325823
0.12739857 -0.0281191 -0.08318152 0.023915216 -0.09998362 -0.21023995 -0.06196434 -0.16354614
0.13554786 0.062488377 0.030491691 -0.094596386 -0.1131473 0.017542014 0.16248815 0.15681858
-0.13556956 -0.0031941235 0.135923 -0.09369665 -0.16948847 -0.13149951 0.11068427 -0.013500583
0.080711864 -0.005472246 -0.021808207 -0.098528266 0.15432358 0.09757875 0.16726036 -0.1388887
0.0020427704 -0.07245753 -0.11841169 0.17146714 0.04955274 0.14427613 0.013000935 0.024920925
-0.12063416 0.07357384 0.0754693 0.07022227 -0.14847778 0.0014617592 -0.04213424 0.1283121
-0.14318852 -0.054960735 -0.013131991 -0.17673585 0.02416116 -0.014348224 0.039407447 -0.008939892
0.02746068 -0.06897833 -0.16495323 -0.15145266 -0.13614802 -0.043613076 -0.14749713 -0.095337346
-0.08216413 0.029025445 0.08962296 -0.0705688 0.09779008 -0.109496295 -0.10165432 -0.06309264
-0.0731418 -0.16278775 -0.037898708 -0.024822734 0.08217058 0.04937496 -0.09430401 -0.0030042792
0.020047545 0.021062775 0.14243186 0.11010769 0.12681672 -0.013629446 -0.00047788842 0.07441039
-0.049707245 -0.16479233 -0.16354166 -0.0329118 -0.0830381 -0.049101017 -0.15445559 -0.13136005
-0.108813554 -0.118617564 -0.0070214067 0.056223392 0.089091346 0.074854635 0.13965712 0.02614024
-0.10871295 -0.024172587 -0.19819848 0.078342415 0.18027698 0.1754001 0.040936925 -0.17671606
0.16088185 -0.08681247 -0.033311784 3.7166803e-05 -0.092745535 0.09256986 0.05959181 0.13389115
0.051270194 -0.1521989 0.10392261 0.09865986 -0.17524043 0.09436742 -0.059970666 0.058032446
0.10621727 -0.02854798 0.06671327 -0.017544141 -0.008422939 -0.11869055 -0.14841983 -0.114713885
0.09108304 0.03644868 0.050282 0.13179763 -0.07903028 0.10991202 0.09116071 0.0015490212
0.12256446 -0.07544885 0.14526556 0.05647321 -0.04662953 -0.10048793 -0.097086474 -0.13419513
-0.1787636 0.08126919 -0.1260101 0.024324154 0.0812943 -0.105484284 0.08840247 -0.030256204
00000000: 296d 14be bd67 e73d 3ca4 a43d 47c2 dfbc
00000010: d93e 9fbd 1cb5 17be bbf8 2f3e 0876 28be
00000020: e0a5 4f3d 190f 2f3e af96 99bd 7a6e a63d
00000030: f089 fdbd e05b 7b3d 95f3 8c39 e39c b73d
00000040: 5853 35be 6399 7d3d d012 d73d bb2e 983d
00000050: 3a61 3a3e 4396 ff3d ebd3 933d 629a 4bbd
00000060: 60a6 f83d b2e9 9b3d a915 c93d 2f63 d93d
00000070: 3458 28be 0ec5 b83d e88b 353d dbbe 253e
00000080: 91ee 2abe 57c4 1f3e ea95 25be 844b 9dbd
00000090: dd04 e1bd 936d 08be 96a3 ddbd 7bb6 903d
000000a0: 61f4 e3bd 232d dbbd 2f0f 0b3e 7444 d53d
000000b0: d4ec 983d 08dc c2bd fc6e 3ebd e896 ea3d
000000c0: 6d34 bfbd d7ca 0fbe dd53 893d 9016 b0bd
000000d0: 52f2 80bd bdb7 0fbd c397 00be 536a 1f3e
000000e0: 5b75 ad3d 3178 683d 4b70 1c3e 5160 88bd
000000f0: 45f9 f33d 6fe3 ee3d f16f 9ebd e9c8 4a3d
00000100: 9c72 e13d 8b3a 3dbd 08ee 04be fc49 7c3d
00000110: b3e9 e3bd bbcb 0f3d f8dc c0bc cf45 d93d
00000120: 7c54 6d3d 649a 04bd 61e8 1dbe 9746 c4bd
00000130: 6008 ec3a 6b59 273e ab2c 803d 6446 323e
00000140: a499 08be bb67 abbd 43b0 863c 6769 d63d
00000150: 1603 ed3d 7014 6dbd ae1d 233e 5162 953d
00000160: 30c3 4abc 6069 cabd d122 d6bd 79e5 1c3e
00000170: 9222 c9bb 4805 ecbd c00f 6ebc 888d 813d
00000180: c574 023e 075a e6bc 135b aabd d8e9 c33c
00000190: 36c4 ccbd 2449 57be 52ce 7dbd a478 27be
000001a0: 0fcd 0a3e d0f3 7f3d b6c9 f93c c0bb c1bd
000001b0: c6b9 e7bd 45b4 8f3c 4b63 263e 0d95 203e
000001c0: bfd2 0abe 8054 51bb 662f 0b3e 07e4 bfbd
000001d0: 638e 2dbe cfa7 06be 6fae e23d 8d31 5dbc
000001e0: 434c a53d 8750 b3bb 20a7 b2bc 30c9 c9bd
000001f0: 0007 1e3e 5ed7 c73d 4d46 2b3e d738 0ebe
00000200: 00e0 053b 9d64 94bd d481 f2bd 1595 2f3e
00000210: d0f7 4a3d 1fbd 133e e001 553c f826 cc3c
00000220: 0b0f f7bd e2ad 963d a68f 9a3d b2d0 8f3d
00000230: 8f0a 18be 8098 bf3a f494 2cbd 3f64 033e
00000240: 03a0 12be 821e 61bd 9027 57bc 3efa 34be
00000250: a0ed c53c d014 6bbc b469 213d a078 12bc
00000260: 38f5 e03c 8344 8dbd 80e9 28be 6816 1bbe
00000270: 636a 0bbe a0a3 32bd 7d09 17be 3a40 c3bd
00000280: ab45 a8bd c5c6 ed3c 3e8c b73d 6086 90bd
00000290: 2a46 c83d 983f e0bd 2430 d0bd b736 81bd
000002a0: 5ecb 95bd d5b1 26be ad3b 1bbd 0c59 cbbc
000002b0: 0d49 a83d 663d 4a3d 7622 c1bd 71e3 44bb
000002c0: c03a a43c d78b ac3c a8d9 113e 2480 e13d
000002d0: 3edc 013e 0a4e 5fbc 198d fab9 7964 983d
000002e0: d399 4bbd 52bf 28be 7777 27be 86ce 06bd
000002f0: e10f aabd 261e 49bd 9b29 1ebe 4083 06be
00000300: a4d9 debd c4ed f2bd d413 e6bb 804a 663d
00000310: 8675 b63d 634d 993d 4702 0f3e 0e24 d63c
00000320: e5a4 debd 9705 c6bc 8bf4 4abe fd71 a03d
00000330: 879a 383e 159c 333e 7aad 273d 0ef5 34be
00000340: 36be 243e bcca b1bd f071 08bd 8de3 1b38
00000350: 5ff1 bdbd 4495 bd3d 8b16 743d c31a 093e
00000360: b200 523d 07da 1bbe 61d5 d43d 2e0e ca3d
00000370: 3a72 33be b543 c13d cda3 75bd 6eb3 6d3d
00000380: 7188 d93d 74dd e9bc f8a0 883d bbb8 8fbc
00000390: 5e00 0abc 0814 f3bd 5efb 17be 1def eabd
000003a0: bf89 ba3d 364b 153d 80f4 4d3d f5f5 063e
000003b0: a1da a1bd 8e19 e13d 77b2 ba3d 8708 cb3a
000003c0: 1303 fb3d ed84 9abd 7fc0 143e 7450 673d
000003d0: 9bfe 3ebd 9ecc cdbd 46d5 c6bd 736a 09be
000003e0: ce0d 37be 7670 a63d cb08 01be 7343 c73c
000003f0: a07d a63d 2508 d8bd 5b0c b53d dcdb f7bc

layer.2.bias f4 [64]
-0.034766383 0.06941781 0.15921965 -0.12219226 -0.1262021 0.09061036 0.013297671 -0.038725454
0.016663589 0.013452977 -0.033355165 0.12296964 0.044830315 0.096914455 0.16040301 -0.03549086
-0.13733758 -0.064202465 -0.031077335 0.034407716 0.15715127 -0.10129617 -0.12820277 0.13965032
0.12761076 -0.070006296 0.04149867 -0.12401366 0.18199062 0.13016135 -0.003639698 -0.03220519
-0.07507151 0.03623793 -0.0029261757 0.08296169 -0.08152625 0.1633322 -0.069954574 -0.061342467
-0.020349598 -0.031501085 -0.08854209 0.013047293 -0.038667355 0.10518892 -0.038228624 -0.14712283
-0.15618406 0.1031796 0.10010811 0.0610618 -0.03997529 -0.08101494 -0.035447236 -0.050012924
-0.050169796 -0.086333014 -0.0560622 -0.05461268 0.004573538 -0.0029464364 0.05022328 0.0032247023
00000000: 3267 0ebd ed2a 8e3d 7a0a 233e f03f fabd
00000010: 203b 01be ed91 b93d 7ade 593c 959e 1ebd
00000020: 1482 883c e069 5c3c 6d9f 08bd 82d7 fb3d
00000030: fe9f 373d 167b c63d b040 243e dd5e 11bd
00000040: 39a2 0cbe 957c 83bd e595 febc 1bef 0c3d
00000050: 43ec 203e 5e74 cfbd 9647 03be 7e00 0f3e
00000060: 65ac 023e 765f 8fbd 82fa 293d e0fa fdbd
00000070: c05b 3a3e 0449 053e 0088 6ebb 97e9 03bd
00000080: 18bf 99bd 396e 143d 15c5 3fbb d2e7 a93d
00000090: 3cf7 a6bd 8e40 273e 5844 8fbd 3d42 7bbd
000000a0: 33b4 a6bc 4807 01bd 8e55 b5bd 50c4 553c
000000b0: a961 1ebd 4a6d d73d 9e95 1cbd 5ea7 16be
000000c0: b7ee 1fbe d34f d33d 7b05 cd3d f01b 7a3d
000000d0: 21bd 23bd 29eb a5bd 1f31 11bd 5ada 4cbd
000000e0: d87e 4dbd 5dcf b0bd 7aa1 65bd 8cb1 5fbd
000000f0: 9edd 953b 0019 41bb edb6 4d3d 8755 533b

layer.4.weight f4 [128, 64]
0.041603535 -0.039103895 0.05156912 -0.02826795 0.10975984 -0.076370835 0.004295096 0.1050867
-0.035734624 -0.010256246 0.109788954 0.058469713 -0.11295436 -0.10860582 0.11591995 -0.029086024
-0.061736748 0.052933633 -0.06867786 0.00088460743 -0.099398986 -0.111563236 0.07432309 0.010846585
-0.112412885 0.031902373 -0.0082561225 -0.08232388 -0.01930435 -0.100233346 -0.04889357 -0.124492824
-0.10396366 -0.12067844 0.0073697716 0.024766967 -0.011235788 -0.110161066 0.10564117 -0.025586724
-0.07647011 0.035849944 0.02487281 0.121481 -0.07997283 0.10138059 0.092953265 -0.010521859
0.004810393 0.07495563 -0.10772833 -0.08105661 0.04913065 0.024599478 0.088793546 0.038401604
-0.064736545 0.06552006 -0.0083002895 0.083647355 -0.00899826 0.10829079 0.029188752 -0.063598484
-0.080135316 -0.030074412 0.06489837 0.03741044 -0.11000377 0.048548665 0.11664571 -0.069366224
-0.10153585 0.040962636 -0.15769538 -0.08288039 -0.0565297 -0.03839617 0.14848484 0.035578102
0.13949412 0.1198414 -0.11907329 0.089954406 0.08261337 -0.1180311 0.09847735 0.06436053
0.0790365 -0.074721485 -0.08412395 0.007685736 0.11225182 0.104529336 -0.0030409247 0.02557672
-0.06839675 0.009447102 0.08346126 0.005140826 0.07170319 0.07435324 0.01779905 0.0021613543
0.0376143 0.05835481 0.06360166 -0.0041947365 -0.10236278 0.016494442 0.10644423 -0.036446884
-0.018244507 0.02356325 -0.117037386 0.0118813515 -0.020220255 0.058183983 0.026218012 -0.01086253
0.052372355 -0.07056506 0.043291554 -0.098592944 -0.03135623 0.083417915 -0.015336619 0.11830595
0.042111002 0.0640828 -0.0090359505 -0.038231622 0.07531357 -0.07113651 0.095549926 0.05553871
0.0012018014 0.06893557 0.02385294 0.09633109 -0.090740785 -0.054707207 0.03888163 -0.012509404
-0.028869957 -0.10588762 0.04064889 0.045389317 0.121961966 0.10639882 0.060515594 0.08646848
0.009167811 0.0211521 0.046895254 -0.07945521 0.11828417 -0.10116707 -0.11656745 -0.09309044
-0.031002663 0.053714477 -0.0064615677 -0.04915907 0.04650849 0.07448794 -0.09632098 0.036761034
-0.019289749 -0.025640965 0.09137864 -0.120330095 -0.049432885 0.08809292 -0.07273456 -0.048922613
0.042156443 0.0019757464 -0.024906488 0.08262035 -0.076187976 0.03462891 -0.12766568 0.014229429
0.05155303 0.062298447 -0.04621924 -0.036608763 -0.02596536 0.031737722 0.07342513 0.0819291
0.006540338 -0.11356914 -0.111696586 -0.06925457 0.08198409 -0.0090090055 -0.10654977 0.06801052
0.048128363 -0.09839572 -0.043928884 0.06332052 0.04389459 0.025780668 -0.03416396 -0.020775
-0.1468449 -0.12490985 0.024939513 0.08940796 0.11020134 -0.01969514 -0.1612895 0.0044985884
0.035736065 0.13118349 0.03597682 -0.01777702 -0.07871755 0.12257742 -0.023487657 0.025177712
0.06956079 -0.015754148 0.10491691 -0.106615126 -0.11836872 -0.07996239 -0.10031866 -0.0147932125
-0.030205144 0.05133663 -0.06367478 0.033495203 -0.042392604 -0.110866316 -0.019648902 -0.027845994
0.081684686 0.04243659 0.12109664 -0.03608074 -0.12312907 -0.09599661 -0.018501699 0.077117376
0.024387684 0.048166435 0.090060785 0.08191828 -0.06853487 -0.103733666 -0.0764924 0.075605914
00000000: 7868 2a3d 682b 20bd 243a 533d 3092 e7bc
00000010: c4c9 e03d 5068 9cbd e0bd 8c3b b237 d73d
00000020: 785e 12bd d009 28bc 08d9 e03d f07d 6f3d
00000030: 9e54 e7bd ba6c debd 7067 ed3d d045 eebc
00000040: acdf 7cbd f0d0 583d faa6 8cbd 00e5 673a
00000050: b291 cbbd 447b e4bd b436 983d e0b5 313c
00000060: ba38 e6bd 10ac 023d b044 07bc 6c99 a8bd
00000070: 2824 9ebc 2447 cdbd a044 48bd 18f6 febd
00000080: e6ea d4bd 4226 f7bd 207e f13b 18e4 ca3c
00000090: 5016 38bc 209c e1bd 665a d83d 409b d1bc
000000a0: 5c9c 9cbd 64d7 123d 10c2 cb3c 08cb f83d
000000b0: ccc8 a3bd a0a0 cf3d 485e be3d e063 2cbc
000000c0: 80a0 9d3b 5682 993d aca0 dcbd 0201 a6bd
000000d0: 383d 493d d884 c93c 64d9 b53d 004b 1d3d
000000e0: 9894 84bd 622f 863d f0fd 07bc 4e4f ab3d
000000f0: 706d 13bc 90c7 dd3d 401d ef3c ec3f 82bd
00000100: fc1d a4bd 9d5e f6bc 70e9 843d b13b 193d
00000110: a849 e1bd f7da 463d f2e3 ee3d e10f 8ebd
00000120: 07f2 cfbd 70c8 273d e67a 21be 32bd a9bd
00000130: b08b 67bd 4d45 1dbd 690c 183e 58ba 113d
00000140: 8cd7 0e3e 686f f53d b2dc f3bd 043a b83d
00000150: 3331 a93d 4aba f1bd 7eae c93d 74cf 833d
00000160: e3dd a13d 9407 99bd 2d49 acbd a0d8 fb3b
00000170: 48e4 e53d 7a13 d63d 404a 47bb 4586 d13c
00000180: 9813 8cbd 05c8 1a3c bded aa3d 6074 a83b
00000190: 1fd9 923d 8346 983d 50cf 913c 82a5 0d3b
000001a0: 7411 1a3d 7405 6f3d 9641 823d 0074 89bb
000001b0: 94a3 d1bd 5a1f 873c 6fff d93d 5449 15bd
000001c0: 8175 95bc b807 c13c 4cb1 efbd 00aa 423c
000001d0: f3a4 a5bc 5452 6e3d 28c7 d63c c1f8 31bc
000001e0: 6584 563d 6a84 90bd 7c52 313d 19eb c9bd
000001f0: 646f 00bd 03d7 aa3d 7146 7bbc 644a f23d
00000200: 967c 2c3d d83d 833d 860b 14bc c398 1cbd
00000210: 003e 9a3d 05b0 91bd aeaf c33d 8f7c 633d
00000220: c385 9d3a 182e 8d3d 3e67 c33c 3c49 c53d
00000230: 4ed6 b9bd aa14 60bd 5842 1f3d 3ef4 4cbc
00000240: b080 ecbc 9cdb d8bd 737f 263d 26ea 393d
00000250: 32c7 f93d a0e7 d93d 33df 773d 6316 b13d
00000260: 9634 163c 2b47 ad3c 3d15 403d 6ab9 a2bd
00000270: f93e f23d ae30 cfbd eaba eebd 33a6 bebd
00000280: 4cf9 fdbc b603 5c3d 8fbb d3bb 055b 49bd
00000290: b07f 3e3d 228d 983d ef43 c5bd bd92 163d
000002a0: 8905 9ebc 000d d2bc b924 bb3d a06f f6bd
000002b0: 237a 4abd 106a b43d dbf5 94bd 1463 48bd
000002c0: 3cac 2c3d 867b 013b b108 ccbc dc34 a93d
000002d0: 7108 9cbd 0bd7 0d3d cbba 02be 8d22 693c
000002e0: 4529 533d a82c 7f3d 6350 3dbd 12f3 15bd
000002f0: 4fb5 d4bc 6aff 013d ea5f 963d 72ca a73d
00000300: 5550 d63b f096 e8bd 2ec1 e4bd 57d5 8dbd
00000310: 46e7 a73d 829a 13bc c436 dabd 1949 8b3d
00000320: 3f22 453d b283 c9bd c6ee 33bd 30ae 813d
00000330: d0ca 333d fb31 d33c 82ef 0bbd 5530 aabc
00000340: 825e 16be bcd0 ffbd f34d cc3c 851b b73d
00000350: 3db1 e13d b457 a1bc 1329 25be e568 933b
00000360: fb5f 123d f754 063e 6e5c 133d 1da1 91bc
00000370: ab36 a1bd df09 fb3d 3069 c0bc 7d41 ce3c
00000380: e375 8e3d d80e 81bc adde d63d 0859 dabd
00000390: 4d6b f2bd 52c3 a3bd df73 cdbd 3b5f 72bc
000003a0: c770 f7bc 5c46 523d ec67 82bd 4432 093d
000003b0: dea3 2dbd e10d e3bd bcf6 a0bc 481d e4bc
000003c0: 4d4a a73d fdd1 2d3d 8401 f83d 66c9 13bd
000003d0: 182b fcbd df99 c4bd e090 97bc b7ef 9d3d
000003e0: aec8 c73c 2b4a 453d ca71 b83d c5c4 a73d
000003f0: 035c 8cbd 5172 d4bd 0ca8 9cbd 46d7 9a3d

layer.4.bias f4 [128]
0.07167712 -0.0040183095 0.110221185 -0.042732988 0.04388128 0.0054221945 -0.09892708 0.0976551
-0.031667363 0.027762521 0.06571838 -0.042403754 0.0019547422 -0.0435399 0.02939996 -0.10976672
0.09580022 -0.05552624 -0.06765604 0.066312395 -0.09179418 -0.01206334 -0.049965974 -0.09236026
-0.076383084 0.047396608 -0.08909113 0.0014803762 -0.06235599 -0.121038236 -0.07462936 -0.0849282
-0.070848934 0.03068054 0.07155988 0.097088054 0.11731772 -0.054040413 -0.018704912 0.019803
0.091227174 0.057811003 0.058558423 0.028199978 -0.07861286 0.06959707 -0.02683281 -0.120369256
-0.032337718 -0.0981401 -0.089784466 0.0526829 -0.009975913 -0.0874727 0.115527876 -0.08869469
0.123154126 -0.034236137 -0.016384022 -0.09481062 0.12856896 0.03464143 -0.10115581 0.062055834
-0.08053996 0.09879589 -0.09248581 -0.021465398 0.10954015 -0.086343236 0.052820664 -0.031502724
-0.093630664 0.10813131 0.08128044 0.10588643 0.08302198 0.099537775 -0.020371348 0.021289894
-0.027398968 0.044007555 0.053380027 0.089335576 -0.05008083 -0.1140531 -0.043249108 -0.066536576
-0.025330024 0.022384824 0.02659043 -0.0053932834 -0.115021944 0.047161456 -0.010737127 0.13535655
-0.034872375 0.02053111 -0.1378245 -0.08116271 -0.08212778 0.10091844 -0.09039546 -0.03145109
0.008813972 0.040980574 -0.056804284 0.060040675 0.028912786 -0.09015787 -0.095796704 -0.055920277
-0.012787021 -0.093434274 0.12035054 0.01635654 0.11029908 -0.0443515 0.11666481 -0.11562894
0.03244019 -0.11614567 0.056046847 -0.0016940905 -0.11339211 0.011793307 -0.10602627 0.095892206
00000000: 74cb 923d 06ac 83bb a5bb e13d c908 2fbd
00000010: dbbc 333d aaac b13b 489a cabd 66ff c73d
00000020: a3b5 01bd 3a6e e33c 5c97 863d 8faf 2dbd
00000030: 221b 003b e556 32bd 2fd8 f03c 60cd e0bd
00000040: e832 c43d 7c6f 63bd 408f 8abd cbce 873d
00000050: 96fe bbbd 51a5 45bc 1fa9 4cbd 6027 bdbd
00000060: bc6e 9cbd f222 423d 6975 b6bd 2f09 c23a
00000070: ff68 7fbd e5e2 f7bd 47d7 98bd d6ee adbd
00000080: 3f19 91bd c155 fb3c fd8d 923d 1ad6 c63d
00000090: 4644 f03d 7b59 5dbd 0b3b 99bc e739 a23c
000000a0: 50d5 ba3d 3bcb 6c3d f5da 6f3d a403 e73c
000000b0: c7ff a0bd e988 8e3d 7bd0 dbbc 2884 f6bd
000000c0: 8e74 04bd adfd c8bd ebe0 b7bd 06ca 573d
000000d0: 0372 23bc e324 b3bd e199 ec3d 90a5 b5bd
000000e0: 3b38 fc3d 313b 0cbd c937 86bc 122c c2bd
000000f0: 95a7 033e 2ce4 0d3d c72a cfbd 422e 7e3d
00000100: 22f2 a4bd 8055 ca3d 3369 bdbd 34d8 afbc
00000110: 9656 e03d b9d4 b0bd 7b5a 583d 0009 01bd
00000120: 6fc1 bfbd f373 dd3d 5c76 a63d fcda d83d
00000130: 6e07 aa3d 76da cb3d d0e1 a6bc 2568 ae3c
00000140: cd73 e0bc 4441 343d 04a5 5a3d 92f5 b63d
00000150: 8e21 4dbd ac94 e9bd fa25 31bd 5444 88bd
00000160: e980 cfbc 6160 b73c 2cd4 d93c 24ba b0bb
00000170: a090 ebbd 5f2c 413d c6ea 2fbc e89a 0a3e
00000180: 56d6 0ebd dc30 a83c de21 0dbe a338 a6bd
00000190: 9c32 a8bd 54ae ce3d 4121 b9bd dcd2 00bd
000001a0: 7a68 103c 3fdb 273d 9cab 68bd 36ed 753d
000001b0: 82da ec3c b0a4 b8bd 1031 c4bd a90c 65bd
000001c0: a780 51bc 785a bfbd 587a f63d 27fe 853c
000001d0: 7ce4 e13d eba9 35bd f6ed ee3d dece ecbd
000001e0: 01e0 043d c8dd edbd 6191 653d 3f0c deba
000001f0: 1f3a e8bd b738 413c 4d24 d9bd 2263 c43d

layer.6.weight f4 [11, 128]
0.061409526 0.04232593 0.042854033 -0.107552886 0.10010016 -0.0304962 0.02346225 0.033913694
0.063032314 0.07981725 0.09008894 0.029523062 0.07755785 -0.11980886 0.038357634 -0.02268503
0.07095095 -0.082920685 0.03473582 0.031571563 -0.0450002 -0.03995312 -0.054340407 0.031734806
0.00873936 0.04602812 -0.071154796 -0.12277391 -0.055856984 -0.029886223 0.0762745 -0.044216365
0.018203449 -0.013877854 -0.032291766 0.046234198 -0.021728627 -0.018667681 0.073816694 -0.08340752
-0.005287773 0.103159435 -0.042237513 -0.071579196 -0.04318546 -0.07984464 0.07747029 0.08036893
-0.044133864 0.012787055 0.0026494537 0.0068748323 0.06976902 -0.015712991 0.033731956 0.024664612
0.061108712 0.07652017 0.041297775 -0.064319305 0.025156347 0.010395773 0.034077972 0.118972085
-0.10716232 0.013031602 -0.083248705 -0.11256803 0.027458372 -0.031135218 -0.090246424 -0.0583126
-0.056430608 0.03512988 0.0083514955 0.065883726 -0.06063435 -0.006701432 -0.0060454365 0.074091904
0.05795798 -0.07212879 0.030322269 0.028018199 -0.08011868 -0.08368933 -0.15463516 0.027906008
-0.009651905 -0.0042508594 0.111201055 -0.07276586 -0.03674651 -0.06598467 0.030249732 0.042661287
0.01938355 0.06672943 -0.08376266 0.03835103 0.00016451124 0.0059091942 -0.05021491 -0.05780183
-0.08171725 0.084642254 0.013277968 -0.019701112 0.016014848 8.986153e-06 0.061409228 0.019896058
-0.04661464 -0.06363241 -0.015109235 0.07691514 0.043613814 0.05224789 0.04659891 -0.046269
0.06166605 0.02191247 -0.06669068 0.018327715 0.030056495 -0.03736654 -0.06954871 0.068194136
0.023254722 -0.005132981 0.06753042 0.044462476 0.0012462564 0.054089025 -0.055953775 0.051429905
0.060583007 -0.085132696 0.01958953 0.020698054 0.083821006 0.082901336 -0.013923637 -0.045961652
-0.0035459308 -0.022091169 -0.027681746 -0.005685508 0.06487606 0.064233 0.033529263 -0.025526626
0.040451728 -0.045640226 -0.04035662 -0.023602866 0.030744264 0.085197926 0.036908682 0.04017398
-0.013412781 0.049715385 -0.04016257 0.034292832 -0.03764807 0.01537025 -0.04026369 -0.0017465038
-0.032317135 -0.011531975 -0.03745275 -0.013444382 -0.016726 0.03638062 -0.06921782 0.071777225
-0.04701795 -0.076432444 -0.04287321 0.0051049227 0.025714988 -0.08156262 0.025038036 -0.0044637276
-0.042313185 -0.10107423 -0.023949344 -0.05732533 0.04431195 -0.047691677 0.059121966 0.024127519
0.02810109 -0.05998919 -0.020434722 0.0075408 -0.009435137 -6.707176e-05 0.03783325 -0.028637113
-0.006566111 0.033652056 0.03228313 0.006992432 -0.029995335 -0.07390927 -0.0063117715 0.0568051
0.0784035 0.077519715 -0.060954444 -0.060938008 -0.08083738 -0.07637849 -0.010087561 -0.05382004
-0.028733507 -0.07287266 -0.07124823 0.037182998 -0.08612423 0.020745307 -0.03448628 -0.03687069
-0.0008172087 -0.0067837485 -0.06384298 -0.03708671 0.024364589 0.02297342 -0.018998625 -0.025070809
0.07117109 -0.027677413 0.07179826 0.07371849 -0.089767 -0.04565697 0.0021672098 0.051249906
-0.0006539037 0.035623744 0.014596024 -0.05900165 0.04309508 0.071728215 -0.034307938 0.04737013
0.073967725 -0.060189143 -0.07057786 0.12116013 0.08578897 0.034127343 -0.10451218 0.03514621
00000000: 8e88 7b3d f45d 2d3d b687 2f3d b044 dcbd
00000010: 5001 cd3d 2bd3 f9bc e833 c03c 16e9 0a3d
00000020: 1617 813d 3a77 a33d 8d80 b83d 59da f13c
00000030: a6d6 9e3d 595e f5bd e51c 1d3d f5d5 b9bc
00000040: bb4e 913d 52d2 a9bd 2647 0e3d 2f51 013d
00000050: 2152 38bd e2a5 23bd 0c94 5ebd 5bfc 013d
00000060: 882f 0f3c fb87 3c3d 9bb9 91bd e370 fbbd
00000070: 4bca 64bd f4d3 f4bc ce35 9c3d 381c 35bd
00000080: 661f 953c f05f 63bc 5f44 04bd 1260 3d3d
00000090: 3c00 b2bc f7ec 98bc 352d 973d 90d1 aabd
000000a0: 0e45 adbb 4145 d33d 3e01 2dbd 1d98 92bd
000000b0: 3de3 30bd 9685 a3bd bea8 9e3d 7798 a43d
000000c0: b6c5 34bd cc80 513c 75a2 2d3b 4646 e13b
000000d0: 0fe3 8e3d 88b8 80bc 852a 0a3d 710d ca3c
000000e0: 214d 7a3d 9bb6 9c3d db27 293d d7b9 83bd
000000f0: af14 ce3c 0853 2a3c 5895 0b3d a3a7 f33d
00000100: eb77 dbbd 8082 553c 4c7e aabd 118a e6bd
00000110: 61f0 e03c 490f ffbc 1ed3 b8bd 31d9 6ebd
00000120: c823 67bd 59e4 0f3d b6d4 083c 0cee 863d
00000130: b95b 78bd b097 dbbb cc18 c6bb 7fbd 973d
00000140: 5965 6d3d 42b8 93bd 6866 f83c 6c86 e53c
00000150: 4315 a4bd 5065 abbd ae58 1ebe 249b e43c
00000160: 0623 1ebc cb4a 8bbb 61bd e33d 4406 95bd
00000170: 8283 16bd f822 87bd 49ce f73c 9abd 2e3d
00000180: 40ca 9e3c 70a9 883d c28b abbd f815 1d3d
00000190: a680 2c39 eaa1 c13b 26ae 4dbd 9dc1 6cbd
000001a0: 605b a7bd eb58 ad3d d68b 593c 3a64 a1bc
000001b0: 9231 833c 3cc3 1637 3e88 7b3d 0ffd a23c
000001c0: feee 3ebd b551 82bd ba8c 77bc af85 9d3d
000001d0: 66a4 323d e201 563d 80de 3e3d 9084 3dbd
000001e0: 8a95 7c3d c881 b33c 2095 88bd 0124 963c
000001f0: 0a39 f63c a80d 19bd 8e6f 8ebd 5ea9 8b3d
00000200: b080 be3c 9132 a8bb 644d 8a3d 491e 363d
00000210: 6d59 a33a 748c 5d3d c92f 65bd 2aa8 523d
00000220: e325 783d 0d5a aebd 397a a03c f78e a93c
00000230: 59aa ab3d 2dc8 a93d f71f 64bc 4942 3cbd
00000240: d962 68bb 8af8 b4bc d4c4 e2bc 7f4d babb
00000250: bddd 843d 978c 833d fb55 093d 371d d1bc
00000260: b6b0 253d 3ff1 3abd fc4c 25bd cc5a c1bc
00000270: 65db fb3c 407c ae3d 8f2d 173d 798d 243d
00000280: 48c1 5bbc 5ca2 4b3d 8281 24bd a476 0c3d
00000290: dd34 1abd 80d3 7b3c 8aeb 24bd f1ea e4ba
000002a0: f95e 04bd 9cf0 3cbc 0e68 19bd d345 5cbc
000002b0: f704 89bc d803 153d 13c2 8dbd f0ff 923d
000002c0: e595 40bd 9d88 9cbd d29b 2fbd 3247 a73b
000002d0: 3da8 d23c 4e0a a7bd 911c cd3c 7644 92bb
000002e0: 9750 2dbd 0200 cfbd 6a31 c4bc f7cd 6abd
000002f0: 7380 353d 5958 43bd e029 723d 13a7 c53c
00000300: 4234 e63c 3ab7 75bd b866 a7bc d118 f73b
00000310: d595 1abc e1a8 8cb8 0af7 1a3d 6198 eabc
00000320: 8828 d7bb bdd6 093d 513b 043d c520 e53b
00000330: c7b8 f5bc be5d 97bd fad2 cebb 77ac 683d
00000340: 0492 a03d a8c2 9e3d 5eab 79bd 229a 79bd
00000350: 118e a5bd 536c 9cbd 4c46 25bc 6772 5cbd
00000360: 8862 ebbc 433e 95bd 98ea 91bd 334d 183d
00000370: e661 b0bd 10f2 a93c 7c41 0dbd b805 17bd
00000380: f339 56ba 354a debb 1cc0 82bd 3ce8 17bd
00000390: 3f98 c73c c132 bc3c 01a3 9bbc 4c61 cdbc
000003a0: 26c2 913d bebb e2bc f70a 933d b8f9 963d
000003b0: c3d7 b7bd ce02 3bbd bf07 0e3b 6ceb 513d
000003c0: bc6a 2bba 34ea 113d 2924 6f3c b7ab 71bd
000003d0: 7784 303d 3ee6 923d 7b86 0cbd 2e07 423d
000003e0: 647c 973d e488 76bd 208b 90bd cd22 f83d
000003f0: 21b2 af3d 1dc9 0b3d 7b0a d6bd 79f5 0f3d

layer.6.bias f4 [11]
-0.0080878865 0.08098424 0.012206229 -0.022539085 -0.09045897 -0.0502487 0.022509955 -0.02980623
0.15023641 0.019853072 0.030429956
00000000: 0e83 04bc 11db a53d a3fc 473c e3a3 b8bc
00000010: 8d42 b9bd 95d1 4dbd cc66 b83c 322c f4bc
00000020: 93d7 193e e9a2 a23c 3e48 f93c
