weight/save_540.pth (torch_old, 72900 bytes, 8 tensors)

layer.0.weight f4 [32, 139]
0.080220856 0.09762675 -0.09155801 -0.08035723 -0.05539084 -0.029471267 -0.06644063 0.020511668
0.105104715 0.004884466 0.13878196 0.029099315 0.0020547304 0.055354267 -0.09579672 -0.01396423
-0.046439614 0.0061596944 0.015964698 0.013222299 -0.09841139 0.050656103 -0.039827492 0.0017915325
-0.039148558 0.040518705 0.07055139 0.04891955 -0.041102685 -0.04550702 0.041906364 -0.042365067
0.030997666 -0.039330464 -0.07344257 -0.020616505 -0.005109369 0.00017178009 0.01743185 -0.05896519
0.042025864 0.056016795 0.049234558 -0.022101039 0.029180042 0.022266636 0.019831497 0.012247437
0.05305917 -0.06292799 -0.029094264 0.018426938 0.022296209 0.071484216 -0.040573828 0.08605209
-0.021866687 -0.050163884 0.023317575 -0.049463984 0.009792458 -0.03557542 -0.0033028647 0.07091178
-0.054950915 0.030920735 -0.042377535 -0.020048074 -0.053247627 -0.020655265 -0.067154974 -0.060260996
-0.012254486 0.0008318677 -0.023381196 0.012543966 -0.010171136 -0.031709753 -0.075371765 -0.066152826
-0.07501271 -0.015876036 0.048357375 0.035916977 -0.070883594 -0.08190155 -0.02562366 -0.04964879
-0.0626711 0.052726574 0.009323642 -0.048141252 -0.0015277427 -0.025067523 0.017597198 -0.058650944
-0.042445436 0.003222712 0.049293198 -0.04301534 -0.045075707 -0.045914456 -0.07432812 0.008385509
0.0035308748 0.00051436544 0.016614646 -0.08406666 0.011155125 0.056674205 -0.07713206 0.050913695
-0.007056393 -0.07245825 0.035661586 -0.011563432 0.0040719938 0.023364829 -0.0395218 0.06134365
0.021387104 -0.00023235429 0.027720837 -0.050897073 -0.07754144 0.05943822 -0.034912486 -0.05187249
-0.02793968 -0.043155853 -0.014689667 -0.06721175 -0.07975924 -0.067920536 -0.06555156 -0.08016942
0.036499258 0.0035323694 -0.0034211043 0.04839898 -1.293265 0.78007144 0.060156174 0.6593848
0.04555718 -0.07061819 -0.06526016 -0.6655228 -0.5722512 -0.65028435 -0.016428515 0.06197185
-0.008932382 -0.17285582 0.004919616 -0.05045721 -0.02101894 0.046976488 0.002295439 0.10491682
0.048865855 0.054304272 -0.02940811 0.036727443 -0.022088205 0.028005397 -0.08095073 -0.0109635545
-0.0025386903 0.06467997 -0.019721696 -0.023500107 -0.023640493 -0.063536555 -0.022452284 -0.018664034
-0.06161606 -0.025029946 -0.06412276 -0.017518993 0.0602937 -0.065966256 0.01826057 0.01595057
0.010494429 0.0036511067 -0.04903571 0.0006653267 0.03113233 -2.9278994e-05 0.09142375 0.035238672
-0.048181195 -0.008989152 -0.00793466 -0.008620022 -0.006670411 0.00023216843 -0.06649483 0.0042557362
-0.03735433 0.045284435 -0.08884214 -0.0031835693 0.035746794 -0.017481491 -0.09597276 -0.09705866
-0.033198018 -0.05017957 0.008568245 0.048499133 0.0035550443 -0.08072902 0.00011834225 0.046136968
-0.033922948 0.0725665 -0.07268837 0.016747767 -0.029821211 -0.0590814 0.09792875 -0.082562774
-0.054411724 -0.047476146 0.0010958774 -0.12516405 0.047161967 0.070513 -0.020565847 0.01915807
0.030662548 0.01056919 0.012558759 0.023603428 -0.01874273 0.052388586 -0.05847381 -0.041149456
0.0062076286 0.013056595 -0.059712246 -0.05451174 -0.024600457 -0.011404678 -0.10113629 0.014856344
0.007317642 -0.002270354 -0.06381368 0.0041902075 0.013930246 -0.04592651 0.040960476 0.0008317002
00000000: d54a a43d 89f0 c73d c482 bbbd 5592 a4bd
00000010: 81e1 62bd ba6d f1bc 0612 88bd 1608 a83c
00000020: 2441 d73d df0d a03b dc1c 0e3e b061 ee3c
00000030: a8a8 063b 28bb 623d 1231 c4bd 3aca 64bc
00000040: 7737 3ebd 43d7 c93b 66c8 823c 57a2 583c
00000050: e98b c9bd c67c 4f3d 2722 23bd dbd1 ea3a
00000060: 3d5a 20bd f1f6 253d 3f7d 903d de5f 483d
00000070: 4a5b 28bd 9265 3abd 02a6 2b3d fe86 2dbd
00000080: d1ee fd3c fb18 21bd 0f69 96bd f2e3 a8bc
00000090: 7e6c a7bb de1f 3439 3dcd 8e3c 7c85 71bd
000000a0: 5023 2c3d de71 653d 2daa 493d 3d0d b5bc
000000b0: fc0a ef3c 8568 b63c aa75 a23c 79a9 483c
000000c0: 9254 593d 64e0 80bd 1857 eebc 17f4 963c
000000d0: 8aa6 b63c 5166 923d be30 26bd 143c b03d
000000e0: c421 b3bc a578 4dbd 8004 bf3c bf9a 4abd
000000f0: 8c70 203c 88b7 11bd e074 58bb 323a 913d
00000100: 3614 61bd 7b4d fd3c 1194 2dbd dc3b a4bc
00000110: 2f1a 5abd 3b35 a9bc 8c88 89bd 3cd4 76bd
00000120: 0ac7 48bc b211 5a3a ec89 bfbc 3585 4d3c
00000130: d6a4 26bc 16e2 01bd 835c 9abd 227b 87bd
00000140: 44a0 99bd 760e 82bc 6212 463d ae1d 133d
00000150: 6b2b 91bd 00bc a7bd b6e8 d1bc 885c 4bbd
00000160: b559 80bd d2f7 573d 30c2 183c c32f 45bd
00000170: 8a3e c8ba 685a cdbc 0028 903c f93b 70bd
00000180: 44db 2dbd 2334 533b aae7 493d da30 30bd
00000190: 4ea1 38bd cc10 3cbd 5739 98bd 6063 093c
000001a0: 4066 673b 7bd6 063a 701b 883c 242b acbd
000001b0: fcc3 363c 3623 683d 6af7 9dbd e18a 503d
000001c0: 5139 e7bb fe64 94bd e211 123d 8d74 3dbc
000001d0: 5c6e 853b 9967 bf3c 9ce1 21bd 7b43 7b3d
000001e0: 0234 af3c 21a4 73b9 cf16 e33c 7379 50bd
000001f0: 0cce 9ebd 7e75 733d 6500 0fbd 4078 54bd
00000200: c1e1 e4bc 31c4 30bd eeac 70bc 50a6 89bd
00000210: d058 a3bd ec19 8bbd e53f 86bd dd2f a4bd
00000220: 3f80 153d 537f 673b 9b34 60bb 023e 463d
00000230: b589 a5bf c3b2 473f 5266 763d 71cd 283f
00000240: 2a9a 3a3d 45a0 90bd 1ea7 85bd b45f 2abf
00000250: 0e7f 12bf 0979 26bf 1895 86bc 32d6 7d3d
00000260: 2059 12bc 1e01 31be bb34 a13b 38ac 4ebd
00000270: e92f acbc 6b6a 403d 136f 163b a1de d63d
00000280: 9027 483d 286e 5e3d 47e9 f0bc 846f 163d
00000290: 53f2 b4bc 936b e53c 7fc9 a5bd 7ba0 33bc
000002a0: 2860 26bb ef76 843d 658f a1bc 4c83 c0bc
000002b0: b5a9 c1bc 741f 82bd daed b7bc 51e5 98bc
000002c0: 1f61 7cbd 9a0b cdbc cb52 83bd fe83 8fbc
000002d0: 87f6 763d 5119 87bd 3197 953c c5aa 823c
000002e0: d3f0 2b3c 6847 6f3b abd9 48bd 5269 2e3a
000002f0: 3a09 ff3c 299c f5b7 603c bb3d 6d56 103d
00000300: a559 45bd 3c47 13bc 6000 02bc fe3a 0dbc
00000310: 7793 dabb 3d72 7339 712e 88bd b473 8b3b
00000320: db00 19bd 2c7c 393d def2 b5bd 6ea3 50bb
00000330: 3b6b 123d 5835 8fbc 5e8d c4bd b1c6 c6bd
00000340: a5fa 07bd 1889 4dbd d361 0c3c 07a7 463d
00000350: bffb 683b 4255 a5bd 832e f838 1efa 3c3d
00000360: caf2 0abd bf9d 943d a4dd 94bd 9d32 893c
00000370: 9d4b f4bc 57ff 71bd de8e c83d ac16 a9bd
00000380: d4de 5ebd 5976 42bd 8ba3 8f3a 012b 00be
00000390: e82c 413d 1f69 903d b579 a8bc 63f1 9c3c
000003a0: 0630 fb3c 652a 2d3c 41c3 4d3c fa5b c13c
000003b0: 5b8a 99bc 6a95 563d 3c82 6fbd 558c 28bd
000003c0: 5d69 cb3b 54eb 553c d494 74bd b447 5fbd
000003d0: e686 c9bc b0da 3abc 8b20 cfbd 0668 733c
000003e0: d5c8 ef3b 38ca 14bb bfb0 82bd 024e 893b
000003f0: b03b 643c 701d 3cbd 2cc6 273d 7506 5a3a

layer.0.bias f4 [32]
0.018994585 0.6610935 -0.009809528 0.0381967 -0.09796805 0.036205627 -0.017394062 0.015572146
-0.040386785 0.06268358 0.08201303 0.43168664 -0.08170618 0.7342126 0.1309823 0.0589331
0.062623434 -0.010964385 0.49204957 0.7607244 -0.097163446 0.72120893 -0.031820923 0.41119775
-0.0841356 0.66333044 -0.0108666355 0.049428117 0.9486279 0.029185267 -0.14187787 -0.024026735
00000000: 889a 9b3c 6c3d 293f 24b8 20bc 2574 1c3d
00000010: 79a3 c8bd 5a4c 143d fe7d 8ebc 5022 7f3c
00000020: 9d6c 25bd 4060 803d 73f6 a73d 0806 dd3e
00000030: 9255 a7bd 5bf5 3b3f 3920 063e d663 713d
00000040: b740 803d f7a3 33bc eced fb3e d6be 423f
00000050: a1fd c6bd 26a1 383f a856 02bd 8388 d23e
00000060: 494f acbd 06d0 293f f909 32bc 2375 4a3d
00000070: 47d9 723f f115 ef3c 6f48 11be b7d3 c4bc

layer.2.weight f4 [64, 32]
0.102555856 -0.0839556 0.10759327 0.114587136 0.18772101 -0.04768118 0.06316421 0.13849017
0.20378834 -0.13464198 0.13645026 0.07018783 0.12691896 -0.077653356 0.19434844 0.21966557
0.19578645 -0.026832629 0.27063176 0.047741175 0.1372189 -0.16406305 0.006223976 0.0056903586
0.025926799 -0.020582223 0.18698257 0.09088346 0.07613161 0.2492193 -0.09628712 -0.15499204
0.03358611 -0.09002955 0.18121284 -0.010712018 -0.0009285598 -0.12327934 -0.039370768 0.088656135
-0.07678874 0.10905537 -0.0148324 0.08417357 -0.06353277 -0.04822279 0.19910431 0.064176485
0.092045166 0.21769316 0.07869806 0.053815477 0.2318821 0.03814034 -0.15071923 -0.0970696
-0.020738378 -0.041443665 -0.12768836 -0.03327967 0.032600634 0.14202525 0.09849066 0.027204888
-0.07670761 -0.19784527 0.22116241 -0.13918471 -0.15601468 -0.20384055 0.034770537 0.083861746
0.0467085 0.12631986 0.16546981 -0.13403639 0.0662446 -0.074893944 -0.14235419 0.26574144
0.07324692 0.08711367 5.839903e-05 0.0787019 0.17729726 0.015325018 -0.054721665 0.147795
-0.1503913 -0.117137566 -0.12218481 -0.113744296 -0.036190853 0.17954516 -0.10197683 -0.0023686166
0.04030835 0.15822944 -0.3432062 -0.11166006 -0.32154524 -0.21793485 -0.045861527 0.04836483
-0.11133306 0.044513762 0.099273205 0.702134 0.055343814 0.6719858 0.08145763 -0.32129773
0.047366574 -0.0031912492 0.2864536 0.6586025 -0.31153515 -0.046653416 -0.1430823 0.09969733
0.111287296 0.13161245 -0.10923129 0.06411687 0.9140379 -0.16491257 0.0779303 0.014783029
0.043116264 0.083935976 0.263104 -0.04250888 0.0987487 -0.070232324 0.07602851 0.15373933
-0.036870796 -0.023948044 -0.06815398 -0.109681316 0.022910751 0.15249808 0.08799821 0.24232638
-0.13063131 0.20042071 -0.18886635 0.047567576 0.107973285 -0.0055343984 0.088358454 -0.020802159
-0.014480157 -0.126803 0.0140148485 -0.030777304 0.003224412 0.20999596 -0.15743992 -0.04837453
-0.17151605 -0.14598136 0.12643352 -0.16696668 -0.035677493 0.03434498 0.015335905 0.05372069
0.020944022 0.02305731 0.19270155 -0.20958024 0.015099259 -0.061401337 -0.17849639 -0.2125515
0.17967723 0.13568686 -0.09000251 0.052957367 -0.28985924 -4.2919164e-05 -0.015774708 0.13453893
-0.21116382 -0.02199925 -0.17181003 0.015788788 -0.10053978 -0.15023917 0.029409412 0.11288145
0.14168003 -0.026156703 0.251167 -0.025050571 0.12095956 -0.18319522 0.08712429 -0.17658862
-0.096429884 -0.046177864 0.07209201 0.06961406 -0.110509016 0.14702691 0.19636445 0.18979451
0.022586627 -0.104271434 -0.12832914 -0.016768528 0.13240005 -0.044009954 0.20891194 0.09929733
-0.0036946048 -0.100810416 0.15745966 0.14883906 -0.023002591 0.09868637 -0.114396445 -0.15875891
-0.10373957 0.15316796 -0.16088511 -0.11541313 0.057428446 -0.2151578 -0.05239313 -0.14628547
0.052946124 0.020968508 0.059706222 0.061428986 -0.039962266 -0.052568205 -0.16985568 -0.15029505
-0.07610243 -0.1361629 -0.044511575 -0.15021749 -0.20974278 0.061254203 0.085580386 0.16046317
-0.19647871 0.20619057 -0.2200288 0.0345635 -0.23557997 0.16103862 0.068605565 -0.074459285
00000000: ce08 d23d eaf0 abbd dc59 dc3d a9ac ea3d
00000010: f039 403e 574d 43bd 3d5c 813d 5ed0 0d3e
00000020: e4ad 503e 96df 09be 9eb9 0b3e a3be 8f3d
00000030: 0bf7 013e b908 9fbd 4703 473e 03f0 603e
00000040: 3e7c 483e 1ad0 dbbc 3f90 8a3e 408c 433d
00000050: 1c83 0c3e 2500 28be 7ff2 cb3b 3076 ba3b
00000060: 7064 d43c 0d9c a8bc 5c78 3f3e 1c21 ba3d
00000070: e4ea 9b3d 5833 7f3e 2e32 c5bd 3cb6 1ebe
00000080: 9791 093d 6a61 b8bd dc8f 393e 7681 2fbc
00000090: 986a 73ba e179 fcbd 3e43 21bd 5991 b53d
000000a0: 6a43 9dbd 6c58 df3d 9803 73bc 3163 ac3d
000000b0: 781d 82bd 4385 45bd 00e2 4b3e f66e 833d
000000c0: 2d82 bc3d f5ea 5e3e 732c a13d 9e6d 5c3d
000000d0: 8072 6d3e 0c39 1c3d 2456 1abe 6dcc c6bd
000000e0: 88e3 a9bc d5c0 29bd bdc0 02be 4350 08bd
000000f0: 3e88 053d 116f 113e 79b5 c93d c9dc de3c
00000100: e118 9dbd f397 4abe 6678 623e 7086 0ebe
00000110: 50c2 1fbe 94bb 50be 8d6b 0e3d b5bf ab3d
00000120: 6951 3f3d fe59 013e eb70 293e d640 09be
00000130: 40ab 873d ff61 99bd 4cc5 11be 430f 883e
00000140: 7b02 963d a768 b23d 7bf1 7438 762e a13d
00000150: 6a8d 353e c915 7b3c d323 60bd 9357 173e
00000160: 2d00 1abe d2e5 efbd 083c fabd c5f2 e8bd
00000170: dc3c 14bd b0da 373e 3ad9 d0bd cb3a 1bbb
00000180: 5e1a 253d e606 223e b9b8 afbe 08ae e4bd
00000190: 94a1 a4be 502a 5fbe 4cd9 3bbd 331a 463d
000001a0: 9602 e4bd 1054 363d c04f cb3d 0ebf 333f
000001b0: 32b0 623d 4307 2c3f 42d3 a63d 2381 a4be
000001c0: 7403 423d 4724 51bb 0caa 923e 2c9a 283f
000001d0: 8981 9fbe a717 3fbd 2b84 12be 1d2e cc3d
000001e0: 98ea e33d 6ac5 063e a8b4 dfbd b54f 833d
000001f0: 63fe 693f d7de 28be ec99 9f3d 8534 723c
00000200: ae9a 303d a0e6 ab3d 91b5 863e cb1d 2ebd
00000210: c23c ca3d f7d5 8fbd d6b4 9b3d d86d 1d3e
00000220: d505 17bd b02e c4bc 5094 8bbd 99a0 e0bd
00000230: 54af bb3c 7528 1c3e 6838 b43d 6824 783e
00000240: 37c4 05be 163b 4d3e 2e66 41be 38d6 423d
00000250: 1921 dd3d e659 b5bb 47f5 b43d 4a69 aabc
00000260: 2e3e 6dbc a5d8 01be 899e 653c af20 fcbc
00000270: a850 533b 2e09 573e ee37 21be 5f24 46bd
00000280: e7a1 2fbe 237c 15be ca77 013e 50f9 2abe
00000290: 9022 12bd 52ad 0c3d 7343 7b3c 3a0a 5c3d
000002a0: cc92 ab3c afe2 bc3c 8e53 453e 349c 56be
000002b0: e262 773c f87f 7bbd c2c7 36be 1aa7 59be
000002c0: 4ffd 373e 7ff1 0a3e 3c53 b8bd d3e9 583d
000002d0: 6e68 94be 1a04 34b8 f639 81bc 93c4 093e
000002e0: 543b 58be c537 b4bc f8ee 2fbe 7d57 813c
000002f0: cde7 cdbd 4cd8 19be 02ec f03c 642e e73d
00000300: 9214 113e 9546 d6bc f698 803e db36 cdbc
00000310: a5b9 f73d 8797 3bbe 386e b23d a6d3 34be
00000320: 087d c5bd 0025 3dbd faa4 933d d191 8e3d
00000330: 8d52 e2bd 398e 163e c313 493e 7e59 423e
00000340: 9707 b93c 438c d5bd b768 03be 275e 89bc
00000350: e193 073e c843 34bd 03ed 553e 665c cb3d
00000360: 2f21 72bb b175 cebd 1b3d 213e 4469 183e
00000370: ee6f bcbc 141c ca3d af48 eabd b291 22be
00000380: 6975 d4bd 10d8 1c3e 11bf 24be b85d ecbd
00000390: 173a 6b3d 5452 5cbe 2e9a 56bd dccb 15be
000003a0: 09de 583d 26c6 ab3c 838e 743d f69c 7b3d
000003b0: 79af 23bd c251 57bd a6ee 2dbe f2e6 19be
000003c0: 97db 9bbd 4a6e 0bbe c551 36bd 9dd2 19be
000003d0: d0c6 56be b0e5 7a3d c544 af3d 7550 243e
000003e0: b731 49be 9f23 533e 3b4f 61be 7592 0d3d
000003f0: e03b 71be 4fe7 243e 1381 8c3d 1c7e 98bd

layer.2.bias f4 [64]
0.6403933 0.05205612 0.48967257 0.42397922 0.066296846 1.1147393 -0.005883053 0.19467358
0.33169168 0.16098325 -0.11338303 0.2528115 0.38288972 0.3245136 -0.005390018 -0.039144095
0.22202459 0.24189715 0.20792176 0.22746415 -0.053070568 0.2940557 0.120581456 0.060779743
0.16919462 0.3263657 0.14449063 0.19236353 0.21673775 0.25745425 0.43327674 0.5534696
0.2701537 -0.044036206 0.36150017 0.024384143 0.05487112 -0.03524057 0.26523307 0.38892803
-0.015488964 0.16588573 0.053850908 0.7071014 0.26705265 0.37089705 0.12471623 -0.12163923
-0.03490641 0.3987825 0.35143217 0.42807087 0.12035254 0.8202921 0.19295931 0.19844368
0.25380957 0.5004358 0.05868303 0.45073894 0.49909005 0.58952445 0.060699455 0.4449715
00000000: d1f0 233f cc38 553d 5db6 fa3e ce13 d93e
00000010: a4c6 873d c7af 8e3f a0c6 c0bb 8358 473e
00000020: 7ed3 a93e cbd8 243e 5d35 e8bd 8270 813e
00000030: 1f0a c43e a626 a63e c09e b0bb 8f55 20bd
00000040: 6a5a 633e e3b3 773e 71e9 543e 5dec 683e
00000050: 8660 59bd 788e 963e 69f3 f63d 2ef4 783d
00000060: 5b41 2d3e 6819 a73e 5af5 133e f2fa 443e
00000070: 80f0 5d3e 0bd1 833e 73d6 dd3e 2fb0 0d3f
00000080: 9651 8a3e 4f5f 34bd 8d16 b93e 41c1 c73c
00000090: 8ac0 603d 6a58 10bd a1cc 873e 9321 c73e
000000a0: 6cc5 7dbc f3dd 293e c592 5c3d 9904 353f
000000b0: 20bb 883e 38e6 bd3e 396b ff3d fd1d f9bd
000000c0: 06fa 0ebd 382d cc3e ebee b33e 1b2c db3e
000000d0: 647b f63d aafe 513f 2097 453e d234 4b3e
000000e0: 54f3 813e 901c 003f 9e5d 703d 41c7 e63e
000000f0: bb88 ff3e 13eb 163f fe9f 783d 4ed3 e33e

layer.4.weight f4 [128, 64]
0.029993078 -0.07315044 0.15580888 -0.06755452 0.1234116 0.07471523 0.22097082 0.051856484
0.023993313 0.025300127 -0.1349959 -0.15780741 -0.06618888 -0.011662891 0.02898883 0.06683397
0.22120747 -0.1545136 -0.17861515 0.08125247 0.019872399 -0.037419684 -0.058589086 0.1639671
-0.34702364 -0.24345945 -0.054689337 -0.13020252 -0.15845647 0.13762902 0.104578935 0.100277044
0.018283699 0.041316297 -0.011457078 0.054592624 0.1857479 0.033094313 -0.2676452 0.05602856
-0.0046309256 -0.300532 0.0395546 0.13525407 0.021041356 -0.03656814 0.09709079 0.053332157
0.09573379 0.0748542 0.118069746 -0.03997725 0.08265601 0.06471748 0.00021790512 -0.27102223
0.029163053 -0.23228292 0.2172343 -0.2758481 0.104892395 -0.034282394 0.037455577 -0.15629262
-0.105693676 -0.045351878 -0.2348595 0.07323519 -0.105078466 -0.4895677 -0.32157525 0.03429799
-0.10145683 -0.01858186 -0.095149145 0.33795074 0.1701213 0.11501211 -0.1894903 -0.06001184
-0.35929027 0.4431358 0.32765186 -0.10787499 0.11583645 -0.14016585 -0.08006419 -0.110036634
0.7787243 0.5323686 -0.10381536 0.5646565 0.37665585 0.18571092 -0.031297814 0.09100168
0.012230666 0.11525391 -0.012844267 -0.09718899 -0.103213444 0.042471077 0.5665307 0.18828954
0.12940508 0.6658605 0.0023791168 0.02086484 0.4106662 0.21578439 -0.09484964 0.2535097
-0.108304866 -0.16367687 -0.16907144 -0.14113665 0.028565958 -0.277996 0.17768274 0.40353578
0.087581046 0.41381738 -0.39595455 0.34483945 -0.1980465 0.40383103 0.2071642 0.20807903
0.03495802 -0.08390216 0.15001549 0.081264555 -0.0790799 0.58226854 0.21507773 0.090927206
0.25198838 0.08758297 -0.101113975 -0.03205225 0.000766871 0.043038767 0.09752268 0.15846589
0.11975875 -0.15784325 -0.27447537 0.048544113 0.07486767 0.16023445 -0.04512087 0.122240715
-0.21934824 -0.35755366 -0.11655626 -0.13881575 -0.007064597 0.059940454 -0.03180863 0.059063975
0.09972108 -0.13418704 -0.017172998 0.1505647 -0.021678925 0.034173846 -0.35153294 -0.05924052
0.028010746 -0.32380566 0.009979635 0.104462214 -0.057912525 -0.08378422 -0.042232044 0.043244027
-0.0022696005 0.11800313 0.07812311 -0.026695816 0.029631225 0.15876554 0.008952019 -0.0858765
0.005450115 -0.1626555 -0.06833764 -0.15209724 0.018428339 -0.023914564 -0.08035194 -0.22537494
-0.14941388 -0.08558087 -0.5317355 0.02421566 -0.2027443 -0.75358844 -0.20581232 0.1423068
-0.15562586 -0.24092773 -0.20824602 0.3201813 0.23088495 0.295358 -0.30695957 -0.036744434
-0.50312895 0.7427158 0.5315414 -0.112790026 0.15086769 -0.15336263 -0.1807447 -0.022201687
0.65907437 0.62474513 0.18953791 0.57855797 0.48646495 0.15199126 -0.19520335 0.088970825
0.12692603 0.16970134 -0.10665342 -0.15293331 -0.19428238 0.048154794 0.58544195 0.3127302
-0.019284496 0.565204 -0.0015692936 0.089699194 0.36570874 0.296754 0.014784004 0.23991226
-0.13855785 -0.36272082 0.013636789 -0.029744666 0.0012187797 -0.3753098 0.37082797 0.43661192
0.21709184 0.4079776 -0.4513593 0.5709567 -0.13849738 0.69672567 0.362187 0.6274335
00000000: 0bb4 f53c e6cf 95bd 5d8c 1f3e 065a 8abd
00000010: 39bf fc3d 4c04 993d 2d46 623e 7767 543d
00000020: a08d c43c 3642 cf3c 5d3c 0abe 4498 21be
00000030: 098e 87bd b615 3fbc fc79 ed3c 40e0 883d
00000040: 3684 623e d038 1ebe e4e6 36be b267 a63d
00000050: 71cb a23c 6245 19bd 1cfb 6fbd fee6 273e
00000060: 15ad b1be 6f4d 79be ed01 60bd cf53 05be
00000070: 6a42 22be 9fee 0c3e 7b2d d63d 0d5e cd3d
00000080: b2c7 953c 473b 293d 78b6 3bbc 849c 5f3d
00000090: b334 3e3e e78d 073d cb08 89be 347e 653d
000000a0: 05bf 97bb 55df 99be 0104 223d 0b80 0a3e
000000b0: ec5e ac3c 79c8 15bd 89d7 c63d d272 5a3d
000000c0: 1410 c43d 294d 993d 8dce f13d 2fbf 23bd
000000d0: 8e47 a93d 998a 843d 767d 6439 6dc3 8abe
000000e0: 5be7 ee3c 93db 6dbe ab72 5e3e f63b 8dbe
000000f0: d3d1 d63d b26b 0cbd 056b 193d 2c0b 20be
00000100: ed75 d8bd e4c2 39bd 027f 70be 55fc 953d
00000110: 6133 d7bd 9ea8 fabe 83a5 a4be 0d7c 0c3d
00000120: 99c8 cfbd fc38 98bc 8edd c2bd e107 ad3e
00000130: 4734 2e3e 788b eb3d bf09 42be face 75bd
00000140: e5f4 b7be b2e2 e23e fcc1 a73e 90ed dcbd
00000150: a93b ed3d a387 0fbe b2f8 a3bd e35a e1bd
00000160: 7a5a 473f 4f49 083f 269d d4bd 548d 103f
00000170: 09d9 c03e 012b 3e3e 2332 00bd 175f ba3d
00000180: 2263 483c 3e0a ec3d c370 52bc 050b c7bd
00000190: 9261 d3bd 27f6 2d3d 2808 113f f9ce 403e
000001a0: c482 043e d575 2a3f f5ea 1b3b beec aa3c
000001b0: d742 d23e 95f6 5c3e 8740 c2bd 06cc 813e
000001c0: f1ce ddbd e99a 27be 1021 2dbe 2086 10be
000001d0: 2803 ea3c 7e55 8ebe 77f2 353e 3e9c ce3e
000001e0: b15d b33d dfdf d33e 8eba cabe cc8e b03e
000001f0: b4cc 4abe f1c2 ce3e da22 543e ab12 553e
00000200: 2430 0f3d e5d4 abbd a99d 193e 086e a63d
00000210: a5f4 a1bd 8d0f 153f 563d 5c3e 0b38 ba3d
00000220: 9f04 813e b35e b33d d814 cfbd 3849 03bd
00000230: d707 493a 6b49 303d f9b9 c73d e244 223e
00000240: 1344 f53d a9a1 21be 0988 8cbe 31d6 463d
00000250: 3954 993d 8014 243e a9d0 38bd 5759 fa3d
00000260: d39c 60be 4611 b7be 0cb5 eebd b725 0ebe
00000270: 237e e7bb 1f84 753d c449 02bd 11ed 713d
00000280: 913a cc3d 5468 09be 63ae 8cbc a22d 1a3e
00000290: 0098 b1bc e0f9 0b3d 20fc b3be 30a6 72bd
000002a0: cb76 e53c dbc9 a5be 9f81 233c 49f0 d53d
000002b0: af35 6dbd 1097 abbd 82fb 2cbd a620 313d
000002c0: 94bd 14bb a0ab f13d 02ff 9f3d 2fb1 dabc
000002d0: 2fbd f23c 6f93 223e 7dab 123c 05e0 afbd
000002e0: e196 b23b 2a8f 26be 9bf4 8bbd 61bf 1bbe
000002f0: 07f7 963c 7ae8 c3bc 8f8f a4bd b0c8 66be
00000300: f4ff 18be 0645 afbd d11f 08bf eb5f c63c
00000310: 349c 4fbe 2ceb 40bf 77c0 52be e0b8 113e
00000320: 635c 1fbe c2b5 76be 723e 55be ceee a33e
00000330: 1b6d 6c3e 2a39 973e ce29 9dbe 5581 16bd
00000340: 0fcd 00bf 9f22 3e3f 1913 083f 75fe e6bd
00000350: 0f7d 1a3e 180b 1dbe 2315 39be 50e0 b5bc
00000360: 19b9 283f 4cef 1f3f 3a16 423e 601c 143f
00000370: ef11 f93e 99a3 1b3e 63e3 47be 5636 b63d
00000380: e6f8 013e 30c6 2d3e 1c6d dabd 8d9a 1cbe
00000390: f6f1 46be f63d 453d 86df 153f 2c1e a03e
000003a0: 85fa 9dbc 36b1 103f c1b0 cdba 36b4 b73d
000003b0: 2d3e bb3e 24f0 973e 9b38 723c 8fab 753e
000003c0: 1ce2 0dbe 8bb6 b9be d76c 5f3c 16ab f3bc
000003d0: 76bf 9f3a 9b28 c0be 2add bd3e 998b df3e
000003e0: 534d 5e3e 71e2 d03e 9118 e7be 382a 123f
000003f0: 42d2 0dbe 9d5c 323f 9370 b93e 7b9f 203f

layer.4.bias f4 [128]
0.2086867 0.31832686 0.18894947 0.3151829 0.041797206 0.16217613 0.24684575 -0.013528425
0.2340093 0.2845222 0.43318975 0.044717547 0.21416266 -0.026913185 0.25618967 0.34154528
0.08997277 0.18742758 -0.083592094 0.0032002307 0.52880144 0.03231427 0.073496625 0.4905283
0.33596346 0.17581506 0.3265727 0.17246284 0.24348201 0.081878975 0.28413826 0.05321332
0.24537104 0.51676357 0.04647359 0.3709723 -0.20925924 0.29868966 0.16049048 0.006512775
-0.055057816 0.15691902 0.469792 0.2008638 0.34487584 0.033226922 0.20404984 0.1798229
0.3501361 0.005589477 0.4846898 0.18990207 -0.172441 0.69818014 -0.0018381384 0.21694091
0.20180693 0.1686781 -0.009461911 0.25045574 0.23130119 0.20280766 0.7855273 -0.0045953793
-0.0071469396 -0.04618448 0.11319865 0.4319506 0.30613798 0.3078365 0.2778872 0.18639839
-0.1626275 -0.20124288 0.21476611 0.13617997 0.10248526 0.3984718 0.5724251 0.26985705
0.007732523 0.17088135 0.26575303 0.2600641 0.6494214 0.030076334 0.025893496 0.040925138
-0.15904765 0.1056284 0.7340295 0.11962882 0.29201436 0.34716687 0.023848714 -0.1328044
0.030827198 0.17855865 0.3004642 0.18720214 0.4508191 0.30977607 0.06113289 0.016802274
0.2520675 0.17480324 0.28793842 -0.123159625 0.21574076 0.16062492 0.19578251 0.1905683
0.14666082 0.08059503 0.3009248 0.24968015 0.06880452 0.105956905 0.061469357 0.40481988
0.038817402 0.081630304 0.24252501 0.00016389097 0.1068306 0.061096575 0.1383065 0.19604485
00000000: f7b1 553e bdfb a23e f87b 413e a75f a13e
00000010: 8c33 2b3d 8011 263e 22c5 7c3e 54a6 5dbc
00000020: 22a0 6f3e e5ac 913e 0ccb dd3e bf29 373d
00000030: 754d 5b3e 0a79 dcbc 4b2b 833e 06df ae3e
00000040: a543 b83d 04ed 3f3e 5532 abbd f6ba 513b
00000050: 885f 073f f85b 043d 6685 963d 8626 fb3e
00000060: 6703 ac3e dd08 343e 8934 a73e 199a 303e
00000070: 5953 793e 2ab0 a73d 927a 913e 36f6 593d
00000080: 8c42 7b3e 9e4a 043f 175b 3e3d 15f0 bd3e
00000090: 0e48 56be daed 983e 9e57 243e 1e69 d53b
000000a0: 4e84 61bd 61af 203e 9488 f03e 3daf 4d3e
000000b0: 9193 b03e f418 083d 71f2 503e 7f23 383e
000000c0: 0a45 b33e ee27 b73b 4329 f83e b075 423e
000000d0: 6094 30be efbb 323f b1ed f0ba c225 5e3e
000000e0: 7aa6 4e3e f4b9 2c3e 2206 1bbc bc3b 803e
000000f0: 38da 6c3e d0ac 4f3e 5118 493f d694 96bb
00000100: e030 eabb f02b 3dbd b2d4 e73d a128 dd3e
00000110: 1ebe 9c3e bf9c 9d3e 3b47 8e3e 38df 3e3e
00000120: d387 26be 9d12 4ebe a6eb 5b3e c372 0b3e
00000130: cbe3 d13d 7f04 cc3e 748a 123f b42a 8a3e
00000140: 1b61 fd3b 85fb 2e3e c810 883e 1f27 853e
00000150: 7b40 263f a562 f63c 991e d43c 1ea1 273d
00000160: 63dd 22be b453 d83d 5be9 3b3f f4ff f43d
00000170: e882 953e dbbf b13e 615e c33c e0fd 07be
00000180: 5289 fc3c 14d8 363e 72d6 993e ebb1 3f3e
00000190: c3d1 e63e f89a 9e3e 7b66 7a3d eca4 893c
000001a0: fe0e 813e 9fff 323e aa6c 933e 1d3b fcbd
000001b0: 25eb 5c3e dc7a 243e 367b 483e 5624 433e
000001c0: 412e 163e 020f a53d d112 9a3e 27ac 7f3e
000001d0: 62e9 8c3d efff d83d 4bc7 7b3d 8d44 cf3e
000001e0: fffe 1e3d ca2d a73d 7a58 783e 26da 2b39
000001f0: 00ca da3d 6740 7a3d 38a0 0d3e fbbf 483e

layer.6.weight f4 [23, 128]
-0.030338965 -0.040567033 0.012208768 0.017698592 0.02510841 -0.0036155875 0.05190615 -0.053259905
0.008579565 0.022482477 0.016972559 -0.026685555 0.009600648 0.022856615 0.08716928 0.026351068
0.06916937 0.06819022 -0.07354868 -0.014447732 -0.0600059 -0.015410102 -0.023993049 0.06677478
-0.073854975 0.042817406 0.018279914 -0.046387557 -0.028383508 -0.0012941877 0.030404456 -0.015070632
0.04386937 0.04229023 0.0006931965 0.034395672 -0.069139846 0.012789046 -0.01724401 0.030894322
-0.002785641 0.07413728 0.017966079 0.04025582 0.047790043 0.053948246 -0.04287978 0.07003002
0.048936818 -0.047467086 -0.039472602 -0.054011267 -0.011249442 0.07833246 0.013408003 0.039835427
-0.04200895 0.021450918 0.058985922 0.06860511 -0.040773753 -0.027644876 -0.026031462 -0.038291223
0.0053409366 -0.09353544 0.021459786 -0.030771658 0.027051367 0.010648873 -0.0199629 -0.049358696
-0.074493825 -0.047625963 0.03149757 0.00255194 -0.03997067 -0.019562438 0.0536939 0.0057694595
0.044077627 -0.06591353 -0.003736128 -0.003353765 0.07602681 0.20858143 -0.021003442 0.01993542
-0.012744968 0.018726284 -0.10600167 -0.01243611 0.028709322 -0.047799334 0.03833088 0.013046001
-0.004264283 0.003046611 -0.031890325 -0.0070341136 -0.015241856 0.18926254 0.056295797 0.044680636
-0.07705968 0.045155402 0.011147384 -0.04771045 -0.0078024953 0.019106025 0.064417616 0.051554125
-0.021170096 0.021156894 0.0804585 -0.05104175 -0.07295972 0.03594549 -0.0651028 0.1092598
0.022241825 0.033236206 0.06988727 -0.08506162 0.09902131 0.034943122 -0.024800492 -0.029545588
-0.02287224 -0.011438802 -0.009380351 -0.015956562 -0.04552706 0.01687655 0.007974276 0.021089502
0.0069935205 -0.0075056325 -0.010419275 -0.006552529 0.00271725 0.0066074063 0.009620253 4.1681953e-05
-0.017867528 -0.028503215 0.0058459635 0.007917937 0.04413739 0.00095627387 0.004991218 0.002229955
0.011752452 -0.024648013 0.009369347 0.013424612 0.0005777264 0.029271038 -0.004376518 0.009580701
0.020691607 0.016825654 0.008350024 -0.027922567 0.03710953 0.022121135 -0.011514245 0.031967875
0.035589952 -0.013045726 0.0049182298 -0.01475255 -0.07270311 0.010742343 -0.013539365 -0.01758536
-0.008799788 -0.022328818 0.017448122 -0.00451485 0.00014341681 -0.0060799015 0.019653296 0.025547942
0.0102966195 -0.035537284 0.014561482 -0.013832838 -0.015649926 -0.032564603 0.034622595 0.0052746343
-0.021370659 -0.010779247 -0.004768669 -0.032522455 0.0012485541 -0.01261742 -0.034493465 0.009734085
0.0073449733 -0.0039225235 0.026044147 -0.010896239 0.025596287 -0.0040700706 -0.01033635 0.02100545
-0.021515694 0.00020526914 -0.016382495 0.0047123893 0.02411205 0.009013273 0.001459676 -0.010176316
0.019253863 -0.014124012 -0.0151587445 0.021990115 0.013110959 -0.0050391657 -0.0012786825 0.03140689
0.016180724 0.016890654 -0.042521942 -0.031313285 -0.04173045 -0.01472656 -0.04452784 -0.005203529
-0.010879678 0.027291141 0.0165593 -0.0424065 -0.0014372102 -0.00507365 0.057980854 0.012508233
0.0115469685 -0.003272776 -0.008985573 -0.015821284 0.0010029936 0.004149589 -0.023963168 -0.008086128
0.03060608 0.0022077474 0.027967857 0.024677565 0.0044580763 -0.007378981 0.023112442 0.028916823
00000000: 6c89 f8bc 9e29 26bd 4907 483c a3fc 903c
00000010: 27b0 cd3c 7ef3 6cbb 8b9b 543d 0f27 5abd
00000020: 4e91 0c3c 2c2d b83c 090a 8b3c aa9b dabc
00000030: 094c 1d3c cc3d bb3c cf85 b23d 32de d73c
00000040: aca8 8d3d 50a7 8b3d b1a0 96bd 2eb6 6cbc
00000050: bfc8 75bd a77a 7cbc 128d c4bc 37c1 883d
00000060: 4741 97bd 4e61 2f3d c2bf 953c e100 3ebd
00000070: 8884 e8bc bca1 a9ba c412 f93c d0ea 76bc
00000080: 5eb0 333d 8538 2d3d a1b7 353a 7ae2 0c3d
00000090: 3199 8dbd 2689 513c 4f43 8dbc 1716 fd3c
000000a0: 4d8f 36bb 49d5 973d 992d 933c 49e3 243d
000000b0: 7ebf 433d d6f8 5c3d b5a2 2fbd e66b 8f3d
000000c0: f971 483d d96c 42bd 06ae 21bd eb3a 5dbd
000000d0: 944f 38bc c56c a03d 3ead 5b3c 792a 233d
000000e0: 9411 2cbd d6b9 af3c 399b 713d d680 8c3d
000000f0: 6102 27bd 8277 e2bc ef3f d5bc 42d7 1cbd
00000100: 0603 af3b 828f bfbd 6fcc af3c d814 fcbc
00000110: d49a dd3c 9c78 2e3c 3c89 a3bc 582c 4abd
00000120: 3890 98bd 7113 43bd 9903 013d 733e 273b
00000130: 49b8 23bd 6841 a0bc 23ee 5b3d bc0d bd3b
00000140: be8a 343d acfd 86bd d4d9 74bb d7ca 5bbb
00000150: f2b3 9b3d 5f96 553e 690f acbc 9b4f a33c
00000160: 45d0 50bc dd67 993c 6717 d9bd d3c0 4bbc
00000170: d02f eb3c 3cc9 43bd d700 1d3d e5be 553c
00000180: 66bb 8bbb a7a9 473b 6e9f 02bd 6c7e e6bb
00000190: fab8 79bc 0ace 413e 6c96 663d 0b03 373d
000001a0: 77d1 9dbd dff4 383d 84a3 363c 086c 43bd
000001b0: 13ac ffbb 3d84 9c3c 62ed 833d 6b2a 533d
000001c0: e96c adbc 3951 ad3c 6dc7 a43d 2711 51bd
000001d0: e86b 95bd 943b 133d 9e54 85bd 9ac3 df3d
000001e0: 7d34 b63c b022 083d 0f21 8f3d c934 aebd
000001f0: afcb ca3d 8520 0f3d 672a cbbc 9709 f2bc
00000200: 905e bbbc d069 3bbc 0bb0 19bc 56b7 82bc
00000210: 957a 3abd b140 8a3c 8aa6 023c e4c3 ac3c
00000220: e729 e53b cff1 f5bb 9bb5 2abc 99b6 d6bb
00000230: e413 323b f182 d83b 449e 1d3c a8d3 2e38
00000240: ec5e 92bc 937f e9bc 7f8f bf3b 3cba 013c
00000250: 68c9 343d 74ae 7a3a 5f8d a33b 7024 123b
00000260: 5b8d 403c a1ea c9bc e481 193c e7f2 5b3c
00000270: 9072 173a d1c9 ef3c e568 8fbb 5ff8 1c3c
00000280: 7281 a93c f4d5 893c 8ace 083c debd e4bc
00000290: 2a00 183d 6237 b53c 3ea6 3cbc bff0 023d
000002a0: c5c6 113d bebd 55bc 1a29 a13b aeb4 71bc
000002b0: 5ee5 94bd a700 303c 36d4 5dbc 2c0f 90bc
000002c0: fc2c 10bc edea b6bc 5def 8e3c 4ff1 93bb
000002d0: 2862 1639 e939 c7bb f3ff a03c eb49 d13c
000002e0: 27b3 283c 8b8f 11bd 4893 6e3c 21a3 62bc
000002f0: 4634 80bc 7662 05bd 6cd0 0d3d d7d6 ac3b
00000300: 8511 afbc 709b 30bc 7f42 9cbb 4436 05bd
00000310: 86a6 a33a 4cb9 4ebc 0549 0dbd b67b 1f3c
00000320: 1aae f03b 8388 80bb 895a d53c 2486 32bc
00000330: 4eaf d13c 3a5e 85bb cb59 29bc 9f13 ac3c
00000340: ae41 b0bc 843d 5739 9534 86bc 636a 9a3b
00000350: a286 c53c 68ac 133c 9952 bf3a 90ba 26bc
00000360: 47ba 9d3c 6668 67bc 625c 78bc 9d24 b43c
00000370: 59cf 563c 961f a5bb 7799 a7ba 83a4 003d
00000380: 708d 843c 455e 8a3c 7d2b 2ebd 5c42 00bd
00000390: 8ced 2abd ab47 71bc d362 36bd 5d82 aabb
000003a0: ad40 32bc ac91 df3c 5ea7 873c 70b2 2dbd
000003b0: c660 bcba dc40 a6bb 557d 6d3d 55ef 4c3c
000003c0: 7f2f 3d3c 127c 56bb 3a38 13bc a39b 81bc
000003d0: e176 833a 47f9 873b 684e c4bc ae7b 04bc
000003e0: 9ab9 fa3c dbaf 103b d91c e53c 9b28 ca3c
000003f0: 0e15 923b 61cb f1bb 4e56 bd3c f9e2 ec3c

layer.6.bias f4 [23]
0.5448892 0.03946399 0.25310126 0.087853126 0.07880273 0.4924367 0.5904711 0.3752879
0.13016365 0.5274778 0.15390015 0.11422045 0.0996784 -0.0136273885 0.0006281342 0.050242674
0.098193325 0.54369754 0.100766085 0.03625083 -0.009721368 0.18344575 0.08035531
00000000: dc7d 0b3f fea4 213d 7d96 813e 57ec b33d
00000010: 5363 a13d aa20 fc3e 1d29 173f bc25 c03e
00000020: 9f49 053e c908 073f 0098 1d3e 69ec e93d
00000030: 3024 cc3d 6945 5fbc 5fa9 243a 43cb 4d3d
00000040: 9519 c93d c32f 0b3f 735e ce3d c07b 143d
00000050: 5f46 1fbc 34d9 3b3e 5391 a43d
