weight/save_500.pth (torch_old, 72900 bytes, 8 tensors)

layer.0.weight f4 [32, 139]
0.080220856 -0.14508799 -0.055638667 -0.08035723 -0.060301144 -0.029471267 -0.06644063 0.0077247275
0.035236906 -0.056325484 0.039905865 0.030165844 0.027203338 0.055354267 -0.09579672 -0.014559008
-0.026592162 0.006718883 0.016936174 0.015507251 -0.0736365 0.047530305 -0.042298164 0.0014668533
-0.04418249 0.041112706 0.0681493 0.046548918 -0.039087582 -0.04678275 0.039836027 -0.04521648
0.031151067 -0.04137919 -0.074599236 -0.023321744 0.012996134 -0.0034605912 0.018563341 -0.058222335
0.032362875 0.056063972 0.050114706 -0.020730332 0.018361995 0.02373377 0.018220045 0.011817179
0.044121798 -0.063142724 -0.031446338 0.016461922 0.01856074 0.06952827 -0.043037873 0.08349547
-0.029599318 -0.052656535 0.020571494 -0.051566254 -0.008741456 -0.036953185 -0.0071818344 0.06795192
-0.066800326 0.028499309 -0.046498552 -0.024168953 -0.04887766 -0.024776146 -0.067154974 -0.060260996
-0.0071471673 0.0008318677 -0.023381196 0.012543966 -0.001495441 -0.031709753 -0.075371765 -0.066152826
-0.058671918 -0.015876036 0.048357375 0.035916977 -0.048080385 -0.08190155 -0.02562366 -0.04964879
-0.062043123 0.052726574 0.009323642 -0.048141252 -0.002223489 -0.025067523 0.017597198 -0.058650944
-0.024290701 0.003222712 0.049293198 -0.04301534 -0.055189025 -0.045914456 -0.07432812 0.008385509
-0.0068497546 0.00051436544 0.016614646 -0.08406666 0.0063687293 0.056674205 -0.07713206 0.050913695
-0.017987434 -0.0738798 0.035661586 -0.011563432 -0.0033177182 0.040387675 -0.0395218 0.06134365
0.007317162 -0.005767356 0.027720837 -0.050897073 -0.07579827 0.062194753 -0.034912486 -0.053294513
-0.035566483 -0.044668417 -0.014689667 -0.05245548 -0.08490959 -0.06932969 -0.06555156 -0.081736155
0.031593096 0.0010445453 -0.0048425435 0.04839898 -1.0137657 0.6601855 0.060156174 0.5735834
0.04555718 -0.07061819 -0.05264092 -0.54503286 -0.50616354 -0.524057 -0.0022345863 0.06437722
-0.008932382 -0.17285582 0.0050658477 -0.06461776 -0.019556668 0.048055723 0.00070956995 0.07238485
0.04920715 0.055082187 -0.029930638 0.0424668 -0.02358484 0.028330252 -0.08073821 -0.024294786
-0.0017672387 0.0641783 -0.020201106 -0.017755857 -0.024150072 -0.06286994 -0.021174291 -0.013322769
-0.060153104 -0.02330043 -0.06403747 -0.012942022 0.062826306 -0.06652799 0.017834818 0.016537352
0.011139789 0.0039998493 -0.049105696 -0.016772864 0.032886103 0.0029932894 0.09200247 0.02558602
-0.04534763 -0.013236117 -0.0066163596 -0.012906157 -0.0064557306 0.0005863704 -0.06804784 -0.006501969
-0.04102874 0.045434657 -0.08721454 -0.007817091 0.03695014 -0.015035306 -0.092951976 -0.09413683
-0.031081205 -0.050452534 0.008308408 0.04077947 0.002450029 -0.081261344 -0.0012256234 0.04299941
-0.036914203 0.078589514 -0.07005504 0.019855294 -0.023318881 -0.05878389 0.098043256 -0.0664115
-0.05079734 -0.04599696 0.0011862833 -0.1133293 0.048151918 0.07701655 -0.018665612 0.014737582
0.03150875 0.015059804 0.021871753 0.023323428 -0.012621115 0.0483906 -0.053109683 -0.041229278
0.008676674 0.0043183197 -0.06446466 -0.05741281 -0.030072574 -0.023092967 -0.10563544 0.018506553
0.008944615 -0.023352643 -0.0769539 0.006247651 0.0029655122 -0.065929756 0.027854191 0.0047189877
00000000: d54a a43d f291 14be 5fe5 63bd 5592 a4bd
00000010: 55fe 76bd ba6d f1bc 0612 88bd b61f fd3b
00000020: 9354 103d 8db5 66bd 5574 233d 5c1e f73c
00000030: 89d9 de3c 28bb 623d 1231 c4bd e888 6ebc
00000040: ced7 d9bc 132a dc3b bbbd 8a3c 2012 7e3c
00000050: bcce 96bd 23af 423d d740 2dbd 6e43 c03a
00000060: b3f8 34bd cc65 283d dc91 8b3d 14aa 3e3d
00000070: 4d1a 20bd 459f 3fbd 1a2b 233d ea34 39bd
00000080: 8630 ff3c 3a7d 29bd 7cc7 98bd 3e0d bfbc
00000090: bded 543c 16cb 62bb 2612 983c 8b7a 6ebd
000000a0: ef8e 043d 56a3 653d 1445 4d3d a8d2 a9bc
000000b0: e56b 963c 536d c23c 3442 953c d79c 413c
000000c0: 0fb9 343d f950 81bd e0cd 00bd 27db 863c
000000d0: b10c 983c d664 8e3d 7b48 30bd acff aa3d
000000e0: 457a f2bc 61ae 57bd 8d85 a83c 2337 53bd
000000f0: 5338 0fbc 395c 17bd 9855 ebbb 602a 8b3d
00000100: 9cce 88bd 6277 e93c 4475 3ebd f8fd c5bc
00000110: f133 48bd 58f7 cabc 8c88 89bd 3cd4 76bd
00000120: c932 eabb b211 5a3a ec89 bfbc 3585 4d3c
00000130: ac02 c4ba 16e2 01bd 835c 9abd 227b 87bd
00000140: f751 70bd 760e 82bc 6212 463d ae1d 133d
00000150: f0ef 44bd 00bc a7bd b6e8 d1bc 885c 4bbd
00000160: ee20 7ebd d2f7 573d 30c2 183c c32f 45bd
00000170: f5b7 11bb 685a cdbc 0028 903c f93b 70bd
00000180: 4bfd c6bc 2334 533b aae7 493d da30 30bd
00000190: e30d 62bd cc10 3cbd 5739 98bd 6063 093c
000001a0: e873 e0bb 7bd6 063a 701b 883c 242b acbd
000001b0: c6b0 d03b 3623 683d 6af7 9dbd e18a 503d
000001c0: 625a 93bc 4b4e 97bd e211 123d 8d74 3dbc
000001d0: 136e 59bb 8c6d 253d 9ce1 21bd 7b43 7b3d
000001e0: cec4 ef3b 17fc bcbb cf16 e33c 7379 50bd
000001f0: 203c 9bbd edbf 7e3d 6500 0fbd 594b 5abd
00000200: 29ae 11bd 3bf6 36bd eeac 70bc 8fdb 56bd
00000210: 14e5 adbd b9fc 8dbd e53f 86bd 4965 a7bd
00000220: c367 013d 20e9 883a 33ae 9ebb 023e 463d
00000230: 13c3 81bf eb01 293f 5266 763d 5dd6 123f
00000240: 2a9a 3a3d 45a0 90bd 019e 57bd 4687 0bbf
00000250: ef93 01bf 9928 06bf 2372 12bb 34d8 833d
00000260: 2059 12bc 1e01 31be 69ff a53b 5156 84bd
00000270: 4e35 a0bc 14d6 443d 6f02 3a3a 823e 943d
00000280: 708d 493d dc9d 613d 1931 f5bc abf1 2d3d
00000290: ff34 c1bc d814 e83c 135a a5bd dc05 c7bc
000002a0: b1a2 e7ba ea6f 833d ca7c a5bc bb74 91bc
000002b0: 5fd6 c5bc f5c1 80bd b575 adbc be47 5abc
000002c0: 1a63 76bd 8be0 bebc 1426 83bd c60a 54bc
000002d0: 14ab 803d d43f 88bd 531a 923c 5779 873c
000002e0: a983 363c 2b11 833b 0e23 49bd 3f67 89bc
000002f0: 94b3 063d 102b 443b ca6b bc3d c699 d13c
00000300: 70be 39bd 4cdc 58bc 0cce d8bb 5974 53bc
00000310: 988a d3bb a7b6 193a aa5c 8bbd 780e d5bb
00000320: c10d 28bd b119 3a3d 899d b2bd 4213 00bc
00000330: 0859 173d a556 76bc 9b5d bebd cfca c0bd
00000340: 039e febc 51a7 4ebd fd1f 083c 6008 273d
00000350: aa90 203b 596c a6bd 19a5 a0ba 2620 303d
00000360: 5933 17bd 8af3 a03d 0479 8fbd 92a7 a23c
00000370: 3d07 bfbc 60c7 70bd e7ca c83d c102 88bd
00000380: df10 50bd 4f67 3cbd 107d 9b3a 3119 e8bd
00000390: f23a 453d daba 9d3d a0e8 98bc e675 713c
000003a0: 520f 013d 65bd 763c 642c b33c c610 bf3c
000003b0: cbc8 4ebc 3935 463d 8a89 59bd 08e0 28bd
000003c0: 9c28 0e3c b180 8d3b 0c06 84bd b229 6bbd
000003d0: c25a f6bc 762d bdbc 6557 d8bd 0e9b 973c
000003e0: 6f8c 123c 0b4e bfbc 029a 9dbd 18b9 cc3b
000003f0: 0a59 423b 2e06 87bd 792e e43c bda1 9a3b

layer.0.bias f4 [32]
0.014084506 0.5752921 -0.0017132058 0.02661374 -0.09720893 0.036205627 -0.013262642 0.026151981
-0.03972778 0.06186355 0.0967308 0.31714812 -0.07958037 0.61950946 0.13811949 0.06769024
0.05076106 -0.010538612 0.37754336 0.6467521 -0.09600795 0.6322935 -0.041331686 0.31632522
-0.08050557 0.5858348 -0.021104243 0.049428117 0.83472866 0.040938646 -0.13808359 -0.024026735
00000000: b3c2 663c 5846 133f a68d e0ba 0f05 da3c
00000010: 7a15 c7bd 5a4c 143d 8d4b 59bc ae3c d63c
00000020: 99b9 22bd a264 7d3d cc1a c63d 3d61 a23e
00000030: 08fb a2bd 2c98 1e3f 326f 0d3e 2ea1 8a3d
00000040: d4ea 4f3d 24aa 2cbc 5d4d c13e 8c91 253f
00000050: d19f c4bd fddd 213f 6a4b 29bd 61f5 a13e
00000060: 1be0 a4bd 45f9 153f cee2 acbc 2375 4a3d
00000070: c7b0 553f 48af 273d c965 0dbe b7d3 c4bc

layer.2.weight f4 [64, 32]
0.051342327 -0.08389635 0.024580576 0.092646934 0.08840061 -0.04768118 0.057465777 0.13783388
0.17482316 -0.14540209 0.11711567 0.06867105 0.12861533 -0.078013204 0.17308791 0.10390573
0.17459206 -0.07789152 0.26963955 0.04753563 0.0070148045 -0.15436864 -0.02441201 0.004366337
0.011501666 -0.010800007 0.17697948 0.09088346 0.075891286 0.21620198 -0.08514397 -0.15499204
-0.013654765 -0.088717386 0.117055096 -0.042787466 -0.057994377 -0.12327934 -0.039370768 0.08874939
-0.103551716 0.09988004 -0.028626654 0.08648094 -0.08935393 -0.04514974 0.18000527 -0.032570448
0.07626431 0.2032826 0.081538856 0.056982882 0.124484666 0.048161108 -0.19349712 -0.1020806
-0.020738378 -0.042506993 -0.15314746 -0.03327967 0.036173224 0.11233709 0.10877707 0.027204888
-0.12068536 -0.19388516 0.15590203 -0.1831294 -0.17592256 -0.20384055 0.034770537 0.08840869
0.013856722 0.119693525 0.1533255 -0.15805356 0.07561873 -0.10400498 -0.15504646 0.16190706
0.05877541 0.06568423 -0.023901364 0.05811392 0.1531592 0.026630303 -0.08005272 0.15387133
-0.1503913 -0.09939212 -0.1476886 -0.113744296 -0.047995258 0.15535623 -0.08803375 -0.0023686166
0.082170025 0.1509304 -0.26789978 -0.09885386 -0.21854374 -0.21793485 -0.043884903 0.04515939
-0.09312009 0.049286995 0.11849747 0.58585775 0.032638296 0.5556895 0.088778675 -0.21538045
0.059221994 0.055748124 0.16988704 0.54252106 -0.18773772 -0.071662456 -0.13383994 0.08454188
0.12250717 0.0959486 -0.1038576 0.06411687 0.7976962 -0.1597755 0.053925905 0.014783029
0.0063726557 0.08738111 0.20064828 -0.055651437 0.055894382 -0.070232324 0.07103445 0.15627056
-0.05160285 -0.030577311 -0.08089474 -0.11973435 0.022012655 0.14660546 0.07413941 0.16600192
-0.14432605 0.17283602 -0.19834282 0.040995806 0.063247375 0.0056338576 0.068669595 -0.019095456
-0.026266057 -0.11844748 0.0055170297 -0.030777304 -0.009999759 0.18612917 -0.14506552 -0.04837453
-0.1314316 -0.18385665 0.05812377 -0.105755 0.032384276 0.03434498 0.015335905 0.053807255
0.020944022 0.036763802 0.19270155 -0.20958024 0.031168828 -0.05894252 -0.11094743 -0.19253662
0.094761655 0.13500428 -0.09000251 0.06446744 -0.28985924 -0.07870352 -0.008518695 0.15560462
-0.21116382 -0.07402699 -0.17181003 0.015788788 -0.12385786 -0.128862 0.025832549 0.11288145
0.102657154 -0.02213703 0.18025866 -0.039932635 0.047743984 -0.18319522 0.08207344 -0.17172815
-0.11421171 -0.05142741 0.059103757 0.0751368 -0.11126351 0.15389597 0.1847278 0.10434875
0.009147322 -0.13701655 -0.12228894 -0.009161078 0.012149922 -0.030648768 0.18843186 0.10459077
-0.015976405 -0.088834636 0.14874186 0.14883906 -0.016323065 0.07432094 -0.09945121 -0.15875891
-0.060052704 0.13902876 -0.08704613 -0.09409515 0.03177978 -0.2151578 -0.044251647 -0.15484475
0.07805219 0.01726525 0.078210555 0.061428986 -0.0769613 -0.064577185 -0.1755522 -0.02676602
-0.07042116 -0.13389648 -0.044511575 -0.171018 -0.21144734 0.023308938 0.09265297 0.13037322
-0.17954487 0.15175429 -0.20791042 0.0345635 -0.23557997 0.15248425 0.03404583 -0.074459285
00000000: 554c 523d d9d1 abbd 345d c93c adbd bd3d
00000010: 610b b53d 574d 43bd 3c61 6b3d 5324 0d3e
00000020: d804 333e 49e4 14be 57da ef3d 68a3 8c3d
00000030: bdb3 033e 63c5 9fbd f53d 313e 87cc d43d
00000040: 43c8 323e 9785 9fbd 320e 8a3e b9b4 423d
00000050: 72dc e53b d012 1ebe b2fb c7bc 7d13 8f3b
00000060: 7c71 3c3c 83f2 30bc 1c3a 353e 1c21 ba3d
00000070: e46c 9b3d 0d64 5d3e f65f aebd 3cb6 1ebe
00000080: 3cb8 5fbc 76b1 b5bd 95ba ef3d e941 2fbd
00000090: 838b 6dbd e179 fcbd 3e43 21bd 3dc2 b53d
000000a0: ec12 d4bd e88d cc3d 7282 eabc eb1c b13d
000000b0: 31ff b6bd efee 38bd 4d53 383e 9768 05bd
000000c0: 7630 9c3d 5029 503e d8fd a63d e266 693d
000000d0: d1f1 fe3d 9544 453d 1c24 46be a20f d1bd
000000e0: 88e3 a9bc d01b 2ebd b0d2 1cbe 4350 08bd
000000f0: 602a 143d fd10 e63d 83c6 de3d c9dc de3c
00000100: e329 f7bd d589 46be c8a4 1f3e 4686 3bbe
00000110: 0b25 34be 94bb 50be 8d6b 0e3d 9e0f b53d
00000120: 4e07 633c e121 f53d 5c01 1d3e cbd8 21be
00000130: fedd 9a3d 9000 d5bd 80c4 1ebe f7ca 253e
00000140: 7cbe 703d 7485 863d cbcc c3bc dd08 6e3d
00000150: c4d5 1c3e cb27 da3c aef2 a3bd 7290 1d3e
00000160: 2d00 1abe 198e cbbd ae3b 17be c5f2 e8bd
00000170: ad96 44bd b415 1f3e 0a4b b4bd cb3a 1bbb
00000180: c248 a83d 808d 1a3e 292a 89be e473 cabd
00000190: eec9 5fbe 502a 5fbe a8c0 33bd 0df9 383d
000001a0: bfb5 bebd 29e1 493d cdae f23d c6fa 153f
000001b0: bcaf 053d ab41 0e3f 98d1 b53d b18c 5cbe
000001c0: c392 723d 2558 643d def6 2d3e a9e2 0a3f
000001d0: 513e 40be c4c3 92bd 560d 09be 4b24 ad3d
000001e0: 0ae5 fa3d b380 c43d 4bb3 d4bd b54f 833d
000001f0: d135 4c3f 309c 23be 69e1 5c3d 8534 723c
00000200: b6d1 d03b def4 b23d be76 4d3e c3f2 63bd
00000210: 82f1 643d f7d5 8fbd 827a 913d 6405 203e
00000220: 835d 53bd 457d fabc 24ac a5bd 4837 f5bd
00000230: e253 b43c be1f 163e 67d6 973d 68fc 293e
00000240: 35ca 13be edfb 303e 611a 4bbe 38eb 273d
00000250: d787 813d 399c b83b a5a2 8c3d 136e 9cbc
00000260: ea2b d7bc 9894 f2bd 33c8 b43b af20 fcbc
00000270: 07d6 23bc a598 3e3e 0e8c 14be 5f24 46bd
00000280: 0196 06be eb44 3cbe 3113 6e3d 1496 d8bd
00000290: 60a5 043d 52ad 0c3d 7343 7b3c ff64 5c3d
000002a0: cc92 ab3c a495 163d 8e53 453e 349c 56be
000002b0: c555 ff3c b66d 71bd 6838 e3bd 5228 45be
000002c0: 6612 c23d 903e 0a3e 3c53 b8bd 8107 843d
000002d0: 6e68 94be 502f a1bd ff91 0bbc d156 1f3e
000002e0: 543b 58be 769b 97bd f8ee 2fbe 7d57 813c
000002f0: 31a9 fdbd 66f4 03be c89e d33c 642e e73d
00000300: ea3d d23d b758 b5bc ba95 383e 6790 23bd
00000310: 328f 433d 8797 3bbe 1f16 a83d 81d9 2fbe
00000320: d4e7 e9bd 8ca5 52bd c816 723d 53e1 993d
00000330: 20de e3bd e896 1d3e 4929 3d3e ccb4 d53d
00000340: a6de 153c 114e 0cbe a072 fabd 5918 16bc
00000350: 7710 473c 2013 fbbc 48f4 403e b033 d63d
00000360: f3e0 82bc efee b5bd c94f 183e 4469 183e
00000370: f3b7 85bc 9435 983d 13ad cbbd b291 22be
00000380: d3f9 75bd 8e5d 0e3e 3e45 b2bd f5b4 c0bd
00000390: 842b 023d 5452 5cbe 3741 35bd 9f8f 1ebe
000003a0: d4d9 9f3d db6f 8d3c db2c a03d f69c 7b3d
000003b0: e39d 9dbd 0b41 84bd f5c3 33be 6a44 dbbc
000003c0: f838 90bd 291c 09be c551 36bd 581f 2fbe
000003d0: a785 58be 63f2 be3c d7c0 bd3d 8f80 053e
000003e0: 9cda 37be 7a65 1b3e 78e6 54be 7592 0d3d
000003f0: e03b 71be d524 1c3e a473 0b3d 1c7e 98bd

layer.2.bias f4 [64]
0.6151963 0.021110797 0.45696506 0.3085814 0.042021155 1.0750654 -0.028807867 0.15777083
0.35485822 0.13821214 -0.12262047 0.16611229 0.28629777 0.23707943 -0.04038236 -0.087330416
0.21858792 0.14101875 0.113272674 0.19714345 -0.06455141 0.26051998 0.075197764 0.038847495
0.09397681 0.24268508 0.034811478 0.11464584 0.13242035 0.15413141 0.41176176 0.450819
0.15919326 -0.06880417 0.3373255 0.002081699 0.07519846 -0.07321111 0.16615103 0.2909027
-0.04413521 0.09600121 -0.008104065 0.59949744 0.15987211 0.27813655 0.0841085 -0.14751622
-0.0741732 0.3848623 0.32675508 0.40243554 0.092762366 0.7558628 0.107880384 0.1232654
0.16042031 0.42183563 0.031075638 0.359094 0.4700888 0.51117396 0.040280107 0.36418942
00000000: 817d 1d3f 8df0 ac3c 53f7 e93e 62fe 9d3e
00000010: 601e 2c3d be9b 893f 7afe ebbc ad8e 213e
00000020: faaf b53e 7c87 0d3e 7120 fbbd 5719 2a3e
00000030: 9f95 923e f3c4 723e f967 25bd 4ada b2bd
00000040: 83d5 5f3e 3867 103e 81fb e73d f9df 493e
00000050: 8833 84bd e062 853e 4901 9a3d 8d1e 1f3d
00000060: ea76 c03d 7082 783e 7b96 0e3d 70cb ea3d
00000070: 3399 073e a0d4 1d3e 70d2 d23e bfd1 e63e
00000080: 8f03 233e 33e9 8cbd eeb5 ac3e 1d6d 083b
00000090: a601 9a3d b5ef 95bd 7f23 2a3e 33f1 943e
000000a0: 1fc7 34bd 489c c43d eac6 04bc aa78 193f
000000b0: 84b5 233e ea67 8e3e 1441 ac3d 7e0e 17be
000000c0: 1ee8 97bd ac0c c53e 714c a73e 080c ce3e
000000d0: 32fa bd3d 3980 413f 64f0 dc3d 9272 fc3d
000000e0: 3945 243e d7fa d73e 5692 fe3c 2bdb b73e
000000f0: 7baf f03e 4cdc 023f c1fc 243d 0977 ba3e

layer.4.weight f4 [128, 64]
0.010982602 -0.08910953 0.07591909 -0.06410538 0.10244088 0.048383053 0.16954207 0.035432052
-0.043832526 0.009740524 -0.11390729 -0.064803824 -0.056779604 0.0013739183 -0.01375653 0.048843857
0.13818197 -0.05366535 -0.027543696 0.057534233 0.037417617 -0.0746032 -0.06975469 0.116854854
-0.18911125 -0.08373909 -0.068916626 -0.08413702 -0.11311999 0.09998552 0.09027448 0.10365448
0.02243659 0.045284353 -0.0302268 0.04164756 0.118914284 0.025975874 -0.20779665 0.064101286
-0.008570199 -0.18039823 0.019234413 0.1357968 0.065190345 -0.008577989 0.10199509 0.058783326
0.080770925 0.027748669 0.100916244 -0.04724937 0.071038954 0.028537352 -0.008468199 -0.15988635
0.021926241 -0.1396936 0.15690589 -0.19315898 0.064312615 0.0039554425 0.051550034 -0.040828764
-0.07219168 -0.033239197 -0.084556594 0.0482239 -0.060695335 -0.37317806 -0.21238497 0.007290249
-0.031924646 0.037111145 0.038695697 0.17787378 0.12600927 0.050573733 -0.10334344 -0.038397096
-0.19979239 0.27579644 0.1319591 -0.061406035 0.060814872 -0.055713948 -0.05009254 -0.088230744
0.56987286 0.32370183 -0.13341694 0.4472296 0.24255452 0.13017254 -0.003717443 0.066057436
-0.021780962 0.068056256 0.0052019814 -0.058549255 -0.041089475 0.049312122 0.4310387 0.14089283
0.08485568 0.46903884 -0.0044060005 0.018158562 0.32038996 0.12307847 -0.1345324 0.15185936
-0.090608306 -0.07352836 -0.14387135 -0.11127054 0.037692744 -0.19027889 0.07910986 0.21841939
0.020374924 0.23374912 -0.2712749 0.1926043 -0.10802812 0.2680319 0.09301599 0.022175435
0.017782446 -0.09993174 0.06840011 0.08050109 -0.09821899 0.5898696 0.16268425 0.07648841
0.18505909 0.07271232 -0.105995014 0.061013695 0.0067143706 0.05137945 0.055625923 0.14158797
0.035595346 -0.059196696 -0.122627154 0.027044235 0.08839602 0.121546485 -0.055698115 0.07515551
-0.060509223 -0.19594757 -0.12770736 -0.091206305 0.037220027 0.024010219 -0.044811636 0.058879394
0.1004648 -0.13238291 -0.034631643 0.13912098 0.014461068 0.027185021 -0.29211158 -0.054249264
0.024516052 -0.19998793 -0.010959024 0.10542844 -0.015900126 -0.057438944 -0.04078177 0.050062764
-0.017450511 0.07135865 0.06259301 -0.026444763 0.018156426 0.12270958 0.005776689 0.027431993
0.00048174534 -0.06743367 -0.12894821 -0.0689804 -0.023779014 0.015643675 -0.06363994 -0.10808689
-0.11754735 -0.06793186 -0.3753732 -0.0008163246 -0.158505 -0.6377969 -0.09922886 0.11590594
-0.07403334 -0.18600443 -0.07278855 0.15503941 0.1863906 0.23215164 -0.21908964 -0.019525012
-0.3388034 0.576833 0.33541262 -0.062371384 0.09702322 -0.07239796 -0.14988406 -0.00023898676
0.44948062 0.4156128 0.16895188 0.4541108 0.35167143 0.092363805 -0.16845663 0.06588865
0.09627012 0.11606847 -0.0884785 -0.113731466 -0.13511623 0.05368898 0.4474636 0.26337677
-0.06577605 0.3711675 -0.007914159 0.08460543 0.27251664 0.19769727 -0.022472817 0.1364371
-0.12151598 -0.27209857 0.039093174 -0.001166955 0.009846567 -0.2885817 0.27047074 0.25037745
0.1471722 0.22738858 -0.32087794 0.41936612 -0.044135697 0.56136805 0.24911565 0.44335192
00000000: 5ff0 333c 0f7f b6bd 787b 9b3d ae49 83bd
00000010: 86cc d13d 4f2d 463d 709c 2d3e 3321 113d
00000020: bc89 33bd b896 1f3c 3a48 e9bd deb7 84bd
00000030: bb91 68bd 0c15 b43a 1263 61bc 7f10 483d
00000040: 937f 0d3e 33d0 5bbd 51a3 e1bc 04a9 6b3d
00000050: 3743 193d 90c9 98bd 8cdb 8ebd 9951 ef3d
00000060: 61a6 41be 667f abbd 2924 8dbd 0850 acbd
00000070: 74ab e7bd 35c5 cc3d d4e1 b83d cd48 d43d
00000080: f1cc b73c 167c 393d 329e f7bc a296 2a3d
00000090: 5589 f33d 5bcb d43c a5c8 54be 8947 833d
000000a0: 056a 0cbc 50ba 38be 7d91 9d3c 510e 0b3e
000000b0: 8482 853d b28a 0cbc cde2 d03d c9c6 703d
000000c0: 3a6b a53d 2d51 e33c 2dad ce3d 8e88 41bd
000000d0: df7c 913d 2ac7 e93c 33be 0abc 3fb9 23be
000000e0: a99e b33c d70b 0fbe f0ab 203e 78cb 45be
000000f0: 55b6 833d a89c 813b 2126 533d 103c 27bd
00000100: 3bd9 93bd d325 08bd 022c adbd 6d86 453d
00000110: ac9b 78bd 3211 bfbe 727b 59be 0be3 ee3b
00000120: 6bc3 02bd db01 183d 617f 1e3d 8b24 363e
00000130: 9308 013e 6726 4f3d baa5 d3bd 4646 1dbd
00000140: 6096 4cbe 3135 8d3e 4920 073e e584 7bbd
00000150: 0419 793d 4f34 64bd d62d 4dbd 52b2 b4bd
00000160: 30e3 113f 3fbc a53e 739e 08be 47fb e43e
00000170: 3660 783e f34b 053e 58a0 73bb 1f49 873d
00000180: fd6d b2bc 1461 8b3d 6275 aa3b 58d1 6fbd
00000190: 704d 28bd 82fb 493d 1bb1 dc3e 3646 103e
000001a0: d1c8 ad3d dc25 f03e 3660 90bb 44c1 943c
000001b0: 270a a43e 9110 fc3d ddc2 09be 0581 1b3e
000001c0: d990 b9bd 0996 96bd 0353 13be cfe1 e3bd
000001d0: b563 1a3d 78d8 42be 5a04 a23d 55a9 5f3e
000001e0: 50e9 a63c ee5b 6f3e 8be4 8abe 103a 453e
000001f0: d93d ddbd 7a3b 893e 2b7f be3d 42a9 b53c
00000200: 7eac 913c 03a9 ccbd 5b15 8c3d c1dd a43d
00000210: 0a27 c9bd b201 173f b396 263e f5a5 9c3d
00000220: 2180 3d3e 32ea 943d ea13 d9bd 7fe9 793d
00000230: 3904 dc3b 4273 523d 02d8 633d 70fc 103e
00000240: 6dcc 113d 3c78 72bd f223 fbbd df8b dd3c
00000250: f908 b53d 5ded f83d b523 64bd 22eb 993d
00000260: 85d8 77bd 7ba6 48be b8c5 02be 5fca babd
00000270: 0774 183d 14b1 c43c 688c 37bd 852b 713d
00000280: 7dc0 cd3d 638f 07be e9d9 0dbd bb75 0e3e
00000290: 1eee 6c3c 1fb3 de3c a68f 95be 7a34 5ebd
000002a0: e3d5 c83c a3c9 4cbe 7a8d 33bc deea d73d
000002b0: fb40 82bc 1945 6bbd c90a 27bd 9d0e 4d3d
000002c0: 60f4 8ebc 7c24 923d c430 803d b0a2 d8bc
000002d0: c9bc 943c 294f fb3d 614a bd3b 0fb9 e03c
000002e0: c492 fc39 aa1a 8abd 000b 04be 9945 8dbd
000002f0: 35cc c2bc 2a27 803c a855 82bd a95c ddbd
00000300: aabc f0bd dc1f 8bbd eb30 c0be 9efe 55ba
00000310: 224f 22be a846 23bf 8038 cbbd 1860 ed3d
00000320: cb9e 97bd f277 3ebe 2a12 95bd a7c2 1e3e
00000330: 2ddd 3e3e 29b9 6d3e 0959 60be ebf2 9fbc
00000340: a477 adbe 54ab 133f 34bb ab3e 2379 7fbd
00000350: 1cb4 c63d 6245 94bd 357b 19be 8598 7ab9
00000360: 5322 e63e 33cb d43e b901 2d3e 3681 e83e
00000370: 470e b43e 3c29 bd3d e57f 2cbe a1f0 863d
00000380: 4529 c53d 4eb5 ed3d 3734 b5bd 0bec e8bd
00000390: e95b 0abe fae8 5b3d f319 e53e 52d9 863e
000003a0: 98b5 86bd ab09 be3e 64aa 01bc 9d45 ad3d
000003b0: 4d87 8b3e 2771 4a3e ea18 b8bc 2bb6 0b3e
000003c0: 5fdd f8bd 8150 8bbe 2a20 203d 83f4 98ba
000003d0: 7f53 213c fbc0 93be 247b 8a3e 7931 803e
000003e0: 4fb4 163e 8dd8 683e 1d4a a4be 28b7 d63e
000003f0: a2c7 34bd d1b5 0f3f 2c18 7f3e 06ff e23e

layer.4.bias f4 [128]
0.15532902 0.24527702 0.1434802 0.24094827 -0.021928316 0.035223704 0.20207867 -0.11816952
0.15442577 0.2102974 0.35621095 -0.006599576 0.1532471 -0.07828268 0.17682923 0.26393887
0.025534043 0.13360858 -0.13493237 -0.04628502 0.42317876 -0.04502464 0.022752002 0.4029371
0.2652744 0.09222004 0.2476567 0.09652637 0.17237471 0.021262767 0.2136573 -0.023583518
0.20346873 0.44022658 -0.011812825 0.28350836 -0.22270294 0.21674174 0.09723553 -0.051979017
-0.122665286 0.0842873 0.34147203 0.111720495 0.22229111 -0.02573341 0.13416414 0.19070014
0.27663893 -0.04684308 0.36016575 0.118661255 -0.20391794 0.612424 -0.030423488 0.14810406
0.12085722 0.1218828 -0.060699582 0.20708095 0.124206506 0.12591775 0.6627171 -0.058582824
-0.024168897 -0.07595819 0.051239513 0.28160778 0.2244578 0.23117664 0.210775 0.11162461
-0.20973893 -0.24922246 0.15555729 0.06903019 0.034123372 0.32031265 0.4209407 0.18825804
-0.01862934 0.1063843 0.21861482 0.18316299 0.51770055 0.025152696 -0.06102649 -0.006385935
-0.20309228 0.027964713 0.69503933 0.07247929 0.20415466 0.27161938 0.02872015 -0.13256605
-0.032973345 0.10199297 0.21429977 0.11880033 0.32607484 0.28354925 0.011233183 -0.041538447
0.19991978 0.09404712 0.21630815 -0.108583964 0.11073699 0.041650474 0.08063839 0.1223389
0.04779802 0.023713203 0.26513034 0.1767826 0.058513176 0.052492168 -0.031565174 0.29055482
-0.032288976 0.035197735 0.18508427 -0.04341728 0.0018730387 -0.024885686 0.05491137 0.16719781
00000000: 920e 1f3e e629 7b3e 79ec 123e 25bb 763e
00000010: 03a3 b3bc bb46 103d b6ed 4e3e dc02 f2bd
00000020: ca21 1e3e 3458 573e 4861 b63e 4241 d8bb
00000030: cfec 1c3e ab52 a0bd b912 353e ff22 873e
00000040: c52c d13c b0d0 083e b62b 0abe 5c95 3dbd
00000050: e3aa d83e c26b 38bd 6862 ba3c c64d ce3e
00000060: 0cd2 873e dcdd bc3d b899 7d3e 9eaf c53d
00000070: ff82 303e 412f ae3c fbc8 5a3e 3932 c1bc
00000080: 1b5a 503e 6165 e13e 948a 41bc 0228 913e
00000090: 3d0c 64be 8cf1 5d3e 6c23 c73d f3e7 54bd
000000a0: f037 fbbd d29e ac3d 6cd5 ae3e b7cd e43d
000000b0: 48a0 633e dfce d2bc 5362 093e e646 433e
000000c0: 9ea3 8d3e 88de 3fbd a567 b83e ac04 f33d
000000d0: ddcf 50be d2c7 1c3f ae3a f9bc 97a8 173e
000000e0: fd83 f73d b09d f93d 20a0 78bd 070d 543e
000000f0: fb5f fe3d 95f0 003e d4a7 293f 8bf4 6fbd
00000100: dafd c5bc f88f 9bbd 86e0 513d e52e 903e
00000110: 44d8 653e 92b9 6c3e 67d5 573e 729b e43d
00000120: cdc5 56be 2c34 7fbe 694a 1f3e b35f 8d3d
00000130: f3c4 0b3d 0500 a43e 8a85 d73e b7c6 403e
00000140: 8f9c 98bc 03e0 d93d 90dc 5f3e 148f 3b3e
00000150: 0688 043f 070d ce3c eaf6 79bd 1b41 d1bb
00000160: 6cf7 4fbe 4116 e53c 19ee 313f 0670 943d
00000170: eb0d 513e b211 8b3e 8546 eb3c 65bf 07be
00000180: 0f0f 07bd b1e1 d03d 6671 5b3e 964d f33d
00000190: 48f3 a63e 5e2d 913e 620b 383c 3824 2abd
000001a0: c5b7 4c3e c79b c03d e27f 5d3e 4561 debd
000001b0: 13ca e23d b099 2a3d bd25 a53d d18c fa3d
000001c0: dbc7 433d 3142 c23c 2abf 873e 7f06 353e
000001d0: 83ab 6f3d 0702 573d 7c4a 01bd 9ac3 943e
000001e0: 7241 04bd 802b 103d bb86 3d3e 51d6 31bd
000001f0: c080 f53a 11dd cbbc bfea 603d e735 2b3e

layer.6.weight f4 [23, 128]
-0.03308846 -0.04561867 0.013296951 0.009878898 0.02560629 0.00046337672 0.05392341 -0.038154494
0.0012457393 0.011530148 -0.011298858 -0.023255352 0.011940685 0.023978356 0.07753146 0.024054697
0.06608384 0.06786358 -0.057695135 -0.014461605 -0.051702075 0.004294129 -0.022190291 0.048720855
-0.07576347 0.030156512 0.019795353 -0.05054407 -0.03137871 -0.0097906245 0.028959036 -0.01171282
0.04231929 0.035748806 -0.0024118458 0.037157245 -0.051855072 0.0013721227 -0.016772306 0.03422197
-0.001742872 0.067076415 0.02087054 0.028929796 0.051080003 0.039181173 -0.040499665 0.030771412
0.037342343 -0.049305923 -0.03352238 -0.044698328 -0.013582758 0.06756998 0.0100596165 0.045485854
-0.04453987 0.012585466 0.048230525 0.0394342 -0.033576332 -0.02887052 -0.023933275 -0.04255759
0.00707906 -0.0939159 0.023726245 -0.038846757 0.012423742 0.0011084414 -0.026380636 -0.056041215
-0.07521449 -0.037794117 0.02608776 -0.0013936432 -0.039560888 -0.025337622 0.05606275 -0.0033920656
0.018935598 -0.06252918 -0.007303989 -0.0012692001 0.07133865 0.14899094 -0.012302401 0.004415845
-0.012969864 0.022826115 -0.0882015 -0.023947436 0.021437613 -0.054975424 0.03611188 0.0039359326
-0.002234349 0.0008950365 -0.019055942 -0.007176411 -0.0094104055 0.16448566 0.058364406 0.04365787
-0.06693576 0.03302621 0.004063286 -0.05466104 -0.0023688553 0.032918144 0.07312826 0.05848834
-0.017526971 0.022192415 0.09037731 -0.052222762 -0.09989219 0.036734167 -0.051808767 0.08303845
0.015610121 0.051998444 0.066871345 -0.09399121 0.09587788 0.016218526 -0.019591408 -0.04361587
-0.024751045 -0.004938096 -0.014359041 -0.0187114 -0.050077986 0.021500615 0.010703812 0.024041755
0.003740897 -0.007021687 -0.001307769 -0.007148647 0.0021739947 0.005499298 0.011360676 -0.0048970757
-0.014703686 -0.027248222 0.020059615 0.008655906 0.046869166 -0.00369203 0.003466303 -0.007129075
0.0120795155 -0.026202012 0.009107437 0.008880173 0.00022195048 0.032302674 -0.0023327551 0.0058661066
0.019910943 0.015128235 0.011292064 -0.032105338 0.04182365 0.023790604 -0.011299747 0.03170738
0.044858836 -0.019569311 0.0040105986 0.0014639228 -0.07118217 0.018512534 -0.018137664 0.051564056
-0.01561607 -0.025369037 0.017590063 -0.007836413 -0.0031437173 -0.006319965 0.02620058 0.026949348
0.012405647 -0.038190052 0.012661967 0.014442986 -0.012594211 -0.03391135 0.034264684 0.0058163735
-0.028464803 -0.013709788 -0.0006210371 -0.034637455 0.00011617795 -0.01387384 -0.03261382 0.012719186
0.012394342 0.0014065203 0.029692555 -0.014589105 0.024708759 -0.0026679956 -0.010527803 0.021939965
-0.0154509405 0.002164039 -0.018147895 0.0019413935 0.025694154 0.0021357061 0.0052530086 -0.021929312
0.017229257 -0.011169827 -0.016017767 0.014410903 0.005489508 -0.0023274787 0.0058364724 0.013914757
0.012793552 0.018648023 -0.041378826 -0.030666864 -0.04208125 -0.017478585 -0.045605104 -0.002714034
-0.014399062 0.033459954 0.023169192 -0.027263222 0.00047568727 -0.003145734 0.059864443 0.012250788
0.012099062 -0.0027929163 -0.009638346 -0.0098084975 0.008563817 0.0021272553 -0.021378359 -0.0040688985
0.02635981 -0.0017424175 0.027650826 0.0417835 0.0016824778 -0.011083014 0.02274153 0.029305238
00000000: c487 07bd a4da 3abd 74db 593c 1adb 213c
00000010: 48c4 d13c 5ff1 f239 cbde 5c3d e347 1cbd
00000020: 1348 a33a f2e8 3c3c d81e 39bc 0282 bebc
00000030: dda2 433c 426e c43c d0c8 9e3d 5b0e c53c
00000040: f756 873d 10fc 8a3d bc51 6cbd 5ef0 6cbc
00000050: 8ec5 53bd c4b5 8c3b 6ac8 b5bc 858f 473d
00000060: e129 9bbd ca0a f73c dd29 a23c 4c07 4fbd
00000070: f686 00bd db68 20bc 803b ed3c 21e7 3fbc
00000080: fe56 2d3d 576d 123d 0f10 1ebb 3232 183d
00000090: fc65 54bd ccd8 b33a 1366 89bc 562c 0c3d
000000a0: 1471 e4ba 5c5f 893d b2f8 aa3c 2efe ec3c
000000b0: 4439 513d 707c 203d fae2 25bd 5414 fc3c
000000c0: 49f4 183d 02f5 49bd c34e 09bd 9815 37bd
000000d0: 378a 5ebc 2162 8a3d 17d1 243c 604f 3a3d
000000e0: 706f 36bd 4533 4e3c 5f8d 453d c185 213d
000000f0: 5687 09bd de81 ecbc b70f c4bc de50 2ebd
00000100: 76f7 e73b fb56 c0bd 8b5d c23c c71d 1fbd
00000110: f38c 4b3c 1f49 913a 341c d8bc 798b 65bd
00000120: 0e0a 9abd 01ce 1abd 00b6 d53c e8aa b6ba
00000130: 990a 22bd d890 cfbc 0ea2 653d 6b4d 5ebb
00000140: d41e 9b3c 4c0f 80bd 4d56 efbb 4a5b a6ba
00000150: 001a 923d 1591 183e 0290 49bc cbb2 903b
00000160: 8d7f 54bc d5fd ba3c fda2 b4bd 6a2d c4bc
00000170: ef9d af3c e92d 61bd 0dea 133d fff8 803b
00000180: 286e 12bb e2a0 6a3a 351b 9cbc 1928 ebbb
00000190: 1a2e 1abc ee6e 283e 840f 6f3d 98d2 323d
000001a0: 9e15 89bd 7e46 073d 5025 853b 41e4 5fbd
000001b0: cc3e 1bbb 2dd5 063d 45c4 953d 7891 6f3d
000001c0: b994 8fbc decc b53c bd17 b93d 89e7 55bd
000001d0: 4794 ccbd 9176 163d 6e35 54bd 1010 aa3d
000001e0: 98c1 7f3c 52fc 543d d8f3 883d 777e c0bd
000001f0: 9f5b c43d b7dc 843c 297e a0bc 8ea6 32bd
00000200: b4c2 cabc c0cf a1bb 2f42 6bbc a648 99bc
00000210: 931e 4dbd 0f22 b03c 0b5f 2f3c 37f3 c43c
00000220: d629 753b 2e16 e6bb 7269 abba 333f eabb
00000230: 9479 0e3b 7533 b43b 2122 3a3c a677 a0bb
00000240: bbe7 70bc aa37 dfbc 1054 a43c 80d1 0d3c
00000250: e2f9 3f3d fcf5 71bb ea2a 633b 049b e9bb
00000260: 29e9 453c 9aa5 d6bc 5c37 153c 257e 113c
00000270: 61bb 6839 cf4f 043d 23e1 18bb 7838 c03b
00000280: 461c a33c 6bdc 773c 5902 393c e380 03bd
00000290: 474f 2b3d 83e4 c23c 9322 39bc 99df 013d
000002a0: e6bd 373d d24f a0bc 576b 833b 19e1 bf3a
000002b0: f5c7 91bd 99a7 973c 7095 94bc d534 533d
000002c0: 8bda 7fbc bad2 cfbc 0919 903c 4c64 00bc
000002d0: d306 4ebb b517 cfbb 99a2 d63c e1c4 dc3c
000002e0: 0e41 4b3c 2c6d 1cbd 2474 4f3c 46a2 6c3c
000002f0: f357 4ebc a1e6 0abd 2059 0c3d 4797 be3b
00000300: 052f e9bc 059f 60bc 18cd 22ba 01e0 0dbd
00000310: 90a4 f338 1a4f 63bc 1296 05bd 2264 503c
00000320: a311 4b3c fd5a b83a cd3d f33c 2407 6fbc
00000330: 066a ca3c 8ad9 2ebb ce7c 2cbc 71bb b33c
00000340: f125 7dbc 8dd2 0d3b e5aa 94bc 5b76 fe3a
00000350: 8c7c d23c 34f7 0b3b 6e21 ac3b 1aa5 b3bc
00000360: 5f24 8d3c a601 37bc b137 83bc b51b 6c3c
00000370: 55e1 b33b 9d88 18bb e13f bf3b b9fa 633c
00000380: 0c9c 513c bdc3 983c d87c 29bd 1339 fbbc
00000390: 645d 2cbd 402f 8fbc 6bcc 3abd efdd 31bb
000003a0: 0bea 6bbc 4e0d 093d 51cd bd3c 1f57 dfbc
000003b0: aa65 f939 a928 4ebb 6b34 753d 87b7 483c
000003c0: 253b 463c 5c09 37bb 27ea 1dbc d2b3 20bc
000003d0: 404f 0c3c 6c69 0b3b ab21 afbc 6554 85bb
000003e0: 87f0 d73c d461 e4ba fc83 e23c 2d25 2b3d
000003f0: 9686 dc3a 8895 35bc 724c ba3c 8a11 f03c

layer.6.bias f4 [23]
0.4061461 0.117405005 0.28717598 0.039919294 0.06155573 0.37903237 0.414563 0.27550045
0.099656045 0.42751724 0.12114593 0.09764305 0.04352493 -0.036374547 0.020507725 0.049868826
0.063487984 0.49613076 0.07759201 0.023454206 -0.028888512 0.1522306 0.021245308
00000000: 62f2 cf3e 0972 f03d bb08 933e 6a82 233d
00000010: dc21 7c3d 8810 c23e 9a41 d43e 650e 8d3e
00000020: 7818 cc3d 8ae3 da3e 5b1b f83d 14f9 c73d
00000030: 3247 323d 7afd 14bd d1ff a73c 4143 4c3d
00000040: fd05 823d da04 fe3e 8fe8 9e3d 0923 c03c
00000050: 9aa7 ecbc 57e2 1b3e a40a ae3c
