weight/save_390.pth (torch_old, 72900 bytes, 8 tensors)

layer.0.weight f4 [32, 139]
000000 d5 4a a4 3d 9b af 8f be 37 4c d2 bc 55 92 a4 bd
       0.080220856 -0.28063664 -0.025671108 -0.08035723
000010 9c df 78 bd ba 6d f1 bc 06 12 88 bd 49 3c 17 3c
       -0.060760126 -0.029471267 -0.06644063 0.009230682
000020 42 06 84 bd ee 5b db bd d2 7d 45 bd cd 4e 10 3d
       -0.06446506 -0.107108936 -0.048215695 0.0352314
000030 23 8f 3a 3d db 57 4e 3d 4a 6b c7 bd 14 61 81 bc
       0.045546662 0.050376754 -0.09737261 -0.01579336
000040 c2 91 05 bc 16 e4 37 3c 1a 11 c6 3c b6 b8 b9 3c
       -0.008152427 0.0112238135 0.024178077 0.022671085
000050 43 b9 65 bd 8b c3 05 3d f1 5b 33 bd 49 4d 23 bb
       -0.056084882 0.032657187 -0.043788854 -0.0024917892
000060 ca a3 c9 bc 6b 37 13 3d 8f 3d 99 3d 2b ee 66 3d
       -0.024614234 0.035941523 0.074824445 0.05637948
000070 55 72 4f 3b 7a db 0d bd ab 00 37 3d 11 4a 25 bd
       0.003165384 -0.034633137 0.04467837 -0.04035384
000080 5f cb 11 3d b1 f2 22 bd 92 a6 93 bd bc 96 99 bc
       0.03559434 -0.03978223 -0.07209505 -0.018748634
000090 68 d9 98 3a 0a 9e 86 37 68 e8 8e 3c 81 c4 6d bd
       0.0011661472 1.6047637e-05 0.017444804 -0.05804873
0000a0 70 da 8f 3c 01 6a 63 3d 02 b1 2d 3d 5d 6d b4 bc
       0.017560214 0.055521015 0.042405136 -0.022024805
0000b0 e4 ac 1e bc 21 fc d3 3c 19 20 33 3c 69 7e d0 3a
       -0.009684775 0.02587706 0.010932946 0.0015906814
0000c0 dd 9f 74 3d 53 25 96 bd fb 1d 1f bd 79 21 34 3c
       0.05972277 -0.07331338 -0.03884695 0.010994309
0000d0 f9 b6 25 3d 43 eb 86 3d 5f 64 5b bd 43 25 98 3d
       0.0404577 0.06587841 -0.05356252 0.07428982
0000e0 7e 7c ca bc 72 52 78 bd 38 13 23 3c 0d 91 79 bd
       -0.024717566 -0.0606255 0.009953313 -0.060929347
0000f0 f9 78 51 bc 97 2d 3a bd 81 47 6d bc ad af 71 3d
       -0.01278519 -0.045453634 -0.01448238 0.059005428
000100 6f 47 82 bd 42 0d 99 3c 0c 6f 3c bd 5d 7d c2 bc
       -0.06361281 0.01868308 -0.04600434 -0.023741418
000110 74 de ec bc c5 ad c7 bc 39 8c 8a bd b8 db 78 bd
       -0.028914668 -0.024374852 -0.067650266 -0.060756415
000120 56 4f 13 3c db 5d b0 39 ec 89 bf bc 35 85 4d 3c
       0.008991083 0.00033639264 -0.023381196 0.012543966
000130 37 57 ce 3c 16 e2 01 bd 83 5c 9a bd 22 7b 87 bd
       0.025188072 -0.031709753 -0.075371765 -0.066152826
000140 bb d3 dd bc 76 0e 82 bc 62 12 46 3d ae 1d 13 3d
       -0.0270785 -0.015876036 0.048357375 0.035916977
000150 fd aa 02 bd 00 bc a7 bd b6 e8 d1 bc 88 5c 4b bd
       -0.03190135 -0.08190155 -0.02562366 -0.04964879
000160 a3 78 5f bd d2 f7 57 3d 30 c2 18 3c c3 2f 45 bd
       -0.054558408 0.052726574 0.009323642 -0.048141252
000170 f2 71 17 3c 68 5a cd bc 00 28 90 3c f9 3b 70 bd
       0.009243475 -0.025067523 0.017597198 -0.058650944
000180 c7 ea ee bb 23 34 53 3b aa e7 49 3d da 30 30 bd
       -0.0072911712 0.003222712 0.049293198 -0.04301534
000190 aa 04 52 bd cc 10 3c bd 57 39 98 bd 60 63 09 3c
       -0.05127398 -0.045914456 -0.07432812 0.008385509
0001a0 a3 7d ab bb 7b d6 06 3a 70 1b 88 3c 24 2b ac bd
       -0.005233483 0.00051436544 0.016614646 -0.08406666
0001b0 d2 89 92 ba 36 23 68 3d 6a f7 9d bd e1 8a 50 3d
       -0.001117999 0.056674205 -0.07713206 0.050913695
0001c0 ff 68 3c bc 1e ef 92 bd e2 11 12 3d 8d 74 3d bc
       -0.011499642 -0.07174514 0.035661586 -0.011563432
0001d0 dd 0b 4a bb ab 95 37 3d 9c e1 21 bd 7b 43 7b 3d
       -0.0030829825 0.04482047 -0.0395218 0.06134365
0001e0 39 a6 ca 3c a4 96 cc bb cf 16 e3 3c 73 79 50 bd
       0.024737464 -0.0062435437 0.027720837 -0.050897073
0001f0 49 00 8f bd 0e cf 6b 3d 65 00 0f bd 57 8c 51 bd
       -0.06982476 0.05757051 -0.034912486 -0.05115923
000200 27 50 53 bb 1f d5 4c bd ee ac 70 bc a2 b6 43 bd
       -0.003224382 -0.050007936 -0.014689667 -0.047781594
000210 13 01 9b bd 1f 6a 98 bd e5 3f 86 bd bb 3c a5 bd
       -0.07568564 -0.07442116 -0.06555156 -0.08068224
000220 e4 c5 48 3d 80 9f 6e bb 2d 6d 31 bb 02 3e 46 3d
       0.04901685 -0.0036410987 -0.002707313 0.04839898
000230 68 f9 e9 be a9 a9 f9 3e 52 66 76 3d e6 d8 df 3e
       -0.45698094 0.48762253 0.060156174 0.43720168
000240 2a 9a 3a 3d 45 a0 90 bd 31 53 8a bc d0 13 54 be
       0.04555718 -0.07061819 -0.016885372 -0.20710683
000250 35 11 55 be 87 40 9c be 0f 38 3b 3c 1a d8 a5 3d
       -0.20807345 -0.3051798 0.01142694 0.08097859
000260 c1 bb d1 3b 77 dc 3e be 31 88 83 39 82 07 be bd
       0.006400556 -0.18638788 0.00025087738 -0.09278776
000270 67 9c 97 bc 60 72 3a 3d 9e 52 48 3b fe 0f 2e 3c
       -0.018507196 0.045519233 0.0030566822 0.01062393
000280 02 90 5c 3d dc 35 78 3d f5 3b d3 bc c2 a4 27 3d
       0.053848274 0.06059824 -0.025785426 0.04092861
000290 e7 17 c2 bc 3b f5 d5 3c 4d 0a a4 bd 98 50 26 bd
       -0.023693038 0.026117912 -0.08009777 -0.040604204
0002a0 67 c7 e7 3a 17 a2 85 3d c1 9a 8a bc d5 6f a0 bc
       0.0017683328 0.06525057 -0.016919496 -0.019584576
0002b0 32 64 cc bc 6f 91 6f bd 35 e6 86 bc 94 7f e2 bb
       -0.02495012 -0.058488306 -0.016467193 -0.006912181
0002c0 9f 17 5f bd bc fb 88 bc 6d 28 6d bd c8 e2 db bb
       -0.054465886 -0.016721599 -0.05789988 -0.006710384
0002d0 11 32 8d 3d 0f 9e 8a bd 87 ca ca 3c a7 98 ab 3c
       0.06894315 -0.067684285 0.024754776 0.020946814
0002e0 05 0f 31 3c d9 4d 64 3c b0 d3 28 bd ba 76 02 bd
       0.010806804 0.013934576 -0.041217506 -0.031851508
0002f0 b1 dd 20 3d 2d 2c 7f 3b 85 f5 c2 3d 9e 05 44 3c
       0.03927392 0.0038936243 0.095194854 0.01196423
000300 27 52 21 bd 87 19 93 bc c4 ff 06 bc bb 44 92 bc
       -0.039384987 -0.017956508 -0.00823969 -0.017855039
000310 6a fa 0c bc 07 72 04 3a 6d 4b 92 bd 81 32 8f bc
       -0.008604625 0.0005052392 -0.071432926 -0.017480137
000320 3a 9e 29 bd dc ab 21 3d 5b 45 b3 bd 4f 2d 7f bd
       -0.041410662 0.03947054 -0.08753463 -0.06229907
000330 db e2 13 3d b4 cc 0d 3b 50 bd b2 bd cb 42 00 be
       0.036105018 0.0021636905 -0.08727515 -0.1252548
000340 64 65 cd bc 6a 38 69 bd bd 7a 6b 3c 43 55 79 3c
       -0.02507276 -0.056938566 0.014372525 0.015218082
000350 60 d9 c4 3b f4 93 96 bd ce 16 10 3b c4 29 19 3d
       0.0060073584 -0.073524386 0.002198625 0.037393346
000360 c1 7a 1b bd 09 f4 a8 3d 2c 74 83 bd 40 bf 85 3c
       -0.037958864 0.08249671 -0.064186424 0.016326547
000370 e7 12 50 bc b0 57 8a bd cb 1f c3 3d 31 e0 57 bd
       -0.012699819 -0.06755006 0.095275484 -0.05270404
000380 d6 32 5e bd 04 25 80 bd 9f 18 81 bc fc 19 c6 bd
       -0.0542477 -0.0625706 -0.01575881 -0.09672925
000390 4b 57 10 3d 1c de 92 3d 08 9b 06 bd a0 40 b4 3b
       0.0352395 0.0717127 -0.032862693 0.005500868
0003a0 3f 2b 57 3c 74 a7 98 3c dc 9f 01 3d b6 2d 24 3d
       0.013132869 0.018634535 0.031646594 0.040082656
0003b0 3b 30 ab bb e2 2a 38 3d df 84 6e bd 40 a6 12 bd
       -0.0052242554 0.04496277 -0.058232184 -0.03580308
0003c0 fc 6d 68 ba d4 91 64 3c 52 c5 5f bd e1 d0 20 bd
       -0.00088664866 0.013950784 -0.05463154 -0.039261702
0003d0 bd 27 a1 bc 1c 18 0f bc 4a b6 b5 bd a5 3c b8 3c
       -0.019672269 -0.0087337755 -0.088726595 0.022489855
0003e0 9d 31 e1 3c 28 2b d0 bc ba 82 9d bd 03 96 83 3c
       0.027489478 -0.025411204 -0.0769095 0.016062742
0003f0 dd 4d b5 3a bc ff 6f bd af 47 0b 3d b9 0f 37 3b
       0.0013832409 -0.058593497 0.03400391 0.0027932955

layer.0.bias f4 [32]
000000 7f 3e 5f 3c e3 b8 e0 3e b1 da 2e 3b 3c 1d ff b9
       0.01362574 0.43891057 0.0026680643 -0.0004865917
000010 04 ed d8 bd 45 1a 19 3d c7 5b 82 3c 0d fc 1c 3d
       -0.10592082 0.03737857 0.015912903 0.03832631
000020 b0 26 fe bc 81 5f 2c 3d 8a eb 60 3d a4 96 17 3e
       -0.031024307 0.042083267 0.054912128 0.14803559
000030 70 65 95 bd d8 6e e4 3e 44 4d c9 3d cd 55 1b 3d
       -0.07294738 0.44615817 0.098291904 0.037923623
000040 21 76 ba bc 20 16 b9 bc 40 dc 49 3e 78 99 f1 3e
       -0.022761406 -0.022593558 0.19712925 0.471874
000050 65 31 e7 bd ba 3e fc 3e 70 0f a6 bd eb 6e 2a 3e
       -0.11288718 0.49266607 -0.08108413 0.16643874
000060 b0 ee a4 bd 0d 06 ec 3e 09 f6 81 bd f6 43 71 3d
       -0.080533385 0.46098366 -0.063457556 0.058902703
000070 22 2e 25 3f c7 65 60 3c 81 5b 0a be 50 2e 96 bc
       0.6452352 0.013696141 -0.13511468 -0.01833263

layer.2.weight f4 [64, 32]
000000 36 78 01 3d 26 4f 9d bd 23 0f c6 bd 66 77 a1 3d
       0.031608783 -0.07681112 -0.09670856 0.078841016
000010 7a 5e 7e 3d d5 59 26 bd 46 8a 85 3d 83 85 11 3e
       0.06210182 -0.040613014 0.06520514 0.14211087
000020 e6 da 28 3e 5d 3e 1b be e1 af b5 3d fc 27 b3 3b
       0.16489753 -0.15160508 0.08871437 0.005467413
000030 2e ac 0d 3e bb 7c cc bd 98 35 18 3e f1 6d d8 3c
       0.13835213 -0.09984728 0.14864194 0.026419612
000040 a4 a0 1f 3e fb c8 c7 bd 3a 32 10 3e d2 e9 50 3c
       0.15588623 -0.09755131 0.1408166 0.01275106
000050 a3 48 88 bd 2e 0f 20 be 57 90 18 bd e2 ba 87 bb
       -0.06654479 -0.1563079 -0.03724703 -0.004142151
000060 6f fb 06 3c 34 16 cd 3c b2 cb 12 3e 67 93 ab 3d
       0.008238657 0.025035001 0.14335516 0.08377724
000070 d0 26 c5 38 d6 c8 29 3e b3 78 a3 bd de 9f 22 be
       9.4009214e-05 0.16580519 -0.07982006 -0.15881297
000080 dc fb 3b bd 6c 15 d8 bd a8 7c 21 3d c5 32 5d bd
       -0.04589449 -0.10550961 0.039425522 -0.054003496
000090 38 f3 e4 bd 71 b1 f9 bd a7 d0 85 bd 28 cf 97 3d
       -0.11179203 -0.121920474 -0.06533938 0.07412559
0000a0 5b a6 fd bd 80 8d b6 3d d7 50 63 bd c2 6b 0f 3d
       -0.123852454 0.08913708 -0.055497017 0.035014875
0000b0 fd 4e 02 be f1 e4 44 bd 90 85 17 3e 3c ea ab bd
       -0.12725444 -0.048069898 0.14797044 -0.08394286
0000c0 78 6a 49 3d 2a cd 1e 3e 88 8f 07 3d 50 0e b2 3c
       0.049173802 0.15507951 0.033095866 0.02173534
0000d0 ac 66 95 3d 4c 11 f0 3c f6 c7 76 be 84 dc f5 bd
       0.07294974 0.029305123 -0.24099717 -0.12004951
0000e0 92 9c 23 bd 2a 26 48 bd 6b 3d 0e be 90 0d 43 bd
       -0.03994424 -0.04886452 -0.13890617 -0.047620356
0000f0 ff b5 28 bd 53 1e 61 3d 35 ff 02 3e 6f 55 c1 3c
       -0.04118919 0.05496056 0.12792666 0.023600308
000100 f1 8f 1f be 2e 3e 52 be 3d 0b b1 3d 02 25 37 be
       -0.15582253 -0.20531532 0.08644722 -0.17885211
000110 20 58 3e be 82 03 51 be 6b 3f f4 3c 09 08 81 3d
       -0.18588305 -0.20411494 0.029815396 0.06300361
000120 f6 c8 18 3c 8f 83 a4 3d 71 4d ee 3d 3f ef dc bd
       0.009325257 0.08032905 0.116358645 -0.1078782
000130 e1 12 a0 3d 5d b6 d8 bd 81 8c 2e be 11 18 d3 3d
       0.07816101 -0.10581658 -0.17045785 0.10307325
000140 e5 fd 7a 3c f0 63 0b 3d eb 4e da 3c 50 70 9b 3d
       0.015319322 0.034030855 0.02664896 0.07589781
000150 ff fe 01 3e 5a b5 18 3d be c6 a9 bd 48 e8 08 3e
       0.1269493 0.037282325 -0.0828986 0.13369858
000160 07 02 2b be 09 d4 a6 bd 11 dc c8 bd c5 f2 e8 bd
       -0.16699992 -0.08145911 -0.09807599 -0.113744296
000170 ad 96 44 bd 17 02 e3 3d c4 7f a6 bd cb 3a 1b bb
       -0.047995258 0.11084383 -0.08129838 -0.0023686166
000180 f6 b8 b9 3d c1 40 0a 3e f0 22 20 be e8 5c af bd
       0.090684816 0.13501264 -0.15638328 -0.08562642
000190 86 90 2f be fe 2f 61 be ed d7 21 bd ea 95 31 3d
       -0.17144975 -0.21990964 -0.039512563 0.04335586
0001a0 73 5d a3 bd 89 c1 3b 3d 8e 09 fe 3d 3c 45 d5 3e
       -0.079768084 0.045838866 0.12404166 0.41654384
0001b0 4b f3 05 3d e4 d5 c1 3e 8c 92 d4 3d c5 01 1f be
       0.032702725 0.37858498 0.10379514 -0.15528019
0001c0 ff 61 90 3d 4d 11 c4 3d 9a 29 9c bc 1a 50 b6 3e
       0.07049941 0.09573612 -0.019062806 0.35607988
0001d0 3b e5 48 bd e7 a0 da bd 6d 90 cc bd e0 d7 99 3d
       -0.049046736 -0.10675221 -0.099884845 0.07511878
0001e0 c4 7d 23 3e 5a 4e 65 3d 6f c6 8c bd c7 df 9e 3d
       0.15965945 0.055982925 -0.06873786 0.07757526
0001f0 cc ed 1a 3f 63 66 0e be 8b f8 13 3d ed ad 9f 3c
       0.605191 -0.13906245 0.0361257 0.019492114
000200 ab 22 74 bc c7 55 a8 3d 9e 65 16 3e c7 ba 86 bd
       -0.014900844 0.08219486 0.14687201 -0.06578594
000210 3f 01 30 3d 9c 0a 85 bd 12 7d a6 3d 44 ac 1d 3e
       0.04296994 -0.06496164 0.08129324 0.15397745
000220 fe 39 7e bd bc 26 e7 bc c7 84 a9 bd ca 30 d9 bd
       -0.062067024 -0.028216712 -0.082772784 -0.10605009
000230 9f ca e6 3c 08 6e d9 3d eb fc 6d 3d 32 43 f3 3d
       0.02817279 0.1061669 0.05810253 0.11878051
000240 00 9b 1c be ea 9a ea 3d 6e 67 39 be e0 1f ec bb
       -0.15293503 0.11455329 -0.18105862 -0.0072059482
000250 35 e1 a7 bb 1f 49 11 3c e6 91 71 3d bb 63 a9 bc
       -0.0051232823 0.008867531 0.05897703 -0.020677438
000260 75 5c c0 bc a9 74 de bd 72 16 35 bc b8 14 26 bd
       -0.023481587 -0.10862095 -0.011052715 -0.040547103
000270 92 60 3b bd 55 0e 17 3e 59 e1 d9 bd 9c e2 5b bd
       -0.045746394 0.14751561 -0.10638685 -0.05368291
000280 54 14 dd bd 4b c3 2f be 69 a0 00 3d 82 72 91 bd
       -0.10794893 -0.17164342 0.03140298 -0.07101919
000290 ed ec 41 3d 61 2c 27 3d 9c 87 7b 3c d5 b6 46 3d
       0.04734509 0.040813807 0.015352156 0.048514206
0002a0 cc 92 ab 3c ff 53 3f 3d c8 b7 32 3e 0e 62 59 be
       0.020944022 0.046710964 0.1745292 -0.21228811
0002b0 5d a3 e5 3c c3 d4 80 bd 79 af e6 bd a6 b1 3e be
       0.028032 -0.06290581 -0.112639375 -0.18622455
0002c0 39 ed 46 3d 36 3e 14 3e 28 9d b9 bd 31 75 a9 3d
       0.048566077 0.14476857 -0.09063178 0.082743056
0002d0 93 08 8c be 01 a2 c8 bd 88 e2 2a bc c8 03 ec 3d
       -0.27350292 -0.09796525 -0.010429986 0.11524159
0002e0 da 16 7b be d1 46 b5 bd ad 0c 39 be 7d 57 81 3c
       -0.24520436 -0.08851398 -0.18071242 0.015788788
0002f0 e2 80 09 be d2 4c 13 be f7 66 80 3c 64 2e e7 3d
       -0.13428071 -0.14384773 0.015674097 0.11288145
000300 5a 0e a9 3d 2f 84 f4 bc 3e 6a b2 3d c5 90 7c bd
       0.082546905 -0.029848186 0.0871167 -0.0616615
000310 3f db 00 3c df bf 28 be 84 f2 a4 3d ce 9b 39 be
       0.007864772 -0.16479443 0.08054069 -0.18125841
000320 2b 4e 11 be 68 27 65 bd b3 dd 02 3d d1 29 9c 3d
       -0.14189975 -0.055945784 0.03194971 0.07625163
000330 5f 05 ec bd 17 5b 28 3e 88 4b 1e 3e a1 e7 9a 3d
       -0.11524462 0.16440998 0.154585 0.07563711
000340 4a 22 d2 bc b9 ba e2 bd 77 63 e3 bd c2 43 ab bc
       -0.025651116 -0.11070771 -0.11102956 -0.020906333
000350 2c ef 85 bd 4b 48 c5 bd 7c c0 2b 3e 7b b4 bb 3d
       -0.06539759 -0.096329294 0.16772646 0.09165283
000360 68 7e 67 bc b9 26 b1 bd dc ed fb 3d 9d 14 0e 3e
       -0.014129259 -0.08649964 0.123012275 0.13875051
000370 f2 a6 b2 bc 6a 27 93 3c f5 dc df bd b2 91 22 be
       -0.021808121 0.01796313 -0.10930816 -0.15875891
000380 8a f8 b4 bd 54 28 0e 3e ba 43 11 bd 66 43 b4 bd
       -0.088364676 0.13882571 -0.03546498 -0.08801918
000390 8c 1d cc 3d 81 e3 5d be 0b 06 16 bd 25 2e 2b be
       0.09966573 -0.21668817 -0.036626857 -0.16716821
0003a0 55 f8 c8 3d 60 47 fb 3b 70 6d d2 3d b0 b6 8e 3d
       0.098129906 0.0076684207 0.1027478 0.069684386
0003b0 f7 9d 02 be cc 69 6e bd f7 25 3f be 35 d6 78 bb
       -0.12755571 -0.058206365 -0.18666826 -0.0037969474
0003c0 80 0d b4 bd 84 fe 9f bd 32 8e 1d bd 4f 4b 90 bd
       -0.087916374 -0.07812217 -0.038465686 -0.07045614
0003d0 38 d7 49 be 1e 6d c4 bb b7 ce 2b 3c d7 00 c8 3d
       -0.19711006 -0.005994453 0.010486296 0.09765785
0003e0 4a e9 36 be 6b ae 00 3e 9d f1 4b be 75 92 0d 3d
       -0.1786243 0.12566535 -0.19916387 0.0345635
0003f0 3b b7 2e be 8f 09 bc 3d 06 38 09 3d 1c 7e 98 bd
       -0.17062084 0.09181511 0.033500694 -0.074459285

layer.2.bias f4 [64]
000000 2b 4e 06 3f 1d 8f e7 bd e5 d3 d8 3e 66 9f 21 3e
       0.52463025 -0.113065936 0.42349163 0.15783462
000010 e4 a4 2e bd 5b b3 8e 3f cb 57 cf bd 5e 1c 03 3e
       -0.04263772 1.1148485 -0.10124167 0.1280379
000020 34 bf ac 3e 0c 89 49 3d a7 50 03 be fc cc 05 bc
       0.33739626 0.049202964 -0.12823735 -0.008166548
000030 60 31 fe 3d 5c 19 ed 3d 22 e2 12 be a7 81 d7 bd
       0.12411761 0.115771025 -0.14344075 -0.10522776
000040 b7 90 31 3e 5b 35 63 bc f4 26 1f bd 88 32 07 3e
       0.1734036 -0.013867701 -0.038855508 0.1320287
000050 8f d0 e8 bd 3c c3 6d 3e 18 a1 0c bc da 2c 9a bb
       -0.113679044 0.23219007 -0.00858333 -0.0047050538
000060 32 58 43 bb 2d d6 1f 3e 2b fb a2 bd e4 3d b6 3b
       -0.0029807207 0.15609045 -0.07958063 0.005561577
000070 a0 1f 4a b8 36 ab 4f 3d 85 96 c1 3e 57 1e 86 3e
       -4.8190006e-05 0.05070039 0.3781015 0.26195022
000080 27 80 c1 3b 7e 49 af bd c5 ca a0 3e c8 08 f6 bd
       0.0059051695 -0.085589394 0.314047 -0.12013394
000090 04 7b 58 3c 32 59 18 be 92 32 9b 3b 03 d5 0c 3e
       0.013212923 -0.14877775 0.004736253 0.13753133
0000a0 06 d8 dc bd 48 04 94 bb 1c 0c 02 bd a9 a8 ca 3e
       -0.10783391 -0.004517112 -0.03174983 0.39581802
0000b0 97 59 99 3c 40 60 18 3e 5f 75 6c 3d e1 9a 9f bd
       0.018719478 0.14880466 0.05772912 -0.07793213
0000c0 e1 5d c9 bd 33 f0 a8 3e bc b4 91 3e 99 66 ea 3e
       -0.09832359 0.32995757 0.28458202 0.457814
0000d0 b4 92 ff 3d 4d 4d 2d 3f 89 71 09 3c fb c2 5a 3c
       0.12479153 0.67696077 0.008388885 0.013352151
0000e0 05 ce 38 ba f7 e1 9a 3e 05 90 51 bd 54 c2 66 3e
       -0.0007049742 0.30250522 -0.05116274 0.22535068
0000f0 a2 3c cd 3e f5 96 c3 3e fa 3b 78 bc 05 24 72 3e
       0.40085322 0.3820111 -0.015151018 0.23646553

layer.4.weight f4 [128, 64]
000000 20 47 a9 bc 2c 89 b1 bd ec df c2 3d bc a4 80 bd
       -0.020663798 -0.086687416 0.09515366 -0.062814206
000010 d4 44 7c 3d da a7 ec bc aa 43 db 3d de 60 9b 3c
       0.061589077 -0.028888632 0.10706265 0.018967088
000020 41 16 a0 bd 0a 22 cc bb c0 fa b1 bc e7 ba d6 bc
       -0.078167446 -0.0062296437 -0.021726012 -0.026212169
000030 21 e6 56 bd b0 79 99 3c 0f 64 a9 bd e9 71 ba 3c
       -0.05246556 0.018734783 -0.08271038 0.022759395
000040 28 71 71 3d a1 b8 a5 bb 6d 01 c5 3d cf 3e 09 3d
       0.058945805 -0.00505741 0.096194126 0.033507165
000050 9f 42 9a 3d f7 e7 be bd e7 6d a5 bd f1 9e e5 3d
       0.07532238 -0.093215875 -0.08077603 0.11211956
000060 0a af 65 bd cb 63 33 3c d2 6b 1a bc 04 15 7d bb
       -0.056075133 0.0109490855 -0.00942512 -0.0038617263
000070 1a 54 e8 bd fb d3 8f 3d 72 86 8c 3d 4e 3b e3 3d
       -0.11344166 0.07022854 0.06861581 0.11095296
000080 07 79 d1 3c c5 64 5f 3d 96 c1 4a bd 2f c7 8e 3c
       0.025570406 0.05453946 -0.049501024 0.017428963
000090 1e 66 e8 bc 1d 26 10 3c fc da d4 bd 0a d1 5d 3d
       -0.028369006 0.008798149 -0.103933305 0.054154433
0000a0 20 92 03 bd f2 2d 9c bd 49 28 ad bb c3 5c e5 3d
       -0.032121778 -0.07625951 -0.0052843434 0.111993335
0000b0 fd 32 ba 3d 96 b2 24 3c 1b e4 cc 3d 44 90 8a 3d
       0.090917565 0.010052344 0.10004445 0.06765798
0000c0 d7 7b 7d 3d 60 1a b2 bc 00 19 ae 3d c4 fb 97 bc
       0.06188568 -0.021741092 0.08500862 -0.018552668
0000d0 6c 73 34 3d c6 fd ab 3c 4c f6 5a bd 4e fb bc bd
       0.044055387 0.020995032 -0.053457543 -0.0922762
0000e0 7e 8f ca 3a 78 88 91 bd 4e 35 c7 3d b1 42 a7 bd
       0.0015454141 -0.071061075 0.09726964 -0.08167017
0000f0 16 4e 0b 3d 9e 75 2e 3d 2f ee a0 3d 2b 0c e3 3c
       0.034010015 0.042592637 0.0785793 0.027715763
000100 76 25 35 bd 80 a3 0f bc 58 a5 cd 3c fa ad 8d 3d
       -0.04422518 -0.008767009 0.025103256 0.06917949
000110 70 d8 b3 bc 51 db 8c be f4 1c c8 bd 83 d0 09 bd
       -0.021953791 -0.27511075 -0.09771147 -0.033646118
000120 86 1c 9a 3d 45 10 10 3d 0d 70 72 3c 96 24 86 3d
       0.07524972 0.035171766 0.014797223 0.06549947
000130 6a 9a f6 3d ad 4b bb 3b 38 f1 ba bc 6b ca f8 bc
       0.12041171 0.0057158084 -0.0228201 -0.030369958
000140 a5 4b 14 bd 93 15 fb 3d f7 5d 1f bd 3c 44 dc bb
       -0.036204953 0.12259974 -0.03890797 -0.0067220014
000150 0d ea d6 bc 47 3b 77 bb b8 8f f3 bc 72 ec a9 bd
       -0.026234651 -0.003772454 -0.029731616 -0.082970515
000160 94 50 ca 3e 09 41 24 3e 4e 44 3c be dd 8b a1 3e
       0.395146 0.16040434 -0.18385431 0.3155202
000170 e5 e5 11 3e 5e be fb 3d f2 73 6d 3c cb fe 8f 3d
       0.14247854 0.12292169 0.014492976 0.0703102
000180 fa 9a 21 bd 59 e4 a5 3c 5d 33 01 3c 0a e9 e7 bc
       -0.039454438 0.020250486 0.007885781 -0.028309364
000190 e6 db bf bb c6 a5 0d 3d 81 a2 90 3e 48 f1 e9 3d
       -0.0058550714 0.034581922 0.2824898 0.11422974
0001a0 ae 10 93 3d b6 b9 9b 3e cf 2b f3 bc 38 86 3f 3d
       0.07180916 0.30415124 -0.029683976 0.04675886
0001b0 fc 7e 63 3e 7d a9 81 3d f0 9e 32 be b7 2c a1 3d
       0.2221641 0.063311554 -0.17443442 0.07869857
0001c0 3c cd c5 bd a1 99 14 3d 25 53 d8 bd 21 ff fa bd
       -0.09658286 0.036279324 -0.105627336 -0.12255693
0001d0 e5 44 1b 3d 45 5f ef bd 0a 48 14 3d c5 ce 9a 3d
       0.0379075 -0.11688093 0.036201514 0.075589694
0001e0 86 82 66 3c 56 70 9f 3d 09 f3 43 be 7a b3 6e 3d
       0.014069205 0.07785098 -0.1913568 0.05827663
0001f0 b8 d4 88 bd 95 70 0f 3e 07 32 9f bb c5 61 bf bd
       -0.06681198 0.1400779 -0.0048582586 -0.0934482
000200 44 8a 2b bc 68 91 e4 bd b6 8b 33 3d 16 84 2c 3d
       -0.010469977 -0.111605465 0.04383441 0.042118154
000210 d4 7e fb bd 60 ab 0d 3f 4c d0 f1 3d a4 cf 19 3d
       -0.1228005 0.5533962 0.118073076 0.037551537
000220 1d 54 c5 3d 20 37 0d 3b 95 5f 61 bd b1 37 b8 3d
       0.09635184 0.002154775 -0.055022795 0.08994997
000230 e2 eb b3 3c ad 2e 57 3c 3f aa 12 3b ae e4 e3 3d
       0.021963064 0.013133687 0.0022379307 0.111276016
000240 c2 b6 20 bc 92 5a 08 3c 18 e9 d4 3c 37 63 45 3a
       -0.009809198 0.008322375 0.025990054 0.0007529738
000250 b2 6c 26 3d 20 9c bf 3d 89 db 44 bd 6f 4a 3a 3d
       0.040631004 0.0935595 -0.048060928 0.04548114
000260 1c fc 7a 3d 0c 95 49 bd 82 14 86 3c 2c f8 30 bd
       0.061275586 -0.049214408 0.0163672 -0.043205425
000270 bc ca 8d 3d b5 41 dc ba a7 14 8d bd 71 66 2d 3d
       0.06923434 -0.001680425 -0.06888705 0.042334024
000280 b6 4b c7 3d 13 8f 00 be 1b 6b 74 bd 36 bf f2 3d
       0.097312376 -0.12554578 -0.059672456 0.11852877
000290 95 cb b5 3c 6c 25 45 3b 0b 73 5b be 71 30 a1 bd
       0.022191802 0.003008212 -0.21430604 -0.078705676
0002a0 52 3e 33 bb 3c a4 d0 bd a3 89 30 bd 97 fe db 3d
       -0.0027350378 -0.10187575 -0.04310001 0.107419185
0002b0 3c 95 8b 3b 7c 75 6a bd 5b bc a0 bd b2 9f db 3c
       0.0042597335 -0.057240948 -0.07848426 0.026809547
0002c0 18 4c ba bd b9 14 10 3d bb 50 38 3d 86 e9 49 3d
       -0.09096545 0.035176013 0.044998866 0.04929497
0002d0 4f 34 9b bc 69 ba f6 3d 22 2e 1e 3c 21 74 bd 3d
       -0.018945841 0.12047274 0.009654554 0.092506655
0002e0 07 8b ad bc b3 13 88 3c 3f 19 07 be 71 b0 0b 3d
       -0.021184457 0.016610956 -0.13193224 0.034103815
0002f0 e3 63 8d bd fa 67 a6 3d 6a 55 41 bd f8 dd 4e bd
       -0.069038175 0.08125301 -0.047200598 -0.050504655
000300 5e 88 8e bd ae 5a 37 bd 3a e1 60 be 33 39 9d 3a
       -0.06959604 -0.044764213 -0.21960917 0.0011995196
000310 10 a0 c4 bd 28 a6 06 bf 21 bf 78 bb ed 88 cc 3d
       -0.09600842 -0.52597284 -0.0037955719 0.09987054
000320 62 d7 ef 3c 00 61 0c be a3 0e 71 bc 0f 01 05 bc
       0.029277507 -0.13708878 -0.014712962 -0.008117928
000330 46 47 28 3e 19 8b 1e 3e 25 c1 a8 bd 2b 93 a1 3b
       0.16433439 0.15482749 -0.082399644 0.004930874
000340 d3 e7 f8 bd ff b9 c6 3e f0 2a ed 3d 50 db 0e 3a
       -0.12153592 0.3881378 0.11580455 0.000544955
000350 e3 8a c0 3b 80 42 14 bd 9e 21 ee bd fe 09 5e 3d
       0.0058759316 -0.03619623 -0.11627506 0.054208748
000360 36 0d 67 3e 87 d0 5b 3e 5d 3f 04 3e 7f 91 8c 3e
       0.22563633 0.21466266 0.12914796 0.27454755
000370 8e 17 63 3e a5 04 4f 3d eb e9 19 be 8a b9 73 3d
       0.22176954 0.05054154 -0.15030639 0.059503116
000380 36 46 85 3d a3 17 6e 3d d5 98 77 bd ae 14 a6 bd
       0.06507532 0.05812801 -0.060448486 -0.08109413
000390 36 6a 0c bd 2b 8f 33 3d 09 5f 89 3e 69 6a 56 3e
       -0.03428098 0.043837707 0.2683032 0.2093903
0003a0 b9 67 ca bd 13 4f 30 3e 4d 00 9f bc 1c 50 d0 3d
       -0.09883065 0.17217664 -0.019409323 0.1017153
0003b0 d2 75 04 3e 09 26 e4 3d ee 93 83 bd b9 ac 65 3d
       0.1293557 0.11140067 -0.064247 0.056072924
0003c0 d5 36 f0 bd 58 26 0f be 1b ae 99 3d 11 27 a7 3d
       -0.117292084 -0.1397947 0.07503911 0.08161748
0003d0 18 12 8a 3c 3d 79 5a be a9 7e 50 3e ee dc 8a 3d
       0.01685433 -0.21335311 0.20360817 0.0678042
0003e0 eb e2 e4 3d e9 12 25 3d 31 2e 28 be 90 45 82 3e
       0.11176094 0.040301237 -0.1642387 0.25443697
0003f0 bf 31 1f 3d ac 48 cb 3e 7f 62 fe 3d 5c c4 99 3e
       0.0388658 0.39703882 0.124211304 0.30032623

layer.4.bias f4 [128]
000000 57 aa 46 3d b1 9a 5b 3e b5 77 12 3e c4 5f 27 3e
       0.048502292 0.21445729 0.14303477 0.16345125
000010 00 cb 56 3d 3f 63 ac 3d 2f d2 ad 3d 8b 04 b5 bd
       0.05243969 0.08417367 0.08487355 -0.08838757
000020 60 68 3b 3d ae 82 e9 3d 27 4c 38 3e 18 6a 47 bc
       0.045753837 0.11401878 0.179978 -0.012171291
000030 2f ab 40 3d 6b d7 fe bd cf 5f 3e 3d c3 89 69 3e
       0.047038253 -0.124434315 0.04647809 0.22806458
000040 9a 33 3f bd f6 a7 18 3e e4 7f 04 be c7 79 c2 3c
       -0.04668007 0.14907822 -0.12939411 0.023739709
000050 87 50 a6 3e 0f d0 d4 bc c4 0f 06 bd 28 c8 51 3e
       0.32483312 -0.025978116 -0.03272988 0.2048651
000060 7f 0e 49 3e b2 4e ad bc 5e ce 21 3e f2 e3 14 3c
       0.19634436 -0.021155689 0.15801379 0.0090875495
000070 51 78 99 3d d2 cd d6 bc c0 51 50 3e f8 7b 7f bc
       0.07493652 -0.02622119 0.20343685 -0.015593521
000080 61 cf f1 3d 12 a5 8f 3e 8e cd ba bd 04 1f c9 3d
       0.118071325 0.28055626 -0.09121238 0.09820369
000090 ec f1 10 be 36 06 f0 3d 0c b5 7f 3d 29 9c c9 bd
       -0.14154786 0.11719935 0.06242852 -0.09844238
0000a0 99 09 11 be 59 3b e9 3b 1f 54 29 3e 91 50 e5 3c
       -0.14163817 0.0071176705 0.16535996 0.027992519
0000b0 8a 38 aa 3d fe e2 a2 3c bd 42 5f 3d e4 ef 5e 3e
       0.08311565 0.019883629 0.054507006 0.21771199
0000c0 ee 45 d5 3d 02 c5 11 bd 6a e9 29 3e 44 fe 48 3d
       0.10413729 -0.035588272 0.16592947 0.04907061
0000d0 33 d1 bf bd ef 42 d6 3e b4 bb 9d bd 4b d3 a4 3d
       -0.093660735 0.4184794 -0.07701817 0.080481134
0000e0 b3 cd 57 bc a7 b3 11 3e d0 cd c6 bd 03 7f 68 3e
       -0.013171601 0.14228688 -0.09707224 0.22704701
0000f0 14 c6 c3 3d 19 1f b5 bd b4 b7 f8 3e bb 23 39 bc
       0.09559265 -0.08843822 0.48577654 -0.011300023
000100 b2 b8 8a 3d 6d 75 df bc 3b d6 97 3c 1f c8 05 3e
       0.06773509 -0.027277673 0.01853477 0.13064621
000110 1a a7 f5 3d 63 7e f2 3d 4c 1f dd 3d 1a 10 ce 3b
       0.11994763 0.118405126 0.10796985 0.0062885405
000120 38 2c 01 be 3b ce 4e bd 17 ae d9 3d f9 e4 b1 3c
       -0.12614524 -0.050489645 0.10628908 0.021715628
000130 0e 0c 09 bd 06 1a 63 3e 59 90 9e 3d c1 1f 90 3c
       -0.033458762 0.22177896 0.07742376 0.017593266
000140 39 0a b7 bc d0 74 82 3d 27 f3 32 3e c8 a5 8e 3d
       -0.022343742 0.063699365 0.17475568 0.06965214
000150 be 1f 94 3e 6f 25 c6 bd 46 4c c9 3d 50 15 4d bd
       0.28930467 -0.09675109 0.09829001 -0.050069153
000160 a6 87 27 be 5d 91 1f bd 2d fa 5b 3f 78 3b 61 3d
       -0.1636034 -0.03895699 0.8592861 0.054988354
000170 ed d0 aa 3d 33 06 16 3e 1f db b4 3d 12 dd 77 bd
       0.08340631 0.14650802 0.088308565 -0.060513563
000180 b5 09 12 bd f5 34 24 3c 9d 89 83 3e be c1 ae 3d
       -0.03565379 0.010022392 0.25690928 0.08533047
000190 d4 2b 0b 3e 5c 13 ac 3e 5b 3a 02 bd 81 02 f1 bd
       0.13590938 0.3360852 -0.031793933 -0.11768056
0001a0 43 aa 33 3e 8e 90 80 bd 4b 72 13 3e aa 38 b1 bb
       0.17545418 -0.062775716 0.14399068 -0.005408366
0001b0 65 47 2e 3d 54 6e 68 bd c4 bf f2 39 52 65 6e 3d
       0.042548556 -0.056745842 0.00046300713 0.058202095
0001c0 e4 e4 07 bd ee e6 7e bd 44 75 9d 3e 97 59 1f 3d
       -0.03317727 -0.06223195 0.3075353 0.0389038
0001d0 73 17 70 3d ac d0 88 3b f2 96 b7 3b 86 28 ef 3d
       0.058616113 0.0041752663 0.005602711 0.11677651
0001e0 0e 35 04 be f9 b4 2b 3b 6f f1 08 3e ce 82 46 bb
       -0.12910864 0.0026200397 0.1337335 -0.0030290368
0001f0 f4 54 17 bd a8 3d d5 bd f5 70 de bd 90 d3 2b 3e
       -0.036946252 -0.104121506 -0.108613886 0.16779923

layer.6.weight f4 [23, 128]
000000 e4 10 25 bd a6 3b c1 bc 8d 7f bf 3c d7 72 51 3c
       -0.04029931 -0.023588013 0.02337625 0.012783728
000010 70 f3 ce 3c f8 c0 b4 3b 45 9a a1 3c d9 6a 0e bd
       0.025262564 0.0055161677 0.019726882 -0.034769867
000020 05 6e 47 3b 37 11 66 3c 25 62 c5 bc 13 bd 80 bc
       0.0030430567 0.01404219 -0.02409465 -0.015715158
000030 4b 56 60 bb 60 ef 22 3c 78 5d 72 3d b0 70 95 3c
       -0.0034231122 0.009944767 0.05917117 0.01824221
000040 fc 2f ac 3c 85 22 4d 3d 69 e4 a1 bd c3 3d 5c bd
       0.021018974 0.05008175 -0.07904894 -0.053769838
000050 41 c9 52 bd ee b6 06 bb ae 22 ff bc b5 ed c3 3c
       -0.051461462 -0.0020555812 -0.031144466 0.023917058
000060 ec 66 4b bd 60 c8 49 3d 00 00 36 3d 6b e6 46 bd
       -0.0496587 0.049263358 0.044433594 -0.048559587
000070 ac 52 72 bc 0e 8e c8 bc 12 0f e0 3c ef 26 c7 3c
       -0.014790218 -0.0244818 0.027350936 0.024310557
000080 91 48 20 3d 7e 30 10 3d f5 87 91 bd a5 f4 47 3d
       0.039131705 0.035202496 -0.0710601 0.048817296
000090 e4 e4 d4 bc d0 b3 2a 3c a2 28 63 bc 02 09 2f bc
       -0.02598805 0.010418847 -0.013864668 -0.0106833
0000a0 54 02 a9 39 f7 b5 64 3d cb 74 72 3c 6c 42 01 bd
       0.00032235926 0.055837598 0.014798353 -0.031557485
0000b0 3d 7d 33 3d 2d 25 3a 3c 85 03 98 bc 4e fb 0c bc
       0.04382061 0.011361402 -0.018556366 -0.008604838
0000c0 7f b3 f5 bc bc bf 91 3b ea 7f 17 bd fd 14 eb bc
       -0.029992817 0.0044479053 -0.036987223 -0.028696531
0000d0 52 76 05 bd 48 3f 2a 3d a7 e5 88 3c e4 5e 81 3d
       -0.032583542 0.041564256 0.01671107 0.06316927
0000e0 ba e8 89 bc eb 89 e3 3c b8 95 87 3d 3a c1 fe 3c
       -0.016834605 0.027775725 0.066203535 0.031097997
0000f0 cc 3d 03 bd 6c d4 1b bd 55 4e 0b bd 4c 61 d4 bc
       -0.032041356 -0.03804438 -0.03401025 -0.025925301
000100 14 c2 9b 3c 85 f8 9c bd 15 b0 2c bc ec f2 82 bd
       0.019013442 -0.07664589 -0.010540028 -0.0639399
000110 65 c2 a0 3c 85 ce 41 3c 02 30 10 bd a0 34 ee bc
       0.019623945 0.011829023 -0.035202034 -0.029077828
000120 99 29 70 bd 1a ef aa bc 9b 3e 6a bb 3f 21 83 3c
       -0.05863342 -0.020865966 -0.0035742882 0.016007064
000130 a4 c5 e4 bc eb 12 7a ba 6d 3e 14 3d 12 a4 89 3c
       -0.027926274 -0.0009539562 0.036192346 0.016801868
000140 23 0c 2d bd bc 99 40 bd 3e fe 0d bd 13 67 6f 3c
       -0.042247903 -0.047021613 -0.034666292 0.014611977
000150 fd 19 8c 3d a8 8b a1 3c fe 6a 52 bc 60 8a 44 3c
       0.06840894 0.019719914 -0.012842892 0.011995882
000160 07 65 d6 39 c0 fb 9e 3d 5a a2 60 bd 31 a9 13 bd
       0.00040892532 0.07762861 -0.05484233 -0.036050025
000170 33 38 1e bd 8e d2 02 bd 5f 69 bb 3d 1e 07 5e b9
       -0.038627815 -0.03193908 0.09150957 -0.00021174221
000180 6b 82 58 bd 02 48 cd 3c 9a 78 2b bc f9 d3 2a 3c
       -0.05285875 0.02505875 -0.010465765 0.010426515
000190 7e 4e 73 bc 10 c8 c4 3d 08 70 fd 3c 37 a9 47 bb
       -0.014850257 0.096084714 0.03093721 -0.003046585
0001a0 7a ba 12 bd f3 40 a0 bb 39 7f 12 3d 98 c4 a7 3b
       -0.03582237 -0.004890555 0.03576586 0.0051198713
0001b0 c8 83 25 bb 2c 78 05 3d 18 eb 88 3d 7f 2f a5 3d
       -0.002525555 0.032585308 0.066854656 0.080657
0001c0 dd ce 6d bc fc 39 31 3c b0 21 f9 3c 3f e5 b8 bc
       -0.014514652 0.010817047 0.030411571 -0.02257025
0001d0 55 c9 8c bc 89 a6 22 3a 87 55 60 bd af fa 9f 3c
       -0.017185846 0.0006204625 -0.054769065 0.019528715
0001e0 71 c0 99 bc cc ed 6e 3d 7b c4 cb 3c 73 14 40 bc
       -0.018768521 0.05833225 0.024873963 -0.0117236255
0001f0 2f 0e 90 3d 4d 3a f8 bc 5a ad b0 bc c5 24 50 bd
       0.07033955 -0.030301237 -0.021567035 -0.050816316
000200 95 2a ec bc 70 6f ea bc e9 34 1a bd 88 5d 93 bc
       -0.028828898 -0.02861759 -0.037648115 -0.017988935
000210 90 4b 78 bd e1 23 10 3d 3e 41 d1 bc 27 f2 23 3d
       -0.060618937 0.035190467 -0.025543805 0.040025856
000220 81 c6 ba bb d8 06 a7 bb da 81 2f 3c 0a e7 90 bb
       -0.005699933 -0.0050972514 0.010712111 -0.0044220733
000230 0b 63 13 3c 41 64 86 3d f1 a0 9d 3c 59 08 49 bc
       0.008995782 0.06562091 0.019241782 -0.012270057
000240 6b e6 7a bc 98 f7 1a bd e5 d1 5b 3c 20 3e 23 3c
       -0.015313725 -0.03783378 0.013416742 0.009963542
000250 cc 05 54 3d fa 1f 33 3c 56 35 19 3c 8b 7c f1 3b
       0.05176334 0.010932917 0.009351095 0.007369583
000260 bb df f4 3c 4c 6b 42 bd dc 64 03 3d 99 72 ca 3b
       0.02989184 -0.047465608 0.03207861 0.006178212
000270 f4 98 ab bc d5 b8 f1 3c 6e 8b 52 3c 31 b2 16 3c
       -0.020946957 0.02950708 0.012850625 0.009197758
000280 77 85 13 3d 29 b5 26 bc ad 38 01 ba f2 6e fb bc
       0.036015954 -0.010175028 -0.0004929405 -0.030692551
000290 0c 5a 20 3d c7 18 d3 3c f3 2f b1 bb f9 58 a4 3c
       0.039148375 0.02576865 -0.0054073273 0.020061957
0002a0 ff 1d 56 3d 6f 1f ba bc 2f 50 31 3b 77 3e d8 bc
       0.0522747 -0.022720067 0.002705585 -0.026396973
0002b0 d5 9b 97 bd 13 2f 3e bd 30 fd 7c bc e0 c1 cb 3c
       -0.074027695 -0.046431612 -0.015441224 0.02487272
0002c0 d3 eb ee bc ab b9 00 bc 9c 67 2a 3c e1 49 40 3c
       -0.029165184 -0.007856767 0.010400679 0.011736364
0002d0 79 2b 92 bc 99 a1 0d bc 23 a3 39 3d 5b 55 84 3d
       -0.017842995 -0.008644485 0.045321595 0.06461593
0002e0 10 37 c8 bc eb 85 10 bd b4 12 e2 3c 11 9d b4 3c
       -0.024440318 -0.035283964 0.027596809 0.022047551
0002f0 67 2e 78 bc 01 30 44 bd 74 8c 18 3d 09 ca 91 3c
       -0.015147782 -0.047897343 0.03724332 0.017796533
000300 9b 12 00 bd aa cc 90 bc 07 9a 60 3b 35 1f 40 bd
       -0.031267744 -0.017675716 0.0034271495 -0.04690476
000310 4d 1f 04 bc ea 5d 23 bc c1 fb 0e bd de 6a 5b 3c
       -0.008064103 -0.009971121 -0.03490806 0.013392178
000320 0e 0d 91 3c f8 0e c4 3b cd 2e 1c 3d a2 42 0f bd
       0.01770642 0.0059832297 0.03813057 -0.034975655
000330 3e f4 3b 3d e6 c0 74 bc 72 b8 88 bc c1 18 b1 b9
       0.045887224 -0.014938569 -0.016689513 -0.00033778514
000340 c1 38 92 3c fe b1 97 bb d1 e2 a7 bc 14 88 9c 3b
       0.017849328 -0.0046293726 -0.020493897 0.004776964
000350 7d 0d 26 3d 4f 79 2a bd 2a b8 18 3d f9 e6 4f bb
       0.040540207 -0.041619595 0.037285008 -0.0031723364
000360 6a 95 bf bb c1 17 74 bb 12 ae 4a bc 0d 7b 8f 3c
       -0.005846669 -0.0037245604 -0.012370603 0.01751473
000370 3d 5e e8 3c 29 44 13 ba ee 49 84 3b b9 c6 e5 3b
       0.028365249 -0.00056177616 0.0040371334 0.007012215
000380 36 b8 8f bc 55 95 89 3c 39 0d 40 bd 5f 8c ab bc
       -0.017543893 0.01679484 -0.04688761 -0.020940958
000390 8c d5 32 bd ad 5c 7e 3c 80 0b 68 bd 34 bc 0b 3c
       -0.043660685 0.015525025 -0.056651592 0.008528758
0003a0 03 d8 0f bb 2a ee 24 3d 16 a8 89 3c 13 16 e2 bc
       -0.0021948821 0.040266193 0.016803782 -0.027598416
0003b0 cc 4a 7f 3b bf 63 a9 bb 26 36 74 3d 90 bd 24 3d
       0.0038954495 -0.0051693614 0.059621952 0.040219843
0003c0 8d 2e a3 3c 11 11 5a 3b 64 a4 ca 3b cd 66 ca bc
       0.019919658 0.0033274333 0.0061841477 -0.024707222
0003d0 f4 88 3c bc 0d 21 8a bb d2 75 01 bd cb 7b 34 3c
       -0.011507262 -0.0042153657 -0.031606503 0.011015843
0003e0 ff f8 3d 3d 9e 1f 4e bc bc c4 29 3d e3 0d f8 3c
       0.04638004 -0.01258078 0.041447386 0.03028006
0003f0 60 32 06 3b f7 58 50 bc f3 35 96 bc 32 0a 14 3d
       0.0020476803 -0.012716523 -0.018336272 0.036142536

layer.6.bias f4 [23]
000000 1f 7f 03 3e 24 e6 b5 3c af ee 42 3e 18 c6 11 bd
       0.12841462 0.022204466 0.19036363 -0.035589308
000010 20 14 3c 3d c1 91 72 3e 78 6f 9e 3d 01 76 78 3e
       0.04591763 0.23688413 0.07736105 0.24263765
000020 4b c5 b5 3c 1a ec 2b 3e 54 bb 6a 3d 35 dc 81 3d
       0.022188803 0.16789284 0.057307556 0.06340829
000030 e1 a4 9d 3d af 65 64 bd 09 63 33 3d ab a9 84 3c
       0.07697464 -0.055761036 0.04379562 0.016194185
000040 76 10 0d 3d 57 1a ef 3e d2 14 f2 3c 59 11 7e 3c
       0.034439526 0.46699783 0.029550944 0.015507066
000050 5f f4 dd 3c 57 e6 e1 3d e4 8f f6 3c
       0.027094064 0.11030262 0.03009791
