weight/save_330.pth (torch_old, 72900 bytes, 8 tensors)

layer.0.weight f4 [32, 139]
000000 d5 4a a4 3d 00 67 54 be 7b e1 84 bc 55 92 a4 bd
       0.080220856 -0.20742416 -0.016220799 -0.08035723
000010 2e 88 81 bd ba 6d f1 bc 06 12 88 bd 20 4a 2a 3c
       -0.06324802 -0.029471267 -0.06644063 0.010393649
000020 1a 81 41 bd f0 0a 90 bd f6 7e 4c bd be ec 10 3d
       -0.04724226 -0.07033336 -0.049925767 0.035382025
000030 0c 24 3a 3d c7 10 75 3d b5 3c a7 bd 65 62 62 bc
       0.045444533 0.059830453 -0.08165876 -0.013817404
000040 d5 8c d1 bc 89 b9 61 3c 87 9b fa 3c 0d 15 7f 3c
       -0.02557985 0.013777145 0.03059174 0.015568984
000050 cb 58 ff bc d9 5c c0 3c cd 67 61 bd e6 9c 5c bc
       -0.03117027 0.023481773 -0.055030633 -0.013465142
000060 f0 3b b1 bc 9e 87 d7 3c 77 95 82 3d 8d 6c 35 3d
       -0.021635026 0.026309785 0.063761644 0.044292975
000070 dc 6b 0e 3d 4f eb 40 bd 5a 7e 18 3d a8 1f 4d bd
       0.03477083 -0.047099408 0.037229873 -0.050079018
000080 16 d3 b1 3c bd c2 47 bd 72 e0 a1 bd 2f 41 cf bc
       0.021707099 -0.0487697 -0.07904138 -0.025299637
000090 60 ed 81 bc 74 6c ea bb 94 e7 8b 3c 24 8c 7b bd
       -0.01586026 -0.007154042 0.017078198 -0.061412945
0000a0 5a 39 86 3c 82 0b 59 3d 91 bc 17 3d c5 11 d6 bc
       0.01638477 0.05298949 0.037045065 -0.02613152
0000b0 dc 2a 8e bb c6 ed ab 3c d1 b5 29 3c b1 0e 83 3a
       -0.0043386053 0.020987403 0.01035829 0.0009998885
0000c0 3e df 84 3d 62 6a 98 bd e9 90 1d bd b9 fc 22 3c
       0.064878926 -0.07442166 -0.038468275 0.009947949
0000d0 04 f1 1f 3d d1 e3 85 3d 00 46 45 bd 73 0e a3 3d
       0.03904821 0.06537593 -0.04816246 0.0796174
0000e0 20 fb c3 bc 22 a2 63 bd b1 9d 6b 3c e0 69 64 bd
       -0.023923457 -0.055574544 0.014380858 -0.055765033
0000f0 24 1a 85 bc e1 4b 23 bd 9b 58 26 bc 83 cd 79 3d
       -0.016247816 -0.039867286 -0.010152961 0.060987007
000100 0f ab 7c bd 0b 87 9b 3c 4d 54 26 bd c3 e8 93 bc
       -0.06168657 0.018985292 -0.04060774 -0.018055325
000110 35 d3 1c bd 27 ae 94 bc 3c 94 86 bd 46 eb 70 bd
       -0.03828736 -0.018149449 -0.06571242 -0.058818124
000120 c3 89 9d 3c 63 e9 13 3b 0f f4 c3 bc a3 b0 44 3c
       0.019230729 0.002256953 -0.023920087 0.012005004
000130 c2 e7 26 3d 43 17 04 bd 83 5c 9a bd 22 7b 87 bd
       0.040748365 -0.032248747 -0.075371765 -0.066152826
000140 2e 39 cc bc 76 0e 82 bc 62 12 46 3d ae 1d 13 3d
       -0.02492961 -0.015876036 0.048357375 0.035916977
000150 24 c6 a3 bc 00 bc a7 bd b6 e8 d1 bc 88 5c 4b bd
       -0.019991942 -0.08190155 -0.02562366 -0.04964879
000160 71 86 52 bd d2 f7 57 3d 30 c2 18 3c c3 2f 45 bd
       -0.051397745 0.052726574 0.009323642 -0.048141252
000170 2a a9 84 3c 68 5a cd bc 00 28 90 3c f9 3b 70 bd
       0.016193945 -0.025067523 0.017597198 -0.058650944
000180 33 66 92 bb 23 34 53 3b aa e7 49 3d da 30 30 bd
       -0.0044677495 0.003222712 0.049293198 -0.04301534
000190 be 1c 94 bd cc 10 3c bd 57 39 98 bd 60 63 09 3c
       -0.07232045 -0.045914456 -0.07432812 0.008385509
0001a0 f2 8d 73 3b 7b d6 06 3a 70 1b 88 3c 24 2b ac bd
       0.0037163463 0.00051436544 0.016614646 -0.08406666
0001b0 e0 56 61 3a 36 23 68 3d 6a f7 9d bd e1 8a 50 3d
       0.0008596014 0.056674205 -0.07713206 0.050913695
0001c0 74 a0 6f bb 3f 4a 86 bd e2 11 12 3d 8d 74 3d bc
       -0.0036564143 -0.0655713 0.035661586 -0.011563432
0001d0 66 fa b2 bc 4b ec 72 3d 9c e1 21 bd 7b 43 7b 3d
       -0.021847915 0.059307378 -0.0395218 0.06134365
0001e0 a3 82 f8 3b 8a 30 33 bc cf 16 e3 3c 73 79 50 bd
       0.0075839325 -0.010936866 0.027720837 -0.050897073
0001f0 54 03 a1 bd ef fe 5b 3d 65 00 0f bd cd 42 38 bd
       -0.07861963 0.05370992 -0.034912486 -0.04498558
000200 76 e2 aa 39 21 e2 33 bd ee ac 70 bc 2b 66 0c bd
       0.00032593653 -0.043916825 -0.014689667 -0.034277122
000210 73 8a 9a bd ac 73 90 bd e5 3f 86 bd d2 8a ac bd
       -0.07545938 -0.07053313 -0.06555156 -0.084249154
000220 57 bf 39 3d 1e 1e a6 3a b8 2f 63 3b 02 3e 46 3d
       0.04534849 0.001267377 0.0034665894 0.04839898
000230 3a bc 8e be 79 3b eb 3e 52 66 76 3d be ba c7 3e
       -0.2787798 0.45943812 0.060156174 0.3900966
000240 2a 9a 3a 3d 45 a0 90 bd 3e c0 6c bc 27 fe 40 be
       0.04555718 -0.07061819 -0.014450131 -0.18846951
000250 6e 79 34 be 81 5e 28 be 38 19 77 3c 2a f8 ab 3d
       -0.17624447 -0.164423 0.015081696 0.08396943
000260 c1 bb d1 3b 7f 15 6e bd d1 9c 36 3c 10 5b b6 bd
       0.006400556 -0.05812597 0.011145786 -0.089040875
000270 96 2a 18 bc 8c 4f 6a 3d d1 26 15 3c 56 c1 cb 3b
       -0.009287497 0.057204768 0.009103493 0.006218116
000280 36 f9 7a 3d 1c d5 39 3d b9 5f bd bc 24 d3 1a 3d
       0.061272822 0.045369253 -0.023116933 0.037799016
000290 aa ee 9b bc 00 e7 cf 3c 0c 55 9c bd f4 17 12 bd
       -0.019034702 0.025378704 -0.07633409 -0.035667375
0002a0 be cd fb 3b 9c e7 86 3d c4 cd 85 bc 58 8e d4 bc
       0.0076844385 0.06587145 -0.016333468 -0.025946781
0002b0 9a 5f da bc 8a db 7d bd 1d 40 8a bc 9a ad e6 bb
       -0.026656915 -0.061976947 -0.016876275 -0.007039738
0002c0 9b f5 6c bd e3 96 41 bc 20 1d 66 bd e6 d3 b4 bb
       -0.057851415 -0.011815759 -0.05618012 -0.0055184243
0002d0 8a 4a 89 3d 20 32 8f bd cf ce d4 3c 47 2c 00 3d
       0.0670367 -0.069919825 0.02597752 0.031292226
0002e0 1e 03 4b 3c 6b 7e 3e 3c 44 15 49 bd 5e 08 a6 bc
       0.01239088 0.01162682 -0.049092546 -0.020267662
0002f0 04 2f ea 3c ac 0c f9 3b 55 aa c1 3d 42 22 58 3c
       0.028586872 0.0076003876 0.094563164 0.013191761
000300 c1 44 15 bd 68 d6 aa bc 7f 83 55 bc 3b 88 49 bc
       -0.036442522 -0.02085419 -0.013031839 -0.012300546
000310 9a fd 38 bc b6 30 3d 3b 60 3a 9e bd 0a 77 f0 bc
       -0.011290932 0.0028868145 -0.07725978 -0.029353637
000320 a7 51 41 bd 5f 1b 17 3d 5b 8d b8 bd 85 ed b8 bd
       -0.04719701 0.036891337 -0.090113364 -0.09029678
000330 ad 15 fb 3c 69 ff 81 ba a9 62 bb bd 76 e5 ea bd
       0.030649984 -0.0009918037 -0.09149677 -0.114695475
000340 3f 0c 03 bd 4c 60 91 bd 2c 37 f9 3b 9c 17 27 3d
       -0.0319941 -0.07098445 0.007605454 0.040794
000350 bf ac 37 ba 5a 11 c0 bd c4 75 66 bc 07 2b 31 3d
       -0.0007006637 -0.093783095 -0.014066163 0.043253925
000360 41 60 5d bd 76 2d 4d 3d b1 46 b6 bd af f0 9a 3c
       -0.054046873 0.050092183 -0.08900202 0.018913595
000370 a2 57 0b bd a2 1e e3 bd 5c a4 5d 3d f6 ab 19 bd
       -0.03401912 -0.11089827 0.054111823 -0.03751751
000380 0f da be bd 8b e6 c5 bd a8 2b 42 bd 18 e4 ae bd
       -0.09318935 -0.09663113 -0.047404915 -0.08539599
000390 c4 8a e7 3b 7b 8b 74 3d af b3 3c bd ce 12 8e 3c
       0.0070661027 0.05970333 -0.046069797 0.017342951
0003a0 39 a9 e0 b8 77 6b 34 3c fa f8 c5 3c 9d b3 10 3d
       -0.000107126725 0.01101195 0.024166573 0.035327543
0003b0 14 3d 50 bc a6 6d 1a 3d 01 fa 88 bd 24 08 01 bd
       -0.012709875 0.037702225 -0.066883095 -0.031501904
0003c0 9b b9 2f bc 0c ba 3a 3c 12 91 69 bd 39 76 6b bd
       -0.010725404 0.011396896 -0.057023115 -0.057485793
0003d0 df a4 b2 bc 23 57 42 bc 64 9c ba bd d3 0a 95 3c
       -0.021807132 -0.011861595 -0.091118604 0.018193638
0003e0 04 ca ca 3c 99 78 bf bc 0e 56 99 bd 67 6b ad 3c
       0.024754532 -0.023372935 -0.07487117 0.021169377
0003f0 15 30 93 bb 32 a6 67 bd 38 a1 13 3d ac f9 bd 3b
       -0.004491816 -0.05655498 0.036042422 0.0057975855

layer.0.bias f4 [32]
000000 8d 77 36 3c bd 9a c8 3e 54 aa 2c bd f8 54 84 3b
       0.011136902 0.39180556 -0.042154625 0.0040384494
000010 8a 1b 01 be b3 35 25 3d 62 0f 82 3c 19 0a 32 3d
       -0.12608162 0.040334415 0.015876476 0.04346666
000020 b2 99 3e bd 65 7c 3f 3d a6 db 20 3d d2 a7 8d 3d
       -0.046533294 0.04674949 0.039271973 0.06916775
000030 d6 87 95 bd 85 18 bf 3e 64 77 9e 3d d3 22 6a 3c
       -0.07301299 0.37323394 0.07737616 0.014290529
000040 47 3d 17 bd 08 73 38 bd 95 97 12 3e 28 0a cc 3e
       -0.036923673 -0.045031577 0.14315636 0.398515
000050 8d 27 ea bd ce 07 e1 3e 83 da a2 bd ac cc e6 3d
       -0.11433325 0.43951267 -0.07951834 0.11269507
000060 3c c6 af bd 8f 70 d1 3e 42 ff b2 bd 20 d3 75 3d
       -0.08582732 0.40906188 -0.08740093 0.060015798
000070 fe 6c 18 3f 92 7d 95 3b 34 e4 01 be 50 2e 96 bc
       0.5954131 0.0045620883 -0.12684709 -0.01833263

layer.2.weight f4 [64, 32]
000000 5a a2 fd 3c b5 c5 9a bd bd ed e4 bd 3b d6 a4 3d
       0.030961204 -0.07557241 -0.111781575 0.08048674
000010 d8 7f 0e 3d ee 80 48 bd b8 0f 82 3d 5a a7 14 3e
       0.03478989 -0.048951082 0.06350654 0.14516965
000020 07 de 27 3e 86 98 19 be ab 30 b0 3d 1d 6c 19 bd
       0.1639329 -0.1499959 0.08603033 -0.03745662
000030 08 bd 08 3e 0d 97 b2 bd b0 f9 17 3e 92 57 d5 3c
       0.1335336 -0.08720217 0.14841342 0.026042733
000040 71 aa 20 3e 69 a4 98 bd bb 2c d7 3d 68 8f 25 3d
       0.15690018 -0.07453234 0.105065785 0.040419966
000050 c5 49 c1 bd 8b ac 23 be 27 82 33 bd 00 69 2c 3b
       -0.094378985 -0.15983789 -0.043825295 0.0026307702
000060 33 9f 26 3c 17 fa 1f 3d 6d a7 d0 3d 7a 3b 7f 3d
       0.010169792 0.039056864 0.10188184 0.06231258
000070 1f d7 a8 bc bf a9 2b 3e 88 37 99 bd de 9f 22 be
       -0.02061039 0.16763972 -0.07481295 -0.15881297
000080 d1 bb 99 bd 7f 1e d9 bd c9 43 43 3d 3e 3f bf bd
       -0.07506526 -0.1060152 0.047672067 -0.09338234
000090 d0 c5 eb bd 69 78 fb bd 8c b1 9e bd 77 47 9b 3d
       -0.11512339 -0.12278826 -0.07748708 0.0758199
0000a0 f4 31 fd bd b2 f3 ba 3d 5f 64 43 bd e9 74 bb bc
       -0.123630434 0.091285124 -0.047703143 -0.022882896
0000b0 1b 69 0a be c1 0b 03 be 9b bb 17 3e 10 44 b0 bd
       -0.13516657 -0.12797453 0.1481766 -0.08606732
0000c0 cb 73 63 3d 2d 64 13 3e a3 d7 13 bd ae 4b 37 3d
       0.05553035 0.14393683 -0.03609432 0.04474991
0000d0 3a 35 79 3d b9 8d 9d 3c e7 bb 95 be 51 7c e6 bd
       0.060841776 0.019232618 -0.2924492 -0.1125418
0000e0 85 47 67 bd 9e ba 73 bd 25 7d 0a be 90 0d 43 bd
       -0.05646469 -0.059504144 -0.13524301 -0.047620356
0000f0 19 a7 87 bd 31 de 49 3d 95 f8 fd 3d 6f 55 c1 3c
       -0.06623668 0.049284164 0.12400929 0.023600308
000100 3a b6 0d be 3e 75 4b be 24 af a4 3d cd 63 f0 bd
       -0.13839045 -0.19868943 0.08041218 -0.117377855
000110 70 95 04 be ee 3e 51 be dd 9d f7 3c 10 f3 93 3d
       -0.12947631 -0.20434162 0.030226642 0.07224095
000120 40 13 0e 3e 65 08 b1 3d b1 09 f5 3d 2d 2e 89 bd
       0.13874531 0.08644179 0.11964739 -0.066982605
000130 6c ea 8c 3d 5a 9c 02 be 47 28 32 be a3 22 ad 3d
       0.0688065 -0.12754956 -0.17398177 0.08453872
000140 a4 50 82 3c cd a9 da 3d 49 e7 d6 bb d8 b2 5d 3d
       0.015907593 0.10676918 -0.006558333 0.054125637
000150 29 d6 0c 3e 44 b6 65 3c fc 44 3e bd 63 7b 0d 3e
       0.1375357 0.014020506 -0.046452507 0.138166
000160 e0 59 43 be 04 e9 c1 bd 15 7b a7 bd c5 f2 e8 bd
       -0.19077253 -0.09468272 -0.08177773 -0.113744296
000170 5e d2 bc bd 75 0e dc 3d e8 91 cc bd cb 3a 1b bb
       -0.09219812 0.10744945 -0.09988767 -0.0023686166
000180 11 08 b7 3d d7 65 09 3e 45 28 1e be 36 49 a7 bd
       0.089370854 0.13417755 -0.15445049 -0.08168261
000190 28 20 1f be b4 d9 3e be 44 86 32 bd 6c be 39 3d
       -0.1553961 -0.18637735 -0.043585077 0.045347616
0001a0 b4 52 c9 bd 09 1e 3f 3d f5 17 01 3e d1 6e af 3e
       -0.098302275 0.046659503 0.12606795 0.34264234
0001b0 6d 71 07 3d 66 b8 98 3e 2b 48 d0 3d 0d 2e 14 be
       0.033067156 0.29828185 0.10170015 -0.14470692
0001c0 9d e3 95 3d df 50 c3 3d f4 09 92 bd 43 9e 8b 3e
       0.073188044 0.09536909 -0.07130805 0.27269182
0001d0 2a 58 88 bc 3b c4 cc bd 25 a0 f9 bd 3a b5 85 3d
       -0.016643602 -0.099983655 -0.12188748 0.06528707
0001e0 ac 3d 28 3e 99 0a 3f 3d 7b 97 0d 3c a3 f6 af 3d
       0.16429776 0.046640966 0.008642073 0.08591964
0001f0 dc d1 09 3f 89 3f 14 be 7a 9d 50 3d ed ad 9f 3c
       0.53835845 -0.14477362 0.05093143 0.019492114
000200 3f af d7 bc 83 28 a8 3d cc 71 fe 3d 69 b6 65 bd
       -0.026328681 0.08210852 0.12424049 -0.056082163
000210 47 9d 32 3d dd 0f 80 bc 06 ae a5 3d 57 4f 21 3e
       0.043607023 -0.015632564 0.08089833 0.15752922
000220 df 18 3f bd 1b 8c ee bc 5b ed bf bd 26 ed 11 bd
       -0.04665458 -0.029119542 -0.09371444 -0.035626553
000230 a7 a0 95 3c ab 54 c5 3d b7 8a 63 3d 1d 19 d0 3d
       0.018265082 0.0963529 0.05555221 0.1016104
000240 68 32 22 be 54 ab ff 3d 95 b8 50 be fe fa f2 bb
       -0.15839541 0.1248385 -0.20382912 -0.0074151745
000250 db c3 0e bd 0f cb a5 ba 6d 5c 84 3d 97 34 90 bc
       -0.03485475 -0.0012649017 0.06462941 -0.017603202
000260 b0 28 a0 bc 9e 7b eb bd b3 e0 6f bd 19 6d c0 bc
       -0.019550651 -0.114981875 -0.0585639 -0.023489522
000270 c6 12 20 bd 35 14 16 3e 75 43 fa bd 9c e2 5b bd
       -0.039080404 0.14656146 -0.12219898 -0.05368291
000280 bd ad fc bd a2 51 3f be 04 22 9e 3c 5d 6b a1 bd
       -0.123378254 -0.18683484 0.01930333 -0.07881806
000290 37 7d 0f 3d fe 5d 10 3d 02 01 71 3c 3f 79 37 3d
       0.035031524 0.035245888 0.014709713 0.044793364
0002a0 cc 92 ab 3c f4 76 f3 3c c8 b7 32 3e 43 a7 56 be
       0.020944022 0.029719807 0.1745292 -0.20962243
0002b0 05 16 f4 3c 9c 90 81 bd e2 44 02 be f9 44 3f be
       0.029795656 -0.0632641 -0.12721589 -0.18678655
0002c0 31 f2 31 3d ed 4c 05 3e 28 9d b9 bd 5c 4c 83 3d
       0.043443862 0.13017626 -0.09063178 0.06411049
0002d0 ca 28 89 be 26 b3 cf bd f1 01 81 3b 3c cd c5 3d
       -0.26788932 -0.10141592 0.003936999 0.09658286
0002e0 97 da 7e be 2d 52 a7 bd 52 b4 27 be 7d 57 81 3c
       -0.24888073 -0.08169971 -0.1637738 0.015788788
0002f0 e2 80 09 be bd 12 2e be f7 66 80 3c 64 2e e7 3d
       -0.13428071 -0.16999336 0.015674097 0.11288145
000300 4a 3b c1 3d 80 74 c8 bc e5 fc e3 3d b6 fd 8a bd
       0.094351366 -0.024469614 0.1113222 -0.06786673
000310 9a d8 f6 bb 76 1e 8c bb 83 06 aa 3d 8d 79 49 be
       -0.007533145 -0.004276092 0.08302023 -0.19675274
000320 8a 03 db bd 8e 37 9a bd 8e eb 4e 3d d4 b2 e0 bc
       -0.106940344 -0.075301275 0.05051761 -0.027429022
000330 52 b5 e9 bd 88 2e 1c 3e 3b ed 23 3e 36 3a a0 3d
       -0.11411537 0.15252125 0.16008465 0.07823603
000340 47 47 4e bc 21 93 d2 bd 84 70 15 be a6 f8 0a bd
       -0.012590236 -0.10281969 -0.14593703 -0.033928536
000350 8d c5 e6 bd 31 f6 03 be 85 a6 2f 3e c6 3e cc 3d
       -0.112681486 -0.12886883 0.17153366 0.099729106
000360 41 0a 9c bc dc c1 bb bd dd 76 e9 3d 8e 7a e6 3d
       -0.019047858 -0.09167835 0.113996245 0.11253844
000370 7d bc 50 bd 37 7a 4d 3c 4f f2 5e bd b2 91 22 be
       -0.050961006 0.012541345 -0.054430302 -0.15875891
000380 7a 68 ab bd df a8 13 3e a6 b2 b9 bc ec f6 be bd
       -0.08369537 0.14419888 -0.022668194 -0.0932444
000390 84 60 e5 3d 5a 84 50 be 33 d8 27 bd 45 0b 27 be
       0.112000495 -0.20362988 -0.040977668 -0.16312893
0003a0 c5 a3 3c 3d 5b e4 4f 3c d5 27 dd 3d 9b 7c fc 3c
       0.04605462 0.0126887215 0.10798613 0.030821135
0003b0 29 33 d4 bd 30 d6 b0 bd fe 67 2f be 69 b7 06 3d
       -0.103613205 -0.08634603 -0.17129514 0.032889757
0003c0 12 e5 92 bd 2e c9 b2 bd 54 ff 14 bd 9e 60 09 bc
       -0.07172598 -0.08729778 -0.036376312 -0.008384852
0003d0 6a a3 27 be 09 05 b1 3c 17 ba 3e 3c 93 bf d9 3d
       -0.16370931 0.021608846 0.011641047 0.10632243
0003e0 fa 65 34 be 47 aa f8 3d e0 5a 4a be 75 92 0d 3d
       -0.17617026 0.12141853 -0.19761229 0.0345635
0003f0 94 18 31 be d0 f6 f1 3d 4d d6 c0 3c 1c 7e 98 bd
       -0.17294532 0.11814654 0.023539687 -0.074459285

layer.2.bias f4 [64]
000000 a5 3a c8 3e 33 c7 20 be 7e 26 52 3e 03 b8 5f 3e
       0.39107242 -0.15700988 0.20522496 0.21847539
000010 81 bf a7 bd 8f 04 45 3f 3a 88 0e be 77 c4 92 3e
       -0.08190823 0.7696008 -0.13919154 0.28665516
000020 96 20 80 3e f6 cb 23 bd 3e 97 e0 bd 4e 61 dd 3d
       0.2502486 -0.039989434 -0.10966347 0.10809575
000030 63 86 45 3e 73 03 6f 3e f6 49 03 be 7a 1c af bd
       0.19289546 0.2334116 -0.12821183 -0.08550353
000040 6c 1c 30 bc b2 0a 13 3d 08 2d cb bd da f5 49 bd
       -0.010748964 0.03589887 -0.099206984 -0.049306728
000050 6a b7 09 be 03 39 79 3e d4 30 1d bd 30 54 b6 bb
       -0.13448873 0.24338154 -0.038376644 -0.005564235
000060 6a 83 5a 3d ee ba 8a 3e 8f 91 1b be 31 25 12 3d
       0.053347982 0.2709574 -0.15192245 0.03568
000070 69 d0 0c 3e c0 57 ca 3d e9 d7 6e 3e 62 88 92 3e
       0.13751377 0.09880018 0.2332455 0.28619677
000080 dd 04 ea 3c e7 c4 df bd db 95 48 3e b7 2e 05 be
       0.028566772 -0.10926228 0.19588415 -0.13006102
000090 6f 29 36 bd 0b ad 17 be 5d d0 2e 3d 67 af 53 3e
       -0.044473108 -0.14812104 0.04267918 0.2067238
0000a0 45 fa 11 be 70 78 00 3e aa 33 0d bd ab 50 e3 3e
       -0.14255626 0.12545943 -0.0344731 0.44397482
0000b0 82 df 9e 3d fa ca 6a 3e 99 bd 03 bd 01 63 aa bd
       0.077574745 0.22928992 -0.032163236 -0.08319665
0000c0 4e 4c a5 bd 86 3d 30 3e f9 dc eb 3d 43 11 d6 3d
       -0.080711946 0.1721097 0.115167566 0.10452511
0000d0 1b 55 38 3e ce fe 5c 3f d4 88 9f 3d 05 3e 00 3e
       0.18001215 0.863263 0.0778977 0.12523659
0000e0 e5 93 b9 3b 51 6b c3 3e 0d 37 a8 bd 5d d2 ab 3e
       0.0056633824 0.38167813 -0.08213625 0.33558932
0000f0 6e a2 7f 3e c0 c7 f1 3e f0 21 b2 bc 3c cc c3 3e
       0.24964306 0.4722271 -0.021744698 0.38241756

layer.4.weight f4 [128, 64]
000000 98 90 cb bc db 73 c3 bd c3 32 92 3d 7a 00 80 bd
       -0.024849221 -0.09543582 0.07138588 -0.06250091
000010 d5 d0 7e 3d 37 ce 5b bd cf b9 ed 3d d8 fc 05 3d
       0.062210876 -0.05366346 0.11607706 0.032711834
000020 9c 35 ac bd dc db 86 3c 1c 25 38 bd bb 2a 04 bd
       -0.08408663 0.016462259 -0.044957265 -0.032267313
000030 43 01 2c bd bf de b3 3c e1 55 8b bd 6f 24 cd 3c
       -0.04199339 0.0219568 -0.068034895 0.025041787
000040 18 6f 14 3d dd 23 69 3c 74 4a b8 3d 40 e1 ea 3c
       0.03623876 0.014229742 0.08998576 0.02867186
000050 99 53 6c 3d 97 b7 ce bd bd 65 b1 bd cc 54 ca 3d
       0.057696912 -0.10093611 -0.08661983 0.09879455
000060 30 c9 13 bd 12 95 f9 3b bd 98 b5 bc 39 e8 ee 3c
       -0.03608054 0.0076166475 -0.022167558 0.029163467
000070 30 f3 89 bd 8a b3 75 3d 56 53 7b 3d 0a 5a dd 3d
       -0.067358375 0.059985675 0.061358772 0.10808189
000080 2f 67 71 3c 6f c9 2e 3d 27 a6 59 bd 3e b3 96 3c
       0.014734074 0.04267257 -0.05313697 0.018396016
000090 e2 d2 44 39 42 16 0e 3c 59 48 ab bd f3 1f 55 3d
       0.00018770577 0.008672299 -0.083634086 0.052032422
0000a0 92 c5 1f bd 39 a5 69 bd 65 13 05 bc 21 f9 d2 3d
       -0.039006777 -0.057042334 -0.0081223 0.10301424
0000b0 f7 66 d0 3d fc 5a f8 3c 9a 7b ca 3d b0 17 3d 3d
       0.10175889 0.030316822 0.098868564 0.04616517
0000c0 28 52 78 3d b6 ef 33 bd 39 e1 ab 3d f8 ea 60 bc
       0.060625225 -0.043929778 0.08392567 -0.013727896
0000d0 5f 74 29 3d 05 c5 a8 3d d3 db 51 bd 23 a5 e4 bd
       0.041370746 0.082407035 -0.05123503 -0.1116431
0000e0 5d 9c 5f ba 49 55 21 bd 8f 36 95 3d 8e f0 98 bd
       -0.0008530075 -0.039387975 0.07285797 -0.07467757
0000f0 5e 7c 09 3d ba d5 0b 3d 65 84 8e 3d 16 0e 43 3c
       0.03356587 0.034139372 0.06958846 0.011905214
000100 6a b3 20 bd 1b 4b b5 3c de 6e eb 3d 2d b6 34 3d
       -0.039233603 0.02213054 0.114957556 0.04411905
000110 7c e1 cc bc 6f 69 3d be ca 65 e0 bd 34 81 29 bd
       -0.025009863 -0.18497251 -0.10956915 -0.041382983
000120 48 00 bf 3d c1 2e 54 3d 89 31 79 3d d7 ff d8 3c
       0.093262255 0.0518024 0.060838256 0.026489181
000130 af c4 ab 3d ad 21 1e bd 0c 54 3e bd df 14 d0 bc
       0.08387124 -0.038606334 -0.046466872 -0.025400577
000140 c0 ca c5 3b 36 91 99 3d bb e5 b9 bd 0c 80 8b 3b
       0.0060361326 0.074984 -0.09077021 0.0042572077
000150 dd fc 08 bd 42 cc ca 3b 6d a5 c9 bc 21 73 97 bd
       -0.033444274 0.0061889 -0.024615014 -0.07395006
000160 bb 71 aa 3e cc f1 bd 3d 96 62 7e be 2e 8d 6b 3e
       0.33289894 0.09274635 -0.24842295 0.23003075
000170 73 37 68 3d e9 96 d9 3d a2 7e a3 3c cd 98 66 3d
       0.056693505 0.10624487 0.019957844 0.056298066
000180 69 5f 88 bd bf 31 f8 3b 54 fb c3 3c 2a e2 d2 bc
       -0.06658823 0.0075742896 0.023923554 -0.025742609
000190 98 98 db bc 58 c3 2c 3d 98 35 5f 3e 5b fa de 3d
       -0.02680616 0.04217848 0.21797788 0.10887595
0001a0 c6 57 a2 3d 81 21 80 3e d5 bf fa bc 06 0c d0 3c
       0.07926898 0.2502556 -0.03060905 0.025396358
0001b0 d3 16 10 3e c1 4a 81 3c e9 4e 2d be 9e 0a 65 3d
       0.14071207 0.015782716 -0.16924633 0.05591833
0001c0 47 9b be bd 3d a2 66 3d 8d 84 c3 bd 41 2f 86 bd
       -0.093069606 0.056307066 -0.095467664 -0.06551982
0001d0 81 06 3d 3d 92 1c e7 bd b4 b9 27 bc 42 b9 36 3d
       0.04614878 -0.11284746 -0.010237146 0.04461027
0001e0 53 b5 79 bb 5a 62 58 3c a0 28 ce bd 97 37 15 3c
       -0.0038102462 0.013207043 -0.10066342 0.009107492
0001f0 03 99 73 bd d8 5e 61 3d 89 6e ea bc 2a 95 db bd
       -0.059472095 0.05502209 -0.02861716 -0.1072181
000200 5b a2 8c bc 01 ac af bd 76 41 9f 3d d3 0e 0b 3d
       -0.01716726 -0.08577729 0.077761576 0.033949684
000210 2a ed ed bd a8 37 bc 3e 7f cf fa 3d 28 f2 a9 3d
       -0.11617501 0.36761212 0.12246608 0.08298141
000220 92 04 c4 3d f3 60 4b 3d c5 af ce bd 3a be 6f 3d
       0.09571184 0.049653005 -0.10092119 0.058531024
000230 09 02 c7 3c e5 e2 04 bd a8 bf 30 3b 5a 9f e3 3d
       0.024292963 -0.032442946 0.0026969705 0.11114378
000240 bd 05 ac bc 05 73 e0 3b 25 5e 13 3d b7 c1 74 bb
       -0.02099883 0.006849649 0.035978455 -0.0037346908
000250 ec a6 2c 3d 21 54 bb 3d 9c 40 18 bd cc 11 27 3b
       0.042151377 0.09146906 -0.03717099 0.0025492785
000260 1f 96 26 3d c4 5d 80 bd ec 8c 19 3c d3 e1 44 bc
       0.04067051 -0.062678844 0.009371977 -0.012016731
000270 c1 72 a0 3d c9 73 62 bc bb 2a 8e bd 18 a2 17 3d
       0.078343876 -0.013821551 -0.06941744 0.03701982
000280 a1 8b bc 3d a2 66 04 be 63 7c 85 bd 69 2f f6 3d
       0.092063196 -0.12929776 -0.065178655 0.120207615
000290 7b dd 13 3d 9e 33 6f 3c eb 94 4e be b6 86 b8 bd
       0.036099892 0.014599709 -0.20173995 -0.09010069
0002a0 d3 61 76 bc f9 66 cc bd 44 4b c6 bd 06 34 fa 3d
       -0.015037972 -0.09980578 -0.096823245 0.12216954
0002b0 69 fd c1 3c ab ab 6a bd 6c 6f 89 bd a8 2f 8a 3c
       0.023680406 -0.05729262 -0.06710705 0.016868427
0002c0 ee 64 c5 bd a1 aa 4c 3d 43 ac 41 3d 89 97 7f 3d
       -0.096383914 0.049967412 0.047283422 0.062400375
0002d0 b1 08 3c bd 7a 1a d8 3d 3c 00 c8 bc 75 4c b4 3d
       -0.045906726 0.10551925 -0.024414174 0.088036455
0002e0 8c 09 f1 bc a5 9c 08 3c f2 27 dc bd eb ff 6d bc
       -0.029423498 0.008338128 -0.107498065 -0.014526348
0002f0 8a 71 73 bd 26 40 8e 3d 5b b1 19 bd 64 6e 83 bd
       -0.05943445 0.06945829 -0.037522655 -0.0641754
000300 ff cb a1 bd d4 50 93 bc f0 15 0d be 5a ae 12 bd
       -0.07900237 -0.017982878 -0.137779 -0.035810806
000310 04 bb d9 bd 1f bc d5 be 5e ae c2 ba f2 f0 aa 3d
       -0.106313735 -0.41745088 -0.0014852991 0.08346738
000320 de 1d 01 3d 47 89 df bd 74 d0 eb 3b 08 92 36 bd
       0.031522624 -0.109148555 0.0071964804 -0.04457286
000330 4a 50 f8 3d a8 94 eb 3d 3a 8e ca bd 80 bf 77 bb
       0.12124689 0.11502963 -0.09890409 -0.0037803352
000340 29 e1 90 bd 9b 26 b3 3e d6 bd 91 3d 24 9c e6 3b
       -0.07074196 0.3499039 0.071162865 0.0070376564
000350 36 0c 31 bc 3a 44 03 bd 64 9c 04 be 54 06 8b 3d
       -0.010806134 -0.032047488 -0.12950283 0.06788316
000360 3a 08 32 3e 94 29 25 3e a6 4d 98 3d 05 bc 4b 3e
       0.1738595 0.16129142 0.07436685 0.19895943
000370 c8 00 1b 3e 92 60 04 3d b9 8a 1e be 36 d9 01 3d
       0.15137017 0.03231866 -0.15482606 0.03170129
000380 1f 0f 1c 3d 6d 3f 26 3d 5d e2 8c bd 84 cf b8 bd
       0.038100358 0.04058783 -0.06879113 -0.090239555
000390 39 b9 5c bd 7a 1c 2c 3d 3a 9a 5c 3e f5 be 34 3e
       -0.05388758 0.042019345 0.21543208 0.1765097
0003a0 36 3f e4 bd ee 5f 06 3e 77 7d aa bc e7 c2 af 3d
       -0.11144869 0.13122532 -0.02081178 0.085820965
0003b0 bf 15 93 3d 58 7d 8f 3d d9 cf a7 bd 9c 3e 2e 3d
       0.07181882 0.07006329 -0.08193941 0.042540178
0003c0 18 b7 04 be 5e e3 a4 bd 3b 6d 9d 3d 1d 7c d6 3d
       -0.1296047 -0.08051179 0.0768685 0.104728915
0003d0 70 ba a0 3a 98 08 51 be 2a bf 28 3e f5 b6 3c 3d
       0.0012262594 -0.20413435 0.16479173 0.04607292
0003e0 1c 79 b4 3d 90 5d 8b bc 54 d1 ac bd a6 d2 59 3e
       0.08812162 -0.017012388 -0.08438364 0.21271762
0003f0 a7 c6 e4 3c 4b e8 a6 3e e0 0d d9 3d a6 92 8c 3e
       0.027926756 0.325991 0.105983496 0.27455634

layer.4.bias f4 [128]
000000 0e c5 1c ba a5 7e 83 3e cd 47 b1 3c 79 d2 3f 3e
       -0.0005980291 0.2568256 0.021640683 0.18732633
000010 1f 82 5e 3d bc 74 c1 3d ea e7 9f 3d 46 86 b9 bd
       0.054323312 0.094460934 0.07807906 -0.09058814
000020 88 1d d1 3d a9 63 2c 3e 4a 97 aa 3d 12 51 c0 bb
       0.10210711 0.16834892 0.08329637 -0.0058690393
000030 4f 65 ff 3c 57 2d fd bd be d6 c4 bc 87 a2 a1 3e
       0.031176237 -0.123621635 -0.024028178 0.3156931
000040 cb 40 39 bd 2f 5b f9 3d 3c 99 16 be b0 f1 56 bd
       -0.045227807 0.12175595 -0.14706892 -0.052476585
000050 0c d0 88 3e b1 2b 69 bd 50 ef d7 bd f5 34 87 3e
       0.26721227 -0.056926433 -0.10543692 0.2640759
000060 0b df 51 3e 8d dc ae 3c c4 a8 43 3e 58 0f 11 3d
       0.2049524 0.021345401 0.19107348 0.035415024
000070 9b fb aa 3d 7a ac 41 3b e6 f3 93 3e d0 db e5 3c
       0.08348771 0.0029552267 0.28897017 0.028058916
000080 b9 5a 89 3d fd 86 22 3e 69 81 d9 bd f9 9f aa 3d
       0.06706757 0.15871806 -0.10620386 0.083312936
000090 e9 1e 36 be db 64 37 3e a9 d5 82 3d 43 0d e2 bd
       -0.17785229 0.17909567 0.06388409 -0.11037686
0000a0 69 71 e7 bd f8 32 ce 3c 76 35 53 3e 5c 62 91 3d
       -0.11300928 0.025170788 0.20625862 0.07098839
0000b0 ca c3 85 3d fd ff 4e 3c 82 ea 18 bd 39 16 8e 3e
       0.065314844 0.012634275 -0.03733302 0.2775133
0000c0 6f e6 8d 3d 37 b6 eb 3c 81 bc 24 bc a3 51 1f 3d
       0.06928717 0.02877341 -0.010054708 0.038896214
0000d0 c1 31 08 be 2a 16 8a 3e 2a 79 1b bd 78 f8 9f 3d
       -0.1330023 0.26970035 -0.037957348 0.078110635
0000e0 27 c5 44 3d 24 df b9 3d d9 51 af bd 7f 34 92 3e
       0.04803958 0.09075764 -0.08560533 0.28555676
0000f0 86 69 f2 bc b4 f0 be bd 66 ed f9 3e 63 76 55 ba
       -0.029591333 -0.09323254 0.48813933 -0.0008142946
000100 f8 02 1d 3d 79 a2 de bc f8 67 e7 bc 29 70 aa 3d
       0.03833291 -0.027177082 -0.028247818 0.08322174
000110 b9 36 68 3e ec d4 43 3e 9f 5b 51 3e 13 ed e9 3d
       0.22677125 0.19124192 0.20445107 0.114221714
000120 c7 49 39 be 17 cb f5 bd 90 f7 cf 3d b4 1c 64 3d
       -0.1809455 -0.12001627 0.10154641 0.055691436
000130 02 8d 85 bd cf ed 5a 3e b9 8f 8c 3d 19 f1 c2 3d
       -0.06521036 0.2137978 0.068633504 0.09518642
000140 46 a2 cc 3c cb 84 26 3e ee 26 bf 3d 87 29 02 3e
       0.024979722 0.16261594 0.09333597 0.12711154
000150 1e 48 9c 3e a5 6b ab bd 29 ca 41 bd bb 7e 19 bd
       0.3052377 -0.08370141 -0.047311936 -0.037474375
000160 ab a3 39 be d0 36 29 bd 2f 5f 22 3f 88 19 11 3e
       -0.1812884 -0.04131204 0.6342649 0.14169896
000170 1e 14 c7 3d cf 71 2a 3e 1b be 10 3e 75 c5 bc bc
       0.09720634 0.16644977 0.1413502 -0.023043374
000180 20 d8 9f bd ed 11 1d 3c c7 97 4f 3e 11 cf 45 3e
       -0.078048944 0.009586793 0.20272742 0.19317271
000190 5c 6d 12 3e 96 e3 cc 3e 2a f4 b1 3d 77 7e 06 be
       0.1429953 0.40017384 0.08689149 -0.1313418
0001a0 96 be 33 3d 67 e9 36 bd 24 35 60 3e db ae c9 bb
       0.04388293 -0.044656184 0.21895272 -0.0061548776
0001b0 d8 8d 81 3c d1 65 48 bd 89 0d 25 bd 08 77 7c bc
       0.015814707 -0.048925225 -0.04029611 -0.015409239
0001c0 5b 33 50 bd 20 73 2e bd 31 8e 10 3e 7d 63 a5 bd
       -0.050830226 -0.04259026 0.14116742 -0.080756165
0001d0 52 dd a4 3d aa 85 d4 3c bf 40 dc 3c a2 f1 21 3e
       0.08050026 0.025942642 0.026886342 0.15814832
0001e0 6e a2 02 be f1 42 39 3d b8 b1 fd 3d fa 3b ef 3c
       -0.12757275 0.045229856 0.12387413 0.029203404
0001f0 92 4a ae bc 1d e4 f8 bd 33 c2 a9 bd 99 2f 14 3e
       -0.021275792 -0.12152884 -0.08288994 0.14471282

layer.6.weight f4 [23, 128]
000000 f3 73 22 bd d0 38 c3 ba f8 cb 0e 3d d0 1f 89 3b
       -0.03966136 -0.0014894251 0.03486249 0.0041847005
000010 b3 f1 ac 3c 8b 51 4c 3c ac f7 d4 3c 41 80 cd bc
       0.021111345 0.012470613 0.025997005 -0.02508557
000020 c4 be be bc 2c 4f d8 3c 3d f3 f7 bc 6d 0d 8d bc
       -0.023284324 0.02640494 -0.030267352 -0.017218316
000030 54 54 a2 3c 56 78 a0 bb 42 0c 81 3d 84 f7 e8 3b
       0.019815601 -0.0048971577 0.06301166 0.0071095843
000040 82 2f e8 3c b5 7c 59 3d d5 05 a0 bd d6 52 5b bd
       0.028342966 0.053097446 -0.07813612 -0.053545795
000050 4e 7f 77 bd f1 13 cb bb 30 67 2c bd 27 8b 16 3d
       -0.06042414 -0.0061974456 -0.042090595 0.0367538
000060 6c 3c 83 bd c8 a4 53 3d 7d ac 3a 3d 78 88 34 bd
       -0.06408009 0.05167082 0.045574654 -0.04407546
000070 40 bd b7 bc 54 c4 51 bc 7a b6 97 3c ec 83 ab 3c
       -0.022429109 -0.012803156 0.018519629 0.020936929
000080 13 d5 2f 3d 20 9f 84 3d b1 d4 b6 bd 03 a9 26 3d
       0.042927813 0.06475663 -0.089272864 0.040688526
000090 d5 00 ad bc 0e 69 9a 3b 88 ea 03 bd 17 ed 77 bc
       -0.02111856 0.0047122305 -0.03220609 -0.01513221
0000a0 dd d1 81 bb c3 9e 40 3d 72 8e 74 3c 55 7c 41 bd
       -0.003961785 0.047026407 0.01492654 -0.047237713
0000b0 42 7f 2c 3d 5f b7 00 3c 44 04 1c bd 10 c0 1b bd
       0.04211355 0.007856219 -0.038090006 -0.038024962
0000c0 79 81 e9 bc 2c d2 37 bd b4 26 36 bd fe 09 1b bd
       -0.02850412 -0.04487817 -0.044470504 -0.037851326
0000d0 2d 07 15 bb 39 21 2c 3d 2b cc 1b 3d 6f f6 6f 3d
       -0.0022739873 0.04202387 0.038036507 0.058584627
0000e0 35 22 05 bc 16 67 d6 3c 43 77 8c 3d 16 de 1e 3d
       -0.008125831 0.026172202 0.06858685 0.038786016
0000f0 60 fc 04 bd 9a 74 02 bd b5 2a 60 bd 79 2f c8 bc
       -0.032467246 -0.03184948 -0.05472823 -0.0244367
000100 10 c5 d6 3c cf 0a f6 bd 82 2f 10 bc e1 c7 88 bd
       0.026217014 -0.1201378 -0.008800389 -0.06678749
000110 6c de be 39 84 61 49 bb e3 01 34 bd 14 e0 94 bb
       0.0003640534 -0.003072829 -0.04394711 -0.0045433138
000120 13 f6 69 bd 4d 47 b5 bc 0d 61 e4 3a 4e 77 2c bb
       -0.05711944 -0.022128725 0.0017423943 -0.0026316228
000130 5d 70 f6 bc ba 4d df bc cc 35 20 3d 04 4e 93 3c
       -0.030082876 -0.027258743 0.039113805 0.017981537
000140 6c 95 6d bd 51 6f 6a bd c7 46 01 bd 5c ba 6d 3b
       -0.058003828 -0.057235066 -0.03156164 0.003627441
000150 f7 d9 7a 3d e9 dd e5 3c 94 9e 2e bc ba 18 04 bc
       0.061243024 0.028059917 -0.010657925 -0.008062536
000160 08 10 36 3c 8b 69 a3 3d c0 7a 81 bd 35 ad a2 bc
       0.011112221 0.07979115 -0.06322241 -0.019857982
000170 f9 61 82 bd 25 e8 46 bd 79 59 b2 3d f3 37 be 3a
       -0.06366343 -0.048561234 0.08708472 0.0014512524
000180 cd 23 4c bd e5 c3 50 3c ad ec 85 bc 69 fc 51 bc
       -0.04983883 0.012742017 -0.016348207 -0.012816527
000190 d9 f3 c0 bc 13 d3 9f 3d 39 ba 19 3d 51 b7 79 3b
       -0.023553776 0.07803931 0.03753111 0.003810365
0001a0 11 8d 1e bd 1c 3d 90 bc 44 35 ca 3c d4 30 86 bc
       -0.03870875 -0.017607264 0.024683602 -0.016380705
0001b0 fd e9 8b ba fd df 06 3d 6b f1 86 3d 79 03 b2 3d
       -0.0010674592 0.032928456 0.065890156 0.086920686
0001c0 41 6e 50 bc eb b0 bc 3c b1 5e 0f 3d ea 8f 04 bd
       -0.012721599 0.02303358 0.035002414 -0.03236381
0001d0 52 bd 4b bd 4b de ec 3b 6b 33 62 bd 91 fa 58 3c
       -0.049741097 0.007228648 -0.055224817 0.013243333
0001e0 5f d1 2d bc af 20 71 3c ec 2e d8 3c 1b 2d 1d bd
       -0.010609 0.014717265 0.026389562 -0.038373094
0001f0 d9 6a 8f 3d 9c 79 b9 bc 5e 6e ec bb f7 3c 59 bd
       0.070028014 -0.022640996 -0.007215305 -0.053036656
000200 22 1b d2 bc ae 5d ce bc 7c e9 0d bd 16 5d 01 bc
       -0.025647704 -0.025191154 -0.034646496 -0.007895729
000210 41 bd 61 bd 1b 9b 25 3d 0c 89 b9 3c 51 32 0d 3d
       -0.055112127 0.040431123 0.022648357 0.034471814
000220 dd d5 7a bc 7d d4 af bb 32 ed aa 3c fc 00 43 bb
       -0.015309778 -0.0053659067 0.020865057 -0.0029755225
000230 08 44 7b 3c 33 46 8e 3d e0 16 e6 3c 61 24 05 bd
       0.015336044 0.06946983 0.02808708 -0.032505397
000240 23 b3 95 bc e8 d9 37 bd f8 2c 5f 3c 43 2e c6 3c
       -0.018273896 -0.044885546 0.013621561 0.024191981
000250 8a c5 52 3d 6c ff b1 3c c2 98 63 3c c3 39 c0 3c
       0.05145792 0.02172824 0.013891401 0.023465043
000260 3f c9 33 3d 85 fb 50 bd 01 09 1e 3d 6d d2 1c 3c
       0.043893095 -0.051021118 0.038582806 0.009571654
000270 89 06 1d bd 2e cc 25 3d 1f 15 bf 3c 7d 69 6c 3c
       -0.03833631 0.040477924 0.023325501 0.014429447
000280 89 46 06 3d 40 6d 06 3c b2 4e a5 bd 53 1d 00 bd
       0.03278211 0.008204758 -0.080716506 -0.031277966
000290 22 1b 20 3d 1e 23 0a 3d 27 8e 74 bb 00 18 e6 3c
       0.039088376 0.033724897 -0.0037316175 0.028087616
0002a0 a4 7e 57 3d ef 29 e0 bc 71 ac 31 ba 8d ba cb bc
       0.05261101 -0.027363745 -0.000677771 -0.024869228
0002b0 e9 d7 9b bd 55 20 83 bd 41 65 81 bc 82 30 a4 3b
       -0.07609541 -0.06402651 -0.015795352 0.0050106654
0002c0 59 9f 1d bd 32 74 e5 bc 7e 81 99 3c c4 e2 b9 3c
       -0.038482044 -0.028009508 0.018738504 0.022691138
0002d0 72 e1 97 bc be 01 7b 3c 39 4c 51 3d 7b 47 58 3d
       -0.018540118 0.01532024 0.051098082 0.052802544
0002e0 12 21 e0 bc d2 d3 07 bd 22 47 04 3d 7e c7 ab 3c
       -0.02735952 -0.033160992 0.0322944 0.020969149
0002f0 97 4a 03 bc 0d 4f 37 bd ef 52 27 3d 56 14 80 3c
       -0.008013389 -0.044753123 0.040850576 0.015634697
000300 04 7e 35 bd 0e 30 4d bd 94 ad 10 3c c6 7b 1b bd
       -0.04430963 -0.050094657 0.008830447 -0.037959836
000310 0e e3 0f 3c 46 b7 9c 3c 83 ec 54 bd 4b 1c 4e 3b
       0.008782161 0.01913036 -0.051983368 0.003144997
000320 65 74 dc 3c 4b 57 2b 3c ff 5b 09 3d 73 4d e4 bc
       0.02691097 0.010457824 0.033535 -0.027868962
000330 c4 f3 6a 3d d3 7b b9 bc 2c 7e 4a bc d1 6e 3a 3b
       0.05736138 -0.022642052 -0.012359183 0.00284474
000340 8e ac 89 3a 27 3d a7 bc f8 40 19 bd 61 ce 09 bb
       0.0010503696 -0.020414902 -0.037415475 -0.0021027552
000350 e8 a5 41 3d 3d 09 6f bd 29 55 27 3d 93 a3 ca 3a
       0.04727736 -0.05835842 0.0408527 0.0015460126
000360 f8 ca 94 b9 63 74 03 bd 7c e0 ba 3d 5b d1 16 3d
       -0.00028379983 -0.032093417 0.09124848 0.03682075
000370 09 ce 94 3c dc 70 9b bb 78 68 25 bd 2f 92 ac bb
       0.018164651 -0.0047436785 -0.040382832 -0.00526645
000380 9e 18 17 bc 04 a4 ba 3b 95 3d 5b bd 6b 06 20 bc
       -0.009222178 0.0056958217 -0.053525526 -0.009767155
000390 ab 0e 50 bd 9f b6 2d 3b 3a 52 3b bd 40 52 ad 3c
       -0.05079524 0.0026506556 -0.045732714 0.021157384
0003a0 0a 2f 1f 3c 00 3d 28 3d 0f 13 a1 3c 41 d1 2b bd
       0.009715805 0.0410738 0.019662408 -0.041947607
0003b0 59 53 40 3c 1d 9f 89 bc d7 29 94 3d 8c f4 9c 3c
       0.011738622 -0.016799504 0.07234543 0.019159578
0003c0 10 2c af 3c 36 c6 0b 3c 8d 89 de bc 44 0d d8 bc
       0.021383315 0.008531144 -0.027165199 -0.026373513
0003d0 ca 06 28 bd b1 e0 4b 3b 34 e1 30 bd 40 6c 0e 3c
       -0.0410221 0.0031109268 -0.04318352 0.008692801
0003e0 41 f8 5f 3d a5 18 86 bc b2 bc 20 3d 84 36 47 3d
       0.054680113 -0.016369173 0.039242454 0.048635975
0003f0 93 1e e2 3b f5 8a 4c bc 4c b6 29 bb cf fa f7 3c
       0.0069006174 -0.012484302 -0.002589601 0.030270962

layer.6.bias f4 [23]
000000 b4 76 06 3e 72 08 b5 bc bf 9b 84 3e c7 ea e4 3c
       0.13131219 -0.022098754 0.25900075 0.027943982
000010 e0 70 97 3d 0d 64 44 3e 1b ac b2 3d a3 08 88 3e
       0.07394576 0.19178791 0.08724233 0.2656909
000020 cd c2 fb bc 22 02 1e 3e df bf 41 3d 4a 92 55 3d
       -0.030732537 0.15430501 0.047302123 0.052141465
000030 c5 91 a0 3d 2a 84 fd bc 38 34 eb bb 59 cf 41 bc
       0.07840303 -0.03094681 -0.007177856 -0.011829221
000040 d3 04 d7 3d 49 e8 f7 3e 63 f4 0c 3d 8e c1 ad 3c
       0.10498967 0.48419407 0.034412753 0.021210458
000050 31 5d f6 ba ef d0 f7 3d dd 23 11 3d
       -0.0018796084 0.12100398 0.035434593
