weight/save_200.pth (torch_old, 72900 bytes, 8 tensors)

layer.0.weight f4 [32, 139]
000000 d5 4a a4 3d 7a 5d f9 bd 85 df d4 3c 55 92 a4 bd
       0.080220856 -0.12176032 0.025985489 -0.08035723
000010 11 e8 7d bd ba 6d f1 bc 06 12 88 bd 22 58 da 3c
       -0.061988894 -0.029471267 -0.06644063 0.026653353
000020 e2 54 7c bb 62 b9 75 bc 25 4b e2 bc b1 d1 11 3d
       -0.0038502743 -0.014997812 -0.027623722 0.035600368
000030 f8 b0 27 3d c7 10 75 3d b5 3c a7 bd 35 22 84 bc
       0.040940255 0.059830453 -0.08165876 -0.016129592
000040 cb e4 99 bc 49 60 85 3b d3 96 f8 3c 13 c4 4b 3b
       -0.018785855 0.004070316 0.030345356 0.003109221
000050 d8 65 98 bc 20 32 1c 3c 6b b3 42 bd 66 7a 80 bc
       -0.01860325 0.009533435 -0.047534388 -0.015683364
000060 2d 67 aa bc ba 3c b3 3c 19 11 90 3d 31 37 3f 3d
       -0.020801151 0.021879543 0.07034511 0.046683494
000070 50 88 26 3d cd 9f 34 bd 1a a6 25 3d 9f a8 3b bd
       0.04065734 -0.04409771 0.04044161 -0.045815106
000080 27 c4 00 3d 13 47 32 bd 9d 73 a3 bd 1e 25 c1 bc
       0.031437065 -0.043524813 -0.07981036 -0.02357727
000090 db 15 84 bc 00 c0 9f bb 67 52 5d 3c 75 82 88 bd
       -0.016123703 -0.004875183 0.013508416 -0.06665508
0000a0 54 b2 a8 3c 12 ff 3a 3d 94 2b 00 3d ee e5 e0 bc
       0.020592846 0.04565341 0.03129156 -0.027453389
0000b0 85 40 18 bc c3 e9 94 3c 4e dd d3 3b 56 a1 01 bb
       -0.009292726 0.018177873 0.0064655906 -0.0019780002
0000c0 2e 97 71 3d 1b 00 9b bd 58 c2 3c bd fb 84 10 3b
       0.058982067 -0.075683795 -0.04608378 0.0022051919
0000d0 42 8e 16 3d 4e 72 75 3d c3 83 62 bd 19 7b 95 3d
       0.03675676 0.059923463 -0.05530144 0.0729887
0000e0 a7 43 e5 bc 18 3e 7c bd fd c2 1b 3c 1b dd 80 bd
       -0.02798636 -0.061582655 0.009506938 -0.062921725
0000f0 2b 93 04 3a 3d 4a 47 bd 19 9c bb bb 47 37 7f 3d
       0.000505733 -0.048654784 -0.0057253954 0.062308576
000100 67 80 67 bd bc e3 8c 3c e3 bc 19 bd 2a 74 75 bc
       -0.05651894 0.017198436 -0.037533652 -0.014981309
000110 05 0c 0d bd b5 fe 76 bc 3c 94 86 bd 46 eb 70 bd
       -0.03443529 -0.015075375 -0.06571242 -0.058818124
000120 4e f6 98 3c 63 e9 13 3b 0f f4 c3 bc a3 b0 44 3c
       0.018672135 0.002256953 -0.023920087 0.012005004
000130 c2 5f c9 3c 43 17 04 bd 83 5c 9a bd 22 7b 87 bd
       0.024581794 -0.032248747 -0.075371765 -0.066152826
000140 3f 33 f8 bc 76 0e 82 bc 62 12 46 3d ae 1d 13 3d
       -0.030297874 -0.015876036 0.048357375 0.035916977
000150 94 b5 81 bc 00 bc a7 bd b6 e8 d1 bc 88 5c 4b bd
       -0.015833654 -0.08190155 -0.02562366 -0.04964879
000160 71 9d f9 bc d2 f7 57 3d 30 c2 18 3c c3 2f 45 bd
       -0.030470582 0.052726574 0.009323642 -0.048141252
000170 b2 6e 5e 3c 68 5a cd bc 00 28 90 3c f9 3b 70 bd
       0.0135761965 -0.025067523 0.017597198 -0.058650944
000180 ff 54 81 bc 4c e6 a2 3b aa e7 49 3d da 30 30 bd
       -0.0157876 0.004971301 0.049293198 -0.04301534
000190 6e 8f b4 bd 65 e7 34 bd 57 39 98 bd 60 63 09 3c
       -0.088164195 -0.044165988 -0.07432812 0.008385509
0001a0 fa 6b 92 3c 2d 4e 14 3b 70 1b 88 3c 24 2b ac bd
       0.017873753 0.0022629604 0.016614646 -0.08406666
0001b0 df 25 d6 3a b4 bc 76 3d 6a f7 9d bd 49 b4 57 3d
       0.0016338191 0.060238555 -0.07713206 0.052662168
0001c0 75 68 56 3b 4b f1 60 bd e2 11 12 3d 8b ce 20 bc
       0.003271607 -0.054917615 0.035661586 -0.009814869
0001d0 75 52 e5 bc 61 7a 60 3d 9c e1 21 bd 66 36 81 3d
       -0.02799342 0.05480421 -0.0395218 0.06309204
0001e0 5d 9a be bb a1 1e 2f bc c6 69 f1 3c 2e f6 41 bd
       -0.0058167414 -0.010688455 0.029469382 -0.047353916
0001f0 ee a2 9f bd 17 83 40 3d 65 00 0f bd 15 63 0c bd
       -0.07794748 0.047000017 -0.034912486 -0.03427418
000200 e4 42 1b 3c 25 f8 22 bd ed 06 54 bc 29 3f 1f bd
       0.009476397 -0.03978743 -0.012941104 -0.038878594
000210 7e dd a0 bd 4c f5 83 bd 3b b7 7d bd e3 b7 ae bd
       -0.07854746 -0.06443271 -0.06194232 -0.08531167
000220 c9 16 07 3d eb 6f e4 3b 0c 41 62 3c 02 3e 46 3d
       0.032980714 0.0069713495 0.013809454 0.04839898
000230 0f 17 e5 3a 24 aa 28 3e 52 66 76 3d 53 b1 bc 3d
       0.0017478185 0.16471153 0.060156174 0.092135094
000240 2a 9a 3a 3d 45 a0 90 bd 64 5e b3 bc 41 b4 3c 3c
       0.04555718 -0.07061819 -0.021895595 0.011517585
000250 3f c2 16 bc d8 6a 23 bd 20 8a ab 3c 06 de 70 3d
       -0.009201585 -0.039896816 0.020939887 0.058805488
000260 c1 bb d1 3b 7f 15 6e bd 28 ca 62 3b d6 e5 51 bd
       0.006400556 -0.05812597 0.0034605358 -0.05124458
000270 9c 52 4f bc eb cc 7a 3d 2e d8 9e 3c 5d 27 2c bc
       -0.012653973 0.06123058 0.019390192 -0.010507432
000280 19 9f 79 3d 23 6d 2a 3d ca 1d c9 bc a7 5a 44 3d
       0.060942743 0.041607987 -0.024550337 0.047938015
000290 70 d1 9e bc 3e 40 98 3c b9 21 a2 bd cf 16 d4 bc
       -0.019386977 0.01858532 -0.07916588 -0.025889782
0002a0 2b db cd 3b 5c 79 78 3d 15 56 ae bc cb 64 39 bc
       0.0062822304 0.060662612 -0.021281281 -0.011315535
0002b0 27 19 00 bd e0 23 80 bd 65 b4 b0 bc 95 5d 06 bc
       -0.031273987 -0.062568426 -0.021570394 -0.008201023
0002c0 0b ae 7e bd 0c 5c a7 bc ab b8 6f bd 4b 97 e1 3b
       -0.0621777 -0.020429634 -0.058525722 0.0068844906
0002d0 06 e1 7e 3d 24 75 95 bd e4 5c af 3c a6 cf 00 3d
       0.062226318 -0.072977334 0.021406598 0.03144803
0002e0 08 91 bc 3b c8 0d 00 3c e4 07 55 bd 62 8c ee bc
       0.0057545938 0.007815786 -0.05200948 -0.029119674
0002f0 bd 7c e0 3c 08 87 04 bc e0 8c b6 3d ae 35 b0 3b
       0.02740323 -0.008088835 0.089135885 0.005377493
000300 bb 00 1d bd 6a 96 f4 bc 28 67 d0 bc 12 e6 0d bc
       -0.038330775 -0.02985688 -0.025439814 -0.00866081
000310 10 c6 b6 bc 9e 69 bd 3a 13 61 ac bd 37 29 4e bb
       -0.02231124 0.0014451032 -0.08416953 -0.0031457671
000320 dd 92 6a bd e2 76 1a 3d 13 80 af bd 5c 44 65 bd
       -0.057268966 0.03771103 -0.0856935 -0.055973396
000330 04 a5 16 3d 9d ee cd bb 5b 7e c6 bd 67 41 c4 bd
       0.036778465 -0.0062845484 -0.09692069 -0.09582787
000340 43 54 19 bd 43 d4 99 bd d7 3d 5e 3b bf 2c 59 3d
       -0.037433874 -0.07511189 0.003391137 0.05302119
000350 1c e0 b1 bb 1f 60 cb bd 95 ca 9a bc 24 0b 1c 3d
       -0.0054283272 -0.09930443 -0.018895427 0.038096562
000360 18 5c 70 bd b4 70 2e 3d 30 a5 c5 bd db 36 d7 3c
       -0.058681577 0.04258795 -0.09650648 0.026271274
000370 ba 14 2a bd a2 1e e3 bd 5c a4 5d 3d 49 23 eb bc
       -0.041523673 -0.11089827 0.054111823 -0.028703349
000380 0f da be bd 8b e6 c5 bd a8 2b 42 bd ac ed 96 bd
       -0.09318935 -0.09663113 -0.047404915 -0.07369551
000390 c4 8a e7 3b 7b 8b 74 3d af b3 3c bd bd 9a 01 3d
       0.0070661027 0.05970333 -0.046069797 0.03164171
0003a0 39 a9 e0 b8 77 6b 34 3c fa f8 c5 3c 86 20 73 3c
       -0.000107126725 0.01101195 0.024166573 0.014839297
0003b0 14 3d 50 bc a6 6d 1a 3d 01 fa 88 bd f5 ca 11 bd
       -0.012709875 0.037702225 -0.066883095 -0.035593946
0003c0 9b b9 2f bc 0c ba 3a 3c 12 91 69 bd f1 64 75 bd
       -0.010725404 0.011396896 -0.057023115 -0.05991072
0003d0 aa 14 6f bc 23 57 42 bc 64 9c ba bd fe fd e5 3c
       -0.014592329 -0.011861595 -0.091118604 0.028075214
0003e0 ee 06 06 3d 99 78 bf bc 0e 56 99 bd f8 f0 ec 3c
       0.032721452 -0.023372935 -0.07487117 0.028923497
0003f0 50 34 b6 39 32 a6 67 bd 38 a1 13 3d d2 93 73 3c
       0.0003475272 -0.05655498 0.036042422 0.014866786

layer.0.bias f4 [32]
000000 8a 17 4b 3c 7c 31 c0 3d 22 e4 9f bd ab c4 b6 3c
       0.012395749 0.093844384 -0.07807185 0.022310575
000010 6c 4d cd bd fb cf 4f 3d 67 9f 80 3c 75 15 3d 3d
       -0.10024533 0.050735455 0.015701009 0.04616304
000020 d2 f9 33 bd 44 9f 27 3d 2d 89 23 3d 5c 71 c1 bd
       -0.04393942 0.040923372 0.039925743 -0.0944545
000030 c7 8a 9f bd 09 52 96 3d b8 66 8e 3d 1b d3 3f 3d
       -0.077901416 0.07339866 0.06953186 0.046832185
000040 8d 5f fb bc 02 79 2e bd 42 55 42 3d df 08 cd 3d
       -0.03068521 -0.04259587 0.04744459 0.10011458
000050 69 85 cd bd 35 37 43 3e 52 4f b4 bd 90 e5 be bd
       -0.100352116 0.19064029 -0.08804192 -0.09321129
000060 a8 96 b2 bd 9b 80 2a 3e af 01 b2 bd af 39 71 3d
       -0.08720142 0.16650622 -0.08691727 0.058892902
000070 44 33 99 3e 60 c4 9c 3c 7a f3 fa bd 50 2e 96 bc
       0.29921925 0.019136608 -0.12253471 -0.01833263

layer.2.weight f4 [64, 32]
000000 f8 00 0b 3d de 06 9a bd 5e 29 e8 bd f9 ba a5 3d
       0.03393647 -0.07520841 -0.11336015 0.08092303
000010 c4 97 f9 bc aa a1 67 bd 8b f2 8d 3d 47 08 15 3e
       -0.030467875 -0.05655066 0.06931027 0.14553939
000020 91 0d 2b 3e 59 38 16 be ff b9 b1 3d 74 d6 1a 3d
       0.16704394 -0.14669932 0.08678054 0.037802175
000030 b7 81 15 3e 7a 69 ae 3c 41 75 15 3e d7 ae 2e 3d
       0.14600264 0.02129053 0.1459551 0.04264721
000040 f6 af 1f 3e d3 41 74 bd 8a 7c 84 3d cd b6 ed 3d
       0.15594468 -0.059633087 0.064690664 0.11607132
000050 30 38 92 bd ac 5e 1d be e6 55 31 bd 61 d0 64 3b
       -0.07139623 -0.15368146 -0.04329481 0.0034914243
000060 5f c3 78 3c a7 61 6d 3d 31 5d 22 3e 00 06 75 3d
       0.015183299 0.057954457 0.15855862 0.059820175
000070 fb 6d cb 3c bf b8 1e 3e ad 8b 81 bd de 9f 22 be
       0.024832716 0.15500163 -0.06325469 -0.15881297
000080 ce 93 c5 bd bf 0f e3 bd 63 1a 49 3d 95 cc 20 be
       -0.09647332 -0.11086988 0.04909743 -0.15703042
000090 d9 0d b1 bd 6e df 2d be 36 86 93 bd 1c a8 91 3d
       -0.08645219 -0.16979763 -0.07203333 0.071121424
0000a0 ec f6 b3 bd 63 18 be 3d aa 8b 3c bd 10 6c 1a 3c
       -0.08787331 0.09281995 -0.04603163 0.009425178
0000b0 3b ff ed bd 47 4d 10 be 61 12 13 3e fa 60 a5 bd
       -0.11620947 -0.14091979 0.1436248 -0.080751374
0000c0 8b d6 53 3d 7b bb 1c 3e 20 53 1c bd 2d aa 08 3c
       0.051718276 0.15305893 -0.03816521 0.008341354
0000d0 cd f8 bd 3d f2 e0 19 3c f2 e2 7a be 92 27 ee bd
       0.092759706 0.00939201 -0.24500635 -0.11628641
0000e0 1f 20 bb bd de ce 8a bd 1a 66 0d be 78 2f 53 bd
       -0.09136986 -0.06777738 -0.1380848 -0.05155894
0000f0 81 7a 1f bd e2 44 20 3d 29 6d 02 3e 6f 55 c1 3c
       -0.03893519 0.03912819 0.12736954 0.023600308
000100 95 ec a0 bd 34 36 46 be c6 1f 7c 3d b1 ef c4 bd
       -0.078576244 -0.19356614 0.06155374 -0.0961603
000110 dd d7 11 be 11 25 2e be b7 d4 48 3d d2 f4 9f 3d
       -0.14242502 -0.17006327 0.049030986 0.07810368
000120 23 ed 20 3e 3f ad c0 3d b6 1b fe 3d 1f 61 11 be
       0.1571546 0.09408044 0.12407629 -0.14197205
000130 4d eb b5 3d 58 df 0b be ab 6d 32 be a4 f3 9c 3d
       0.08882771 -0.13659418 -0.17424648 0.07663658
000140 8b 53 ac 3c f9 c7 9a 3d df e3 cd bd 30 84 b5 3c
       0.02103593 0.07557673 -0.100532286 0.022157758
000150 e0 22 08 3e 20 f3 ac 3c fd 9f bd bd 50 e6 10 3e
       0.13294554 0.021112025 -0.09259031 0.14150357
000160 45 8b d0 bd 11 2d a2 bd 3b 48 63 bd 21 1e e2 bd
       -0.101828136 -0.07918752 -0.055488806 -0.11040903
000170 b9 bc 1b be 5f 96 ae 3d ea f1 b9 bd cb 3a 1b bb
       -0.1520871 0.08524775 -0.090793446 -0.0023686166
000180 05 30 aa 3d b8 ce 09 3e 47 81 02 be a4 50 ac bd
       0.0830994 0.13457763 -0.12744628 -0.084138185
000190 39 44 c7 bd ec e0 26 be 86 d8 46 bd 9e ec 35 3d
       -0.09729809 -0.16296738 -0.048546337 0.04441511
0001a0 4b e1 bf bd 5e 6b 35 3d 9b f3 08 3e 7e 79 64 3e
       -0.09369143 0.044291846 0.13374178 0.2231197
0001b0 83 01 ab 3c 5d 6c dd bc 03 15 d7 3d b5 9c 0f be
       0.020874744 -0.02702921 0.105020545 -0.14024623
0001c0 3e c6 a1 3d 93 b1 ea 3d 4f c9 28 be e5 b9 5d bc
       0.0789914 0.11459651 -0.16483043 -0.01353309
0001d0 b2 03 06 bb df 71 f7 bd 0b c9 00 be e8 2f 88 3d
       -0.002044898 -0.12082266 -0.12576692 0.066497624
0001e0 cf 0e 22 3e 30 0b 83 3c df 88 2c 3d 91 5d a7 3d
       0.15825962 0.015996546 0.042122718 0.08172143
0001f0 27 da 62 3e dc a3 09 be 7f a1 07 3d ed ad 9f 3c
       0.22153531 -0.13441414 0.033113 0.019492114
000200 44 6a 0d bd d7 6c a7 3d 0f ac e8 3d 8a 5a 8f bd
       -0.03452517 0.081750564 0.113609426 -0.06999691
000210 ea c8 8c 3c 12 c3 d0 bc e1 d1 9d 3d e8 66 20 3e
       0.017185647 -0.025483642 0.07706047 0.15664256
000220 0f 2c 92 bd ed 2e e0 bc ef 9e c0 bd bf 61 01 3c
       -0.0713731 -0.027366126 -0.09405314 0.00789684
000230 26 45 be 3b d7 04 ab 3d ab 52 44 3d 98 63 b9 3d
       0.005806583 0.083505325 0.0479304 0.09052199
000240 7c 70 21 be a2 6d b4 3d 68 96 ef bd e9 c4 fb bc
       -0.15765566 0.08809973 -0.116986096 -0.030733543
000250 8f c8 ec bc 13 29 a7 bb 60 69 5a 3d 8e 87 b3 bc
       -0.028904228 -0.005101332 0.05332315 -0.021915223
000260 4f b6 66 bd 42 a7 05 be 22 9b a1 bd 80 b4 aa bc
       -0.056326207 -0.13052085 -0.07890917 -0.020838022
000270 cc 89 21 bd 5f e3 0b 3e b8 8b 04 be 9c e2 5b bd
       -0.039438054 0.13660954 -0.12943923 -0.05368291
000280 e7 0c fa bd b6 fc 3f be b5 fa c4 bc f5 3c 9f bd
       -0.12209492 -0.18748745 -0.024045328 -0.077752985
000290 4c 2c 1f 3d d0 b6 16 3d 21 28 7f 3c 81 b3 28 3d
       0.038860604 0.036795437 0.015573532 0.041186813
0002a0 8b 79 91 3c 68 b0 fe 3c 2b 9d 37 3e f0 8a 2d be
       0.017758152 0.031089976 0.17931049 -0.16947532
0002b0 b4 8c 81 3d 42 9d 41 bd 99 7d 11 be 84 de 46 be
       0.06325665 -0.047269113 -0.14208068 -0.1942082
0002c0 dc 71 ca 3c 9d 65 03 3e bf 19 b7 bd 94 b2 80 3d
       0.024712496 0.12831731 -0.089404576 0.06284061
0002d0 fb 7e 4a be b3 0c d8 bd c2 75 73 3c 74 52 cc 3d
       -0.19775002 -0.10549297 0.014859619 0.09976664
0002e0 c1 52 34 be 1b 90 3a bd c6 55 0b be 7d 57 81 3c
       -0.17609693 -0.045547586 -0.13606939 0.015788788
0002f0 16 f1 01 be 63 9b 38 be a9 f8 9d 3c 64 2e e7 3d
       -0.12689623 -0.18028025 0.01928361 0.11288145
000300 a7 a1 ca 3d 06 0c b4 bc 64 05 22 3e 9a 58 90 bd
       0.09894114 -0.02197839 0.15822369 -0.070481494
000310 8a 56 98 bd f6 ad 19 bd ab 8f b3 3d 15 99 24 be
       -0.07438381 -0.037519418 0.08767637 -0.16074021
000320 2f 6b d8 bd 85 8a 80 bd 9c e8 44 3d 44 99 ac bc
       -0.10567319 -0.062764205 0.048073396 -0.021069176
000330 5a d2 e4 bd bf 61 0c 3e 74 1a 21 3e 89 85 35 3d
       -0.11172934 0.13709162 0.15732747 0.044316802
000340 e9 8c a1 bc 89 95 b6 bd 51 72 19 3c 84 fd 13 be
       -0.019720512 -0.0891524 0.009365634 -0.14452177
000350 28 6b d6 bd 3d a4 e0 bd d3 7e 2b 3e d3 7b db 3d
       -0.10469657 -0.10968826 0.16747598 0.10716977
000360 49 8f 88 bc dd a9 ac bd ed da 3f 3d e9 e6 de 3d
       -0.016669886 -0.08430836 0.046839643 0.10883886
000370 6b 66 80 bd a2 4a 5a ba 9c 44 c7 3d b2 91 22 be
       -0.06269535 -0.0008327161 0.09729883 -0.15875891
000380 b6 bd d1 bc d3 5a 14 3e 09 b3 96 bc 98 0b a7 bd
       -0.025603157 0.14487772 -0.018395917 -0.08156508
000390 fc 6e b3 3d e6 c6 3b be 07 59 ae bd d4 99 29 be
       0.08761403 -0.18337592 -0.08513074 -0.16562587
0003a0 da c6 7b 3c 9f 84 76 3c 42 e6 e8 3d 51 7d 25 3d
       0.015367234 0.015046268 0.11372043 0.040402714
0003b0 d6 f5 b0 bd c6 4b 97 bd 97 50 31 be 3c ed 38 3d
       -0.086406395 -0.073874995 -0.17315899 0.04514812
0003c0 1f 9d 96 bd 6a 2a f2 bd 33 18 56 3c 70 82 4d 3d
       -0.07354187 -0.11824496 0.013067293 0.050173223
0003d0 aa dc 07 be aa b6 82 3c a4 4d 0d bd d3 9d db 3d
       -0.1326777 0.015956242 -0.034497872 0.10723462
0003e0 fb 98 40 be e8 05 f4 3d 04 61 28 be 1a 0f 16 3d
       -0.18808357 0.11915189 -0.16443259 0.036635496
0003f0 e9 1b 1c be 06 16 dc 3d 4a 8e d6 3c 1c 7e 98 bd
       -0.15245022 0.10746388 0.026190896 -0.074459285

layer.2.bias f4 [64]
000000 a6 e0 66 3e c5 13 3c be 92 83 e2 ba 54 3c 56 3d
       0.22546634 -0.18366916 -0.0017281643 0.052303627
000010 51 ae cc bd d9 63 05 3f 95 11 38 be 5c b5 ce 3d
       -0.09994186 0.5210548 -0.17975457 0.10093185
000020 51 cb 21 3d 11 95 d1 bd 6f 80 3c be ac 5f 8c 3d
       0.03950054 -0.1023351 -0.18408369 0.068541855
000030 2a f5 f5 3d 75 cf 13 3e d0 63 1d be 0e ea b1 bd
       0.12009652 0.14434607 -0.15370107 -0.086872205
000040 5c 1e a6 bd d3 54 2a bc b0 d3 39 be c8 70 9b bd
       -0.08111259 -0.0103962 -0.18147159 -0.07589871
000050 b6 a1 fb bd d5 3e 71 3d 16 ad 88 bd b5 13 81 3d
       -0.12286703 0.058897812 -0.066736385 0.06302587
000060 62 f7 93 bc ca bc 4c 3e 5b bd 21 be f1 7a 36 bd
       -0.018062297 0.19993892 -0.1579489 -0.04455084
000070 b1 82 84 3d a8 eb 89 3d c8 58 0a 3e 96 bc 66 3e
       0.0647024 0.06734401 0.1351043 0.22532877
000080 de 06 ab bd d3 30 0e be 93 29 1d 3e 5a 06 10 be
       -0.08350919 -0.13885812 0.1534789 -0.14064923
000090 1c a6 d7 bd f0 92 26 be 85 44 a1 bd 11 fe df 3d
       -0.1052973 -0.1626699 -0.07874397 0.10937131
0000a0 4a 6e 1a be a3 8d 77 3d 3b 7b 4c bc ee f2 29 3e
       -0.15081134 0.06043781 -0.012480552 0.16596577
0000b0 57 53 82 bd 84 da 0b 3e 17 01 aa bd 4a b5 0f be
       -0.06363552 0.13657576 -0.08300989 -0.14034
0000c0 c7 d6 cf bd 7f c1 08 bd d4 da 0e bd df 24 a9 bd
       -0.101483874 -0.033387657 -0.03487666 -0.08258986
0000d0 e0 1e 82 3d 70 6c 09 3f 46 07 17 3d 73 db 2e 3d
       0.06353545 0.5368109 0.03687217 0.04268975
0000e0 13 02 ce bd 58 c2 86 3e 19 22 f6 bd d9 05 5c 3e
       -0.100589894 0.26320148 -0.12018222 0.21486606
0000f0 06 3e ed 3d 72 d3 d3 3e a0 9a 86 3d b3 ad b1 3e
       0.11584096 0.41372257 0.06572461 0.34702834

layer.4.weight f4 [128, 64]
000000 4e 53 ce bc 96 90 d5 bd a1 2a 66 3d 98 af 86 bd
       -0.025186207 -0.10427968 0.056192998 -0.065764606
000010 2b 78 56 3d 09 9a fb bc 95 98 e7 3d f0 25 1f 3d
       0.052360695 -0.030713098 0.113083996 0.03885454
000020 99 07 af bd 2b 1d 29 bd 9e e1 34 bd 84 27 5d bc
       -0.08546371 -0.041287582 -0.044160478 -0.013498191
000030 02 ef 13 bd d5 78 07 3d e2 40 86 bd 16 e1 04 3d
       -0.036116607 0.03307422 -0.06555344 0.03244122
000040 bf 86 90 3d e7 2f 7a 3d fb 24 83 3d 10 b3 0e 3d
       0.07056951 0.06108084 0.06403538 0.034838736
000050 df 21 a2 3d 9d 6a c8 bd cd b6 ba bd d6 7d f2 3d
       0.07916617 -0.0978596 -0.09116898 0.118404076
000060 ef 15 05 3d ed 9b 19 3d 37 9f a4 3c b6 b8 85 3d
       0.03249162 0.037502218 0.02009545 0.065293714
000070 9b 21 21 bd 8a b5 74 3d 73 9b 6b 3d 20 19 ce 3d
       -0.03933869 0.05974344 0.057521295 0.10063386
000080 a1 52 84 3c c5 b5 49 3d 66 6d 57 bd b9 5d 4f 3c
       0.016152682 0.049245615 -0.052594565 0.012656623
000090 6b b3 22 bd 2b b4 cb 3b 3b 6c 38 bc b1 b5 54 3d
       -0.039721888 0.006216546 -0.011256273 0.051931087
0000a0 c3 dd 24 bd b9 0c c9 bb 2e f5 22 bc dd 44 c5 3d
       -0.04025055 -0.00613555 -0.009946151 0.09632275
0000b0 ed 9f b1 3d 5e 23 0c 3d ee 52 c5 3d 0c b4 33 3d
       0.086730815 0.034213416 0.09634958 0.043872878
0000c0 10 91 7c 3d ef ea 08 bd c5 50 a0 3d 12 22 d8 bc
       0.06166178 -0.033427175 0.078279056 -0.026383433
0000d0 52 22 1c 3d 7f 9e c4 bc ad 35 4f bd 10 f0 89 bd
       0.038118668 -0.024001358 -0.0505883 -0.067352414
0000e0 e5 68 2d ba 73 5d 81 bc 88 f3 1f 3d 43 cb 7f bd
       -0.0006615057 -0.01579163 0.03905061 -0.062449705
0000f0 bd 94 fe 3c a2 58 b2 3d e0 72 e6 3d c0 f1 e6 3c
       0.031076783 0.087083116 0.112523794 0.028191447
000100 ce 4a 07 bd ce eb e2 3c 96 76 e0 3d 70 57 24 3d
       -0.033030324 0.027700331 0.109601185 0.04012245
000110 b4 4e cd ba 7f 6d 34 be 09 ba d7 bd 97 5a 8b bd
       -0.0015663714 -0.17619894 -0.1053353 -0.06804388
000120 89 f0 cb 3d 37 bd 7f 3d 1e af ca 3d e9 d0 70 bd
       0.09957988 0.06243631 0.09896682 -0.058792982
000130 01 1c 7e 3d f1 7d d3 bd 7c 38 05 bd b1 5f ae bc
       0.062038425 -0.10326756 -0.03252457 -0.021285864
000140 1a c7 d9 3d 4c 2f 53 bd 98 5b 1a be cf b6 4f 3c
       0.10633679 -0.051558778 -0.15074003 0.012677862
000150 c7 cb 6f bd 1d dc 64 3c 7a f5 b9 bc 62 c7 ea bd
       -0.058543947 0.013968495 -0.02270006 -0.114638105
000160 fa 7a 64 3e 78 19 27 bc 3d 19 25 be 3b 6f e1 3d
       0.22312537 -0.010198943 -0.16122909 0.11007544
000170 ba 59 7e bd 9e 1f d7 3d e5 47 c3 3c a9 0a 5e 3a
       -0.06209729 0.105040774 0.023837993 0.00084702164
000180 d6 c2 9d bd 29 5c 5c 3c bc 34 e5 3c 19 66 97 bc
       -0.07703178 0.013449707 0.027979247 -0.018481301
000190 e4 d5 b5 bc d2 50 ef 3c b0 db 09 3d 14 af d4 3d
       -0.022196718 0.029213343 0.033656776 0.10384956
0001a0 1f 8f a1 3d 51 26 0d 3e a8 84 53 bd 4b 3a 7b 3c
       0.07888626 0.13784148 -0.051640183 0.015333722
0001b0 35 78 91 3d b0 af 9c bc a3 2c 58 be 23 e4 21 3d
       0.07103006 -0.019126743 -0.21110778 0.03952421
0001c0 f0 7f c3 bd 7e c6 7a 3d a0 fa af bd 75 d2 34 3c
       -0.095458865 0.061224453 -0.08592725 0.011036505
0001d0 0f f2 41 3d 46 65 f1 bd 7e 13 87 bd 25 94 16 bd
       0.047349986 -0.117868945 -0.06595515 -0.036762375
0001e0 56 4b 12 bc 4b bd cc bd 20 11 4f bd 3a a4 97 bd
       -0.008929094 -0.09997042 -0.05055344 -0.074043706
0001f0 82 e2 7b bd 9f 6b a3 bd 75 cf 0b be aa 76 09 be
       -0.06149531 -0.079795115 -0.13653357 -0.13424173
000200 fa 2a f8 bc ee d1 a0 bd 2b 4b 68 3d 74 18 85 3c
       -0.03029393 -0.07852541 0.05671231 0.016247012
000210 af 9f d3 bd 05 50 79 3e 41 ae f2 3d 3a 73 d8 3d
       -0.103331916 0.24346931 0.118496425 0.10568853
000220 dc 3f ac 3d c7 57 ff bb 74 86 d0 bd ed 61 86 3c
       0.08410618 -0.0077924463 -0.10181895 0.016404117
000230 55 88 11 3b b6 17 c2 bd bc 45 16 bc 01 08 c9 3d
       0.0022206504 -0.09477179 -0.009171899 0.0981598
000240 c3 d8 be 3c 97 61 40 3c 75 5d 70 bc 8f b9 8c ba
       0.02329672 0.011742017 -0.014670719 -0.0010736453
000250 cc d1 b1 3c 25 b8 a4 3d a0 47 29 3c ba 9a 96 3c
       0.021706484 0.08042935 0.010332018 0.018384326
000260 22 7c ae 3c c3 10 90 bd a5 9d cc 3c a4 e8 08 bd
       0.021299426 -0.07034447 0.024977515 -0.03342499
000270 96 ad 90 3d 59 b0 c2 bc a8 4a 98 bd b9 df 8a 3d
       0.07064359 -0.02376573 -0.074361145 0.06780953
000280 0b fb b8 3d 6c 9c 17 be 70 d4 9e bd 5b c0 df 3d
       0.09032258 -0.14805764 -0.07755363 0.10925361
000290 f2 38 f9 3c f9 7c b6 3c df 2e 0e be 80 1a d7 bd
       0.030422661 0.022276388 -0.13885067 -0.10503101
0002a0 ef 38 81 bc cb 38 aa bd be ba f7 bd 71 94 aa 3d
       -0.015774218 -0.08311614 -0.12096165 0.08329094
0002b0 d0 de e9 3b ba 98 93 bd e5 ec 5c bd d8 7a 84 3c
       0.007137157 -0.07206865 -0.053936858 0.016171858
0002c0 c7 5c d2 bd 4e 99 e0 bb f7 79 4d 3d e4 38 b6 bc
       -0.10271602 -0.006854213 0.050165143 -0.022243924
0002d0 03 9e 18 bd fd 91 1f 3d 60 e6 a6 bd 93 b6 a3 3d
       -0.037260067 0.038957585 -0.08149409 0.07993808
0002e0 a8 31 1a bd af fd 4d 3d f6 bd ac bd 4d 1b 9b bb
       -0.037645012 0.05029076 -0.0843467 -0.004733479
0002f0 d1 d6 30 bd 3d 2c 73 3d bf 9b 47 3c 09 6e 89 bd
       -0.043173615 0.05936836 0.012183129 -0.06710441
000300 25 d0 60 bd ad a3 e8 3c b7 0b 95 bd 40 f8 80 bd
       -0.054886002 0.02839836 -0.07277625 -0.0629735
000310 77 58 92 bd df f2 79 be 7d 13 63 3c d3 0b cd 3d
       -0.071457796 -0.24409054 0.013859627 0.10012021
000320 ce ed 3b 3d c6 af b3 bd 37 01 1d 3d d9 bf 83 bd
       0.045881085 -0.087737605 0.038331237 -0.064330764
000330 87 0e 98 3d 69 09 92 3d 9d ab 62 bd 0c 45 78 3c
       0.07424646 0.07130701 -0.055339444 0.015153181
000340 9a 8c fb 3c 8c 40 7f 3e ac 97 7c 3c 5b 11 05 3d
       0.030706692 0.24926966 0.015417021 0.032487255
000350 2e 15 e9 bc 32 bb 24 bc ae 40 ea bd c2 bc 58 3d
       -0.028452482 -0.010054396 -0.11438118 0.05291439
000360 58 07 9a 3d 88 75 89 3d e0 74 02 bd fb 82 b9 3d
       0.07520932 0.067118704 -0.031849742 0.09058186
000370 03 95 33 3d 81 89 ac 3c 55 7d 0f be a8 5e ca bb
       0.04384328 0.02106166 -0.14012654 -0.0061758347
000380 fc a4 55 3c 17 26 49 3d c0 69 6e bd 90 17 96 bd
       0.013039824 0.04910859 -0.05820632 -0.07328713
000390 eb 4c 4e bd 40 52 70 3d 4b 43 b3 3c 7f e0 25 3e
       -0.050366323 0.05867219 0.021882674 0.1619892
0003a0 b7 13 cd bd 8c 13 7a 3c 39 c6 2e 3b 6c ee 78 3d
       -0.10013526 0.015263449 0.0026668443 0.06077425
0003b0 bb 15 1c 3c 6a a2 43 bb 0a 08 02 bd a8 34 c3 3d
       0.009526665 -0.0029851445 -0.031745948 0.09531528
0003c0 9f a1 f7 bd f6 38 1d bd 29 81 8e 3d f8 aa cb 3d
       -0.12091374 -0.0383844 0.06958229 0.09944719
0003d0 b6 9f d1 3c 3c 7c 5e be a2 04 0b 3e 99 4a cc bc
       0.025588851 -0.21727079 0.13575986 -0.024937915
0003e0 53 c8 90 3d 97 32 b9 bd 8c eb 4b 38 a1 1b 1c 3e
       0.07069459 -0.09042852 4.861834e-05 0.15244915
0003f0 74 92 5c 3d 20 c6 55 3e fd 3e 82 3c c6 0d 61 3e
       0.053850606 0.2087636 0.015899176 0.2197791

layer.4.bias f4 [128]
000000 17 73 5f 3d 72 79 d6 3d 44 af 38 bd b4 3f 00 3e
       0.054553118 0.104723826 -0.04508902 0.12524301
000010 f4 f8 5a 3c 75 db 91 3d d3 94 14 3d 47 d3 99 bd
       0.013365019 0.07121936 0.036274742 -0.07511001
000020 c0 ae 34 bd bb 2c 8b 3c e4 a1 53 3e ec 99 fa bd
       -0.044111967 0.016989103 0.20667225 -0.122363895
000030 e2 d7 f4 3c f5 3d 10 be 16 40 1d bd aa 8b 13 3e
       0.029888097 -0.14086135 -0.038391195 0.14408746
000040 bb 1c 47 bd b3 31 95 3d 04 b6 09 be 02 2b b7 bd
       -0.048611384 0.0728487 -0.1344834 -0.0894375
000050 89 80 00 3e b0 75 98 bd 8d 44 cb bd 7c 7c 2b 3e
       0.12549032 -0.07444322 -0.099251844 0.16746706
000060 c5 7e 75 3d 00 8d 9d bd 58 a7 6a 3b 97 1d e4 bd
       0.05993535 -0.07692909 0.003580531 -0.11138456
000070 25 32 88 3c 2e e6 ad 3a ec 2f f9 3d 49 54 d3 bd
       0.016625473 0.0013267451 0.121673435 -0.103188105
000080 8a e3 73 3d 91 7b 29 3e b5 6e ea bd 3e 82 88 3c
       0.05954317 0.16551043 -0.11446897 0.016663667
000090 9d 12 2c be e2 c2 42 3e a0 4f c8 bb e7 71 2a bd
       -0.16803975 0.19019654 -0.0061130077 -0.041612532
0000a0 f3 d6 03 be 23 3e 39 bc 97 02 06 3c ed 2b 22 3c
       -0.12874965 -0.011306318 0.008179328 0.009898168
0000b0 4d 08 b3 bd f5 7d 00 3d ab 2d 88 bd d3 e9 d6 3d
       -0.087418176 0.031370122 -0.066493355 0.10493817
0000c0 3e 6f b1 3d 9c 9c a9 bd dd f1 fc 3b 72 bd ad bc
       0.08663796 -0.08281824 0.007719262 -0.021208499
0000d0 b7 4b 0e be d0 ad 7d 3e 31 9f c3 bd a5 23 2d bd
       -0.1389607 0.24773335 -0.09551848 -0.04227032
0000e0 f2 a3 91 bd 37 78 bf 3d b3 50 6e bd c0 97 d9 3d
       -0.07111348 0.09349101 -0.05818243 0.10624647
0000f0 03 34 55 bd d0 2b 52 bd c1 34 a1 3e 89 ae a4 bd
       -0.052051555 -0.051311314 0.3148556 -0.080411024
000100 b9 f1 b9 3d 19 79 af bd 42 de 29 3d 1a d2 08 3e
       0.09079308 -0.085680194 0.041471727 0.13361397
000110 c3 13 24 3e 0f a6 23 3e 70 84 f2 3d d6 12 76 3d
       0.16023163 0.15981315 0.11841667 0.060076557
000120 17 be 0a be a1 63 91 bd 91 94 71 3d ed 27 2e bd
       -0.13549076 -0.07099081 0.058979575 -0.042518545
000130 31 99 32 be f1 0b 35 3e 83 4c 74 b9 fa b4 ee 3d
       -0.1744125 0.17680337 -0.00023298156 0.11655612
000140 1f 3c f2 bc d4 08 92 3d 8e 5d 43 3d 11 e2 93 3d
       -0.029569684 0.0713059 0.047696643 0.07220853
000150 9b 6e 30 3e 32 88 9c bd a6 40 b2 bd 56 ef 00 be
       0.17229693 -0.07643165 -0.08703737 -0.125913
000160 ac bc 25 be 1b a2 d5 bd 28 4b 00 3f ce b6 f0 3d
       -0.16185254 -0.1043131 0.5011468 0.11753617
000170 e9 28 b2 3d 3b d1 ce 3d 93 67 89 3d 41 1f 9c bd
       0.08699209 0.10098501 0.06709208 -0.07623149
000180 53 ed c6 bd 70 75 2c 3c 3a c0 0d 3e cf 42 bc 3d
       -0.09713235 0.010526046 0.1384286 0.0919243
000190 92 33 8d bc 57 42 60 3e 93 e9 94 3d ed 6a e3 bd
       -0.017236505 0.21900307 0.07271113 -0.11104379
0001a0 2c 59 24 3d 86 14 e2 bd d3 98 9a 3d be 1b 0b 3d
       0.040124103 -0.11039071 0.0754868 0.033962004
0001b0 c5 91 4f bd bb 32 0d bb d3 f2 1a bd 4c 49 40 bd
       -0.050676126 -0.002154513 -0.03782923 -0.0469449
0001c0 7a ec 5e 3d ea 0e 8f bd 2b e4 87 3c 4c 8b ca bd
       0.05442474 -0.069852665 0.016588291 -0.0988985
0001d0 f0 02 5c 3c 6a 37 1e bd 3e 32 09 3d cc 29 a2 3d
       0.013428435 -0.038627066 0.03349518 0.07918128
0001e0 ff f1 52 bd 1a 13 1f bc 8b 96 02 3e 76 fc af bc
       -0.051500317 -0.009709144 0.1275274 -0.021482687
0001f0 1f 0b 98 bd be b4 ac bd f1 68 d4 bd 8e b4 72 3d
       -0.07423996 -0.08432911 -0.103715785 0.05925422

layer.6.weight f4 [23, 128]
000000 28 a0 1a bd 01 73 f6 39 de 1c 55 3d d1 86 35 3d
       -0.037750393 0.0004700646 0.052029483 0.044318024
000010 8c 26 bd 3c c7 1b 94 3c 34 84 6d 3d d1 18 b1 bc
       0.02308967 0.018079652 0.057987407 -0.021618279
000020 e2 86 aa bd ed 92 01 bd ea 7f 10 bd 6d a4 a7 bc
       -0.08326508 -0.03163426 -0.03527824 -0.020464147
000030 ed 8b c5 3c c0 7b 08 3c 5e 33 58 3d b5 99 ac bb
       0.024114573 0.008330286 0.052783363 -0.0052673467
000040 67 99 3b 3d fc 4a 53 3d f1 2e a0 bd 00 bb 65 bd
       0.045800593 0.051585183 -0.07821453 -0.05608654
000050 0f 38 72 bd c2 c1 cd bc 8f 86 38 bd 6b 94 66 3d
       -0.059135493 -0.025116805 -0.0450502 0.056293886
000060 01 e3 82 bd 59 c9 71 3d e7 73 66 3d cf d6 9e bd
       -0.06390954 0.05902991 0.056262877 -0.07755815
000070 fe 31 b3 bc 77 f0 83 bc 28 f4 e4 bb 87 d7 86 3c
       -0.021874424 -0.016105874 -0.0069871135 0.016460193
000080 4e 90 20 3d 46 38 8f 37 94 52 88 bd 2e 34 4e 3d
       0.03920012 1.7073133e-05 -0.066563755 0.05034273
000090 99 c1 8b bc 78 f8 c8 bc c9 90 ff bb 6e ad 85 bc
       -0.017060088 -0.024532542 -0.007799242 -0.01631805
0000a0 50 14 5e bb 61 74 c3 3c f6 36 9a 3c a0 de 84 bd
       -0.003388662 0.023859205 0.018825036 -0.06487775
0000b0 43 eb 3c 3d 8d 44 0f 3b e4 03 02 bd a2 e5 40 3c
       0.0461228 0.0021860928 -0.03174199 0.011773499
0000c0 25 0a f9 bc a6 20 87 bc c1 81 89 bd bd 90 e6 bc
       -0.030400345 -0.01649506 -0.06714202 -0.028145188
0000d0 4e ba 64 bc 17 e7 31 3d 19 a5 1c 3d 23 d9 81 3d
       -0.013960434 0.043433275 0.038243387 0.06340244
0000e0 0c 88 ca bc 1b 68 f9 3c d1 8f 9b 3d e5 03 5c 3d
       -0.024723075 0.03044515 0.0759579 0.05371465
0000f0 fd 81 17 bb dc a3 f0 bc 6d 0c 56 bd 71 f3 a2 bc
       -0.002311825 -0.02937501 -0.052257944 -0.019891473
000100 eb 63 a7 3c 96 72 24 bd 9f 8a d1 bc e2 2d 91 bd
       0.020433387 -0.04014834 -0.025578795 -0.070888296
000110 2f f6 83 bc 67 f9 ef 3b 19 9d 27 bd 9c 35 ec 3b
       -0.0161086 0.0073234322 -0.040921304 0.007208539
000120 ff c3 71 bd 2b 2a d2 bc ab 09 9b ba 83 9e 74 3b
       -0.059024807 -0.025654873 -0.0011828443 0.0037325926
000130 ee 50 27 bd 4c d8 42 3c aa 25 24 3d 9b 48 d7 3b
       -0.040848665 0.0118923895 0.04007498 0.0065699345
000140 e8 29 90 bd bc b8 54 bd 69 ca a0 bc cc 69 6d 3d
       -0.07039243 -0.05193399 -0.019627767 0.057962224
000150 e1 02 86 3d 98 f9 cd 3c f1 44 3d bb d3 5d ff bb
       0.06543518 0.02514343 -0.0028880204 -0.007793167
000160 33 92 26 3c c4 dc ac 3d 2e 7f 6a bd b5 37 bd bc
       0.010166693 0.08440545 -0.057250194 -0.023097852
000170 d1 5e 9e bd 5a 24 8e bd 1c df 2c 3c 08 8d 15 3d
       -0.077329285 -0.06940527 0.01055124 0.03651145
000180 4a 9c 54 bd 26 2f 34 3d c0 3e 98 bc 96 3c 9a bc
       -0.05190686 0.043990277 -0.018584609 -0.018827718
000190 5d 00 d1 bc 5d de 83 3d 29 7f 23 3d 93 d0 8c 39
       -0.025512869 0.06438897 0.03991619 0.0002685828
0001a0 f5 eb 86 bb 16 6b 3c bc 8f c6 0d 3d d1 3c f7 bc
       -0.0041174837 -0.011500141 0.03461319 -0.030180367
0001b0 ee 19 a6 bb 2f a2 00 3d 4f c5 80 3d e8 c2 c7 3d
       -0.005069009 0.03140467 0.06287634 0.09753972
0001c0 13 bd 3a bc 27 dd e2 3c 2c 62 15 3d 3f 73 37 bd
       -0.011397618 0.027693344 0.036470577 -0.04478764
0001d0 43 a5 58 bd 49 0a bb ba f7 60 68 bd 95 37 8a 3c
       -0.05289198 -0.0014270033 -0.056733098 0.016872207
0001e0 f5 e9 89 bc 0d ee 10 3d dd 7f c7 3c 7e 9c bd bc
       -0.016835192 0.035383273 0.024352962 -0.02314591
0001f0 eb 4a 85 3d f6 d7 a4 bc 9e 44 8f bc 78 89 55 bd
       0.0650843 -0.02012251 -0.017488774 -0.052133054
000200 1a e5 dc bc 89 5a 2c bc 7e 87 5d bd 78 94 00 bc
       -0.026964713 -0.010519632 -0.054084294 -0.007847898
000210 8c 2f 78 bd 7f cc 60 3d 8a f0 95 bd 9f 96 2a 3d
       -0.06059222 0.054882523 -0.0732127 0.04164755
000220 70 16 a9 bc 18 2c 76 bc a9 f2 cb 3c 26 c0 2e bb
       -0.020640582 -0.015025161 0.024895983 -0.0026664822
000230 88 f7 10 bc 3d c2 5d 3c f4 d3 c6 3c 1d 62 c2 bd
       -0.008848079 0.01353508 0.024270989 -0.0949137
000240 2f 9f f4 bb 26 dc 41 bd c4 63 6d bc e4 80 1a 3d
       -0.007465265 -0.04732909 -0.014489118 0.037720576
000250 b9 fe 46 3d b8 0e 1b 3c 9b 92 13 b9 47 77 d7 3c
       0.048582766 0.009463958 -0.00014073627 0.026301993
000260 b6 c0 80 3d e1 57 45 bd da 4e 57 3d 3f 07 06 3d
       0.06286757 -0.04817951 0.052565433 0.032721754
000270 d4 34 9c bd 54 d3 42 3d b4 d1 3c 3d fe e5 8b 3b
       -0.07627264 0.04756482 0.046098426 0.0042693606
000280 d6 65 0f 3d 97 e0 3d 3d 40 5a 7f bd 26 80 35 bc
       0.035009228 0.046356764 -0.06234193 -0.011077916
000290 44 84 0c 3d 04 7f f0 3c e8 b3 aa 3d 51 8b ca 3c
       0.034305826 0.02935744 0.08335096 0.024724634
0002a0 87 ca 45 3d 42 36 93 bc bc 75 eb 3b 60 5a 87 3c
       0.04828885 -0.017970208 0.007185666 0.016522586
0002b0 77 8d 9d bd 0a 35 10 bd 9b 4e 53 bc 4c 3f a7 3c
       -0.07692998 -0.035206832 -0.012897159 0.020415924
0002c0 23 59 ac bc 83 0b 84 3d e1 11 71 3c 92 b6 2b 3d
       -0.021038597 0.06447508 0.014713735 0.04192216
0002d0 a2 9a e1 3a bc 8d c2 3c cc 82 51 3d 88 b2 8e 3d
       0.0017212222 0.023749225 0.05115013 0.06967646
0002e0 8c cc 1c bd 7c 9a 0e bd 37 fd 18 3d f7 e5 26 3d
       -0.03828101 -0.034815297 0.03735086 0.040746655
0002f0 32 bb 86 bd 5a 77 1a bd 8b 59 27 3d ad 3c 93 3c
       -0.065786734 -0.03771148 0.04085688 0.017973268
000300 94 95 6f bd f0 59 20 3d a2 bc e3 3c f6 59 16 bd
       -0.05849226 0.03914827 0.027799908 -0.036706887
000310 17 f3 77 3b ca 6f 4b 3c 32 57 98 bd eb fd 0b bd
       0.0037834102 0.012416789 -0.07438506 -0.034177702
000320 48 13 e4 3c 8e 1a f2 3b e0 c6 ea 3c ac c6 2c bd
       0.027841225 0.0073884195 0.028659284 -0.042181656
000330 eb ac 8c 3d 55 6f 78 bc 0f c9 7d bc 27 12 24 bd
       0.06868919 -0.015163262 -0.015489831 -0.040056374
000340 21 b5 2d bc a6 a8 af bb 8a 04 df bc 58 0a 3d bc
       -0.0106022665 -0.0053606806 -0.027223844 -0.011538111
000350 86 94 5a 3d e0 91 89 bd 9e 58 a6 3c c1 e6 46 ba
       0.0533643 -0.067172766 0.020305928 -0.00075874856
000360 9c 57 5c 3c e0 01 48 bd 8c cc 81 3d de cc 22 3d
       0.013448622 -0.048829913 0.06337842 0.039746158
000370 5c 45 ae 3c d1 7c 8c bc de d9 ed bc f5 38 08 3d
       0.021273308 -0.01714936 -0.029034551 0.033257443
000380 c0 84 83 bc 36 c9 09 3c e4 d8 76 bd 41 17 91 bd
       -0.016054511 0.008409789 -0.060265437 -0.070845135
000390 3a d4 68 bd ca a7 f1 bc 67 c0 48 bd 28 0a 0e 3d
       -0.05684302 -0.029498953 -0.049011614 0.034677655
0003a0 f9 11 b1 bd 1f 1c a8 3d 47 df 3b 3c e9 cb d5 ba
       -0.08646006 0.08208489 0.011466808 -0.001631138
0003b0 94 ca 5d 3c fd 96 e1 bc b2 30 9a 3d a4 2a eb 3c
       0.013537068 -0.027537817 0.07528819 0.028706856
0003c0 d1 5e e2 3c 48 fe 23 3c 55 8d 98 bc b9 39 0c bd
       0.027633103 0.010009356 -0.01862208 -0.034234736
0003d0 c6 42 af 3c 80 68 11 3c 39 01 82 bd 3f 28 9a 3c
       0.021394145 0.008875012 -0.063478895 0.018818019
0003e0 6a e4 63 3d ad d0 2d 3b 7d dd 30 3d c0 34 66 3d
       0.055637754 0.0026522086 0.043179978 0.05620265
0003f0 7a 69 c5 3c f0 30 32 bc fa b1 1f bb c8 13 05 3d
       0.024098147 -0.010875925 -0.0024367557 0.032489568

layer.6.bias f4 [23]
000000 1a 38 f7 3c fd 1b 4f bd 04 1a 64 3d ca 92 8f bc
       0.030178118 -0.0505638 0.055688873 -0.01752605
000010 1e 8b 3e 3d 10 4a 90 3d fd 46 93 3d 8f 09 80 3d
       0.04651939 0.07045376 0.07191274 0.06251823
000020 3d 6a 41 bd 7e 8e fa 3c 93 c5 78 bc 57 bd cc 3c
       -0.047220457 0.030585524 -0.015183824 0.024992628
000030 1c 30 7f 3c 37 d6 29 bd 3a 94 ef 3c 13 49 52 bd
       0.015575435 -0.041464057 0.029245485 -0.05133922
000040 28 0b aa 3c 37 ca b3 3d 10 bf ba 3c 57 73 04 3d
       0.020757273 0.08778804 0.022796184 0.03233656
000050 92 f6 16 3c 01 eb 09 bb 92 0d c6 3c
       0.00921406 -0.0021044614 0.024176393
