weight/save_700_s0_lr2.5e-05.pth (torch_old, 53012 bytes, 8 tensors)

layer.0.weight f4 [32, 32]
00000000: f894 3bbd 8cf1 a7bf 34da 743c f8a1 adbe
00000010: da3d 7abf 20e7 313e 4ad6 953f 6933 9a3e
00000020: 0eaa 8740 e054 e940 b79c 1f3e 370f 81be
00000030: b7ce 94be 5673 d23e 28c1 cabd c508 73be
00000040: 4c43 d23b 6fa8 f2bc 85dd dbbb 98d7 98bc
00000050: cd63 95bd 77ef 0a3e 0c7d 203d fc94 0f3d
00000060: 84c4 4b3d 047c 933d bae9 283d 00f0 ddb8
00000070: c0cb 39bd 4b35 443d 4ace 9abc 9713 023e
00000080: 64b2 0bbd c699 3540 eaa0 003e ecea 52be
00000090: 7849 ddbe 0e3b cb3d e741 9bc0 3214 8140
000000a0: 5c7b 3ac0 bdf3 1f40 2af0 3f3f 6ef0 643f
000000b0: 6646 3abd 8a6c 8abd 7eab 363c f0e6 27bd
000000c0: 42d3 edba 63a1 10be dd99 25be aabb c0bd
000000d0: fe76 2ebe 69e4 07be 66ef 0cbe 1c91 98bd
000000e0: 0e4e b93d be50 923d cc82 11be 50d7 8b3c
000000f0: 20d1 33be 96b5 dc3d 00fd a9bb 839c 013e
00000100: 2b90 073e 4414 2740 66e6 c5be f3bd 223f
00000110: 9736 2e3e 49cb eb3e 987e 5cbf 6da8 d33e
00000120: d708 14c0 58ab a7c0 0f1c 593f 3469 bd3f
00000130: ba9f 123e 9a9e 283e 9a8f d7bd c146 fd3e
00000140: 4a45 4b3d 56c8 cb3d 5e79 cabc 1e52 a23d
00000150: f8f4 3e3d 317a 933c 6189 c53d 60a9 853c
00000160: fb6e 773c 9e26 433a 2ff9 c53d 4882 873d
00000170: 1acb e43a 212f 1dbd 9354 773d 400f e7bb
00000180: a003 f23b e5ac 9c3d d07b 8c3d fadc ccbb
00000190: d3c1 153e 40a0 363e 695c 98be df9c 153e
000001a0: b9f6 703d 94c1 323e 9b28 37bd 050f c03d
000001b0: e32c 6fbe 0d6f 30bd 7c1b 1d3d 4903 84bc
000001c0: 55a9 e0bd d2d1 193b aa54 f53c 6bad 34be
000001d0: 673c dbbd 4653 0fbe 2860 51bd 900a d5bc
000001e0: 00d0 5a3a 6703 063e 922c 10be 5c7b 463d
000001f0: 2c84 2abe af48 c0bd dd0f d7bd b895 373d
00000200: 072b 8abd 93e0 4a3e 5e64 a93d 8eba 4fbd
00000210: db80 9d3c 0468 db3d cb22 4a3b 3990 8abd
00000220: ac53 8a3c 9756 2dbe 7e82 263d 08cd 603d
00000230: 4fb5 67bc 44ef 503e 8d3d 20be 19df 6cbd
00000240: fbc0 f7bd 9094 a3bd d432 0ebd 758b 1f3d
00000250: 6362 2c3e 2074 debd c928 153e d834 cfbc
00000260: e85e cebc 9a45 abbd 25ea 18be 7100 013e
00000270: 02ab a83d e070 1f3c c045 11bd e7de 07be
00000280: 663d d83d d04d 9dbf 684d 653f 1ac4 23bf
00000290: 5d7e b23e 1b9a 3e3f cb0b 47bf e815 893f
000002a0: 04db 1640 8d4b 0041 3125 98bf c2e7 80bf
000002b0: c7c1 d73e 05b5 0bbf 3a18 a9be 8b48 a3bd
000002c0: d4bf 753c c52c 97bd ab1c 1c3e 3b27 bd3b
000002d0: cbbb 103e 4f95 353d aee3 9b3d 6c04 2bbd
000002e0: f05e a23c 1f60 9fbd b152 123e 00df 383b
000002f0: ccc3 7ebb becf 183e ee41 15bc 8258 34be
00000300: 803d 5b3b c738 143e 8af5 c4bd 2c9e 5fbb
00000310: af58 1cbe e99b 0bbd 95aa d9bd 6652 a5bb
00000320: 57d2 46be feff 20bd 0b74 25be 652e 293e
00000330: 1dc9 4a3d 3df7 223e 8d4b b0bd 2b76 aebd
00000340: deb9 a3bd 5393 9e3d 6c53 073e afd1 1fbe
00000350: fec8 ba3d 7c3e 7e3d db27 0d3e c5ba bcbd
00000360: 2609 a2bd 78e2 90bd 780e 29bd 7732 81bd
00000370: 83a6 333e 9972 313e 8064 e13c a018 ed3c
00000380: 935f 263e adf4 2dc0 5bb9 46bf c9ef 8abe
00000390: ec2e b13e a7f7 94be 0cdc ae40 b0b9 45c0
000003a0: 28ee a73f fbf3 90c0 d959 343e 5904 273f
000003b0: 0523 223d 2056 e33e ccec cfbd 4b2e 183e
000003c0: 936e 703d 3256 18be a689 213c d214 c3bd
000003d0: 70a7 143c e2ff dbbc e0c9 b33d 7a7d b53d
000003e0: 8306 8ebc 7d73 f73d f4e3 2ebe 76a7 f4bd
000003f0: f2d5 273d 1c31 7f3c 44a3 05be 259b 12be
-0.045796365 -1.3120589 0.014944602 -0.33912635 -0.9775063 0.17373323 1.1706021 0.30117348
4.2395086 7.2916107 0.15587126 -0.2520692 -0.2906396 0.4110362 -0.09900123 -0.23733814
0.006416714 -0.029621331 -0.006709757 -0.01865749 -0.07294426 0.13567911 0.039181754 0.035054192
0.04974796 0.072013885 0.041238524 -0.00010582805 -0.045360327 0.047902387 -0.018897194 0.12702785
-0.034105673 2.8375106 0.12561384 -0.20597428 -0.43220115 0.09923373 -4.8517947 4.0337152
-2.9137793 2.4992516 0.74975836 0.89429367 -0.045477293 -0.067589834 0.011149285 -0.040991724
-0.0018144625 -0.14124064 -0.16171975 -0.09410794 -0.1703758 -0.13270725 -0.13763198 -0.074495524
0.09048091 0.071443066 -0.14210051 0.017070442 -0.17560244 0.10776822 -0.0051876307 0.1265736
0.1323859 2.610612 -0.38652343 0.6357109 0.17013012 0.46053532 -0.86130667 0.41339436
-2.3130395 -5.239666 0.8480844 1.479773 0.14318743 0.16466752 -0.10525437 0.49468043
0.049626626 0.099503204 -0.024716076 0.07925819 0.04662034 0.018002601 0.096453436 0.016316116
0.015102143 0.0007444414 0.096666686 0.06616646 0.0017455549 -0.038375024 0.06038339 -0.0070513785
0.007385686 0.076501645 0.06859553 -0.0062519284 0.1462472 0.17834568 -0.29758003 0.14610623
0.058829043 0.17456657 -0.04471646 0.09377865 -0.23356967 -0.043074656 0.03835629 -0.016114848
-0.109697975 0.002347101 0.029947598 -0.17644279 -0.1070488 -0.1399661 -0.051117092 -0.026006013
0.00083470345 0.13087235 -0.14079502 0.04845749 -0.16651982 -0.09388863 -0.105010726 0.044820517
-0.06746488 0.19812231 0.08271097 -0.05071502 0.019226482 0.10713199 0.0030843492 -0.067657895
0.016885601 -0.16927563 0.04065179 0.054883033 -0.014142348 0.20403773 -0.1564848 -0.05782995
-0.12097355 -0.079873204 -0.034716442 0.038951356 0.16834407 -0.10861993 0.1456634 -0.025293753
-0.02519174 -0.08362885 -0.14933069 0.12597825 0.08235742 0.009731501 -0.03546691 -0.13268624
0.10558586 -1.2289371 0.8957124 -0.639711 0.34862033 0.74453896 -0.7775237 1.070981
2.3571177 8.018445 -1.188635 -1.0070727 0.42140028 -0.5457309 -0.33026296 -0.07972821
0.014999349 -0.07381586 0.15245311 0.005772499 0.14134137 0.044331845 0.07611786 -0.041752264
0.01982066 -0.077820055 0.14289357 0.002820909 -0.0038874028 0.14922997 -0.009109957 -0.17611888
0.0033453405 0.14474784 -0.09617145 -0.0034121377 -0.15268205 -0.034084234 -0.10628239 -0.005045223
-0.19416176 -0.039306633 -0.16157548 0.16521604 0.049508203 0.15914626 -0.0860816 -0.085186325
-0.07994436 0.077429436 0.13215417 -0.15607332 0.091203675 0.06207131 0.13784735 -0.09215311
-0.07911901 -0.070744455 -0.041273564 -0.063084535 0.17543988 0.17328872 0.027513742 0.028942406
0.16247396 -2.7180588 -0.7762658 -0.27136067 0.3460611 -0.29095194 5.464361 -3.0894585
1.3119555 -4.529783 0.17612399 0.6524101 0.03958418 0.44401646 -0.10152587 0.1486141
0.0586992 -0.14876631 0.009859478 -0.095254555 0.009073123 -0.026855413 0.08778739 0.088618234
-0.01733709 0.120825745 -0.17079145 -0.11946003 0.04097552 0.015575673 -0.13050562 -0.14316995

layer.0.bias f4 [32]
00000000: 7913 063e 4080 b43d 372e ec3c 9ab7 78bd
00000010: 6bac 453d c925 57be 985c 30be cb50 873e
00000020: e7ad ef3c 9ebf 833e b6d1 cebd 8d27 e73d
00000030: 605e 27be 6422 5fbe a49d 45be 8661 4d3c
00000040: 24eb 27be 0223 293e 822b 4bbd dcc4 4bbe
00000050: 7179 34be 0cc3 0abf 93f0 273d 29d1 9ebc
00000060: 8269 473d 303d 31be 7d4a 3e3e 6ce1 f73d
00000070: a633 f6bc df54 1a3c daa3 fd3c 33a1 ea3d
0.13093366 0.08813524 0.02883063 -0.06072197 0.048260134 -0.21010508 -0.17222822 0.26428828
0.029257728 0.2573213 -0.10098593 0.112868406 -0.16344595 -0.21790463 -0.19298416 0.012535458
-0.16398293 0.1651726 -0.04960204 -0.19899315 -0.17624451 -0.5420387 0.041000914 -0.019386845
0.048684604 -0.17308497 0.18583103 0.12103543 -0.030053925 0.009419649 0.03096192 0.114565276

layer.2.weight f4 [64, 32]
00000000: b65c 13be c97c b63d a471 b23d 8ced b2bd
00000010: 0d5a bbbd 048e 12be e562 2c3e 59c6 2bbe
00000020: d246 0d3d 1b68 8d3d c9ed 50bd 7f33 a23d
00000030: 45d0 e2bd acaa b23d c44d 513c 4a2f b83d
00000040: 06c0 2dbe c303 ba3d 0080 ce3d b48f ad3d
00000050: 2060 413e d935 013e 6d6c 953d 231f 43bd
00000060: f4aa f63d d889 9f3d e266 ab3d c7f1 de3d
00000070: a0d7 24be 6873 b83c f6a1 f3bc 15d8 ff3d
00000080: 823a 39be 4fcd ca3d c3be 2cbe 5688 45bd
00000090: 77ee e7bd 092a 11be 5e67 fbbd 7da6 723d
000000a0: 1842 f0bd 4bb0 5fbe 1c55 f23d 85e3 b83d
000000b0: cd29 853d 42b2 02be c248 47bc dbe6 d23d
000000c0: 48d6 d1bd 6287 1cbd 77c1 623d 4ac6 bcbd
000000d0: 3820 793d 13a0 61bd ddc9 fabd 55ba 123e
000000e0: 8910 9b3d 2b17 3a3d d150 3d3e bb42 a4bd
000000f0: 253e da3d f4c7 c33d 87d9 723c 4c05 353e
00000100: 8a54 bf3d db7f 36bd 0cf8 0cbe 0bbf 673d
00000110: 3efc d9bd 8267 023d 467e 25bc 8b2d c13d
00000120: 20dd 683d 86ef cb3c 66af 1dbe 222c c7bd
00000130: 746f 14bb f7a2 0e3e 5323 bd3d 07d0 293e
00000140: 90ce 07be d5d5 d9bd 3dff 0c3c 8a77 cf3d
00000150: ff6a f73d 8de2 23bd 0036 1c3e a2e4 8b3d
00000160: 4a17 9cbc 38d6 d4bd b3f4 cfbd 1459 0a3e
00000170: 94aa f8bb f87e f0bd d6c2 79bb bca4 123d
00000180: d3c4 063e c708 d5bc 3b7c a2bd 3fa0 14bd
00000190: fe2e 4fbd 9b8d 31be 10a3 80bd aecf 26be
000001a0: 2242 063e 51e4 dd3d f4e8 043d e17f cdbd
000001b0: de05 b4bd 35b8 2f3d 17a5 163e 0dc6 223e
000001c0: 90be 0fbe 41b6 15bd e472 053e 5646 b1bd
000001d0: b6a9 4abe 84a8 27be 1eb0 fa3d 2cd3 82bc
000001e0: c9fd 953d c353 b5bb 4021 9cbd 53dd a1bd
000001f0: baa8 183e 1c52 073e 3137 e73d 7239 69be
00000200: 00e0 053b 9d64 94bd d481 f2bd 1595 2f3e
00000210: d0f7 4a3d 1fbd 133e e001 553c f826 cc3c
00000220: 0b0f f7bd e2ad 963d a68f 9a3d b2d0 8f3d
00000230: 8f0a 18be 8098 bf3a f494 2cbd 3f64 033e
00000240: 03a0 12be 821e 61bd 9027 57bc 3efa 34be
00000250: a0ed c53c d014 6bbc b469 213d a078 12bc
00000260: 38f5 e03c 8344 8dbd 80e9 28be 6816 1bbe
00000270: 636a 0bbe a0a3 32bd 7d09 17be 3a40 c3bd
00000280: 543c a6bd 8e6f 573c 066b c13d 6b39 81bd
00000290: d5e9 f23d 9c02 c9bd 705a cabd cf33 89bd
000002a0: 739a 93bd 99a7 00be 365e 2bbd 78d8 c3bc
000002b0: 538c b43d e06a fd3d fe04 96bd 2f7a 69bb
000002c0: 5d7a b63c 5d97 9d3d e6b0 0f3e 0df4 e33d
000002d0: 356e 083e 32ef afbc 5f24 463c efdf 963d
000002e0: be9a 45bd ef71 25be 5cf1 42be e315 0abd
000002f0: 68a7 acbd 6d0b e3bc 95e5 edbd f620 d0bd
00000300: 3ab7 f6bd 63e5 923c 09be b0bb 2e4f 983d
00000310: 4f34 073e ffc3 8e3d 05fd f33d 009c e23c
00000320: 9a3d e2bd 639e 9d3c e976 29be 0af6 9c3d
00000330: fcc5 303e 13c8 0f3e 9cc9 8c3c b905 36be
00000340: b89c 2a3e 4086 f8bd 24a1 f5bc fdba 9ab9
00000350: 2ac0 d5bc d36f dc3d e140 623d 8569 0b3e
00000360: 33f1 613d 8741 1abe 4dea d23d b3f5 b53d
00000370: c7b8 2abe 7a04 253e ff6c 433c 63c7 253e
00000380: 6fc5 dd3d 9601 333c 55ad 683d bcf0 783c
00000390: c015 88bd 3ace 08be dada 27be 29e9 e4bd
000003a0: 6afd a13d 22d4 4a3d 1bfe 7a3d 5c23 ee3d
000003b0: c08d bfbd c640 d93d 7a42 bf3d e31c 1aba
000003c0: 859a e53d ffcf eebd 42c3 103e b3d7 413d
000003d0: 1ce2 b3bd 00de efbd ec7d ccbd 1c93 0ebe
000003e0: edec 3cbe 4ec3 943d ef79 05be 2384 bb3c
000003f0: 8c22 8d3d f698 58be 4145 9c3d aa90 44bc
-0.14390835 0.0891052 0.087130815 -0.08736715 -0.09148035 -0.14311987 0.168346 -0.16774882
0.034491368 0.06904622 -0.05100802 0.07919978 -0.110748805 0.08723959 0.012774888 0.08993395
-0.16967782 0.09082749 0.10083008 0.08474675 0.18884325 0.12618198 0.07296071 -0.047637116
0.120443255 0.077899635 0.08369233 0.10885959 -0.1609788 0.022515967 -0.029740315 0.12492386
-0.18088725 0.09902441 -0.16869645 -0.048225723 -0.113247804 -0.14176191 -0.12275575 0.059240807
-0.117313564 -0.21844594 0.118326396 0.09027771 0.065021135 -0.12763312 -0.012163343 0.102979384
-0.10245949 -0.03821505 0.055360284 -0.09217508 0.06082174 -0.0550843 -0.122455336 0.14328893
0.07571513 0.04543225 0.1848786 -0.0802054 0.106563844 0.095596224 0.01482237 0.17677802
0.093422964 -0.044555526 -0.13766497 0.056578677 -0.106438145 0.031836994 -0.010100907 0.09432515
0.056851506 0.024894487 -0.1539894 -0.097252145 -0.002264944 0.13929354 0.09235253 0.16583262
-0.13262391 -0.10636488 0.008605775 0.10130222 0.12080955 -0.040010978 0.15254974 0.068307176
-0.019054074 -0.103924215 -0.101540945 0.13510543 -0.007588694 -0.11742967 -0.0038110516 0.035801634
0.1316102 -0.026005162 -0.07933851 -0.036285635 -0.050581925 -0.17339174 -0.06281102 -0.16290161
0.13111165 0.108345635 0.032448724 -0.100341566 -0.087901816 0.042900283 0.14711414 0.15895863
-0.14037538 -0.036550764 0.13032109 -0.08655994 -0.19791302 -0.16372877 0.12240623 -0.015969835
0.07323796 -0.005533667 -0.076235294 -0.07903542 0.14908114 0.13214916 0.11289824 -0.2277582
0.0020427704 -0.07245753 -0.11841169 0.17146714 0.04955274 0.14427613 0.013000935 0.024920925
-0.12063416 0.07357384 0.0754693 0.07022227 -0.14847778 0.0014617592 -0.04213424 0.1283121
-0.14318852 -0.054960735 -0.013131991 -0.17673585 0.02416116 -0.014348224 0.039407447 -0.008939892
0.02746068 -0.06897833 -0.16495323 -0.15145266 -0.13614802 -0.043613076 -0.14749713 -0.095337346
-0.081169754 0.013149155 0.09444241 -0.0630978 0.11861006 -0.09814951 -0.09880531 -0.06699335
-0.07207193 -0.12563933 -0.041837893 -0.023906931 0.08815827 0.123739004 -0.07325171 -0.0035625806
0.022275144 0.07694886 0.14032325 0.11130533 0.1332329 -0.021476362 0.0120936325 0.07366931
-0.048243277 -0.16156743 -0.19037384 -0.03371228 -0.08430368 -0.02771541 -0.11616055 -0.10162537
-0.120466664 0.017931646 -0.0053937477 0.07436977 0.13203548 0.06970977 0.11913494 0.027662277
-0.11046906 0.019240564 -0.16549267 0.07664116 0.17263025 0.14041166 0.017185979 -0.1777562
0.16661346 -0.12134981 -0.029984064 -0.00029512486 -0.026092608 0.10763516 0.055237655 0.13614471
0.055161666 -0.15064059 0.102985956 0.08884754 -0.1667205 0.16114989 0.011927842 0.16189341
0.10828673 0.010925671 0.056805927 0.015194114 -0.066447735 -0.13359919 -0.16392079 -0.11177284
0.07909663 0.049518712 0.06127749 0.11627838 -0.093532085 0.10608058 0.09338851 -0.0005878938
0.11211113 -0.11660766 0.14136985 0.047324847 -0.08783361 -0.11712265 -0.09984955 -0.13923305
-0.18449755 0.07263814 -0.13034795 0.022890156 0.06891355 -0.211521 0.07630397 -0.011997381

layer.2.bias f4 [64]
00000000: 3730 09bd 30eb 31bd 0575 963e 945f 28bd
00000010: 203b 01be 6634 85bd b29f 343e 5787 3bbe
00000020: 93ea 31bd 21b8 753d 267c 50bd 7566 213d
00000030: cddb 87bc 12e8 47bd 5e80 153e 6a6b debd
00000040: 32c2 1abe f654 9abd 52eb 8dbd b94b 82bd
00000050: bb0d e53d c3c2 17be 257c 2fbe 1076 403e
00000060: 4e7b b43d 0649 93be c959 b43d bd78 54bd
00000070: 2406 883e 0232 563e 7944 e5bb dbc6 8ebd
00000080: 1ed2 91bb 7a91 113d 72f4 c93d a05b a43d
00000090: 7c3e 8cbd b656 893e 481d 80bd f8ec a7bd
000000a0: 5e15 3e3c ba4d e7bb 619e 79bd 7f5b 693d
000000b0: b6eb 45bd 05fa 023e 3f39 1abe 5ea7 16be
000000c0: aa10 fdbd f486 953d 7034 c93d 3cc2 873d
000000d0: e3c9 2dbb f379 38bd 5925 14bd c381 c53d
000000e0: 8d51 dfbb b56d 6cbd e9df a9bd 2088 a7bd
000000f0: fd4f b43c 564a f6bd 175e 8e3c 1d8b e83d
-0.033493247 -0.043437183 0.29386154 -0.041106775 -0.1262021 -0.06504135 0.17639044 -0.18313347
-0.043436598 0.059990052 -0.050899647 0.03940435 -0.016584301 -0.048805304 0.1459975 -0.10860331
-0.15113142 -0.07535736 -0.069296494 -0.06362099 0.111842595 -0.1482039 -0.17137201 0.18795037
0.08812581 -0.2876665 0.08806188 -0.051872957 0.26567185 0.20917514 -0.006996688 -0.069715224
-0.0044500967 0.035539128 0.09861077 0.080252886 -0.068478554 0.26823968 -0.06255585 -0.08199495
0.011601774 -0.0070588263 -0.060942058 0.056972023 -0.048320495 0.12790687 -0.150609 -0.14712283
-0.12356694 0.07301131 0.09824455 0.06628844 -0.002651804 -0.045038175 -0.03616843 0.09643891
-0.0068151415 -0.057721812 -0.082946606 -0.08180261 0.022010798 -0.12025897 0.01737885 0.11354659

layer.4.weight f4 [128, 64]
00000000: 6939 283d 4c27 3cbd c8e2 433d fa9e e2bc
00000010: c4c9 e03d 53eb 77bc 98e2 1b3d 4f3f 093e
00000020: 9693 e83c ba14 5a3d c800 073e b943 803d
00000030: 5ccc b3bd 2ab2 42bd a4e8 e73d 05f7 283c
00000040: c777 aa39 f0d0 583d 3f08 45bd 3d00 15bd
00000050: 96f3 efbd 603c d0bd b2ba 113d 2823 b93c
00000060: aa6f bcbd 24d0 9f3c fa6c 38bd 270e c7bd
00000070: ee2c 783c d504 90bd 93ff 29bd e7d3 0bbe
00000080: 336c d7bd ca6d a1bd c25c 4e3b 3c0b c23d
00000090: 9cc4 01bd 4b56 01be f185 773e f687 fcbb
000000a0: 36c0 acbd cafc d4bc 37e6 0c3c ee12 c73d
000000b0: 7772 ecbd 1774 803d 4261 bc3d e063 2cbc
000000c0: ca9f bf3d 97e4 a93d aca0 dcbd 7f47 0cbc
000000d0: b39d 1c3d 3e16 f03d 64d9 b53d cac2 d03c
000000e0: 457e 63bd 3a31 8d3d f45e abbb d8b0 5c3d
000000f0: ab8e 4fbc c085 9c3d c870 0bbc a4c7 68bd
00000100: d9fb b0bd 2ee6 01bd 34aa 823d 58ae 003d
00000110: a849 e1bd 3a13 323d 7ed9 033e 99bd 79bd
00000120: cb8f b3bd 3a63 903d 154c 12be 08e9 b1bd
00000130: 7389 64bd f9ad 8bbc 38cc ca3d 8c27 293c
00000140: 5839 5d3d 40ed db3d 9398 f3bd e912 c03d
00000150: 36ac 9d3d 5878 f7bd 04f0 c43d ae11 753d
00000160: a9fd 9f3d 9a02 59bd 745d aebd 822f e93a
00000170: 3f0b e13d 66f3 d03d 3b90 d0bb b4b8 d23c
00000180: f2eb 8abd 1383 c2bc 4bb5 a43d 5486 f53c
00000190: 868c 8f3d accc 593d aa07 533d 7881 f13b
000001a0: 4e8b 0b3d f532 663d f105 bf3d dc08 84bc
000001b0: 9bbe d0bd 00b8 bd3c 59e6 d93d 5449 15bd
000001c0: a1b3 e23c da65 623d 6472 edbd 35c1 913d
000001d0: 43db 9abc 405f 0e3d 28c7 d63c 6146 6ebd
000001e0: 428a 4b3d 6141 92bd 221a 243d 84a4 cbbd
000001f0: c48d 53bd 2b1a b43d c809 88bc c768 ec3d
00000200: 43ed fc3c 94fb 783d 6966 83bc 80a2 edbc
00000210: 003e 9a3d 3197 92bd a93b a83d e714 653d
00000220: 0cbb 86ba ea51 d73c 9864 993c 242b be3d
00000230: 69d2 b6bd 1dbd 22bd 9b1b 5e3c 60cf 5bbc
00000240: 0987 8bbd dad1 ecbd cede 203d 172c 343d
00000250: 511f eb3d ae1f bd3d 38f6 513d 6e9c ab3d
00000260: bf43 453c 5c65 3f3d 8a2a 353d a940 4cbd
00000270: 3cce ed3d 39da cfbd b5f1 acbd ff54 c1bd
00000280: 9351 ebbc ad6c 133d 6724 05bc 82b8 03be
00000290: 0546 383d 2a6c e7bb 7e48 49bd 1956 213d
000002a0: cc26 aebc 84ad c9bd 8b50 b13d 9af3 13be
000002b0: e26c 48bd 389a b03d 0414 94bd 1463 48bd
000002c0: 8eee 9cbc 3ad6 0d3d 918a c0bc 66cc a83d
000002d0: d0cd a0bd 722d 143d 2106 02be 03c7 84bc
000002e0: ea8a e83b 5b06 7a3d 64ab 42bd 3b57 3fbd
000002f0: c55e c5bc a7f5 813c 953f 913d f31b 9d3d
00000300: 7e4d e2bc e5c5 debd ddfc bebd 2efc acbd
00000310: 46e7 a73d e97a 2cbc a0a9 a5bd d03c 473d
00000320: 1d03 fa3c cb56 03bd 576d 02be 7ba1 883d
00000330: 6fed 353d 2c6e 613d cd8c 9abc dda3 17bc
00000340: 52f2 0fbe bcd0 ffbd 8ad5 f2bb 7139 e13d
00000350: 4ad7 e23d d7bb 71bc 7d78 d0bd 4cce 69bb
00000360: dda4 f53c ec7b 053e 6516 193d f48e b3bd
00000370: ef98 99bd 61b6 083e ca74 28bd 70cf c83c
00000380: 8309 893d f7d7 623b 6c55 d33d 1113 eebc
00000390: ecf0 f7bd f0aa 51bd 4f36 f0bd c259 1dbd
000003a0: f9e9 edbc e3ee 153d 31b6 b3bd bbf4 c83c
000003b0: f4ac 23bd e691 bfbd c9b7 afbc 481d e4bc
000003c0: 6586 623d 3761 e03d dda9 f93d 5bb6 ab3d
000003d0: 9426 01be 29c6 08be e090 97bc 6000 813d
000003e0: eb22 3ebd 1ad7 603d d67e b03d 05ff c63d
000003f0: 821a 75bd 62d3 dbbd 0c2d 8fbd c97b ae3d
0.041070376 -0.045935914 0.047823697 -0.027663697 0.10975984 -0.015131789 0.038057894 0.13403057
0.028390687 0.053242423 0.13183892 0.06262917 -0.08779213 -0.04753319 0.113236696 0.0103128
0.00032514168 0.052933633 -0.048103567 -0.03637718 -0.11716382 -0.101677656 0.035578437 0.022599772
-0.09200986 0.019508429 -0.045025803 -0.09719496 0.015147431 -0.07032172 -0.0415035 -0.13655053
-0.10518684 -0.07882269 0.0031488393 0.09474799 -0.031681642 -0.12630574 0.24172188 -0.0077066375
-0.08435099 -0.025999445 0.008599809 0.097204074 -0.1154527 0.062721424 0.09198238 -0.010521859
0.09356649 0.08295553 -0.10772833 -0.008561968 0.03823633 0.11722992 0.088793546 0.025483508
-0.055540342 0.06894155 -0.005229825 0.05387959 -0.012668292 0.07642698 -0.008510776 -0.056831017
-0.08641786 -0.031713657 0.0638012 0.031416267 -0.11000377 0.043475367 0.12875935 -0.06097183
-0.08767661 0.07050176 -0.14286835 -0.08687025 -0.055795144 -0.01705073 0.09902233 0.01032437
0.054009765 0.10738611 -0.118943356 0.09378607 0.07698862 -0.120835006 0.09616092 0.059831314
0.07812054 -0.052980997 -0.085139185 0.0017790648 0.10988473 0.102026746 -0.00636485 0.025722839
-0.06783284 -0.023744142 0.080423914 0.02997128 0.070092246 0.053173706 0.05152098 0.00737017
0.0340684 0.05620094 0.09327305 -0.016117506 -0.10192605 0.023159027 0.106396385 -0.036446884
0.027673544 0.055272914 -0.11594084 0.071169294 -0.01890338 0.034758806 0.026218012 -0.058172587
0.0496924 -0.07141376 0.040063985 -0.09943488 -0.05164887 0.08794054 -0.016606227 0.11543422
0.030874854 0.0607868 -0.016040044 -0.02900815 0.07531357 -0.07157744 0.08214504 0.055928137
-0.0010279133 0.026284177 0.018724725 0.09285572 -0.08926851 -0.039731134 0.013556386 -0.013416141
-0.06812865 -0.115634635 0.039274983 0.04398736 0.114805825 0.09234558 0.051260203 0.08379446
0.012040078 0.046727523 0.04423002 -0.049866352 0.11611602 -0.101490445 -0.084445395 -0.0944004
-0.028725421 0.035992313 -0.008126355 -0.12863353 0.04498865 -0.0070624547 -0.0491414 0.03938875
-0.021258734 -0.098475486 0.086579405 -0.14448395 -0.048931964 0.08623165 -0.0723038 -0.048922613
-0.01915672 0.03462813 -0.023503574 0.08242111 -0.078517556 0.036176153 -0.1269765 -0.016208177
0.007096638 0.061041217 -0.047526732 -0.04671405 -0.024093041 0.015864206 0.070922054 0.076713465
-0.027624842 -0.10877589 -0.093255736 -0.08446537 0.08198409 -0.010527351 -0.08088994 0.04864198
0.030519063 -0.032065194 -0.12737022 0.06671425 0.044415887 0.05503671 -0.018865967 -0.009255377
-0.14057282 -0.12490985 -0.0074107097 0.10997284 0.110762194 -0.014754257 -0.10179231 -0.003567594
0.02998584 0.13035554 0.037374873 -0.087675005 -0.07499873 0.13350822 -0.041127004 0.024512976
0.06691267 0.0034613588 0.10319027 -0.029061826 -0.12106499 -0.05118841 -0.117291085 -0.038415678
-0.02904223 0.036604773 -0.08774985 0.02453076 -0.039959863 -0.09354 -0.02144994 -0.027845994
0.05530395 0.10956042 0.12190602 0.08384391 -0.12612373 -0.13356842 -0.018501699 0.062989
-0.04642002 0.054892637 0.08617942 0.0971661 -0.059839733 -0.107336774 -0.06991014 0.08519704

layer.4.bias f4 [128]
00000000: 83d2 223e b3c8 b43d 5aea 923d 450d 3abd
00000010: 024b f93d 95e5 9e3d ec74 d7bd 66ff c73d
00000020: 3b3c ffbc b838 bf3c a1a8 aa3c d217 513c
00000030: 18c6 253e 0f91 37bd 3f70 a73d fdbf eabd
00000040: 4cb0 393e cde0 47be 71e2 4fbd eafd 003d
00000050: 9705 54be e63b dabd 8605 92bd 8173 473d
00000060: ea24 14bb 6227 a23d 3845 b5bd 6aa5 5fbc
00000070: 0945 10be 69e7 d3bd d95c 8dbd 3df9 4dbe
00000080: fcef 003d 41e6 01be bf2f 323e f750 973d
00000090: befb 663e 7a09 d8bd 78a5 883d 5579 cfbc
000000a0: cb9a db3d 5abf 183e 8ed6 313d 24f2 0b3c
000000b0: 5f17 adbd f485 56bd a3d7 ea3d 3efa e5bd
000000c0: 5dac 05bd d4fb 18be 8877 5cbd 2e97 a63d
000000d0: 11bc 413e e9b2 11be bb9a f53d b9fe c9bd
000000e0: c2bb 243e ffad 22bd bce2 0f3d 9cb0 fbbd
000000f0: f046 503e 0683 a93d 1f23 07be d169 913d
00000100: 58e6 31be 8055 ca3d bc73 8ebd 9d5d d9bc
00000110: 55d7 9b3e 612b 9abd c762 2b3d 1298 bebd
00000120: 4987 dabd 8d0b 153e c472 6f3d 8c6c d63d
00000130: 8d46 89bb 7ad2 273e ff13 bebc 0af4 2a3e
00000140: 0e45 a43b 0b07 973c b14c f93d 8366 e43d
00000150: fee4 90bd 6cad 22be e7e2 42bd cc87 25bd
00000160: 3258 d1bc 455d f93c e21f 11be 34fc 09be
00000170: a090 ebbd a434 1f3d bad0 83bc 1ca2 f33d
00000180: 681b dc3d f239 b73d 6376 1cbe e94a 5ebd
00000190: a2b7 09bd 6a5d e43d 43df a8bd 6103 10bd
000001a0: 74f8 38be ad91 0d3e a385 c1bd 6f84 ce3d
000001b0: 42a8 3a3d 9708 b8bd 6b0b 44bd f936 41bc
000001c0: 80c2 07bd b67c 1dbe 48cd 223d 4ecf 1c3e
000001d0: f783 063e da69 8abc 2104 4c3e dc3b f6bd
000001e0: e2e4 d83d c8dd edbd 7b1d 46bd 3713 213d
000001f0: cffd 32be e6f6 653d 8746 e8bd ce1a 9d3d
0.15900616 0.08827343 0.07173605 -0.04542281 0.1217251 0.07758633 -0.10520348 0.0976551
-0.03115665 0.023342475 0.020832362 0.012762027 0.16188848 -0.044816073 0.08175706 -0.114624
0.18133658 -0.19519348 -0.05075306 0.03149215 -0.20705257 -0.10655956 -0.0712996 0.048694137
-0.002260501 0.07917668 -0.08851093 -0.013650278 -0.14088835 -0.10346872 -0.06902475 -0.20114608
0.031478867 -0.12685491 0.17401026 0.0738849 0.2255697 -0.105486825 0.06672186 -0.02532641
0.10722884 0.14916745 0.043417506 0.008541618 -0.08451723 -0.05237384 0.11466911 -0.112293705
-0.03263508 -0.14939815 -0.05382493 0.08134304 0.18919398 -0.14228405 0.11992403 -0.098630376
0.16087249 -0.039716717 0.03512834 -0.12289545 0.2033956 0.08276944 -0.13196991 0.07100261
-0.17373025 0.09879589 -0.06955668 -0.026533896 0.30437723 -0.07527805 0.04184225 -0.09306349
-0.10670335 0.14555188 0.05845906 0.104699224 -0.0041893185 0.16388884 -0.023202894 0.16694656
0.005013115 0.018435976 0.12172831 0.11152365 -0.07074927 -0.15886468 -0.047579672 -0.04041271
-0.02555475 0.030439982 -0.14172319 -0.13475114 -0.115021944 0.03886856 -0.01609074 0.11896154
0.10747415 0.08946599 -0.15279536 -0.05427066 -0.03362239 0.1115063 -0.08245709 -0.035159472
-0.18063527 0.13825102 -0.09449317 0.100838535 0.04557062 -0.089860134 -0.04786245 -0.011792892
-0.033144474 -0.15379605 0.039746553 0.15313455 0.13136278 -0.016896177 0.1992345 -0.12023136
0.10590531 -0.11614567 -0.04836796 0.039324965 -0.17479633 0.056143664 -0.11341577 0.07671128

layer.6.weight f4 [11, 128]
00000000: 41b8 3f3d 213a 173d 0d37 233d 36d4 26bd
00000010: 52e5 ab3d 109a 9cbd e04b d23c 16e9 0a3d
00000020: 12f9 fa3b daf3 b03d b07e 6d3c 9564 d03b
00000030: 5f10 d3ba 6dc4 7dbd 5003 de3b dd34 69bd
00000040: 5563 753d 688f 9ebd 3710 2cbd 17c8 e73c
00000050: fd20 02bd 40ab 22bd 3ed0 d3bd fa78 023d
00000060: ac33 a0bd c87e 91bb 4f85 1ebd cb56 c9bd
00000070: da03 4bbd 5bd4 35bc 93a9 9e3c ffa5 efbc
00000080: eb63 0e3c 93e9 03bc c303 e4bc e5a1 7bbc
00000090: f822 153d 100e d3bc e6af 7d3d e7ff b63c
000000a0: 9cc8 92ba 9bcc 253d 968a 3f3d 6a36 4bbd
000000b0: 3afb 5cbd 37e4 8fbd 025a 983d ead0 a53d
000000c0: 0427 15bd 0d7c 8ebd 92d4 b03c b1bd 2c3c
000000d0: 3c92 623d adae 6ebc 727c 783d bf4b ff3c
000000e0: 0735 d73d a043 9f3d 9e3d d83c 1023 aabd
000000f0: e98e b33c f507 37be 7360 043d deeb 843d
00000100: b2d1 b2bd 8082 553c ac57 6abd 650f ffbd
00000110: da37 5c3e 4c96 f53c 56df 6f3d 645f 5dbd
00000120: 8676 22bd f35a a83c f1e1 1d3c 4ba0 6f3d
00000130: 98c4 483c 6a6a ad3d 863d a3bb 24e5 823d
00000140: f916 733d b0ab 873d 73fd c9bc 9aa7 773d
00000150: 9bfc a4bd 29af a6bd 1811 eebd 0dca f63c
00000160: 4d2b c6bb ab0f b7b9 982e 643d 441c 72bd
00000170: 8283 16bd 5d32 c83b d58b e4bc 7178 2a3d
00000180: b6d8 a63c fe8d 603d 24c5 9fbd 7458 143d
00000190: 8573 a7ba b16c 24bb b8a9 aeba 8c18 63bd
000001a0: d855 9fbd 15a5 793d a227 6c3c 4f99 97bd
000001b0: e8f1 703d 7216 a93b ab1e aabc 960c a73c
000001c0: 84db 32bd 356f 50bd 5d59 7ebc 3d66 9c3d
000001d0: 085b 023d b1bb 433d 25b7 4b3d 80d5 35bd
000001e0: 0085 673d c881 b33c 8ab1 5bbd 5c8e 453c
000001f0: ce68 d93c e84f 1b3d 07d1 e1bc 4a88 943d
00000200: c0c2 4e3c 4194 bdba 8a01 753d ca1c 1d3a
00000210: 5130 f03a 1fc7 cd3c c75e 88bd 2aa8 523d
00000220: 5398 ae3d 1472 3f3d 06db a7bb 04f1 4bbc
00000230: a732 183c ed06 ef3d 9659 b03c 6ab2 22bd
00000240: 3f85 1abc f78d 9bbc f0a1 31bd 6cdc 29bc
00000250: 3054 603d d8b8 7d3d 492e 5c3c 7f2b cebc
00000260: 18c4 0e3d d0ff 9b3c 7ed9 1bbc 2b77 0fbc
00000270: 9056 103d 7499 373b 1757 5bbc 882f 1f3d
00000280: 254e cebb f7bc 373d c0fb 15bd 8acb 773c
00000290: 4047 0dbc 5748 303c b7f2 0fbd d92b 453d
000002a0: 92d5 7ebc 9419 2bbb 8f59 473d 3219 6dbc
000002b0: 33ab 7c3c 255d 0f3d 492b 84bd 3e1e 8c3d
000002c0: 3757 37bd 4ba5 26bd 830d 1ebd 237e a33b
000002d0: 1e6d 853c 0bfe a1bd 5654 c83d 7867 fab9
000002e0: 78a6 473c 5ca1 c2bd c8b1 3cbc dee6 8c3d
000002f0: c5b2 303d d89d 8bbc 8151 513d f83c 83bc
00000300: d9b2 023d 3ab7 75bd 6fdd 6e38 f97c 2e3d
00000310: e007 06bc 688d 053c 2432 8f3c 6fea d3bc
00000320: 96be d73b aad9 e9bc f528 fc3c 9fa1 b4ba
00000330: c325 223c 5c00 d23c 365f c6ba 8ebc 523d
00000340: 2dab a53d 2bb1 163d 9590 823c 2391 a2bc
00000350: 1cd9 9ebd 5f99 95bd d89c 43bb dfe9 53bd
00000360: 960f 90bb ee9a 66bd 1077 93bd 9942 013c
00000370: e661 b0bd 05e4 6a3a 88ac fcbc 11a8 3cbc
00000380: 3ad1 2abb 48ae 8abc a839 73bd d765 0fbd
00000390: 1a04 c73c dcad 153d 5c54 62bc 8d07 dabc
000003a0: a790 943d 66a9 20bd c4ad 9b3d 0e9a 133d
000003b0: 1415 123c 21b4 29bd 1e6a 553d f965 4e3d
000003c0: a688 24bc 4bfe c43c 9dde b93c 4bb2 2dbd
000003d0: 6fac 083d df6b a6bb 3876 00bd cafb 3f3d
000003e0: 3cc6 993d e488 76bd 3a8b 89bd bdb4 f0bc
000003f0: f247 ab3d a824 233d ff0d e33c 5f3c 783c
0.046806578 0.03692067 0.039847422 -0.040729724 0.08393349 -0.076465726 0.025670946 0.033913694
0.007659086 0.08640261 0.014495537 0.0063596466 -0.0016102901 -0.061954904 0.006775297 -0.05693518
0.059909184 -0.07742196 -0.04200765 0.028293652 -0.03176974 -0.039714098 -0.103424534 0.031853653
-0.07822356 -0.0044401623 -0.03870135 -0.098310076 -0.04956422 -0.011097993 0.019367969 -0.029253958
0.0086908145 -0.008051294 -0.027833825 -0.015358423 0.036410302 -0.025763541 0.061935328 0.02233882
-0.0011198702 0.04047833 0.046763025 -0.04961244 -0.053950526 -0.070259504 0.07439043 0.08096488
-0.03641416 -0.069572546 0.021585736 0.010543273 0.05531524 -0.014568013 0.060665555 0.031164048
0.10508161 0.0777657 0.026396569 -0.08307469 0.02191873 -0.17874129 0.032318544 0.064903006
-0.087314025 0.013031602 -0.057212517 -0.12454108 0.2150568 0.029978894 0.0585626 -0.05404605
-0.039663814 0.02055118 0.009636388 0.058502477 0.012253903 0.084675625 -0.0049816994 0.06391361
0.05934808 0.06624544 -0.024656987 0.06046257 -0.08055993 -0.08138878 -0.11624354 0.030125642
-0.0060476423 -0.00034916154 0.055708498 -0.059108987 -0.03674651 0.0061095194 -0.027898708 0.041618768
0.020367008 0.054822914 -0.078012735 0.036217168 -0.0012775516 -0.00250892 -0.0013325727 -0.05544333
-0.07780045 0.06094845 0.014413746 -0.07402288 0.05882445 0.0051601464 -0.020766577 0.020391744
-0.043666378 -0.050887305 -0.015524236 0.07636688 0.031825095 0.04778642 0.049735207 -0.044393063
0.056523323 0.02191247 -0.05363611 0.012057867 0.026539233 0.037918 -0.027565492 0.072525576
0.012619674 -0.0014463739 0.05981592 0.00059933646 0.0018324946 0.025119362 -0.06658702 0.051429905
0.08525147 0.046739653 -0.005122545 -0.012447599 0.00928942 0.11671243 0.021527093 -0.03972093
-0.009431182 -0.018988593 -0.043367326 -0.010367494 0.054767787 0.06194386 0.01343877 -0.025167225
0.03485498 0.01904288 -0.009512303 -0.008756439 0.035238802 0.002801505 -0.013387463 0.03886369
-0.0062959366 0.044857945 -0.03661704 0.015124211 -0.008622944 0.010759435 -0.03514358 0.04813752
-0.015553849 -0.0026107775 0.048669394 -0.014471339 0.015421676 0.03500094 -0.064535685 0.06841706
-0.04476091 -0.04068498 -0.038587105 0.004989402 0.016287383 -0.07909783 0.09781711 -0.00047760806
0.012185685 -0.09503433 -0.011516996 0.06879972 0.043139238 -0.01704304 0.05110312 -0.016020283
0.031908844 -0.05998919 5.6949848e-05 0.042599652 -0.0081805885 0.00815139 0.017479964 -0.025868623
0.006583999 -0.028546173 0.030781249 -0.0013781077 0.009896698 0.025634937 -0.0015134576 0.05144935
0.0808929 0.036790054 0.015938083 -0.019844597 -0.07756254 -0.07304644 -0.0029848125 -0.05173671
-0.0043963892 -0.056300096 -0.07200444 0.007889413 -0.08612423 0.0008960369 -0.030843988 -0.0115146795
-0.002606465 -0.016928807 -0.059381157 -0.03500923 0.024293948 0.03654276 -0.013814058 -0.026614929
0.07254153 -0.03922405 0.076015025 0.03603559 0.008916158 -0.04143155 0.052103154 0.050390217
-0.010042345 0.024047038 0.022689158 -0.04240636 0.03336757 -0.005078777 -0.031362742 0.046870984
0.07508513 -0.060189143 -0.067160085 -0.029383058 0.08363332 0.03982988 0.027716635 0.015151112

layer.6.bias f4 [11]
00000000: f151 0f3e 2674 003d 7467 cc3d 1499 c9bd
00000010: dd57 6fbd 8e61 bfbd 8e39 113e 79c8 43bd
00000020: 6375 173e ee08 56bc 5dc2 393d
0.13996102 0.031360768 0.099806696 -0.098436505 -0.058433402 -0.09344779 0.14182112 -0.047798607
0.14790873 -0.013063652 0.045351375
