weight/save_210.pth (torch_old, 72900 bytes, 8 tensors)

layer.0.weight f4 [32, 139]
0	0x3da44ad5	0.080220856
1	0xbe0e64de	-0.13905665
2	0x3cdc33e4	0.026880212
3	0xbda49255	-0.08035723
4	0xbd7ff259	-0.06248698
5	0xbcf16dba	-0.029471267
6	0xbd881206	-0.06644063
7	0x3cc7a731	0.024371715
8	0xb9ddce77	-0.00042306233
9	0xbcb904b7	-0.022585256
10	0xbd0af12e	-0.033921413
11	0x3d1073f5	0.035266835
12	0x3d268ae2	0.040659793
13	0x3d7510c7	0.059830453
14	0xbda73cb5	-0.08165876
15	0xbc807025	-0.015678475
16	0xbc74b4aa	-0.014935652
17	0x3bc8948e	0.0061212247
18	0x3cf41de6	0.029799413
19	0x3b20d1a2	0.0024539013
20	0xbc9922ac	-0.01869329
21	0x3c10749d	0.008816865
22	0xbd411e1e	-0.047147863
23	0xbc689d14	-0.014197607
24	0xbcaeeaaf	-0.02135214
25	0x3cc2b7cd	0.023769284
26	0x3d8e94b6	0.06961958
27	0x3d3ccafd	0.046092022
28	0x3d2a7326	0.04161372
29	0xbd3a13aa	-0.04542891
30	0x3d27c659	0.040960643
31	0xbd3c7e09	-0.046018634
32	0x3cf554b0	0.029947609
33	0xbd34f008	-0.044174224
34	0xbda20ad8	-0.079122245
35	0xbcb60293	-0.022218024
36	0xbc86e92e	-0.01646861
37	0xbb3af9f3	-0.002853033
38	0x3c484437	0.012223295
39	0xbd896294	-0.067082554
40	0x3cb62729	0.02223547
41	0x3d3b9c83	0.045803558
42	0x3cf7fb58	0.030271217
43	0xbcf2c8e5	-0.02963681
44	0xbc362329	-0.011116781
45	0x3c7d34bd	0.015454468
46	0x3bda3d60	0.0066601485
47	0xbafe8bbf	-0.001942031
48	0x3d6e2d1e	0.058148496
49	0xbd9b5199	-0.07583923
50	0xbd3cfc5f	-0.046139117
51	0x3b2f5168	0.0026751403
52	0x3d140c4b	0.036144536
53	0x3d77e4fc	0.06052111
54	0xbd662e84	-0.056196705
55	0x3d93f474	0.0722436
56	0xbcdc925b	-0.026925256
57	0xbd7eecc1	-0.062237505
58	0x3c1235cd	0.00892396
59	0xbd8320f0	-0.06402767
60	0x39469784	0.00018939195
61	0xbd4cdf0c	-0.0500174
62	0xbbca47b2	-0.0061730975
63	0x3d7a808c	0.061157748
64	0xbd6b9013	-0.057510447
65	0x3c80bc1f	0.015714703
66	0xbd1577e5	-0.036491293
67	0xbc645f20	-0.013938695
68	0xbd0b2088	-0.03396657
69	0xbc65e9a8	-0.014032759
70	0xbd86943c	-0.06571242
71	0xbd70eb46	-0.058818124
72	0x3c98c96f	0.018650739
73	0x3b13e963	0.002256953
74	0xbcc3f40f	-0.023920087
75	0x3c44b0a3	0.012005004
76	0x3cc882d5	0.024476448
77	0xbd041743	-0.032248747
78	0xbd9a5c83	-0.075371765
79	0xbd877b22	-0.066152826
80	0xbcfb2ee9	-0.030662017
81	0xbc820e76	-0.015876036
82	0x3d461262	0.048357375
83	0x3d131dae	0.035916977
84	0xbc89968e	-0.016795423
85	0xbda7bc00	-0.08190155
86	0xbcd1e8b6	-0.02562366
87	0xbd4b5c88	-0.04964879
88	0xbd002037	-0.031280722
89	0x3d57f7d2	0.052726574
90	0x3c18c230	0.009323642
91	0xbd452fc3	-0.048141252
92	0x3c65194c	0.013983082
93	0xbccd5a68	-0.025067523
94	0x3c902800	0.017597198
95	0xbd703bf9	-0.058650944
96	0xbc6ed4c4	-0.014577094
97	0x3b9db1f1	0.004812472
98	0x3d49e7aa	0.049293198
99	0xbd3030da	-0.04301534
100	0xbdb481ea	-0.08813842
101	0xbd358ded	-0.044324804
102	0xbd983957	-0.07432812
103	0x3c096360	0.008385509
104	0x3c8905e4	0.016726442
105	0x3b09e57f	0.0021041331
106	0x3c881b70	0.016614646
107	0xbdac2b24	-0.08406666
108	0x3b29bdb6	0.002590043
109	0x3d76162c	0.06007974
110	0xbd9df76a	-0.07713206
111	0x3d570dc1	0.05250335
112	0x3b3f5f2d	0.0029201016
113	0xbd5e7121	-0.054307107
114	0x3d1211e2	0.035661586
115	0xbc2368b5	-0.009973695
116	0xbceb2126	-0.02870233
117	0x3d62f9d8	0.05541405
118	0xbd21e19c	-0.0395218
119	0x3d80e326	0.06293325
120	0xbbb9c57b	-0.0056692935
121	0xbc0e80ce	-0.008697702
122	0x3cf01cb0	0.029310554
123	0xbd429cb6	-0.047512732
124	0xbda1a09f	-0.07891964
125	0x3d4564ee	0.048191957
126	0xbd0f0065	-0.034912486
127	0xbd09e24e	-0.033663087
128	0x3c246785	0.010034447
129	0xbd249532	-0.040181346
130	0xbc56a117	-0.01309993
131	0xbd1cbe62	-0.0382675
132	0xbda455b6	-0.080241606
133	0xbd85f785	-0.06541351
134	0xbd7e5dc3	-0.062101137
135	0xbdaaa1c2	-0.08331634
136	0x3cef259b	0.029192736
137	0x3bd4b5db	0.0064914054
138	0x3c6c34bf	0.0144168725
139	0x3d463e02	0.04839898
140	0xbcb32f89	-0.021873252
141	0x3e3a8238	0.18213737
142	0x3d766652	0.060156174
143	0x3ddfb837	0.10923808
144	0x3d3a9a2a	0.04555718
145	0xbd90a045	-0.07061819
146	0xbcc43e18	-0.02395539
147	0xbbd8b465	-0.0066133016
148	0xbc9bae28	-0.019003943
149	0xbd3a4e84	-0.045485035
150	0x3cac1b51	0.02100912
151	0x3d778e8b	0.060438674
152	0x3bd1bbc1	0.006400556
153	0xbd6e157f	-0.05812597
154	0x3b609fed	0.003427501
155	0xbd5fa2b5	-0.05459853
156	0xbc52bb4e	-0.01286204
157	0x3d72528a	0.059160747
158	0x3ca1a3dc	0.019731455
159	0xbc77383e	-0.015089093
160	0x3d773de0	0.060361743
161	0x3d32e4e2	0.04367531
162	0xbccf7604	-0.025324829
163	0x3d44f0d9	0.048081253
164	0xbca4fa73	-0.020138955
165	0x3ca04072	0.01956198
166	0xbda04f6c	-0.078276485
167	0xbccb8e9c	-0.024848275
168	0x3be03e7e	0.006843387
169	0x3d79948d	0.060932685
170	0xbca9493e	-0.020664807
171	0xbc420141	-0.011841119
172	0xbcfe6a78	-0.031056628
173	0xbd82acd2	-0.06380619
174	0xbcb5c293	-0.022187507
175	0xbc12e401	-0.008965493
176	0xbd81c6a7	-0.06336718
177	0xbc9e827a	-0.019349325
178	0xbd6fa759	-0.058509205
179	0x3bfdb9d3	0.0077430992
180	0x3d810ff7	0.06301873
181	0xbd9d1275	-0.07669536
182	0x3ca5568f	0.020182876
183	0x3d02aeff	0.03190517
184	0x3bb6ad60	0.005574867
185	0x3b99c31b	0.004692448
186	0xbd6623f1	-0.05618662
187	0xbce5f6ad	-0.028071726
188	0x3cb8c80c	0.022556327
189	0xbc11c384	-0.008896712
190	0x3db3541b	0.08756276
191	0x3bc9017c	0.00613421
192	0xbd22feca	-0.039793767
193	0xbcf26e74	-0.029593684
194	0xbcd0da42	-0.025494698
195	0xbc196a57	-0.009363732
196	0xbcb4e04c	-0.02207961
197	0x3a1967ed	0.0005851973
198	0xbdaba18e	-0.083804235
199	0xbb83e9ca	-0.0040256726
200	0xbd6476b2	-0.05577726
201	0x3d16ec1d	0.03684627
202	0xbdb44318	-0.088018596
203	0xbd76c080	-0.060242176
204	0x3d085808	0.03328708
205	0xbbaa69d3	-0.0052006035
206	0xbdc2add7	-0.095058136
207	0xbdc37e2e	-0.09545551
208	0xbd107f2c	-0.03527753
209	0xbd9a16b5	-0.07523862
210	0x3b4b301a	0.0031004013
211	0x3d5a416d	0.05328505
212	0xbbbb283f	-0.005711585
213	0xbdca8e8c	-0.0989047
214	0xbc9784e1	-0.018495979
215	0x3d1b2087	0.037872817
216	0xbd6eb972	-0.058282323
217	0x3d2e70b4	0.04258795
218	0xbdc5a530	-0.09650648
219	0x3cdbd7f3	0.026836371
220	0xbd2a14ba	-0.041523673
221	0xbde31ea2	-0.11089827
222	0x3d5da45c	0.054111823
223	0xbcec2e97	-0.02883081
224	0xbdbeda0f	-0.09318935
225	0xbdc5e68b	-0.09663113
226	0xbd422ba8	-0.047404915
227	0xbd95daae	-0.073171005
228	0x3be78ac4	0.0070661027
229	0x3d748b7b	0.05970333
230	0xbd3cb3af	-0.046069797
231	0x3d04dcfd	0.032437313
232	0xb8e0a939	-0.000107126725
233	0x3c346b77	0.01101195
234	0x3cc5f8fa	0.024166573
235	0x3c7b9701	0.015355826
236	0xbc503d14	-0.012709875
237	0x3d1a6da6	0.037702225
238	0xbd88fa01	-0.066883095
239	0xbd1192af	-0.03554028
240	0xbc2fb99b	-0.010725404
241	0x3c3aba0c	0.011396896
242	0xbd699112	-0.057023115
243	0xbd7b521b	-0.0613576
244	0xbc67c4e2	-0.014146062
245	0xbc425723	-0.011861595
246	0xbdba9c64	-0.091118604
247	0x3cdf6d7f	0.027273891
248	0x3d06c919	0.032906625
249	0xbcbf7899	-0.023372935
250	0xbd99560e	-0.07487117
251	0x3d003a69	0.031305704
252	0x39f5e9a5	0.0004690412
253	0xbd67a632	-0.05655498
254	0x3d13a138	0.036042422
255	0x3c71811e	0.014740257

layer.0.bias f4 [32]
0	0x3c42ef78	0.011897914
1	0x3de3385d	0.11094735
2	0xbd2f4a24	-0.042795315
3	0x3cb6e13c	0.022324197
4	0xbdadc42b	-0.08484682
5	0x3d4ea90b	0.05045418
6	0x3c81a0f2	0.015823815
7	0x3d345f11	0.044035975
8	0xbd08e5c5	-0.03342225
9	0x3d1ef709	0.03880981
10	0x3d2a4a62	0.041574843
11	0xbdc1b7dc	-0.094588965
12	0xbd9dcd5c	-0.07705185
13	0x3d9da0ec	0.07696709
14	0x3d906794	0.07051006
15	0x3d840397	0.06445997
16	0xbcfc7a1d	-0.030819947
17	0x3b393fe5	0.0028266844
18	0x3d42fe14	0.04760559
19	0x3dd364e1	0.103219755
20	0xbdaeb68c	-0.08530912
21	0x3e45f8eb	0.19333236
22	0xbdb1e522	-0.08686282
23	0xbda0af62	-0.078459516
24	0xbdb0b190	-0.08627617
25	0x3e2e18ca	0.17001644
26	0xbdb273a0	-0.0871346
27	0x3d7139af	0.058892902
28	0x3e9ac36e	0.30227226
29	0x3d099410	0.03358847
30	0xbdfb8e1b	-0.12282964
31	0xbc962e50	-0.01833263

layer.2.weight f4 [64, 32]
0	0x3d06dd2e	0.032925777
1	0xbd993560	-0.074808836
2	0xbde36f3f	-0.11105203
3	0x3da030d6	0.07821815
4	0xbd096f19	-0.033553217
5	0xbd686f16	-0.056746565
6	0x3d88b3f2	0.06674947
7	0x3e159f7a	0.14611617
8	0x3e2a30a5	0.16620119
9	0xbe16196e	-0.14658138
10	0x3db1096c	0.08644375
11	0x3d15ed61	0.036603335
12	0x3e1137f9	0.14181508
13	0x3d049898	0.032372087
14	0x3e147aab	0.14499919
15	0x3d202265	0.0390953
16	0x3e1f9741	0.15585043
17	0xbd778ec4	-0.060438886
18	0x3d81a13c	0.06329581
19	0x3dfae623	0.12250926
20	0xbd92f5cb	-0.071757875
21	0xbe200c0b	-0.15629594
22	0xbd3b6391	-0.04574925
23	0x3b75b43b	0.003749146
24	0x3c4c3a7d	0.012465117
25	0x3d5bed14	0.053692892
26	0x3e2b54b5	0.16731532
27	0x3d750600	0.059820175
28	0x3d0381f8	0.03210637
29	0x3e1f8605	0.15578468
30	0xbd892299	-0.06696052
31	0xbe229fde	-0.15881297
32	0xbdc41351	-0.09573997
33	0xbde39b7e	-0.11113642
34	0x3d4925d4	0.04910834
35	0xbe215eb5	-0.15758784
36	0xbdadd2b3	-0.08487453
37	0xbe1d0a86	-0.15336046
38	0xbd90a343	-0.0706239
39	0x3d90f4f8	0.07077974
40	0xbdbb6139	-0.09149403
41	0x3dbcffae	0.092284545
42	0xbd3f5272	-0.046709485
43	0x3bb1b633	0.005423331
44	0xbdfaf0fb	-0.122529946
45	0xbe11875b	-0.1421179
46	0x3e1117ec	0.14169282
47	0xbdace0e6	-0.084413335
48	0x3d52fcf4	0.051510766
49	0x3e1e1330	0.15437007
50	0xbd2a62c0	-0.04159808
51	0x3c08aa2d	0.008341354
52	0x3dbb40ff	0.091432564
53	0x3ba4970e	0.00502289
54	0xbe78a331	-0.24281003
55	0xbdee701d	-0.11642478
56	0xbdc09eb2	-0.09405269
57	0xbd952d96	-0.072840855
58	0xbe035ab2	-0.12827566
59	0xbd532f78	-0.05155894
60	0xbd1f7a81	-0.03893519
61	0x3d2010f6	0.039078675
62	0x3dfbb71a	0.12290783
63	0x3cc1556f	0.023600308
64	0xbda57a2a	-0.080799416
65	0xbe462459	-0.19349803
66	0x3d823373	0.063574694
67	0xbdc96797	-0.09834211
68	0xbe117056	-0.14203009
69	0xbe357297	-0.17719494
70	0x3d46e5d5	0.04855903
71	0x3da0773b	0.078352414
72	0x3e20ed23	0.1571546
73	0x3dc0ee17	0.09420412
74	0x3dfd8fd5	0.123809494
75	0xbe194cd2	-0.14970711
76	0x3daf77a1	0.08567739
77	0xbe104e92	-0.14092472
78	0xbe32f1d0	-0.17475057
79	0x3d9dac8f	0.076989286
80	0x3cacf21f	0.021111546
81	0x3d9c2fca	0.076263025
82	0xbdd64c06	-0.10463719
83	0x3cd9621c	0.02653604
84	0x3e076e1c	0.13225597
85	0x3c9bd0b8	0.019020423
86	0xbdbd9ffd	-0.09259031
87	0x3e1123ec	0.1417386
88	0xbddd1262	-0.10794522
89	0xbda2c968	-0.079485714
90	0xbd846638	-0.06464809
91	0xbde21e21	-0.11040903
92	0xbe14340d	-0.14472981
93	0x3dafc893	0.08583178
94	0xbdba6800	-0.09101868
95	0xbb1b3acb	-0.0023686166
96	0x3da878f5	0.08226196
97	0x3e08fa4e	0.13376734
98	0xbe054ec9	-0.13018335
99	0xbdace2fa	-0.0844173
100	0xbdc94536	-0.09827654
101	0xbe2db54f	-0.16963695
102	0xbd4b27b9	-0.04959843
103	0x3d33694d	0.043801595
104	0xbdc1bfb0	-0.094603896
105	0x3d3570a6	0.044296883
106	0x3e086806	0.13320932
107	0x3e614cf7	0.22002016
108	0x3ca716e0	0.02039665
109	0xbca1bf3c	-0.019744508
110	0x3dd64e18	0.10464114
111	0xbe0d9912	-0.13827923
112	0x3da0c0de	0.078492865
113	0x3de07f76	0.10961811
114	0xbe2838f7	-0.1642798
115	0xbb71579c	-0.00368259
116	0xbad4f7e3	-0.0016248192
117	0xbdf3c16c	-0.11902127
118	0xbe01e438	-0.12684715
119	0x3d870c6c	0.06594166
120	0x3e221bb0	0.15830874
121	0x3c90e0fb	0.017685404
122	0x3cead122	0.028664175
123	0x3da75d91	0.08172143
124	0x3e6c62fb	0.23084633
125	0xbe0a8b8c	-0.13529795
126	0x3d1202d4	0.03564723
127	0x3c9faded	0.019492114
128	0xbd2068f0	-0.039162576
129	0x3da6e29c	0.08148691
130	0x3de3f72b	0.11131128
131	0xbd9c8101	-0.07641793
132	0x3c843660	0.01613921
133	0xbce2af7b	-0.027671566
134	0x3d870769	0.0659321
135	0x3e2066df	0.15664242
136	0xbda321c7	-0.07965427
137	0xbcdf625f	-0.027268587
138	0xbdc0803b	-0.09399458
139	0x3a55bb87	0.0008153249
140	0x3bbde2e5	0.00579487
141	0x3daa5ca7	0.08318453
142	0x3d40a854	0.04703553
143	0x3dc58bc0	0.09645796
144	0xbe217957	-0.15768944
145	0x3db42014	0.08795181
146	0xbdefe65b	-0.11713859
147	0xbcfd4a0b	-0.030919096
148	0xbcecf90a	-0.028927345
149	0xbb4ad1a9	-0.003094772
150	0x3d3b9074	0.045792058
151	0xbcb5174a	-0.022105832
152	0xbd705abb	-0.058680277
153	0xbdfee6be	-0.12446354
154	0xbda124d1	-0.0786835
155	0xbcaab480	-0.020838022
156	0xbd16c5e9	-0.036809836
157	0x3e0b892d	0.13626547
158	0xbdfddd54	-0.123957306
159	0xbd5be29c	-0.05368291
160	0xbdfc3339	-0.123144574
161	0xbe412531	-0.18861844
162	0xbcc4fab5	-0.024045328
163	0xbda311a2	-0.079623476
164	0x3d1b811d	0.03796493
165	0x3d127dd7	0.03576454
166	0x3c734c92	0.014849799
167	0x3d294955	0.0413297
168	0x3c91798b	0.017758152
169	0x3cfcf914	0.030880488
170	0x3e379d2b	0.17931049
171	0xbe2d8af0	-0.16947532
172	0x3d802ffb	0.062591515
173	0xbd419d42	-0.047269113
174	0xbe11c5f3	-0.14235668
175	0xbe46de84	-0.1942082
176	0x3cccbda4	0.024992771
177	0x3e027351	0.12739302
178	0xbda9abc5	-0.082847156
179	0x3d7d22db	0.06180082
180	0xbe4a55a3	-0.1975923
181	0xbdd53203	-0.104099296
182	0x3c7375c2	0.014859619
183	0x3dccef8b	0.10006627
184	0xbe3452c1	-0.17609693
185	0xbd3a1b72	-0.04543633
186	0xbe0b55c6	-0.13606939
187	0x3c81577d	0.015788788
188	0xbe01f116	-0.12689623
189	0xbe385b34	-0.18003541
190	0x3c9df8a9	0.01928361
191	0x3de72e64	0.11288145
192	0x3dcca89b	0.099930964
193	0xbca83588	-0.020533338
194	0x3e215ae7	0.15757333
195	0xbd8fa48b	-0.07013806
196	0xbd97b076	-0.07406704
197	0xbd13427b	-0.035952073
198	0x3db453b5	0.08805028
199	0xbe2a8d25	-0.16655405
200	0xbdd647af	-0.10462891
201	0xbd830d9b	-0.063990794
202	0x3d4a3e2b	0.049375694
203	0xbbf722e9	-0.0075420034
204	0xbde3fa54	-0.11131731
205	0x3e0df53d	0.13863082
206	0x3e2213b1	0.15827824
207	0x3d3a24aa	0.04544512
208	0xbca15b60	-0.019696891
209	0xbdb5d125	-0.08877782
210	0x3be16304	0.0068782587
211	0xbe002804	-0.12515265
212	0xbdd82801	-0.10554505
213	0xbdd7ac8f	-0.1053096
214	0x3e2c0e1a	0.16802254
215	0x3ddd6464	0.108101636
216	0xbc84c9bb	-0.016209474
217	0xbdab59c3	-0.0836673
218	0x3d463a3b	0.048395377
219	0x3ddee6e9	0.10883886
220	0xbd3731a4	-0.044725075
221	0xb905358a	-0.00012703813
222	0x3ddc3de6	0.10753994
223	0xbe2291b2	-0.15875891
224	0xbcdc6e17	-0.026907964
225	0x3e14c33b	0.145276
226	0xbc819d20	-0.015821993
227	0xbda1d5c4	-0.07902101
228	0x3db2a4e9	0.0872286
229	0xbe3bc6e6	-0.18337592
230	0xbda8ed2d	-0.08248363
231	0xbe291430	-0.16511607
232	0x3bc167cb	0.0059022657
233	0x3c7506c5	0.014955227
234	0x3de9a3b4	0.11408177
235	0x3d298d7c	0.041394696
236	0xbdb90381	-0.090338714
237	0xbd93e8ea	-0.07222159
238	0xbe31beac	-0.17357892
239	0x3d2bb2eb	0.041918676
240	0xbd9569a4	-0.0729554
241	0xbdf15d21	-0.11785341
242	0x3b57afc3	0.0032911159
243	0x3d5e9071	0.05433697
244	0xbe07ccf9	-0.13261785
245	0x3c532e6d	0.012889487
246	0xbd096543	-0.033543836
247	0x3ddc88e0	0.10768294
248	0xbe326fa8	-0.17425406
249	0x3deb6c8f	0.11495315
250	0xbe286104	-0.16443259
251	0x3d160f1a	0.036635496
252	0xbe0449c3	-0.12918763
253	0x3ddd84cf	0.10816347
254	0x3cc0042c	0.02343949
255	0xbd987e1c	-0.074459285

layer.2.bias f4 [64]
0	0x3e7327ff	0.23745726
1	0xbe40deca	-0.18834987
2	0x3c1412d4	0.009037692
3	0x3d774191	0.060365263
4	0xbdb18e07	-0.08669668
5	0x3f0c2e42	0.54758084
6	0xbe32f449	-0.17476
7	0x3dd65260	0.104649305
8	0x3d8c1d46	0.06841521
9	0xbdaf321f	-0.08554482
10	0xbe3f89cf	-0.18704914
11	0x3d9552a3	0.07291152
12	0x3df39b30	0.11894834
13	0x3e15f382	0.14643672
14	0xbe0a9c99	-0.135363
15	0xbdab3d32	-0.083612815
16	0xbd98675b	-0.074415885
17	0xbbe5986e	-0.0070066964
18	0xbe444b4f	-0.19169353
19	0xbd9d98ed	-0.07695184
20	0xbdf97022	-0.12179591
21	0x3d8e02db	0.069341384
22	0xbd8cbf16	-0.06872384
23	0x3d764d36	0.060132228
24	0xbc68be7e	-0.014205573
25	0x3e4eec95	0.20207436
26	0xbe258fd1	-0.16168143
27	0xbd2199b3	-0.03945322
28	0x3d84121f	0.06448769
29	0x3d9146f8	0.07093614
30	0x3e21425b	0.15747969
31	0x3e6a3d82	0.22875026
32	0xbda4b698	-0.080426395
33	0xbe114bb0	-0.14189029
34	0x3e26edd1	0.16301657
35	0xbe01e5a8	-0.12685263
36	0xbde301d8	-0.11084336
37	0xbe23bebc	-0.15990728
38	0xbd6a613e	-0.057221644
39	0x3ddcf781	0.10789395
40	0xbe204d9f	-0.1565461
41	0x3d7a1977	0.06105944
42	0x3c7479e5	0.01492164
43	0x3e2eef6d	0.17083521
44	0xbd48465f	-0.048895236
45	0x3e0e3695	0.13888009
46	0xbdbc4579	-0.09192938
47	0xbe0ef031	-0.13958813
48	0xbdc14949	-0.09437806
49	0xbbe31d01	-0.006930948
50	0xbcee8a8e	-0.029118802
51	0xbdb7712e	-0.08957134
52	0x3d9e942d	0.07743106
53	0x3f0f2bdd	0.55926305
54	0x3d21e1a4	0.03952183
55	0x3d3cf77b	0.046134453
56	0xbdc93b14	-0.098257214
57	0x3e91d344	0.28481495
58	0xbdbb05e9	-0.09131987
59	0x3e60097e	0.21878621
60	0x3e00a4bf	0.12562846
61	0x3ed459fe	0.4147491
62	0x3d315e14	0.04330261
63	0x3eb2190f	0.34784743

layer.4.weight f4 [128, 64]
0	0xbccb4dd4	-0.024817385
1	0xbdd441b0	-0.103640914
2	0x3d60e8ba	0.054909445
3	0xbd86c730	-0.06580961
4	0x3d59e6c1	0.05319858
5	0xbd0da59e	-0.034581773
6	0x3de6c4b9	0.112679906
7	0x3d0c6447	0.03427532
8	0xbdb37748	-0.087629855
9	0xbd35278d	-0.04422717
10	0xbd338a9d	-0.043833364
11	0x3baa6988	0.0052005686
12	0xbd14cdd0	-0.03632909
13	0x3d0b445d	0.034000743
14	0xbd853ac5	-0.0650535
15	0x3d036a41	0.032083753
16	0x3d8c75e8	0.06858426
17	0x3d717352	0.05894787
18	0x3d6f52ba	0.058428504
19	0x3d0dd698	0.03462848
20	0x3da53acd	0.08067856
21	0xbdc7f792	-0.09764017
22	0xbdba8fea	-0.09109481
23	0x3df2bd63	0.11852529
24	0x3d37a546	0.04483535
25	0x3d3d18bc	0.046166167
26	0x3cd7b5fc	0.026331894
27	0x3d9589dd	0.07301686
28	0xbd0bd4a2	-0.03413833
29	0x3d76732b	0.060168426
30	0x3d6b9b28	0.057521015
31	0x3dcdcfa6	0.100493714
32	0x3c828c71	0.015936108
33	0x3d4d378d	0.050101805
34	0xbd5a88f1	-0.053353254
35	0x3c41a0f4	0.011818159
36	0xbd153a9e	-0.036432855
37	0x3bba87a2	0.005692438
38	0xbca1eb2e	-0.019765463
39	0x3d56782f	0.05236071
40	0xbd20d974	-0.03926988
41	0x3ad5f051	0.001632223
42	0xbc214f7f	-0.0098456135
43	0x3dc4e983	0.09614851
44	0x3db39593	0.087687634
45	0x3cfc598c	0.030804418
46	0x3dc505b3	0.09620228
47	0x3d40eec4	0.047102705
48	0x3d7c0778	0.06153056
49	0xbd07c38e	-0.03314548
50	0x3da0a9c6	0.07844882
51	0xbd08bd7b	-0.033383828
52	0x3d196371	0.03744835
53	0xbca2e016	-0.019882243
54	0xbd4bfece	-0.049803548
55	0xbd7fd58c	-0.062459514
56	0xba8ff4ce	-0.0010982992
57	0xbca1a094	-0.01972989
58	0x3d0eb16f	0.034837183
59	0xbd80ea9d	-0.06294749
60	0x3cf9768a	0.030452032
61	0x3dc00829	0.093765564
62	0x3de590d6	0.11209266
63	0x3cda385f	0.026638208
64	0xbd08f8fb	-0.03344057
65	0x3cbb8d75	0.0228946
66	0x3dced452	0.10099091
67	0x3d1f668a	0.03891615
68	0xbb4cf07a	-0.0031271265
69	0xbe345496	-0.17610392
70	0xbdd6fda8	-0.104976
71	0xbd8bbafc	-0.06822774
72	0x3dce2a96	0.100667164
73	0x3d724ce3	0.059155356
74	0x3dd4ea50	0.10396254
75	0xbd8b67ed	-0.06806932
76	0x3d7ebd15	0.06219204
77	0xbdc9457c	-0.09827706
78	0xbd079fac	-0.03311126
79	0xbcac9b77	-0.021070225
80	0x3ddb423b	0.10705992
81	0xbd3c4a14	-0.045969084
82	0xbe190133	-0.14941864
83	0x3c4dbb75	0.0125569
84	0xbd6ea93f	-0.058266874
85	0x3c6236f4	0.013807047
86	0xbcc8db7b	-0.024518719
87	0xbded9f55	-0.11602656
88	0x3e6a6886	0.22891435
89	0xbc1db150	-0.009624794
90	0xbe3a3287	-0.18183337
91	0x3df21e31	0.11822165
92	0xbd2ddb6a	-0.042445578
93	0x3dd76a70	0.10518348
94	0x3cbf6ce1	0.023367347
95	0x3c4afd24	0.012389455
96	0xbd9b39b2	-0.07579364
97	0x3c4b29f8	0.012400143
98	0x3ce52879	0.0279734
99	0xbc98ddc4	-0.018660434
100	0xbcebc3c9	-0.028779881
101	0x3cc10bd1	0.023565205
102	0x3d3b5de9	0.045743857
103	0x3dd4a131	0.10382307
104	0x3da14a1d	0.07875464
105	0x3e14a017	0.14514194
106	0xbd526bd3	-0.05137236
107	0x3c869578	0.016428694
108	0x3d9973ee	0.07492815
109	0xbc9a27c1	-0.018817784
110	0xbe5ce50e	-0.21571752
111	0x3d68ca44	0.05683352
112	0xbdc483fd	-0.09595487
113	0x3d7c26da	0.06156049
114	0xbdb29e83	-0.0872164
115	0x3bcd17e0	0.0062589496
116	0x3d445616	0.04793366
117	0xbdf0bfc1	-0.11755324
118	0xbd82b872	-0.063828364
119	0xbd23f8c1	-0.040032152
120	0xbc047c65	-0.008086299
121	0xbdc05940	-0.09392023
122	0xbd46b640	-0.04851365
123	0xbd740f89	-0.059585128
124	0xbd7082b5	-0.058718402
125	0xbd6d544a	-0.057941712
126	0xbe0c1754	-0.13680774
127	0xbe07af1c	-0.13250393
128	0xbd09c89a	-0.033638574
129	0xbd9585b7	-0.07300895
130	0x3da859e7	0.082202725
131	0x3c788ca4	0.01517025
132	0xbdd6ddc1	-0.10491515
133	0x3e92e4cf	0.28690192
134	0x3decebec	0.11568436
135	0x3dd5f36a	0.10446818
136	0x3daa7388	0.08322817
137	0xbc075220	-0.008259326
138	0xbdd1593c	-0.10222098
139	0x3ce8a433	0.028398609
140	0x3c05cd1b	0.008166577
141	0xbdc8ccc8	-0.09804684
142	0xbc3230a4	-0.010875855
143	0x3dc0ced5	0.0941445
144	0x3cac1554	0.021006264
145	0x3bc88e6b	0.006120493
146	0xbc8c3abc	-0.01711785
147	0xbb7ebc4d	-0.003886956
148	0x3cac99cf	0.021069435
149	0x3d9c7548	0.07639557
150	0x3bfd7e16	0.007735978
151	0x3c115b7a	0.008871907
152	0x3c66e326	0.014092242
153	0xbdb05880	-0.0861063
154	0x3c8878d4	0.016659178
155	0xbd077806	-0.033073448
156	0x3d82c981	0.0638609
157	0xbccb51ef	-0.024819342
158	0xbd9cf513	-0.07663932
159	0x3d89d6dc	0.06730434
160	0x3dac39f0	0.08409488
161	0xbe1e2b75	-0.15446265
162	0xbda1f2e2	-0.07907654
163	0x3ddc0010	0.107421994
164	0x3cf81962	0.030285541
165	0x3cb857aa	0.022502739
166	0xbe015c2c	-0.12632817
167	0xbdde6637	-0.1085934
168	0xbcb400b8	-0.021972999
169	0xbda2eeb0	-0.07955682
170	0xbdfd3d8f	-0.12365257
171	0x3da8ef51	0.08248771
172	0x3bc44f2a	0.0059908824
173	0xbd940dd5	-0.07229201
174	0xbd8b4f21	-0.06802202
175	0x3cf20696	0.029544156
176	0xbdd8fadb	-0.10594722
177	0xbc6c527e	-0.014423965
178	0x3d457ca1	0.04821456
179	0xbc59b2f8	-0.013287298
180	0xbd311bfc	-0.04323958
181	0x3d0b32b5	0.033983905
182	0xbd96b91a	-0.07359524
183	0x3da29d65	0.07940177
184	0xbd249e10	-0.040189803
185	0x3d4a45be	0.049382918
186	0xbdaa449c	-0.083138674
187	0xbba63dc2	-0.00507328
188	0xbd333c4b	-0.04375867
189	0x3d57f164	0.052720442
190	0x3a74f7a4	0.00093447627
191	0xbd92968a	-0.07157619
192	0xbd685249	-0.0567191
193	0x3ca5f4b5	0.020258287
194	0xbda370e3	-0.07980516
195	0xbd91c4a7	-0.071175866
196	0xbda020e8	-0.07818776
197	0xbe8a3729	-0.2699521
198	0x3c5219c4	0.012823526
199	0x3dc9c186	0.09851365
200	0x3d36a769	0.04459325
201	0xbdb54993	-0.08851924
202	0x3d254835	0.040352065
203	0xbd592d8b	-0.05302195
204	0x3d8d8caa	0.06911595
205	0x3d7d875e	0.061896674
206	0xbd65345d	-0.05595814
207	0x3c672b1d	0.0141094
208	0x3d0c1e29	0.03420845
209	0x3e7ea5ae	0.2486789
210	0x3c824841	0.015903594
211	0x3d012f22	0.03153909
212	0xbcf31f21	-0.02967793
213	0xbc33a87e	-0.010965465
214	0xbdf8848b	-0.121346556
215	0x3d56104d	0.05226164
216	0x3dabed47	0.083948664
217	0x3d9ff310	0.07810032
218	0xbcdf9b2d	-0.027295673
219	0x3dc58c8e	0.09645949
220	0x3d570fde	0.052505367
221	0x3ca69a18	0.02033715
222	0xbe1308eb	-0.1435887
223	0xbc564421	-0.013077767
224	0x3c0fd961	0.0087798545
225	0x3d45820c	0.048219725
226	0xbd774a58	-0.060373634
227	0xbd97f7c6	-0.07420306
228	0xbd33ed11	-0.043927256
229	0x3d4ddb89	0.050258193
230	0x3cc7089b	0.024296096
231	0x3e21fe7f	0.15819739
232	0xbdcf21df	-0.10113882
233	0x3cce5f2c	0.025191866
234	0xbb4b593a	-0.0031028525
235	0x3d63602d	0.055511642
236	0x3c2bc315	0.010483523
237	0x3a818393	0.0009881131
238	0xbd1cb21b	-0.038255792
239	0x3db9e5fa	0.09077068
240	0xbdfd4c1e	-0.12368034
241	0xbd1f91de	-0.03895747
242	0x3d8482a1	0.06470228
243	0x3dcf0ae3	0.10109498
244	0x3c8ce885	0.017200718
245	0xbe5f2a10	-0.2179339
246	0x3e03c9d2	0.12869957
247	0xbccab4ad	-0.024744356
248	0x3d8f35ea	0.06992705
249	0xbdbddea6	-0.092709824
250	0xba36ced0	-0.00069735665
251	0x3e125514	0.14290267
252	0x3d461f41	0.04836965
253	0x3e5dc032	0.21655348
254	0x3ccdd67e	0.025126692
255	0x3e5f8dda	0.21831456

layer.4.bias f4 [128]
0	0x3d656b12	0.056010313
1	0x3df3c8f1	0.11903561
2	0xbd3ce2ca	-0.04611472
3	0x3e01cd43	0.12675957
4	0x3cde1266	0.027108382
5	0x3d8dc2aa	0.06921895
6	0x3d2c4776	0.042060338
7	0xbda3dfbe	-0.0800166
8	0xbca9dcf6	-0.020735245
9	0x3d40e43e	0.04709267
10	0x3e5654d8	0.20930803
11	0xbdf3a401	-0.11896516
12	0x3cced715	0.025249043
13	0xbe123865	-0.14279325
14	0xbd3a5fb4	-0.045501426
15	0x3e2aa0b8	0.16662872
16	0xbd423dfc	-0.047422394
17	0x3dab1abb	0.08354708
18	0xbe05146d	-0.12996073
19	0xbda92711	-0.082594045
20	0x3e00db06	0.12583551
21	0xbd961547	-0.07328277
22	0xbdc3bab2	-0.09557094
23	0x3e29d08b	0.16583459
24	0x3d5b1220	0.053484082
25	0xbd966177	-0.07342809
26	0xbae50475	-0.0017472642
27	0xbdf6eaf3	-0.12056532
28	0x3c8e79cf	0.017392067
29	0x3b72e662	0.0037063588
30	0x3e0ef6b6	0.139613
31	0xbdd77667	-0.1052063
32	0x3d6bc095	0.057556707
33	0x3e2ecc0a	0.17070022
34	0xbde2fb76	-0.110831186
35	0x3c8f3716	0.017482322
36	0xbe2c8953	-0.1684926
37	0x3e4494fc	0.19197458
38	0xbbd233bf	-0.00641486
39	0xbd11e7df	-0.03562152
40	0xbe08fa29	-0.13376679
41	0xbc82d9e6	-0.015973043
42	0x3bbcd83d	0.0057630823
43	0x3be138c7	0.0068732235
44	0xbdc401c2	-0.09570648
45	0x3d2a693f	0.041604277
46	0xbd88110c	-0.066438764
47	0x3de411c7	0.11136203
48	0x3db5b89d	0.08873103
49	0xbd77beff	-0.060484882
50	0x3b115dd2	0.0022181165
51	0xbcb68ccf	-0.02228394
52	0xbe10420c	-0.14087695
53	0x3e81df8f	0.25365874
54	0xbdca6259	-0.098820396
55	0xbd33b677	-0.043875184
56	0xbd981b0c	-0.07427034
57	0x3dc0f76e	0.094221935
58	0xbd39aafb	-0.045329075
59	0x3dfbb993	0.12291255
60	0xbd42b17b	-0.04753254
61	0xbd3e00a7	-0.04638734
62	0x3ea258b5	0.31708303
63	0xbd9cca34	-0.07655755
64	0x3dd5478e	0.104140386
65	0xbdb42286	-0.08795647
66	0x3d40408b	0.046936553
67	0x3e0c9fd9	0.13732852
68	0x3e21ec4e	0.158128
69	0x3e25ec64	0.16203457
70	0x3de2183d	0.11039779
71	0x3d73f5a9	0.05956045
72	0xbe09ff1e	-0.13476226
73	0xbd8bba56	-0.0682265
74	0x3d83a015	0.064270176
75	0xbd39cbe1	-0.04536045
76	0xbe36b9ad	-0.17844267
77	0x3e34be58	0.17650735
78	0xbb7bd04f	-0.0038423722
79	0x3df0fbb1	0.11766756
80	0xbcd5454f	-0.026034025
81	0x3d867b5a	0.06566496
82	0x3d2fe4d4	0.042942837
83	0x3d9509a1	0.07277227
84	0x3e2ec662	0.17067865
85	0xbd86feb0	-0.065915465
86	0xbdaf3e96	-0.08556859
87	0xbdea0f9c	-0.114287585
88	0xbe21e4c8	-0.1580993
89	0xbdb827f0	-0.089919925
90	0x3f05669c	0.52109694
91	0x3df06276	0.1173753
92	0x3db08709	0.08619506
93	0x3dcf63ef	0.10126483
94	0x3d85e957	0.06538647
95	0xbdaa6bae	-0.083213195
96	0xbdc546e6	-0.096326634
97	0x3c4b655f	0.0124143055
98	0x3e1e0a2f	0.15433572
99	0x3de64995	0.112445034
100	0xbc8453e7	-0.016153289
101	0x3e6feae3	0.23429446
102	0x3d9b25cb	0.07575568
103	0xbde12d8a	-0.10995014
104	0x3ce881c5	0.028382191
105	0xbdec6551	-0.11542762
106	0x3db4c52e	0.088266715
107	0x3d2022db	0.03909574
108	0xbd3b7557	-0.0457662
109	0xbb0cd764	-0.0021490688
110	0xbd341c81	-0.043972496
111	0xbd5b5d63	-0.053555857
112	0x3d3d31cc	0.046190068
113	0xbd8c365b	-0.06846305
114	0x3b8ba40d	0.0042614997
115	0xbdb038dc	-0.08604595
116	0x3bbdfa0e	0.005797631
117	0xbd123d69	-0.035703097
118	0x3d271f6f	0.04080146
119	0x3dce3ea2	0.1007054
120	0xbd6f6321	-0.058444146
121	0x3c885d42	0.016646031
122	0x3e025b9f	0.12730263
123	0x39254c5b	0.00015764071
124	0xbd93f92f	-0.072252624
125	0xbdaf99ff	-0.08574294
126	0xbddf203d	-0.10894821
127	0x3d6bc45e	0.057560317

layer.6.weight f4 [23, 128]
0	0xbd1dc790	-0.038520396
1	0x3ac52ec8	0.0015043849
2	0x3d5abcff	0.053402897
3	0x3cfe36d3	0.031032002
4	0x3cbc4f0f	0.022986917
5	0x3c970544	0.018435128
6	0x3d46517a	0.048417546
7	0xbcb024ab	-0.02150186
8	0xbda6f096	-0.08151357
9	0xbcfe6390	-0.031053334
10	0xbd108bd2	-0.035289593
11	0xbcaa8135	-0.020813564
12	0x3ce3d2be	0.02781045
13	0x3c004291	0.007828371
14	0x3d6383ca	0.055545606
15	0xbc5de36f	-0.013542994
16	0x3d47f1f7	0.04881474
17	0x3d53a67f	0.051672455
18	0xbd9c1a29	-0.07622177
19	0xbd65b1c1	-0.056077722
20	0xbd71d5c8	-0.05904177
21	0xbc97fa03	-0.018551832
22	0xbd346d36	-0.044049464
23	0x3d65f896	0.056145273
24	0xbd82644b	-0.063667856
25	0x3d71d11b	0.05903731
26	0x3d65d756	0.056113563
27	0xbda01905	-0.07817272
28	0xbcb358a6	-0.021892857
29	0xbc8c0389	-0.01709153
30	0xbbf8e663	-0.0075958236
31	0x3c8b9322	0.017037932
32	0x3d2038f6	0.039116822
33	0xbb0468bf	-0.0020204035
34	0xbd984bc5	-0.07436327
35	0x3d3f7005	0.04673769
36	0xbc8d4af3	-0.017247653
37	0xbc8bb322	-0.01705319
38	0xbc7458f3	-0.014913785
39	0xbc7f4495	-0.015580316
40	0xbb492566	-0.0030692457
41	0x3cd7b861	0.026333036
42	0x3c9b5255	0.018960157
43	0xbd858dc2	-0.06521179
44	0x3d3d9430	0.0462839
45	0xba89de78	-0.0010518571
46	0xbd071f9a	-0.032989122
47	0x3c976947	0.018482817
48	0xbcf55009	-0.02994539
49	0xbcafc06a	-0.021454055
50	0xbd88c15e	-0.06677507
51	0xbcbe2cac	-0.02321466
52	0xbc643c20	-0.013930351
53	0x3d38cd9e	0.045117967
54	0x3d1df7da	0.038566448
55	0x3d81963f	0.06327485
56	0xbccad2c6	-0.024758708
57	0x3cf71fcb	0.030166527
58	0x3d9b036f	0.07569014
59	0x3d5a16db	0.053244453
60	0xba4cbc90	-0.00078100804
61	0xbcf0dec7	-0.029403104
62	0xbd54bd7d	-0.051938523
63	0xbcaa3616	-0.020777743
64	0x3ca9c714	0.02072481
65	0xbccae68c	-0.024768136
66	0xbccbb4c5	-0.024866471
67	0xbd90aa30	-0.07063711
68	0xbc84bb74	-0.016202666
69	0x3b5273ef	0.003211256
70	0xbd2a62e4	-0.041598216
71	0x3bc24df3	0.0059297024
72	0xbd731d6f	-0.059354242
73	0xbcd46dad	-0.025931204
74	0xbb489823	-0.0030608259
75	0xbc2f813a	-0.010711962
76	0xbd29cbc6	-0.0414541
77	0xbc64f400	-0.01397419
78	0x3d23437e	0.039859287
79	0x3c4c2660	0.012460321
80	0xbd76f3a4	-0.060290948
81	0xbd4f04da	-0.050541736
82	0xbc9c58e1	-0.01908535
83	0x3d1a77e0	0.037711978
84	0x3d851d8d	0.06499777
85	0x3cc59d1b	0.024122765
86	0xbb01dbd2	-0.001981486
87	0x3bccfd1f	0.0062557603
88	0x3c2e0db5	0.010623385
89	0x3da9bb7b	0.08287712
90	0xbd4dfbaf	-0.050288852
91	0xbcc3a7b9	-0.023883687
92	0xbd9d644a	-0.07685144
93	0xbd7a0ed2	-0.06104929
94	0x3c436986	0.011927014
95	0x3d28a7f7	0.04117581
96	0xbd5482a1	-0.05188239
97	0x3ce041d9	0.027375149
98	0xbc978f86	-0.018501054
99	0xbc9ea9d0	-0.019368082
100	0xbcd19ce5	-0.025587508
101	0x3d816c63	0.06319501
102	0x3d25374e	0.040335946
103	0x3a86f32f	0.0010295863
104	0xbad5d37f	-0.0016313641
105	0xbc599d96	-0.0132822
106	0x3d0b3cd9	0.033993576
107	0xbcfd83d0	-0.030946642
108	0xbbab0110	-0.0052186325
109	0x3cfc1c82	0.030775312
110	0x3d80c120	0.06286836
111	0x3dc825bf	0.097728245
112	0xbc467858	-0.012113653
113	0x3ce1bf3a	0.027557004
114	0x3cf80e0c	0.030280136
115	0xbd3910d8	-0.04518208
116	0xbd152875	-0.036415536
117	0xbaadc3d0	-0.0013257209
118	0xbd67dfb0	-0.05660981
119	0x3c848f70	0.016181678
120	0xbc8520fa	-0.016251076
121	0x3cf40d23	0.02979142
122	0x3cc2e6b4	0.023791648
123	0xbcbf4b32	-0.023351286
124	0x3d85b975	0.06529514
125	0xbca3fcd0	-0.020018011
126	0xbc8728a2	-0.016498867
127	0xbd5787ce	-0.052619748
128	0xbce6cc37	-0.02817355
129	0xbc5393a2	-0.012913616
130	0xbd33f825	-0.04393782
131	0xbbe6db9d	-0.007045223
132	0xbd755910	-0.05989939
133	0x3d5e6088	0.054291278
134	0xbd9bde36	-0.07610743
135	0x3d304c0c	0.043041274
136	0xbca9ede3	-0.020743316
137	0xbc28f7ad	-0.010312957
138	0x3cc0085d	0.023441488
139	0xbb65f0a4	-0.003508606
140	0xbb707c81	-0.0036695304
141	0x3c8ed48f	0.01743534
142	0x3cc35157	0.023842497
143	0xbdb4014d	-0.087893106
144	0xbc539c7c	-0.012915727
145	0xbd41dc09	-0.047328983
146	0xbc3c1551	-0.011479692
147	0x3d14ee38	0.036359996
148	0x3d47ce26	0.048780583
149	0x3c0ca371	0.008583889
150	0xbae724ab	-0.0017634829
151	0x3ccd8e42	0.025092248
152	0x3d7c2a36	0.061563693
153	0xbd4a59a9	-0.049401913
154	0x3d57f103	0.05272008
155	0x3d07020e	0.032960944
156	0xbd94f4f4	-0.072732836
157	0x3d3c8ebb	0.046034556
158	0x3d2f9e58	0.042875618
159	0x3bd98223	0.006637828
160	0x3d1016f5	0.035178144
161	0x3d32dfad	0.043670345
162	0xbd7fdd53	-0.06246693
163	0xbc1cfd5d	-0.009581891
164	0x3d0c276d	0.034217287
165	0x3cc3bfa8	0.0238951
166	0x3d9cc955	0.076555885
167	0x3cd7b77e	0.026332613
168	0x3d4705d9	0.04858956
169	0xbc83de47	-0.016097201
170	0x3bd6c0d0	0.0065537468
171	0x3c7c4f78	0.015399806
172	0xbd9e2010	-0.07720959
173	0xbd0b258b	-0.03397135
174	0xbc23e684	-0.01000369
175	0x3cb1734c	0.021661423
176	0xbcb86e89	-0.022513645
177	0x3d73b31f	0.059496995
178	0x3c7fa1e9	0.015602567
179	0x3d34fcc8	0.044186383
180	0x3a970566	0.0011521995
181	0x3cbc9768	0.023021415
182	0x3d5efd54	0.05444081
183	0x3d8d1e7a	0.068905786
184	0xbd2117fa	-0.039329506
185	0xbd0dfb98	-0.034663767
186	0x3d15d295	0.03657778
187	0x3d25583b	0.040367346
188	0xbd5fb5c9	-0.054616723
189	0xbd1ebaea	-0.038752474
190	0x3d282a04	0.041055694
191	0x3c8ff5ca	0.017573256
192	0xbd70342b	-0.0586435
193	0x3c8cb46c	0.017175876
194	0x3cd54c7d	0.026037449
195	0xbd17eea1	-0.03709281
196	0x3b40d229	0.002942214
197	0x3bde7102	0.006788374
198	0xbd9aee18	-0.07564944
199	0xbcfd0cd8	-0.030889913
200	0x3ce01eed	0.027358497
201	0x3beac9ae	0.0071651554
202	0x3cf3f0d3	0.02977792
203	0xbd11a578	-0.035558194
204	0x3d8a2111	0.06744588
205	0xbc2bbd91	-0.010482208
206	0xbc7c4882	-0.015398147
207	0xbd00bf80	-0.03143263
208	0xbc9b03ef	-0.018922774
209	0xbb9d950f	-0.004809029
210	0xbce5482b	-0.027988514
211	0xbc89f498	-0.016840264
212	0x3d59b58a	0.053151645
213	0xbd8930e8	-0.06698781
214	0x3c9a7ce2	0.018858377
215	0x3bd437ea	0.006476392
216	0x3c52ffab	0.012878339
217	0xbd9b3ecf	-0.07580339
218	0x3d89004f	0.06689512
219	0x3d28b8c9	0.04119185
220	0x3cb4272f	0.02199134
221	0xbc6ef890	-0.014585629
222	0xbd154101	-0.036438946
223	0x3d40564b	0.046957295
224	0xbc8ae06c	-0.016952716
225	0x3b7bfed3	0.0038451448
226	0xbd755d49	-0.059903417
227	0xbd8bf0cb	-0.06833037
228	0xbd698df1	-0.05702013
229	0xbcc47c60	-0.023985088
230	0xbd47a23c	-0.048738703
231	0x3d0dedc4	0.03465058
232	0xbdb08e86	-0.08620934
233	0x3d932ca2	0.071862474
234	0x3c1f501a	0.009723688
235	0xbaa36991	-0.0012467374
236	0x3c561480	0.013066411
237	0xbcde354c	-0.027125023
238	0x3d9a1ea1	0.07525373
239	0x3ce3aa40	0.027791142
240	0x3cdcaede	0.026938852
241	0x3c306a2f	0.010767504
242	0xbc912aeb	-0.01772066
243	0xbd00c257	-0.031435337
244	0x3c024143	0.00795013
245	0x3bd0b3a7	0.0063690725
246	0xbd81ce1c	-0.0633814
247	0x3c97e76f	0.018542973
248	0x3d642498	0.05569896
249	0x3c1f9ff4	0.009742726
250	0x3d2bfcc4	0.041989103
251	0x3d630697	0.055426206
252	0x3cbc84b6	0.0230125
253	0xbc356321	-0.011070997
254	0xbb4597a4	-0.00301502
255	0x3d01f0ac	0.031723663

layer.6.bias f4 [23]
0	0x3cfe001e	0.031005915
1	0xbd6755e4	-0.056478396
2	0x3d63af1a	0.05558691
3	0xbc76114f	-0.015018775
4	0x3d16117a	0.03663776
5	0x3d790652	0.060797043
6	0x3d969e9a	0.073544696
7	0x3d859cb0	0.065240264
8	0xbd5e9313	-0.05433948
9	0x3cfb654e	0.030687954
10	0xbc851bce	-0.01624861
11	0x3cfa7f5c	0.030578308
12	0x3c21d267	0.009876824
13	0xbd54cf1b	-0.051955324
14	0x3cbc8837	0.023014171
15	0xbd5dfa29	-0.05419365
16	0x3c618191	0.013763801
17	0x3dc729cc	0.09724769
18	0x3c5c8356	0.013459047
19	0x3d1e2787	0.038611915
20	0x3cafa8fd	0.021442885
21	0x3b3b37d2	0.0028567207
22	0x3ca63b9d	0.020292098
