weight/save_400_34.00219363477272.pth (torch_old, 87748 bytes, 8 tensors)

layer.0.weight f4 [64, 54]
000000 6a bb b8 bd b1 5b b4 bd 95 cb 02 3e e3 bc ac ba
       -0.090201214 -0.08806551 0.12772973 -0.0013178851
000010 cf 7f ac 3c ba 20 16 bc 2c 09 96 3e 87 84 70 be
       0.021057038 -0.009163076 0.29303873 -0.23488055
000020 a0 0b 0e 3e 5d a7 13 bf f8 7b 12 3d fe 86 01 bd
       0.13871622 -0.5767725 0.035762757 -0.03162288
000030 c4 16 12 be 83 25 cd bd b3 7d ea bd 53 76 ec 3d
       -0.14266497 -0.100169204 -0.114497565 0.11546006
000040 f7 df 93 bd 30 d7 aa 3c af 6e 5b bc 00 28 fe bd
       -0.07220452 0.020854563 -0.013393088 -0.12409973
000050 10 dd ea bd 7f 29 e0 bd bb 40 38 bd 61 fc 9f 3d
       -0.114679456 -0.10945415 -0.044983607 0.07811809
000060 e2 be 23 3d 19 43 84 39 e0 89 d3 3d 5f e7 0c be
       0.039976962 0.00025226994 0.10329032 -0.13760136
000070 a4 b2 a0 bc fc ce 83 3d 7c 72 36 bd 07 e6 89 3d
       -0.019616432 0.064359635 -0.044542775 0.06733327
000080 ee df 83 3d c6 d6 be 3d e0 84 dd 3c bf c3 70 3d
       0.064391956 0.093183085 0.027040899 0.058780428
000090 c6 75 b0 bd e2 a5 d6 bd c8 50 71 bd 13 8c 16 3d
       -0.086162135 -0.104808584 -0.05891493 0.03675468
0000a0 72 eb 84 bd 96 8f e6 bd a0 08 fd bc 44 ce 2f 3c
       -0.0649022 -0.112578556 -0.030887902 0.01073033
0000b0 08 58 e1 bc b8 c0 09 3e 64 b0 f3 bc de bf 05 3e
       -0.027507797 0.13452423 -0.029747196 0.13061473
0000c0 20 78 0f 3d b2 97 e2 bd 08 ae 71 bd 3e c2 13 3d
       0.03502667 -0.1106409 -0.05900386 0.036073916
0000d0 cf 4b f3 bd 80 3a 04 3e 4c 7f b2 bc c8 00 46 3e
       -0.11879694 0.12912941 -0.021789216 0.19336236
0000e0 5d 65 3e be 2a 47 14 3c 81 2f b6 3d dd 9d e4 3c
       -0.18593355 0.00905017 0.088957794 0.027907306
0000f0 86 43 04 bf 00 e4 89 3e 36 19 e3 bd 4c ca 43 3f
       -0.5166553 0.26931763 -0.11088793 0.76480556
000100 aa 23 0a 3d 3e 16 8b 3b 9e 34 4a bc 5e 75 59 3c
       0.03372542 0.004244595 -0.0123416465 0.013272611
000110 ed 6f f7 bd de 19 8c bd 84 5a 05 3d 40 50 1c bb
       -0.12081895 -0.06840871 0.032557026 -0.0023851544
000120 55 e9 9d bb 83 75 27 3b fb 68 da bb 1e 34 2b 3d
       -0.004819075 0.002555222 -0.0066653467 0.04179775
000130 36 12 3b bd cb 5a e4 3d 34 73 90 bb 7e 00 c8 bd
       -0.045671664 0.1115013 -0.0044082645 -0.09765719
000140 5d 2d 2a bc 1e b9 78 bd fa 08 fb bd 34 31 1c 3d
       -0.010386792 -0.060723417 -0.122575715 0.03813286
000150 80 4a 1b bd 1d 15 ec bd 9b e7 0a be 9e bb 84 3d
       -0.037912846 -0.115274645 -0.13564913 0.06481098
000160 16 52 9d 3d 5f a8 ee 3d a2 5a 9b bd 26 5f 08 be
       0.07681672 0.11653208 -0.07585646 -0.13317546
000170 e0 98 23 3d c8 0f a2 3d 08 df 8f 3d 53 70 ca bd
       0.039940715 0.07913166 0.07024962 -0.098847054
000180 fa 86 c5 3d 37 92 99 bd b0 f0 bd 3d 0a 0e 07 3e
       0.09644885 -0.074985914 0.09274423 0.13188949
000190 7c 72 92 3d d6 ea b6 bc c3 08 07 3d 8a b3 8e bd
       0.071507424 -0.022328775 0.03296734 -0.06967838
0001a0 c0 66 01 3e 75 f2 86 3c 8f b2 4c bc 8e 17 87 bd
       0.12636852 0.016473034 -0.012493744 -0.065962896
0001b0 90 5d c9 3c 34 90 fb 3d fb 27 b3 3d 88 d7 ab 3d
       0.024580747 0.12283364 0.0874786 0.08390719
0001c0 4c b4 c2 3d 63 2a 52 bc f3 a1 82 3d b8 95 1a 3e
       0.09507045 -0.012827489 0.063785456 0.15096176
0001d0 c8 f1 08 bb 1d fe d3 3d 1d e2 47 3d 02 04 79 3d
       -0.0020896066 0.10351203 0.048799623 0.060794838
0001e0 7c 0f b4 3d 17 1f e9 3d 38 8b b8 3d 78 86 26 3e
       0.08792016 0.11382883 0.09010929 0.16262233
0001f0 b0 0f 60 3c 40 a6 eb 3d 59 c2 00 3e 47 aa d7 3b
       0.013675615 0.11506319 0.12574138 0.006581578
000200 28 eb dc bb 27 2d 29 3d ee 91 98 bb d4 8d 80 3d
       -0.0067419 0.041302826 -0.004656068 0.062770516
000210 53 93 bf bc 3f a0 a2 bd 98 82 b5 bd 16 19 9c bd
       -0.02338568 -0.07940721 -0.088627994 -0.07621972
000220 40 0a 7d bc b8 86 60 bc 96 d6 0a be 90 ed d1 3d
       -0.015444338 -0.013703994 -0.1355842 0.102503896
000230 a1 e5 90 bd f0 e3 69 3c 74 d9 a3 3d 52 25 5d bd
       -0.07075048 0.014275536 0.0800046 -0.05399067
000240 04 88 65 3c b8 38 84 3d 0c df dc bd c4 a6 db bd
       0.014009479 0.06456131 -0.1078473 -0.107251674
000250 7b 10 f1 3d c6 fa ae 3d 2a 3a a7 3d b4 49 fc bc
       0.117707215 0.08543925 0.08165391 -0.030796863
000260 86 fe 07 be 1b 26 00 be 30 1c 0e 3c ec 8e af 3c
       -0.13280687 -0.12514536 0.008673713 0.021430455
000270 c5 8b 04 3e dc c6 16 3d 37 32 f9 bd 7c a8 e5 bc
       0.12943943 0.03681074 -0.12167781 -0.028034441
000280 dd 06 03 be e2 48 7c bd 80 0c 49 3d 8c 35 c9 3d
       -0.12795587 -0.061592944 0.049084187 0.098246664
000290 d7 56 5c 3d 31 10 17 bd f1 fc b4 bc 54 91 d0 3c
       0.053793754 -0.036880676 -0.022093268 0.025459923
0002a0 6b 8c 90 bd 08 d0 b7 3d 93 87 5c 3d 17 87 c2 3e
       -0.070580326 0.08975226 0.05384023 0.3799369
0002b0 e2 4a 1c 3d c3 2a 47 3b 31 fa b8 3c 2e 02 33 3b
       0.03815735 0.0030390478 0.022580238 0.0027314532
0002c0 20 9e ed 3d 8b 5b 32 bd d6 73 a8 bd 80 5b ba 3a
       0.116024256 -0.043544333 -0.08225219 0.0014217943
0002d0 72 40 d3 bd c1 ea 8e bd ea 14 9d bd 45 5f 1d bd
       -0.10315026 -0.069783695 -0.07670005 -0.038420934
0002e0 89 a3 c8 bd c3 86 ae bd 84 bc 1d 3d 98 13 af 3c
       -0.09796817 -0.085217975 0.03850986 0.021371648
0002f0 c6 e3 5b 3d 05 1d 03 be 2a 7c b5 3d 12 8c 90 bd
       0.05368402 -0.12804039 0.08861573 -0.07057966
000300 f1 18 e4 bd 80 44 ef 3d eb fc 95 bd e0 5d ea 3d
       -0.1113757 0.11682987 -0.07323631 0.114436865
000310 11 56 d9 bd 73 a9 00 be ce a8 10 3d a8 3c ac 3d
       -0.10612119 -0.1256464 0.035317235 0.08410007
000320 a2 e8 84 3b 8b b8 a5 bd 89 cf f6 3d 70 c1 f9 3d
       0.0040560523 -0.080918394 0.12051303 0.121950984
000330 3c 0e fd 3d 06 1a fe bd ad 86 ad 3d c0 20 05 bb
       0.123562306 -0.12407307 0.08472953 -0.002031371
000340 62 0a cb 3d 52 0f c4 3d ce da dc 3c 86 5e e7 3d
       0.0991409 0.095732346 0.026959803 0.11297326
000350 cd 1e de bd 5a 07 63 bd c8 0f 77 bd 64 bd ed 3d
       -0.108457185 -0.055426933 -0.060317785 0.11608389
000360 d8 4d d8 3c 57 cb 7c bd 2f e6 00 b8 a8 c3 39 bc
       0.026404306 -0.061717357 -3.0731953e-05 -0.011338152
000370 a2 55 c0 bc 14 01 5a 3b 36 82 7c 3e fe 1a 3c be
       -0.023478333 0.0033264803 0.24659047 -0.18369672
000380 3b 86 31 3d 03 9f 57 3d 7a 36 da bb fb 9c 13 ba
       0.043340903 0.05264188 -0.006659326 -0.0005630997
000390 b6 8c ba 3a 85 9c 9b bc a0 f9 fd bc 3a 11 b8 3d
       0.0014232609 -0.018995533 -0.03100282 0.08987661
0003a0 ec 99 c6 bc 10 e9 2b bd 64 ec 39 bc cf 5c 0b bc
       -0.024243318 -0.041970313 -0.011347864 -0.008506014
0003b0 47 df 5a 3c 01 29 11 bc a7 05 11 bd ca a4 62 bd
       0.0133588975 -0.008859874 -0.03540578 -0.055332936
0003c0 58 52 9c bc c0 50 af 3d 4d 1a 07 3e e4 70 bf 3d
       -0.019082233 0.08560324 0.13193627 0.09347704
0003d0 92 8e 47 bd 30 bb 48 3c af 6f 27 3d 60 4c e8 3d
       -0.04871995 0.01225166 0.040877994 0.113426924
0003e0 c7 a9 19 bb 1e e4 d1 bd 9d 65 b3 3d fe 70 31 bd
       -0.0023447142 -0.10248588 0.087596156 -0.04332065
0003f0 57 74 8b bd c2 0c ee bd 8d 93 0f 3e e0 6c 80 bd
       -0.068092994 -0.11623527 0.1402113 -0.06270766

layer.0.bias f4 [64]
000000 93 c4 1c b8 49 57 83 bd f5 53 91 3e 3c 90 a6 3d
       -3.7376372e-05 -0.06413133 0.28384367 0.08132979
000010 b2 a3 d8 bc cb da b4 3d 4c 25 aa 3d 36 58 14 bd
       -0.026445244 0.08830794 0.08307895 -0.036216937
000020 81 32 ca bd a0 dc 91 bd 06 4c d0 bd a4 af 92 bb
       -0.09872914 -0.07122159 -0.1017075 -0.0044765044
000030 dc e2 5d bd 69 bd b0 3c b6 23 57 3d 31 d2 a0 bd
       -0.054171428 0.021574693 0.05252429 -0.07852591
000040 af 8f 2e 3c d8 cf 26 bd 09 2e 8e 3d 95 f4 d7 3d
       0.010654374 -0.04072556 0.06942374 0.10544697
000050 f2 74 80 3d 43 21 fd 3d 00 2e 1c bd 4c 61 b0 bc
       0.062723055 0.1235986 -0.038129807 -0.02153077
000060 85 78 85 bd b3 64 d3 bd 10 7f 55 3d 20 cb ff bd
       -0.06517128 -0.10321941 0.05212313 -0.12489915
000070 98 fe 9f bc 3f 54 e5 3d ab b4 b8 bd fc d1 72 bd
       -0.01953058 0.11197709 -0.09018835 -0.059282288
000080 34 a2 98 3d e5 43 99 3d 28 a0 f8 3d b0 f5 6f 3d
       0.07452813 0.07483653 0.121399224 0.058583915
000090 fc db a1 3b 39 b1 ee bd b8 92 f6 3d 36 37 91 3d
       0.0049395543 -0.11654896 0.12039703 0.07090609
0000a0 04 01 e1 3d 51 60 16 3d 14 79 01 3e 5f 05 fe 3d
       0.10986522 0.03671295 0.12643844 0.12403368
0000b0 cd f0 d7 bd 04 59 d0 3d 64 76 bc bc 57 7d 7e 3d
       -0.10543976 0.101732284 -0.023005672 0.062131252
0000c0 cc 3a 28 bd 80 e9 75 bd e1 da ea 3d a7 2d 24 3d
       -0.041071698 -0.060037136 0.11467529 0.0400826
0000d0 62 26 ca bc eb d4 bc bd 1f ec 79 bc 30 52 0d 3d
       -0.024676505 -0.092202984 -0.01525405 0.03450221
0000e0 dd 0e b4 3d 0b e9 de bc 71 90 96 bb a8 8b 05 3e
       0.087918974 -0.027210733 -0.0045948555 0.13041556
0000f0 37 75 6a 3e c8 82 d9 bd 15 66 5f bc a4 4c 98 3d
       0.22896276 -0.10620648 -0.013635178 0.07436493

layer.2.weight f4 [128, 64]
000000 0e 4b e5 bd 2b f9 65 bc c4 fd 95 bd 5b 5e 77 bd
       -0.11195956 -0.014036457 -0.073237926 -0.06039272
000010 90 91 fd 3c 76 ce 04 3d 90 de 01 bd c5 6b 77 bd
       0.030953199 0.03242346 -0.031706393 -0.06040551
000020 4a 49 88 bc 69 5c b1 bd 02 53 57 3c f3 7e e2 3b
       -0.01663651 -0.08660204 0.013142349 0.006912106
000030 43 29 a0 3d 36 e9 e0 bc a0 c8 d8 3c a0 49 82 bd
       0.0782037 -0.027454954 0.026462853 -0.06361699
000040 19 eb e9 3c 4c 14 39 3d e1 83 c4 3c e9 a2 fa bc
       0.028554486 0.045185372 0.023988666 -0.03059526
000050 c7 a4 db bd 2f 98 b8 3d e7 c1 da 3b 80 a6 a0 3d
       -0.10724788 0.09013402 0.006675947 0.07844257
000060 83 95 ae 3d 54 7a ad 3c f2 bb b9 3d 08 88 9d 3d
       0.08524611 0.021176495 0.09069051 0.076919615
000070 a1 83 53 bd f2 5e 7d 3b b6 54 d1 3c 08 68 4c bd
       -0.051639203 0.0038661328 0.025553089 -0.0499039
000080 3b ab 76 bc e2 bf a6 3c 44 bd 2e bc 09 71 5d 3d
       -0.015055473 0.020355169 -0.010665242 0.054062877
000090 e2 e8 01 bd f6 bd 26 bd 33 f2 8d bc 82 e6 a5 3b
       -0.031716235 -0.040708505 -0.017327404 0.005062879
0000a0 03 90 00 3e 89 39 38 bd cd 12 ce bd 5e 59 10 3d
       0.12554936 -0.044976745 -0.1006218 0.035241477
0000b0 3f 69 85 bd 66 09 96 3d 39 f9 37 3d 52 cd a6 3d
       -0.06514215 0.07326011 0.04491541 0.081446305
0000c0 28 74 b2 3d 9a 42 f4 bd 37 4c 11 3e 0d c5 9f bd
       0.08713561 -0.11926766 0.1418923 -0.07801256
0000d0 f3 9b f3 bd 65 b4 fd 3d f1 fe 85 3d fa 57 44 3c
       -0.11894979 0.12387923 0.06542767 0.011983866
0000e0 fb 5b 84 3d 95 4a 06 bd fd c7 a6 bd 8e 0d 7a 3d
       0.064628564 -0.03278597 -0.081436135 0.061048083
0000f0 ce 97 c7 bd 18 ba 4d 3d 12 4e 18 bd 10 47 f3 3d
       -0.09745751 0.0502263 -0.03718383 0.118787885
000100 5e 13 fd 3c 86 c0 98 3d 5b 52 31 bd 05 e9 ef bc
       0.030893024 0.07458596 -0.04329143 -0.029285917
000110 ba a9 7d 3d 06 2b d3 bd f6 c1 80 bd c8 cb 17 bd
       0.061929442 -0.103109404 -0.06286995 -0.037059575
000120 cc 5c 54 bd dc dc b1 3c 91 01 e9 3d 8f 84 6d 3d
       -0.05184631 0.02171176 0.11377252 0.057987746
000130 22 8a c1 3d 8b 82 65 bd b6 de 8a bd 5b 9b ae bd
       0.09450175 -0.0560327 -0.0678076 -0.085257255
000140 f9 71 db 3c fb 52 90 bb de a7 5f bd 7d d2 d6 bc
       0.026787745 -0.0044044233 -0.05460345 -0.026223416
000150 2c cd 03 3e d1 0e b2 bd 3e 1e b5 3d a0 76 95 bd
       0.12871236 -0.08694232 0.08843659 -0.072980165
000160 3d 1b eb 3d b1 e0 42 3d d5 86 5c 3d a1 62 ab 3d
       0.11479805 0.047577564 0.053839523 0.08368421
000170 c7 c0 96 bd 39 bc a6 3d 48 ef 96 3d 3c e2 8f 3d
       -0.07360988 0.081413694 0.07369858 0.07025573
000180 54 7c ea bd 66 11 07 be b2 7c ba 3d de db 26 3c
       -0.11449495 -0.1319023 0.09105815 0.010184256
000190 b5 f0 ca 3d 58 72 bc bd a8 6f e6 bc 89 a5 86 bd
       0.099091925 -0.09201497 -0.028129414 -0.06574542
0001a0 ca f6 e0 3d f2 84 60 bc c6 6b 1f bc b7 2f 32 3d
       0.10984571 -0.013703572 -0.009730285 0.043502536
0001b0 c2 4e 8b 3d 64 09 ed bb 9b 48 c8 bd b0 9b b4 bd
       0.06802131 -0.0072337855 -0.097794734 -0.088187575
0001c0 d2 73 ec 3c 3d 5c e7 bd 3f d6 31 3d ba 6a 96 3d
       0.028863821 -0.1129689 0.04341721 0.07344575
0001d0 e2 7b 10 3d fc 35 c7 bd e6 12 a7 3d 21 f2 a8 3d
       0.035274394 -0.097270936 0.081579015 0.082493074
0001e0 c4 c9 ea 3d 12 67 d1 bd f7 73 70 bd 80 f2 65 3c
       0.11464265 -0.10224737 -0.058704343 0.014034867
0001f0 a8 01 cc 3d b7 78 07 bd ce 3f 41 3d ab d0 25 3c
       0.099612534 -0.033074107 0.04717999 0.010120551
000200 a5 46 c8 3d bb 8a 95 3d b0 f6 2a 3d 67 44 15 3c
       0.097790994 0.07301851 0.041739166 0.009110547
000210 a5 9e 1d 3e 3f 74 02 bd ba 61 f6 3d a3 d1 0f be
       0.1539255 -0.031849142 0.120303586 -0.14044814
000220 e2 9e e7 3d d6 ee d2 3d 3b 46 b4 bd 05 27 a1 3d
       0.11309601 0.102994606 -0.08802458 0.078687705
000230 4a 33 74 3d 2f c5 cb 3b ad 6e 9e 3d ed 25 a8 3c
       0.059619226 0.0062185745 0.077359535 0.020525897
000240 12 cb 90 bd b7 0b 8d 3d ec 6e 06 3d d4 f5 25 bd
       -0.070699826 0.06887 0.032820627 -0.040517643
000250 1f 17 be 3c 02 dc 58 bd 89 ba b5 bc fb 5f 4e 3d
       0.023204384 -0.05294419 -0.022183673 0.050384503
000260 f1 0b da bd e2 f6 42 3d a3 f9 d4 bd 4d cd c7 bd
       -0.10646809 0.047598727 -0.10399177 -0.09755955
000270 ab 61 f6 bc 16 99 de 3d e4 43 ba bd f8 4b d7 3c
       -0.030075869 0.108690426 -0.0909498 0.026281342
000280 b6 4d 01 3d 1d 9a 8b bd 9f b3 32 bc 15 62 15 bd
       0.03156825 -0.06816504 -0.010907083 -0.03647049
000290 2a af bf bd e2 06 1b 3d f9 46 ae bd cd 4c ae 3d
       -0.09359582 0.03784836 -0.08509631 0.08510742
0002a0 25 41 f8 bc fd 34 e6 3d ee f0 ae bd 18 31 95 3d
       -0.0303045 0.112405755 -0.085420474 0.072847545
0002b0 61 a7 b2 3d ed 8b a0 bd 9c 0f 7d 3d ae f6 0b bc
       0.08723331 -0.07839189 0.061782464 -0.0085427
0002c0 83 41 bc bd 10 07 93 bd f1 23 9e bc 66 b5 7c 3d
       -0.09192183 -0.071790814 -0.019304248 0.061696433
0002d0 d7 35 f9 3d 04 c8 19 bd 90 47 4c bd fb 54 9d bd
       0.12168472 -0.037544265 -0.049872935 -0.07682224
0002e0 67 66 d0 3d 02 12 73 bd 13 c4 d3 3d ac d7 c3 bd
       0.10175782 -0.059343345 0.103401326 -0.095626205
0002f0 32 7c 92 3d 2c 0c b7 bc d4 51 39 bd 97 96 cc 3d
       0.071525946 -0.022344671 -0.045244053 0.0998966
000300 54 e7 bc bd 23 f3 a9 bd 9f 59 77 3d 29 bb db 3d
       -0.0922381 -0.08298328 0.060388204 0.10729057
000310 5a ee 99 3d 5c d4 04 3e ab 73 ce 3d 70 6d ad 3d
       0.07516165 0.12971634 0.10080656 0.08468139
000320 55 83 ef 3c 71 65 a8 bd c8 6d 6a bd 20 42 da bd
       0.029237429 -0.082224734 -0.0572336 -0.106571436
000330 67 bc 28 3d 4f db 91 bc 9f b7 bd bd df 66 19 bd
       0.0411953 -0.01780477 -0.092635386 -0.03745162
000340 25 c4 58 3c b0 3a dd bd 8e 7c e5 bd a5 2b 4c bd
       0.013230358 -0.108022094 -0.112053975 -0.04984631
000350 d1 8d 8a bd 50 32 ae bd e7 87 9c bd 62 6e b4 3d
       -0.067653306 -0.0850569 -0.07643109 0.08810116
000360 17 ef 85 3d 3d 51 c8 bd 95 b6 a4 bd 59 4e b7 bc
       0.065397434 -0.0978112 -0.08042637 -0.022376226
000370 08 f7 b5 bd 37 63 2e 3d f7 d2 cf 3d 81 8e dd 3c
       -0.08885008 0.042575087 0.1014766 0.02704549
000380 de a3 42 bd ba 31 84 bd 8b 3e f7 3c a8 72 a5 bc
       -0.047519557 -0.06454797 0.03018119 -0.020196274
000390 83 83 11 3d 01 9f 9d bd c4 65 38 3d 13 65 85 bc
       0.03552581 -0.07696343 0.045018926 -0.016283548
0003a0 b1 9f b0 3c 2d 75 c3 3d 77 ff ad 3d 52 2e 0e 3e
       0.021560522 0.09543834 0.08495992 0.13884857
0003b0 fb 31 b6 bc ee 4c 8c 3d 3e 38 6b 3a 68 7d e4 bd
       -0.02224063 0.06850611 0.00089729193 -0.11156732
0003c0 63 01 89 3d 12 e2 d4 3d dd 5e 43 3d d8 3c f7 3d
       0.066897176 0.10394682 0.04769789 0.12072152
0003d0 90 c2 43 3d 4b c4 c0 bd 3c 18 bd 3d 9b 40 90 bc
       0.04779297 -0.0941244 0.09233138 -0.017608931
0003e0 2d d9 ce bd 0b ab 72 bd 22 cd 9d 3c 46 68 17 bc
       -0.10100017 -0.05924515 0.019262854 -0.009241169
0003f0 c5 70 02 bd d1 7b 1f 3c 55 61 24 bd 63 ac 04 3e
       -0.031845827 0.00973411 -0.040131886 0.12956385

layer.2.bias f4 [128]
000000 b7 af 6f 3d ab 9e d0 3b e0 d5 08 3d 92 3b 04 3e
       0.058517184 0.006366571 0.033407092 0.1291335
000010 09 af a2 3d 27 8d d6 3d 94 c8 18 3d c2 f5 38 bd
       0.079435416 0.104761414 0.03730066 -0.045156248
000020 9e 3a 11 bd 55 49 00 3d 5c a5 26 bc fc 03 b7 bd
       -0.035456292 0.031319935 -0.010171261 -0.08936307
000030 4b ed 56 bd 36 12 50 3c b1 f7 ab 3d b5 72 94 3d
       -0.052472394 0.012699654 0.08396853 0.07248441
000040 2d 54 49 3d 1a 17 3b 3d 28 de 86 bd 92 82 06 3c
       0.049152542 0.04567633 -0.06585342 0.008209841
000050 86 cc 09 3c 53 66 49 bd b0 5f ca bd 46 0e 3f bd
       0.008410579 -0.04916985 -0.09881532 -0.04664447
000060 5d 07 cc bc b6 61 34 bd d5 29 aa 3d 67 38 af 3d
       -0.024905855 -0.044038497 0.0830876 0.0855568
000070 cd 99 5a 3d 48 af 5b bd 5c 41 d1 3d 29 85 fe 3d
       0.053369332 -0.053633958 0.102175444 0.12427742
000080 f7 e3 8c bd 7d ae d6 bc 5c 22 b4 bd 1f 89 ae bd
       -0.06879418 -0.02620625 -0.08795616 -0.085222475
000090 32 42 c2 3d 8e 28 ae ba ef 7e 5f 3b 5f 84 ac bd
       0.09485282 -0.0013287233 0.0034102758 -0.08423685
0000a0 45 e7 93 3d 71 3e 29 bd 95 21 ef 3d ac 8b df 3b
       0.072218455 -0.041319314 0.11676327 0.00682207
0000b0 53 81 f0 bc b7 ef bd 3d fe f4 2e bc 3a cf be 3d
       -0.029358542 0.092742376 -0.010678528 0.09316869
0000c0 4c ed b9 3d 3a ba ca 3d 0a 69 1d bb d7 32 81 3d
       0.09078464 0.09898801 -0.0024018907 0.06308525
0000d0 df 16 b4 3c a5 60 1c 3d 62 38 b1 bd 06 b5 d0 3d
       0.021983562 0.038178105 -0.08653332 0.101907775
0000e0 b3 f0 c9 3c c5 14 bf bc 09 9f 5a 3e 02 43 a2 3d
       0.024650907 -0.023325333 0.2134973 0.07922937
0000f0 6a b5 87 bd b6 52 af bc ad 97 97 bd a5 b3 8b 3d
       -0.06626399 -0.021401744 -0.07401977 0.06821374
000100 9a 78 b9 bd f5 94 90 bd 15 d9 28 3b 72 46 bd 3d
       -0.09056206 -0.07059661 0.0025764157 0.09241952
000110 d1 17 e9 3c 12 ba d2 3d 54 24 d2 bd ba 06 be 3d
       0.02845374 0.10289396 -0.10260835 0.09278627
000120 2d 2b f8 3d a5 80 25 3d ad 1e 79 3b f6 41 3e bc
       0.1211761 0.040405888 0.003801267 -0.011612406
000130 bb 95 5c 3d 14 d9 05 be 61 42 e9 bd 20 c0 e6 3c
       0.05385373 -0.1307109 -0.11389614 0.028167784
000140 b6 71 7e bd 2a 50 12 3d 76 b3 92 3d 8d 3c 9a 3d
       -0.062120162 0.03572098 0.07163136 0.075310804
000150 56 b9 df 3d 1f c2 aa 3b 02 c2 8f 3d 99 59 d7 3d
       0.10924022 0.0052111293 0.07019426 0.10515136
000160 fc 52 af 3c 2f b4 e0 bd 3c 5d ba 3d 45 33 dd 3d
       0.021401875 -0.10971867 0.09099814 0.108007945
000170 d2 d6 b5 3d 3b 5e 7b bc 79 5c ec 3d 9f 9e 94 bc
       0.08878864 -0.0153422905 0.11541075 -0.018142043
000180 48 13 18 bd a7 ed c7 38 40 9c e5 3b 89 e5 70 bd
       -0.037127763 9.533326e-05 0.007007152 -0.05881265
000190 a5 a9 f0 bc 8a 21 9e 3d 6c 11 92 3c 00 6c ec bd
       -0.029377768 0.07721241 0.017830573 -0.11544037
0001a0 69 98 82 bc ac a1 8a bb b6 5c 45 3c 00 4c 4c bd
       -0.015941815 -0.0042306986 0.01204603 -0.049877167
0001b0 23 a2 1b bd fd e7 e2 3d 71 d3 07 3e 76 1a 95 3d
       -0.037996422 0.110794045 0.13264252 0.07280438
0001c0 01 1e 4d bc de 80 ce 3a 38 38 c9 bd 10 ae 92 bd
       -0.0125193605 0.0015754958 -0.09825176 -0.07162106
0001d0 a4 89 de 3d f0 bd d6 3d da ce 85 3d 44 50 ba 3d
       0.108660966 0.104854465 0.065335944 0.09097341
0001e0 64 69 af 3b b6 3a 98 bd 19 fb de 3d 62 0c 14 3d
       0.0053531397 -0.07433073 0.10887737 0.03614462
0001f0 28 af 89 3b 6b 28 dd 3d 8c b3 98 bc 94 8d 82 bc
       0.0042017885 0.10798725 -0.018640302 -0.01593665

layer.4.weight f4 [64, 128]
000000 7b a5 b1 3b 82 7a 9e bd 5a 69 fb 3c 1a 0f b5 bc
       0.005421338 -0.0773821 0.030689884 -0.022101928
000010 69 d8 8e bd 2c d1 25 bd 87 50 6a 3d d8 9b 10 3d
       -0.06974871 -0.040482685 0.057205703 0.035304874
000020 3d 25 34 3d 20 59 10 3c e6 ee bd bd f8 95 85 3d
       0.043980826 0.008810312 -0.09274082 0.06522745
000030 9e e4 18 bd c0 cf e0 bc 50 20 e6 3c 0b 73 19 bc
       -0.0373274 -0.027442813 0.02809158 -0.009365807
000040 92 1a 47 bb 34 70 9e 3c 7b 44 d3 3c d6 40 ab 3b
       -0.0030380827 0.019340612 0.02578949 0.005226235
000050 22 11 ff bb 66 39 0d bd 26 63 0b 3d 73 9c 97 bd
       -0.007784025 -0.034478568 0.034030102 -0.07402887
000060 b7 5b 39 bc eb 7c a6 bd 5d 3a 16 bd e4 ed 43 3c
       -0.01131337 -0.08129295 -0.036676753 0.011958573
000070 89 e8 98 3c 22 13 f5 3c 9c c2 97 bd c6 d5 d4 bc
       0.018665569 0.02991635 -0.07410166 -0.025980841
000080 0a 7c b0 bc 00 25 16 bd 6a ab c1 bc 00 5a 8a bd
       -0.021543521 -0.03665638 -0.023641307 -0.067554474
000090 46 2e 52 3d a5 db 40 3d 7a a1 50 3d 79 d8 92 3d
       0.05131366 0.04708447 0.050935246 0.07170195
0000a0 92 8c 29 3d cc 62 ea bb c2 c4 66 bd 3f 06 4a 3d
       0.041393824 -0.007152891 -0.056339987 0.049322363
0000b0 c2 9c 9e 3d 68 4e 0c 3d e9 ab 24 3c 63 09 b5 3d
       0.07744743 0.03425446 0.010050752 0.08839681
0000c0 77 e5 2f bd 86 e8 1e bd d2 e5 60 bd 7d da 72 bd
       -0.042943444 -0.03879597 -0.054906674 -0.059290398
0000d0 d2 7d b3 bc ff 5e 82 3d af 9b a2 bb 67 74 81 3d
       -0.021910582 0.06365775 -0.0049624066 0.0632103
0000e0 7c 1c 99 bd 17 30 7d bd 46 38 67 bd 03 5a fa 3a
       -0.07476136 -0.06181344 -0.05645015 0.0019100312
0000f0 84 dc 34 3c 12 b5 55 bd 12 91 b9 bd cf 0d 25 bd
       0.011038903 -0.052174635 -0.09060873 -0.040296372
000100 56 55 28 bd 1f 8b 80 3d b0 8c ee bc a2 2d 38 bd
       -0.041097008 0.06276535 -0.02911982 -0.044965394
000110 8d ef a3 bc 41 22 d3 3c 02 15 0b bc b8 03 25 3c
       -0.020011688 0.02577317 -0.008488895 0.010071687
000120 4d 0e 96 3d 54 d6 9c bc 77 c0 88 3d 75 ec bd bd
       0.073269464 -0.019145168 0.06677335 -0.09273616
000130 72 a0 50 bd ff 43 db bb b3 27 20 bd 06 4d f8 bb
       -0.050934263 -0.0066914554 -0.03910036 -0.0075775413
000140 d4 b0 b1 bd 00 56 17 bd 22 09 89 bd 55 37 97 bd
       -0.086763054 -0.03694725 -0.06691195 -0.073836006
000150 a0 76 ac 3c 51 97 8c bd b3 a9 a1 3c ac 51 92 3d
       0.021052659 -0.06864799 0.01973424 0.07144484
000160 c4 89 d3 bc 6c 69 82 3d 83 e8 3f 3d 2d 86 93 bd
       -0.025822528 0.06367764 0.0468526 -0.072033264
000170 ff 9d b3 3d 22 c5 d8 3c 10 a2 80 bd ab d3 85 bd
       0.0877037 0.026461188 -0.06280911 -0.06534513
000180 d7 cc 85 bd cf 3d 01 bd f4 5b 2e bd ea 8c 69 bd
       -0.06533211 -0.031553086 -0.042568162 -0.05701915
000190 4f 8b 05 3d 7e 31 a6 3c f2 6b 5a bd c2 5c 62 bd
       0.03260356 0.020287272 -0.0533256 -0.055264242
0001a0 1c 92 95 3d ae 8f 01 3d d9 b1 df bc 3e 98 90 bd
       0.07303259 0.031631164 -0.027306484 -0.07060288
0001b0 5b 5e ae bd 25 a6 7d 3d 81 55 88 bc e7 6b 1e bd
       -0.085140906 0.061926026 -0.016642334 -0.038677122
0001c0 f2 f3 fb 3c 52 83 03 3d a1 05 c5 bc 9e 33 be bd
       0.03075597 0.03210766 -0.024050536 -0.09287189
0001d0 66 16 be bd 1c 4e 72 bd bf 0e a0 3d e5 56 42 3c
       -0.09281616 -0.059156522 0.078153126 0.011861538
0001e0 3e 39 47 bc 7a 48 8a bc 6d 10 41 3d ba ed 9a bc
       -0.012159644 -0.016880263 0.047134805 -0.018912185
0001f0 5d 06 4d 3d b6 99 9e bc a8 37 76 bc c0 a6 75 3d
       0.050054897 -0.019360404 -0.015027918 0.05997348
000200 56 67 9b 3d cf 4e 48 bd cb 83 6f bd 83 1c 8e 3c
       0.07588069 -0.048903283 -0.058475297 0.01734758
000210 62 1e 46 3c 9a cd b2 bd 61 8c 72 bc 83 46 5a bd
       0.012092205 -0.08730622 -0.014803977 -0.0532899
000220 e3 50 48 3d bb da 9e bd a3 4d 30 bd c1 3f 1b 3d
       0.048905265 -0.07756563 -0.04304279 0.037902597
000230 fa 82 8a 3d 29 ab 40 3d b4 7b 0b 3d 7c 8c a2 bd
       0.06763263 0.04703823 0.03405352 -0.079369515
000240 8d 94 57 3d 00 7a 8d 3c 28 ef d1 3d 90 73 b0 bd
       0.052631903 0.017270088 0.102506936 -0.08615792
000250 5d 21 28 3d 56 44 c3 bc 6e 31 82 3d 3f 25 6b 3c
       0.041047443 -0.023836296 0.06357084 0.014352142
000260 cc 4d f1 3c 09 a5 de 3c fd 14 59 bc 76 3e 20 bd
       0.029456042 0.027178304 -0.013249633 -0.039122067
000270 a3 35 2f 3d 38 0c 86 3d 2c 6e f4 39 2d 42 52 bc
       0.04277576 0.06545299 0.0004662139 -0.01283316
000280 d3 7a b1 bd 96 c4 10 3d 95 92 c5 bd 7e 84 17 3d
       -0.08666005 0.03534373 -0.09647099 0.03699159
000290 92 88 b4 bd 9d 3c a3 3c 0b 78 d6 3c 74 b5 d5 3c
       -0.08815111 0.019926364 0.026180288 0.0260875
0002a0 b2 a7 74 3d 33 fd bd bd e4 43 6d 3d 7b af 23 bd
       0.05973024 -0.092768095 0.057926074 -0.039962273
0002b0 db 20 31 bc 51 d3 d1 bd 9a cb 8c 3d d3 92 bf bd
       -0.010811056 -0.102453835 0.068747714 -0.09354176
0002c0 2f c8 83 3d 36 d4 b7 3c ad 85 3d bd ce d2 a6 bd
       0.06434666 0.022440057 -0.04627006 -0.081456766
0002d0 0f 55 a5 3c c0 38 5c bd 55 53 54 3c 8b 6e 0c bd
       0.02018216 -0.05376506 0.012959321 -0.03428511
0002e0 90 d1 67 3d bf 79 90 3d 9d fa 0d bd fc 90 64 3d
       0.05659634 0.07054471 -0.03466283 0.05580233
0002f0 c6 75 2a bd 81 6e b1 bd b0 f3 a2 3d 06 d0 bc bd
       -0.041616224 -0.08663655 0.07956636 -0.09219365
000300 1c 90 7f bd b8 7d 38 bd b5 d8 1a bd 2a 9b 1f bd
       -0.062393293 -0.04504177 -0.037804324 -0.038966335
000310 8b 3f 66 3b ad e2 35 bb 4b 2c 88 3d b4 40 24 3c
       0.003513309 -0.0027753517 0.06649073 0.010025192
000320 7a bb 03 be f6 09 55 3c 1e 92 93 3d 2e 82 5c bd
       -0.12864485 0.013002863 0.07205604 -0.053835087
000330 59 b4 71 bc 6f 77 2e 3d 7f e8 07 bc aa 54 d1 bc
       -0.014752471 0.04259437 -0.0082951775 -0.025553066
000340 3b 28 44 3d 06 76 0b ba a3 17 7e 3d eb 41 aa bd
       0.04788993 -0.0005320016 0.06203426 -0.08313354
000350 cd 78 a8 bd a0 59 11 3d 3c de ea ba c1 2e 84 3d
       -0.08226166 0.035485864 -0.0017919014 0.0645423
000360 ac b1 ef bc e4 2a 91 3d 60 dd e6 bc bf 63 25 bd
       -0.029259525 0.07088259 -0.028181732 -0.04037833
000370 2f 5f 63 3c a8 fe 55 3d 08 51 0d bd c2 be ab bd
       0.013877674 0.052244812 -0.034501106 -0.083859935
000380 e8 35 95 3d 45 58 a0 3c 44 f2 91 3d 70 b2 99 3d
       0.072856724 0.01957334 0.071262866 0.075047374
000390 18 17 9d bb b4 dc 37 3c 58 08 12 3d 3b e5 8d 3d
       -0.0047940128 0.011222053 0.03565249 0.06928488
0003a0 07 66 bb 3c 46 32 31 3d 14 ab a9 bc 40 1a ab bd
       0.022875799 0.043260835 -0.02071146 -0.08354616
0003b0 95 0d 56 bd 19 cc 9d 3d 47 a1 74 3d 09 15 8a bd
       -0.052259047 0.07704944 0.05972412 -0.067422934
0003c0 43 60 44 bd d6 36 1f bd 79 d0 ab bd d4 28 81 bc
       -0.047943365 -0.038870655 -0.083893724 -0.015766539
0003d0 cd d6 90 3a 57 8a 96 3d a8 5f bf 3c e3 e5 53 3c
       0.0011050344 0.07350605 0.023361042 0.012933227
0003e0 1f 1a ee bc ab 54 70 bd 20 dc 2f 3d 8b 8c 50 3d
       -0.02906519 -0.058674496 0.042934537 0.050915282
0003f0 20 0e 77 bd 98 a4 83 3d 61 89 27 3a bc 95 89 3c
       -0.060316205 0.06427878 0.00063910155 0.016795032

layer.4.bias f4 [64]
000000 ed 09 57 bb 7f b5 34 3d 3b 62 6a bc 79 4d 04 bd
       -0.0032812313 0.0441184 -0.0143056465 -0.032300446
000010 24 01 93 bc 5f 1b c0 bc 28 f7 cb 3c fe f7 9b 3c
       -0.01794488 -0.023450552 0.024898127 0.01903915
000020 30 1b 95 bd 4b 4c 3a bd af d9 25 3c 81 fa 67 3d
       -0.07280576 -0.045482915 0.010122701 0.056635384
000030 ec 73 f6 3c b9 70 87 bd ee 23 63 bd 4d 86 34 3d
       0.030084573 -0.06613297 -0.055454187 0.04407339
000040 4e 6d 42 bd 39 a3 a2 bd 7c 63 42 3d 53 95 4c bd
       -0.047467522 -0.079412885 0.047458157 -0.049947094
000050 c7 70 8a bb dd 39 fa bc 87 69 03 3c 9f 15 e7 3c
       -0.00422487 -0.03054517 0.008020765 0.028208552
000060 ba 80 69 3d e0 94 1e bd a6 e2 bb bc de b0 72 bd
       0.05700753 -0.038716197 -0.022935223 -0.059250705
000070 48 30 33 bc 02 cc 9e bc 32 af 6a bd c9 dd b7 bd
       -0.010936804 -0.019384388 -0.057295986 -0.08977849
000080 3d 80 c8 bc 90 ea d1 bc 5d de 9e 3d a3 60 b0 3d
       -0.024475211 -0.025624543 0.07757256 0.08612182
000090 b5 ff 25 3c 07 1c 94 bd 2c fa 8e 3d 9d f2 95 3c
       0.010131766 -0.07231908 0.0698131 0.018304164
0000a0 8e 19 23 3d 86 7b 88 3d a6 d9 87 bd b6 24 7f bd
       0.039819293 0.06664185 -0.0663331 -0.06229087
0000b0 3e 0c 4d bd 93 e8 59 bc 9c a8 7f bd 81 94 64 bd
       -0.050060503 -0.013300079 -0.062416658 -0.055805687
0000c0 9f 3c d1 3c 0d 15 f8 3c 2a 0d 9a bd 26 9f 37 3d
       0.025541602 0.030283475 -0.07522042 0.04482951
0000d0 90 43 67 3c 38 fc 7f bd 4c b6 18 bd 92 85 ae bd
       0.014115229 -0.062496394 -0.037283227 -0.0852157
0000e0 5d 68 d9 bc 44 06 f9 bc c5 8c 68 bd 31 f4 1b 3c
       -0.026539022 -0.030398495 -0.056774873 0.009518669
0000f0 f4 98 25 3d 7b a2 ab bd f2 57 2b 3d 91 d8 66 3d
       0.04042907 -0.083806 0.041831918 0.056358878

layer.6.weight f4 [23, 64]
000000 89 aa 14 bc 68 0a 1d bc 6d c1 9b 3d c4 3b 26 bd
       -0.009073862 -0.009585001 0.076052524 -0.04058434
000010 ba 67 58 bc 9b 54 9c bd b3 d1 8e bd 61 bd 12 3c
       -0.013208324 -0.07633325 -0.06973591 0.008956284
000020 48 bb a6 bc 4f 8a 14 3c 7e 0c 20 3d f4 92 f9 3c
       -0.020352975 0.009066178 0.039074413 0.03046558
000030 53 6c 25 3d 3f 53 d0 bd e7 e5 e3 bd e2 08 6e 3b
       0.04038651 -0.10172128 -0.11127835 0.0036321213
000040 40 50 80 bd 3b 8d a4 3d 15 f0 b2 bc 94 fe 4c 3d
       -0.062653065 0.0803475 -0.021842996 0.050047472
000050 76 a6 26 bd fc dd cd bd 5e cf 8f 3d c8 41 c0 bd
       -0.040686093 -0.10052106 0.07021974 -0.09387547
000060 38 6e 4e 3d 07 74 a6 3a c8 5a 30 3c bf 11 12 be
       0.05039808 0.0012699374 0.010763831 -0.14264582
000070 6a e4 89 3b 71 ba 7d 3d 59 5b 2d bc ad af d1 3d
       0.0042081373 0.061945383 -0.010580861 0.102385856
000080 c5 d4 9e bd 0f 28 a4 3d d8 ab 94 3b c7 5a bb 3d
       -0.07755426 0.08015453 0.004537087 0.09148174
000090 f9 d1 7e bd 17 b7 c5 3d 9f 5e 4e bd 1d 92 4c 3b
       -0.062211964 0.09654062 -0.050383206 0.003121502
0000a0 2e 44 ea 3d 40 3b b5 3d 48 88 82 3d 8c c6 03 3e
       0.114387855 0.08849192 0.0637365 0.12868708
0000b0 81 15 0e 3d 46 a7 d6 bd 20 67 cb bc 39 47 82 bc
       0.034688476 -0.104811236 -0.024829447 -0.015903102
0000c0 60 60 90 3c 66 b0 e3 3b 2b 67 8e 3d 02 85 3f bd
       0.01762408 0.0069485186 0.069532715 -0.046757706
0000d0 1a e8 80 3d 94 2c 4c bd 90 c2 a3 3b 1a d7 a6 bd
       0.0629427 -0.0498472 0.004997559 -0.08146496
0000e0 04 f7 bf 3d f6 33 17 3d 56 03 6b bc 8f 6e 0f 3d
       0.09373286 0.03691479 -0.014344057 0.035017546
0000f0 86 21 23 bb 49 05 47 bd 7a 1c d5 3c eb 92 b1 3d
       -0.0024891808 -0.048589025 0.026014555 0.086706005
000100 9a 2b 85 3d 55 12 af 3b 48 7f 41 3d 78 9f 18 3d
       0.06502457 0.0053427615 0.047240525 0.037261456
000110 16 ba 60 3c 95 13 9e 3d 91 cc a1 3d 9a e9 7b 3d
       0.013716241 0.07718579 0.07900346 0.061502077
000120 ec 26 2a 3d e1 4a 6f 3d 28 62 6f bd 3a 03 12 3d
       0.041541025 0.05842102 -0.05844322 0.03564761
000130 a7 1d 82 3c 1d 85 90 3d 00 37 a9 bd 87 6f 31 bd
       0.01588328 0.07056639 -0.082624435 -0.04331925
000140 47 78 ca 3d 5c bc ce bc 78 1c c8 bd 06 79 2c 3a
       0.09886222 -0.025236301 -0.09771055 0.0006579313
000150 b8 30 98 bd a0 8d dd 3c 79 45 9d bc fb 81 a1 bd
       -0.07431167 0.027045071 -0.019198166 -0.0788612
000160 a0 b6 d8 3c b2 0c 11 bd 84 c0 15 ba c4 41 50 bd
       0.02645427 -0.035412498 -0.0005712586 -0.05084397
000170 e2 42 b5 bd ba 0f d5 3d b4 a3 2a 3d 33 e8 e8 3d
       -0.088506475 0.1040339 0.041660026 0.113724135
000180 4a 3b 9c bc 20 3d 81 bd 78 d3 df 3d 4c 4e ca bc
       -0.01907124 -0.06310487 0.10929006 -0.024695538
000190 f8 1d 50 3d 9a e4 6c 3d 02 ad 8f bd 14 e4 0f 3b
       0.05080983 0.0578352 -0.070154205 0.0021956014
0001a0 32 14 66 bd 8d 90 ac 3d fb ba a9 3c ac 34 9d 3c
       -0.056171604 0.084260084 0.020719042 0.019190155
0001b0 2c 89 de 3c 62 db 2f bd 3c d9 33 bd 10 68 90 bd
       0.027165018 -0.04293383 -0.043908343 -0.07051098
0001c0 c7 34 05 3d 8e 01 c9 3d 50 a6 56 3d 26 ad e5 bd
       0.032521036 0.0981475 0.0524047 -0.11214666
0001d0 f0 ea 99 bd a6 f1 bd bc 00 fe 9e bd dc 29 c1 bd
       -0.07515514 -0.023186516 -0.077632904 -0.09431812
0001e0 94 15 51 bb 0a e9 87 3d 44 9c 2d 3b f1 67 88 3d
       -0.003190373 0.066362455 0.0026490847 0.0666045
0001f0 74 b9 fc bd f6 99 29 bd 1b c4 20 3d 55 6b 82 bc
       -0.1234006 -0.041406594 0.03924952 -0.01592032
000200 45 a8 2b bd 01 69 a4 bd c6 8f 99 3c df 7e 5c 3c
       -0.04190852 -0.080278404 0.018745314 0.013457983
000210 35 f7 df 3d 9a 8a a2 bd f7 8a d0 3c 77 08 ee bd
       0.10935823 -0.079365924 0.025456889 -0.11622708
000220 f5 6f c5 3d 6a 93 a8 3d 8b 58 d9 bd 8c 06 de bb
       0.09640495 0.08231242 -0.10612591 -0.006775683
000230 c6 f7 83 bd 95 15 b2 3d 80 ae 8b 3d 64 08 10 3d
       -0.064437434 0.08695523 0.068203926 0.035164252
000240 e0 79 cf 3c 23 29 49 bd 23 13 d9 3c 60 95 06 3d
       0.02532667 -0.049111497 0.026498383 0.0328573
000250 63 e8 35 bd 9d 0c 6e bc f6 cf b2 bc d8 cd 8a 3d
       -0.044411074 -0.014529374 -0.02182768 0.06777543
000260 40 a1 18 bd 6a bc 97 3d 2f d6 90 ba 7a c8 60 bd
       -0.037263155 0.07408984 -0.001105016 -0.05487869
000270 48 5e 14 3d da 74 1c 3d 9b e8 a9 3d 6f b8 76 3c
       0.036222726 0.038197376 0.08296319 0.015058621
000280 2a 9e d1 3d 59 6a a7 3d b0 2a e5 bd ef 6d 85 3d
       0.102352455 0.08174581 -0.111897826 0.06515109
000290 c3 92 6c 3d 57 7c f4 3c db fa ca 3d 29 e0 84 bd
       0.05775715 0.029844446 0.09911128 -0.06488068
0002a0 23 9d f5 bc 2b 10 c6 bc b5 c2 88 3d d9 77 b6 bb
       -0.029982155 -0.024177631 0.066777624 -0.005568486
0002b0 94 89 95 3d 9b a9 ac 3d e8 ac ce 3d 0f 84 71 3d
       0.073016316 0.08430787 0.10091573 0.05896383
0002c0 16 b5 c8 bd 86 b7 e8 3c 4e fd d6 3d 59 25 8e bd
       -0.098001644 0.028407823 0.10497533 -0.06940717
0002d0 c0 bd f2 bc 83 d9 d5 bc c0 00 90 3d b4 10 2a 3d
       -0.029631495 -0.026104694 0.07031393 0.041519836
0002e0 01 b9 8f bd c0 98 c2 3d b1 66 eb 3d 94 70 8e 3d
       -0.070177086 0.09501791 0.11494196 0.06955066
0002f0 a6 9d 70 3c f4 73 b4 3d 5f 89 b8 bc c5 2d 9d bd
       0.014686024 0.08811179 -0.022526441 -0.076747455
000300 df cb 8d bc 97 2e 14 3c f7 38 23 bd ab 51 37 3d
       -0.017309127 0.009044311 -0.039849248 0.04475562
000310 b6 04 38 bd f1 17 82 bd 55 e8 8a bb 2f 4c d1 bc
       -0.044926368 -0.06352223 -0.004239122 -0.025549022
000320 a4 e9 85 bd f6 e4 5c bc 27 12 a6 bc 79 6f 97 bd
       -0.06538704 -0.013482323 -0.020272328 -0.073943086
000330 d1 c4 17 3d d2 cd 29 3d f0 dd 50 bd a7 2d 7e bd
       0.037052933 0.04145605 -0.050992906 -0.062055256
000340 6c 95 24 3c 2c 44 bf 3c 5f 8b 48 3d a2 cf 25 3d
       0.010045391 0.023347937 0.04896104 0.040481217
000350 86 86 c9 bc 96 8a df bb a7 c3 ca 3d 57 ae b7 bc
       -0.024600279 -0.0068219407 0.09900599 -0.022421999
000360 de d8 b5 bd 7e b6 02 3c 80 c8 f6 3a a8 e0 16 bd
       -0.08879255 0.00797808 0.0018828064 -0.036835343
000370 ca 79 8a bc 4e 7b 4d bd 09 d2 2c 3d 6f 14 9b bd
       -0.016903777 -0.05016642 0.042192493 -0.07572257
000380 55 d5 aa bc 75 eb 12 bd eb f2 b1 bd 26 44 0c 3c
       -0.020853678 -0.03586908 -0.08688911 0.00856117
000390 4d 96 da bc 24 09 a4 bc ef b7 a2 bd d0 fe 76 3d
       -0.026682997 -0.02002389 -0.07945239 0.060301602
0003a0 bb 2c da bc b6 76 ac bd bd d8 17 bd d8 08 5f bc
       -0.026632657 -0.0842108 -0.037071932 -0.013612948
0003b0 bd 4d 39 bd 03 31 45 bd 2e 28 e4 3d 37 fb 79 3b
       -0.045240153 -0.048142444 0.11140476 0.003814412
0003c0 5e cc 5c 3d 54 8b fa 3b 26 1d a2 bd f3 3e 82 3c
       0.053905837 0.0076460037 -0.07915716 0.015899157
0003d0 b4 5a cd bd b8 3e 18 bd 27 ca e8 3c 69 5d a0 3d
       -0.10027066 -0.03716919 0.028416706 0.078303166
0003e0 32 f7 d2 3d 32 6a 43 bd 77 3c ee bb f7 5d d0 3d
       0.10301055 -0.047708698 -0.0072703916 0.10174172
0003f0 1d fd a7 bd 3c ec b7 bd bb 67 e4 bd 05 f2 7c bc
       -0.082025744 -0.08980605 -0.111525975 -0.015438561

layer.6.bias f4 [23]
000000 72 4a ff bd 49 2d b5 3b 2f fe 4c 3c b8 0d b4 bc
       -0.12465371 0.00552908 0.012511774 -0.021979198
000010 2a 74 a0 bb 9c 38 10 3d 3e 7b f1 3d 94 dd 30 3d
       -0.0048966603 0.035210237 0.11791085 0.043180063
000020 f0 0a 82 3c 74 38 9d 3d a7 01 ca 3c c8 b6 30 3d
       0.015874356 0.07676783 0.024658991 0.043143064
000030 07 53 85 bb 30 e0 b9 bd b3 26 58 bd 41 b1 01 be
       -0.0040687355 -0.090759635 -0.05277128 -0.12665273
000040 32 52 bd 3c 70 53 af 3d b8 70 95 3d fb b4 92 3d
       0.023110483 0.08560836 0.0729689 0.071634255
000050 d3 a7 5b bc a4 70 31 bd ec 9e 96 3d
       -0.013406712 -0.043320313 0.07354531
