weight/save_2_42.65827801718751.pth (torch_old, 87748 bytes, 8 tensors)

layer.0.weight f4 [64, 54]
0.11764249 0.054743674 -0.0011660015 -0.073505886 -0.043557804 0.08144923 0.0071943677 -0.033048794
0.123632245 -0.1156073 0.062884115 0.07769452 -0.08119433 0.09032301 -0.032044746 -0.058130678
0.09512505 -0.009778529 -0.06881623 0.04235906 0.13111337 0.04971045 -0.12990133 -0.005135031
-0.09365906 -0.043577738 0.06507635 0.039331228 -0.034014188 0.09535049 0.09085898 -0.095134586
-0.031346507 0.029963747 0.07202026 0.01564981 0.12441528 -0.013838343 -0.004859492 -0.10666347
-0.1020882 0.12963104 0.006789252 -0.104842715 -0.09016102 -0.12060587 0.03360875 0.12620601
-0.06490436 -0.038676485 -0.03764145 -0.007701665 0.08336991 -0.10462302 -0.013140351 -0.03259967
-0.043801546 0.04338306 -0.017656349 -0.032144878 -0.068740495 -0.10800442 -0.06812373 -0.096639365
-0.12813616 0.11457209 -0.04385769 0.026819455 0.13111106 -0.09064376 -0.12205736 0.12459487
-0.04154148 -0.07060961 -0.01872928 -0.13186055 0.051708642 0.05408943 0.09662957 -0.12559812
-0.07619813 -0.0657289 -0.10402067 0.021567032 0.07012059 0.0041562463 0.043141518 -0.06358267
-0.010125379 -0.03550589 -0.006609828 -0.06640304 -0.07126805 -0.05810006 0.10236732 0.09472129
-0.114337884 0.1248036 -0.12871745 0.020543769 0.12837192 -0.07364219 -0.038219202 0.07840647
0.03479677 -0.07966167 -0.020353012 -0.0755629 -0.09970773 -0.04547786 -0.026375286 -0.12331252
0.10796417 -0.03118626 -0.08105607 0.10779446 -0.03994324 0.027598083 0.03819585 0.058218792
0.07483129 -0.00064085424 0.0008139461 -0.10169175 -0.016740486 0.11512992 0.03600298 -0.09821049
0.10994089 -0.12126321 -0.056116775 0.053242967 0.006707266 0.08710763 -0.116761684 -0.1294018
-0.02778139 0.03056626 0.08874914 0.06840959 0.10708721 0.063947216 0.069718614 -0.063203365
-0.004180819 -0.021459274 -0.08175577 -0.12359912 -0.046502315 0.050604984 0.06652172 -0.029345334
-0.049037993 -0.12037371 0.057596058 -0.05545657 -0.07527812 0.03274691 -0.04729911 -0.13544577
0.1293703 0.03522092 0.0679415 -0.0008718441 0.048542816 0.09657292 -0.04018853 -0.015915086
-0.05437223 0.019249234 -0.080077894 0.12975942 0.122785695 0.102404095 0.11644253 0.036287412
0.1005771 -0.10565524 -0.061385445 0.029999733 0.113417596 -0.10538433 0.13000122 -0.056335896
0.018227065 -0.13521236 0.0010428857 -0.1268571 -0.05625646 0.057807304 -0.036103446 -0.014739141
-0.116750345 0.122034214 0.041130316 -0.09059493 -0.1334195 0.06754815 0.08006336 0.07700226
-0.032557666 0.10570985 -0.13674866 0.06493986 0.01255317 0.06603243 -0.10336997 -0.13382307
-0.049206868 0.08580379 0.058977354 -0.012649201 0.070104524 0.082590744 0.04505738 0.009478286
-0.12246771 0.06372714 -0.13200296 0.076481104 -0.11234114 0.016224883 -0.051853243 -0.062245913
-0.052779086 0.09906064 0.117952086 0.08765537 -0.123720475 -0.045176823 0.005051896 0.07220648
-0.12362512 0.10187 -0.051061608 -0.107320406 -0.10289652 -0.024405472 0.026951103 -0.024676474
-0.11983677 -0.010687292 0.025218949 -0.07900421 -0.12764552 0.11293487 -0.119120166 0.06666155
0.034737065 -0.12763922 -0.015522145 -0.032864593 0.083799265 0.0115581155 -0.11329687 -0.024845831
00000000: 8cee f03d e73a 603d 85d4 98ba 418a 96bd
00000010: ab69 32bd dbce a63d bbbe eb3b 2c5e 07bd
00000020: e732 fd3d 85c3 ecbd 63c9 803d 4e1e 9f3d
00000030: 3649 a6bd 45fb b83d 5a41 03bd 6f1a 6ebd
00000040: ecd0 c23d 2036 20bc 86ef 8cbd b280 2d3d
00000050: 9542 063e 2f9d 4b3d db04 05be c343 a8bb
00000060: 52d0 bfbd 927e 32bd c046 853d c819 213d
00000070: 7652 0bbd 1e47 c33d 4614 ba3d ecd5 c2bd
00000080: 3265 00bd 8876 f53c 5c7f 933d 0834 803c
00000090: 70cd fe3d 38ba 62bc 603c 9fbb 6172 dabd
000000a0: 9e13 d1bd 00be 043e 6078 de3b c7b7 d6bd
000000b0: 57a6 b8bd 3600 f7bd 54a9 093d 263c 013e
000000c0: 94ec 84bd 3c6b 1ebd ec2d 1abd 405e fcbb
000000d0: d8bd aa3d 9844 d6bd a04a 57bc 3b87 05bd
000000e0: 4069 33bd 6fb2 313d 0ca4 90bc 59aa 03bd
000000f0: d1c7 8cbd 6c31 ddbd 7484 8bbd dcea c5bd
00000100: 2036 03be c6a4 ea3d 1fa4 33bd 79b4 db3c
00000110: fa41 063e 70a3 b9bd 36f9 f9bd 982b ff3d
00000120: 6627 2abd c59b 90bd 266e 99bc 7406 07be
00000130: 71cc 533d e18c 5d3d b9e5 c53d cb9c 00be
00000140: c40d 9cbd e09c 86bd ca08 d5bd 58ad b03c
00000150: 629b 8f3d 1f31 883b 29b5 303d a237 82bd
00000160: ebe4 25bc a06e 11bd 4297 d8bb 51fe 87bd
00000170: fcf4 91bd 54fa 6dbd f5a5 d13d 3cfd c13d
00000180: fb29 eabd 0899 ff3d 82ce 03be 684b a83c
00000190: ee73 033e b7d1 96bd bd8b 1cbd 9293 a03d
000001a0: 0f87 0e3d a825 a3bd 5cbb a6bc b9c0 9abd
000001b0: 9133 ccbd fe46 3abd fc10 d8bc 468b fcbd
000001c0: 521c dd3d 547a ffbc ba00 a6bd 58c3 dc3d
000001d0: 869b 23bd 6015 e23c 4073 1c3d d476 6e3d
000001e0: 2641 993d 00ff 27ba 005f 553a c443 d0bd
000001f0: 5823 89bc 3cc9 eb3d dc77 133d 9522 c9bd
00000200: b028 e13d d958 f8bd b4da 65bd 4c15 5a3d
00000210: a0c8 db3b 7c65 b23d c020 efbd e881 04be
00000220: cc95 e3bc 1866 fa3c 1cc2 b53d 541a 8c3d
00000230: 8a50 db3d c2f6 823d a2c8 8e3d c470 81bd
00000240: 40ff 88bb 5ccb afbc 926f a7bd 8921 fdbd
00000250: 3679 3ebd 2c47 4f3d 8a3c 883d a065 f0bc
00000260: 10dc 48bd 7e86 f6bd d8e9 6b3d 6e26 63bd
00000270: 6a2b 9abd a021 063d b6bc 41bd 4cb2 0abe
00000280: a679 043e d043 103d ea24 8b3d 788c 64ba
00000290: d5d4 463d 06c8 c53d ba9c 24bd 5b60 82bc
000002a0: 6ab5 5ebd 92b0 9d3c e1ff a3bd a7df 043e
000002b0: 1177 fb3d 3db9 d13d 6c79 ee3d 1ca2 143d
000002c0: 5efb cd3d c661 d8bd 4e6f 7bbd 00c2 f53c
000002d0: 7c47 e83d bdd3 d7bd 0a1f 053e 78c0 66bd
000002e0: ed50 953c 1c75 0abe 70b1 883a d4e6 01be
000002f0: 2c6d 66bd 5ac7 6c3d 35e1 13bd 707c 71bc
00000300: ce1a efbd 13ed f93d 4378 283d d689 b9bd
00000310: 1f9f 08be af56 8a3d 42f8 a33d 5cb3 9d3d
00000320: 305b 05bd 687e d83d d707 0cbe 30ff 843d
00000330: d0ab 4d3c 033c 873d a3b3 d3bd ea08 09be
00000340: 248d 49bd e6b9 af3d 3d92 713d 983e 4fbc
00000350: f692 8f3d 5625 a93d 168e 383d d04a 1b3c
00000360: 5ad0 fabd 6083 823d c92b 07be 20a2 9c3d
00000370: 1d13 e6bd 0cea 843c 1164 54bd 92f5 7ebd
00000380: e22e 58bd 4ee0 ca3d dd90 f13d a984 b33d
00000390: 2961 fdbd 550b 39bd 608a a53b fee0 933d
000003a0: 2b2f fdbd 38a1 d03d fa25 51bd cdca dbbd
000003b0: 69bb d2bd fced c7bc 8fc8 dc3c 5126 cabc
000003c0: fb6c f5bd c019 2fbc f897 ce3c f6cc a1bd
000003d0: 82b5 02be 664a e73d 46f5 f3bd da85 883d
000003e0: 7448 0e3d dbb3 02be 9850 7ebc 069d 06bd
000003f0: f39e ab3d 405e 3d3c 3008 e8bd 7c89 cbbc

layer.0.bias f4 [64]
0.079672515 0.09432318 -0.06293765 0.017421447 0.06580867 -0.11251737 0.12922299 0.13104987
0.12708977 0.042413138 0.13799417 0.12352953 -0.1154814 0.0991778 -0.08983263 0.02951125
0.020278925 0.097175054 -0.04628114 -0.01043589 -0.0971333 0.028861608 -0.13123211 0.13422956
-0.10633232 -0.04476532 -0.06810595 0.020078238 -0.04239837 -0.13440526 0.028595848 0.031884488
0.0016810235 0.11946556 -0.12600654 -0.09367682 -0.040246632 0.09264406 -0.1341256 0.067805745
0.07216838 -0.09927927 -0.037730366 -0.013482693 0.06663803 -0.06481511 -0.062285684 0.023048723
-0.033097953 0.07588414 0.004102836 0.046200704 -0.13648897 -0.06558327 -0.011902362 0.05625319
-0.11684568 -0.09086601 -0.08087582 0.10630741 0.041585684 0.05145132 0.040615518 -0.017026043
00000000: 582b a33d 832c c13d 74e5 80bd 6cb7 8e3c
00000010: b2c6 863d 826f e6bd 0853 043e f031 063e
00000020: d223 023e 66b9 2d3d 584e 0d3e 0dfd fc3d
00000030: 8381 ecbd bb1d cb3d 2bfa b7bd 94c1 f13c
00000040: fd1f a63c b703 c73d 4b91 3dbd 4cfb 2abc
00000050: d3ed c6bd 2e6f ec3c b661 06be 7973 093e
00000060: c2c4 d9bd d75b 37bd 227b 8bbd 1e7b a43c
00000070: eaa9 2dbd 88a1 09be d741 ea3c 4f99 023d
00000080: ca55 dc3a 5caa f43d dc07 01be a2d9 bfbd
00000090: a7d9 24bd 2bbc bd3d 3958 09be bddd 8a3d
000000a0: 04cd 933d ee52 cbbd 288b 1abd 83e6 5cbc
000000b0: 8579 883d c9bd 84bd 461f 7fbd add0 bc3c
000000c0: b891 07bd 2569 9b3d 1571 863b f33c 3d3d
000000d0: c4c3 0bbe 8550 86bd 2002 43bc bf69 663d
000000e0: ca4c efbd f517 babd 39a2 a5bd b3b7 d93d
000000f0: c055 2a3d 9fbe 523d 755c 263d 337a 8bbc

layer.2.weight f4 [128, 64]
0.024020255 -0.07979207 -0.041289523 -0.033481836 -0.12441088 0.037768662 0.10178721 0.00928041
0.115939505 -0.011173695 0.023728078 0.06345616 0.060476094 -0.042617884 0.0010002255 0.044460207
-0.063469574 -0.05975309 0.09315851 -0.062042322 0.013259439 0.020549018 -0.048800126 -0.021592531
-0.061389346 0.11395171 0.0028976002 -0.014648542 -0.0018692315 -0.0785598 0.075017385 0.020177484
-0.11053121 -0.044023603 -0.043086592 0.0436757 0.067504115 0.019236065 -0.014352354 -0.025155544
0.104497656 -0.075235486 0.09343988 0.089788154 -0.064085245 0.038703978 -0.046653826 0.03965977
-0.124145046 0.010649847 -0.11795572 0.11694995 0.07106571 -0.00036491454 0.09652761 -0.04927732
0.008494601 -0.06856318 0.009327069 -0.05478262 -0.045321014 -0.11877912 -0.11843254 -0.056491315
0.08349812 -0.0077196546 -0.07426965 -0.068316706 0.03722029 -0.06598911 0.035807256 0.06499033
-0.118495315 0.11362685 -0.066779785 -0.1025234 -0.028462932 -0.023670735 -0.07471481 -0.051559698
0.11968027 0.09417992 0.070860356 -0.10481598 0.040018223 0.10535428 -0.09553404 0.03097315
0.037816923 0.03396931 0.026368558 -0.051975396 -0.031485617 -0.06913814 0.09533229 -0.028292784
0.09425459 -0.046555243 0.014148479 -0.014982628 -0.09941192 -0.10457473 -0.017751262 0.00924772
0.010652879 0.07776849 0.09669155 -0.0648675 -0.10026168 -0.052299283 -0.005752965 0.07281303
0.059919182 -0.040799566 -0.015772406 0.12966962 -0.12306869 -0.08934464 -0.0993072 -0.13039151
-0.066571005 0.056490853 0.035785455 -0.11602434 -0.10214313 -0.014501318 0.09181563 0.07752586
-0.106500566 0.0070830435 -0.03978835 -0.02222281 -0.097160965 0.05690892 0.030622065 0.014102324
0.0890605 0.00056512654 0.07847008 -0.0069050193 0.02444022 -0.015529273 0.056260183 -0.0337374
0.033903353 0.0749444 -0.04383777 -0.052092373 -0.0713197 -0.0033690042 0.11024935 0.017412666
-0.06334734 -0.09572117 -0.018243572 -0.02924303 0.10040118 -0.101062454 -0.057311334 -0.10049995
0.08899403 -0.053158328 -0.03656294 0.0789177 -0.042712793 -0.029016495 -0.008747151 -0.06258296
0.12018481 -0.02858747 -0.046998605 -0.121180594 0.015959421 -0.07998728 -0.076188564 0.10631179
-0.08857292 0.06622097 0.11344292 0.023177579 0.035426155 0.085990615 0.10345914 0.11900951
0.120367326 0.053281445 0.05540216 -0.050670847 -0.09552053 -0.11139277 -0.10467193 -0.06910394
0.065509364 0.09358669 -0.12054707 -0.06291149 -0.0044884877 -0.068121195 0.03375886 -0.05756885
3.057637e-05 -0.117457345 -0.006381509 -0.0017547775 -0.10699013 0.023198567 0.0733185 -0.11040608
0.0027674437 -0.07018308 0.100122705 -0.130166 -0.1261716 -0.006039113 0.10620676 0.03142906
-0.12291 0.10995086 -0.11995615 0.0842332 -0.07482351 -0.047466014 -0.06814225 0.03718631
0.038179357 0.05025617 0.110485725 0.007890734 0.09565609 0.053467646 -0.0002050041 0.009622477
-0.107404485 -0.08720365 -0.09996438 0.06281122 0.062092576 0.04668684 -0.12013434 -0.08821383
0.093840815 0.10819813 -0.030200081 0.099391125 -0.015480235 0.079614684 0.011804342 -0.02477654
-0.08966874 -0.009709992 -0.089020476 -0.056656722 -0.12307099 0.030079035 0.052582167 0.10116925
00000000: 20c6 c43c 066a a3bd 341f 29bd 4024 09bd
00000010: 22cb febd 50b3 1a3d d075 d03d dc0c 183c
00000020: b171 ed3d e011 37bc 6361 c23c 4ef5 813d
00000030: c8b5 773d 1790 2ebd 001a 833a e81b 363d
00000040: 56fc 81bd a8bf 74bd e4c9 be3d 1720 7ebd
00000050: 1e3e 593c 6a56 a83c a4e2 47bd d2e2 b0bc
00000060: 6573 7bbd 845f e93d aae5 3d3b 7000 70bc
00000070: 0001 f5ba f6e3 a0bd b7a2 993d 404b a53c
00000080: 305e e2bd 1852 34bd 917b 30bd 4ae5 323d
00000090: 993f 8a3d f494 9d3c 2326 6bbc 0013 cebc
000000a0: de02 d63d 1015 9abd 685d bf3d dae2 b73d
000000b0: 203f 83bd 1088 1e3d 1518 3fbd 4872 223d
000000c0: c23f febd b27c 2e3c c592 f1bd 7583 ef3d
000000d0: e68a 913d 0052 bfb9 45b0 c53d 04d7 49bd
000000e0: f02c 0b3c da6a 8cbd 90d0 183c be63 60bd
000000f0: 87a2 39bd 7842 f3bd c28c f2bd 7063 67bd
00000100: 1001 ab3d 28f5 fcbb b01a 98bd a1e9 8bbd
00000110: 4e74 183d 4c25 87bd a1aa 123d a619 853d
00000120: acad f2bd 32b5 e83d d7c3 88bd caf7 d1bd
00000130: 182b e9bc 21e9 c1bc 1404 99bd 4330 53bd
00000140: ee1a f53d 67e1 c03d 3c1f 913d c3a9 d6bd
00000150: 26ea 233d fcc3 d73d 5aa7 c3bd 67bb fd3c
00000160: ebe5 1a3d 6723 0b3d e002 d83c 27e4 54bd
00000170: 10f7 00bd 4c98 8dbd 933d c33d 45c6 e7bc
00000180: 8d08 c13d b6b0 3ebd 06cf 673c b279 75bc
00000190: 7a98 cbbd 472b d6bd 186b 91bc c083 173c
000001a0: 6a89 2e3c 1645 9f3d 3806 c63d 40d9 84bd
000001b0: ff55 cdbd c637 56bd 5e83 bcbb ff1e 953d
000001c0: d16d 753d 721d 27bd 2235 81bc 1dc8 043e
000001d0: 700b fcbd 53fa b6bd 9361 cbbd 5a85 05be
000001e0: 6156 88bd f462 673d c593 123d 2b9e edbd
000001f0: 6b30 d1bd f096 6dbc d509 bc3d e1c5 9e3d
00000200: f81c dabd e018 e83b 1cf9 22bd 9c0c b6bc
00000210: 54fc c6bd 5419 693d 20db fa3c 6f0d 673c
00000220: 5a65 b63d 0025 143a ecb4 a03d 8043 e2bb
00000230: db36 c83c 7e6e 7ebc 1471 663d 3a30 0abd
00000240: 3ede 0a3d 737c 993d 3c8f 33bd d05e 55bd
00000250: 1010 92bd 83ca 5cbb 69ca e13d 02a5 8e3c
00000260: 40bc 81bd 7609 c4bd 8b73 95bc 148f efbc
00000270: 229f cd3d d5f9 cebd 4abf 6abd ebd2 cdbd
00000280: 8142 b63d 8cbc 59bd 05c3 15bd 9a9f a13d
00000290: 9cf3 2ebd 00b4 edbc 3650 0fbc 7f2b 80bd
000002a0: 7423 f63d 4530 eabc 9c81 40bd 882d f8bd
000002b0: 55bd 823c 5fd0 a3bd c008 9cbd ffb9 d93d
000002c0: b865 b5bd dc9e 873d c354 e83d e8de bd3c
000002d0: 041b 113d d91b b03d 63e2 d33d 42bb f33d
000002e0: 2583 f63d a53d 5a3d 60ed 623d 3c8c 4fbd
000002f0: 45a0 c3bd e521 e4bd 3d5e d6bd 5e86 8dbd
00000300: c629 863d 61aa bf3d 62e1 f6bd bdd7 80bd
00000310: 2a14 93bb 2083 8bbd bb46 0a3d 51cd 6bbd
00000320: 213f 0038 7a8d f0bd fa1b d1bb 9000 e6ba
00000330: a41d dbbd ec0a be3c 0228 963d 951c e2bd
00000340: 005e 353b 26bc 8fbd 220d cd3d 3c4a 05be
00000350: 2133 01be c0e3 c5bb ee82 d93d c2bb 003d
00000360: 3db8 fbbd eb2d e13d 92ab f5bd 7582 ac3d
00000370: 123d 99bd b96b 42bd 2a8e 8bbd ac50 183d
00000380: f561 1c3d 6ad9 4d3d 5746 e23d 2348 013c
00000390: 57e7 c33d e400 5b3d 5ef6 56b9 98a7 1d3c
000003a0: e2f6 dbbd d497 b2bd 20ba ccbd 2ba3 803d
000003b0: c954 7e3d b33a 3f3d fe08 f6bd 74a9 b4bd
000003c0: 9d2f c03d fb96 dd3d 2966 f7bc 938d cb3d
000003d0: d0a0 7dbc 060d a33d 0067 413c 2cf8 cabc
000003e0: 3fa4 b7bd a916 1fbc 5e50 b6bd e110 68bd
000003f0: a50c fcbd 4f68 f63c 6660 573d d331 cf3d

layer.2.bias f4 [128]
0.0946579 -0.08596349 0.0042241914 -0.051016398 0.058920156 0.08407406 0.009102805 0.08954696
0.0271972 -0.048672967 -0.03567559 -0.061223526 -0.056449387 0.12033551 -0.06317776 0.101134084
0.0838984 -0.04598288 -0.031645264 -0.0009595355 -0.021088235 0.0121607585 0.069324955 -0.06040188
0.122717604 0.084693655 -0.101209305 0.016674522 0.028183773 -0.02600867 -0.056747343 -0.10063823
-0.03141602 -0.004774802 -0.1272016 -0.099729754 -0.03854298 -0.028209 -0.07953865 0.07538624
-0.01499765 -0.045750782 0.054177582 0.058730867 0.018456852 -0.048723407 0.094086684 -0.08201262
-0.042890992 -0.0244729 -0.10155961 -0.06552726 -0.07299783 0.02709001 -0.058236767 0.07633131
-0.10150513 0.048265994 -0.06593512 -0.030529626 -0.086882934 0.08782108 -0.12035127 -0.05163597
0.045603592 -0.11571106 0.10487885 0.053548362 -0.065566465 -0.07711759 -0.104233526 0.06300503
0.02888266 -0.058901493 0.031785645 -0.062175147 -0.07741549 0.07614627 0.10935511 0.057090312
0.11754434 -0.007276494 -0.04078696 -0.06416579 -0.02953122 0.03155665 -0.11743253 -0.05215326
0.11349013 0.04977465 0.055369753 -0.10833252 -0.053595036 -0.12256671 -0.042626444 -0.057777345
0.09090791 0.008097948 -0.10011427 0.034342207 0.039264955 0.04004131 0.018851873 -0.027499758
-0.10024391 -0.104121126 0.08735795 -0.11351829 -0.050829742 -0.035693 -0.074540704 -0.009187498
-0.09320143 0.102383524 0.039151154 0.025772553 -0.08998802 0.10144419 0.062454384 -0.08549258
0.10303421 0.09444307 -0.029018596 0.04844011 -0.10494471 0.1151863 0.036022976 -0.080326185
00000000: 00dc c13d a00d b0bd 166b 8a3b 92f6 50bd
00000010: 4356 713d 052f ac3d ee23 153c 6664 b73d
00000020: aacc de3c 4e5d 47bd 9120 12bd 85c5 7abd
00000030: 7937 67bd 7772 f63d 5763 81bd 631f cf3d
00000040: edd2 ab3d 8b58 3cbd 779e 01bd 5689 7bba
00000050: 3cc1 acbc eb3d 473c 3efa 8d3d f667 77bd
00000060: 5e53 fb3d de73 ad3d d346 cfbd 0299 883c
00000070: a8e1 e63c 2210 d5bc e76f 68bd 6b1b cebd
00000080: 16ae 00bd f175 9cbb 2341 02be 1d3f ccbd
00000090: 3edf 1dbd 9016 e7bc 29e5 a2bd 1a64 9a3d
000000a0: b4b8 75bc 2c65 3bbd 50e9 5d3d c78f 703d
000000b0: d332 973c 3292 47bd 85b0 c03d 3cf6 a7bd
000000c0: 77ae 2fbd 647b c8bc 7cfe cfbd 2833 86bd
000000d0: e37f 95bd deeb dd3c ad89 6ebd 9753 9c3d
000000e0: ece1 cfbd 90b2 453d fe08 87bd 4419 fabc
000000f0: aeef b1bd 8adb b33d ba7a f6bd 3d80 53bd
00000100: d5ca 3a3d ecf9 ecbd b9ca d63d 8755 5b3d
00000110: b647 86bd d4ef 9dbd 6378 d5bd c808 813d
00000120: 549b ec3c b142 71bd aa31 023d 5eab 7ebd
00000130: 038c 9ebd 93f2 9b3d 92f5 df3d 88d7 693d
00000140: 16bb f03d a86f eebb 3a10 27bd 5b69 83bd
00000150: 75eb f1bc 8c41 013d 7780 f0bd a89e 55bd
00000160: 836d e83d 81e0 4b3d 65cb 623d 71dd ddbd
00000170: 7886 5bbd 4104 fbbd 1199 2ebd f0a7 6cbd
00000180: ed2d ba3d 41ad 043c b608 cdbd 6aaa 0c3d
00000190: 4ad4 203d 5b02 243d 3e6f 9a3c 2c47 e1bc
000001a0: ae4c cdbd 753d d5bd bae8 b23d 477c e8bd
000001b0: d932 50bd d332 12bd cca8 98bd 2987 16bc
000001c0: 64e0 bebd 74ae d13d f65c 203d f620 d33c
000001d0: a44b b8bd f9c1 cf3d 2bd0 7f3d bc16 afbd
000001e0: 9a03 d33d 5e6b c13d 68b8 edbc 2369 463d
000001f0: 41ed d6bd cbe6 eb3d d48c 133d 0e82 a4bd

layer.4.weight f4 [64, 128]
-0.017433902 -0.0017163181 -0.011394644 -0.043760877 -0.04755811 0.031769175 -0.028584305 0.030507803
-0.07908146 -0.03956344 0.05276782 0.07725121 -0.012389419 -0.054523878 -0.06643475 0.03150035
-0.05998881 0.028061382 -0.02019772 0.04849889 0.061559185 -0.049004573 -0.052777935 0.049426634
0.07841366 -0.0453879 0.045894176 0.07277452 -0.09656503 0.055674724 -0.0061926935 0.07438326
0.06264881 0.024835138 -0.07468476 0.06834524 0.021205585 -0.07688586 -0.06388865 0.012783108
-0.0039720777 -0.00903215 0.06564918 0.06873089 0.007881997 -0.0071486183 -0.006434965 0.043914117
0.050525285 -0.05829485 -0.04651248 -0.060654603 0.059676506 0.03602483 0.06676959 0.06694354
-0.047047175 -0.033403777 -0.0881651 0.041209172 -0.009145903 0.0076784254 -0.05607485 0.06163085
-0.0021781211 -0.04971727 0.07583055 -0.045700394 0.045550145 0.07497034 -0.01178276 0.0007824435
-0.012246819 -0.07317591 -0.050664883 -0.011876831 -0.06489481 0.023054488 -0.023811398 -0.074533686
0.01369671 0.0669897 -0.021790529 -0.029904796 -0.08370729 0.06488221 -0.06481739 0.008764422
0.07748244 -0.020260636 -0.022385653 0.038403362 -0.08730607 -0.073241375 -0.06096565 0.08166869
0.077018775 -0.033851083 -0.00213863 -0.06506092 0.02249794 -0.033977382 -0.081924744 0.045845807
0.034032054 0.0118433405 -0.028586831 0.007628838 0.051181763 0.039569616 -0.08967889 -0.014407237
-0.026304848 -0.015858907 -0.053974077 -0.01502134 0.04518538 -0.07819081 -0.03628605 -0.079826616
-0.031863462 0.025690068 0.08115124 -0.06625783 0.028932465 0.08352743 -0.031868637 -0.022357784
-0.045578256 -0.004807848 0.005810395 0.08377081 -0.08072721 -0.02368109 -0.0045152158 -0.069450326
-0.00121288 -0.044710074 -0.04315163 0.052301276 0.0038474724 0.021590266 0.016541433 -0.04555169
0.034212597 0.05161983 0.05899898 -0.039119672 0.07101302 0.08179306 -0.05935977 0.058262274
-0.010340682 0.029697912 0.054106377 -0.0011745319 -0.010075262 0.021561697 0.037678517 0.020271825
0.083885625 0.013194483 0.008975471 -0.05033736 -0.049024217 -0.061287254 -0.0829294 -0.07067976
-0.079516605 0.05841081 0.038371716 -0.01986908 -0.045585576 -0.032346535 -0.03433919 -0.0003239736
0.036143653 0.012735497 0.0121888295 0.066365376 0.024772145 0.030500736 0.07455495 0.03617494
0.0066669956 -0.040508345 0.07133127 -0.04050576 -0.08145176 -0.029263658 -0.04349468 0.07924043
-0.08524062 -0.058773708 -0.065709196 -0.047697898 0.031307332 0.0480095 0.039938044 0.010213346
-0.055392392 -0.02842588 0.083882205 0.027572673 0.006589499 0.06499825 -0.044087607 -0.052839715
0.025035463 0.076204814 -0.06731958 -0.028417664 0.019110609 0.08168063 0.0025880167 -0.023351055
-0.026890604 0.027490785 -0.06633334 0.059144687 0.01280604 0.01744476 -0.077699505 -0.07922614
0.016109489 0.03972433 0.038548883 0.01802492 -0.07201469 -0.06543784 -0.059660763 0.0032975078
-0.055620838 -0.076110296 -0.060370117 -0.010363694 0.035556454 0.0087056905 -0.028066661 -0.03743387
-0.069592655 0.04127515 0.06436779 0.04857644 0.07346719 -0.037440028 -0.05145332 -0.058834333
0.06799108 -0.018819898 0.07139286 0.027953222 0.042072304 -0.046652663 0.058809757 0.07300096
00000000: 8bd1 8ebc 14f6 e0ba 9ab0 3abc 9b3e 33bd
00000010: 4bcc 42bd 6520 023d a229 eabc 80eb f93c
00000020: 76f5 a1bd 460d 22bd 1223 583d e235 9e3d
00000030: fdfc 4abc 6e54 5fbd f10e 88bd 8306 013d
00000040: d4b6 75bd fce0 e53c b075 a5bc c6a6 463d
00000050: 7c25 7c3d 05b9 48bd ad2d 58bd 9573 4a3d
00000060: 5797 a03d aae8 39bd 88fb 3b3d cf0a 953d
00000070: e3c3 c5bd 2e0b 643d 14ec cabb 4056 983d
00000080: 054e 803d 0f73 cb3c 53f4 98bd 97f8 8b3d
00000090: 56b7 ad3c 5576 9dbd 0dd8 82bd 3e70 513c
000000a0: 3428 82bb 95fb 13bc 1473 863d c8c2 8c3d
000000b0: 7e23 013c f53e eabb 66dc d2bb 4adf 333d
000000c0: 9af3 4e3d 95c6 6ebd df83 3ebd f670 78bd
000000d0: 5a6f 743d c68e 133d 7fbe 883d b219 893d
000000e0: 8ab4 40bd 66d2 08bd e78f b4bd f3ca 283d
000000f0: b3d8 15bc 4d9b fb3b beae 65bd a170 7c3d
00000100: cfbe 0ebb 56a4 4bbd 0c4d 9b3d 5630 3bbd
00000110: ca92 3a3d 0d8a 993d 7a0c 41bc e51c 4d3a
00000120: e2a6 48bc 40dd 95bd fb85 4fbd 0a97 42bc
00000130: 92e7 84bd c4dc bc3c 1f10 c3bc 1ea5 98bd
00000140: 2a68 603c e531 893d 0d82 b2bc e7fa f4bc
00000150: ba6e abbd f7e0 843d fbbe 84bd a698 0f3c
00000160: 1daf 9e3d a2f9 a5bc 1e62 b7bc d84c 1d3d
00000170: 86cd b2bd 93ff 95bd 1eb7 79bd ea41 a73d
00000180: 05bc 9d3d 6fa7 0abd 4228 0cbb a93e 85bd
00000190: 9a4d b83c de2b 0bbd 29c8 a7bd d0c8 3b3d
000001a0: 3265 0b3d 920a 423c ee2e eabc 55fb f93b
000001b0: f8a3 513d c013 223d 91a9 b7bd 550c 6cbc
000001c0: 447d d7bc 8aea 81bc ec13 5dbd 111c 76bc
000001d0: 4e14 393d 8122 a0bd aea0 14bd 237c a3bd
000001e0: 4383 02bd fa73 d23c 9f32 a63d 2fb2 87bd
000001f0: c703 ed3c 6e10 ab3d b088 02bd ac27 b7bc
00000200: 44b0 3abd 278b 9dbb 2065 be3b 0890 ab3d
00000210: 4f54 a5bd d8fe c1bc 60f4 93bb f93b 8ebd
00000220: 80f9 9eba e921 37bd c3bf 30bd dd39 563d
00000230: e025 7c3b 12de b03c e681 873c 6994 3abd
00000240: 8222 0c3d 516f 533d eaa8 713d f33b 20bd
00000250: 466f 913d 1f83 a73d 3b23 73bd 6ca4 6e3d
00000260: f76b 29bc 0949 f33c a69e 5d3d c0f2 99ba
00000270: b612 25bc 28a2 b03c ca54 1a3d 1911 a63c
00000280: 3acc ab3d ac2d 583c db0d 133c 8c2e 4ebd
00000290: 9ecd 48bd 5808 7bbd e4d6 a9bd 8dc0 90bd
000002a0: 9ad9 a2bd 2c40 6f3d a92b 1d3d 7bc4 a2bc
000002b0: f1b7 3abd cd7d 04bd 40a7 0cbd 00db a9b9
000002c0: 5e0b 143d 8ca8 503c a8b3 473c 92ea 873d
000002d0: f4ee ca3c aedc f93c 44b0 983d 2d2c 143d
000002e0: d076 da3b 14ec 25bd 2116 923d 5ee9 25bd
000002f0: 2ed0 a6bd 57ba efbc 7a27 32bd ce48 a23d
00000300: a292 aebd b3bc 70bd 8b92 86bd df5e 43bd
00000310: 1e3c 003d 9ca5 443d 1396 233d e155 273c
00000320: 22e3 62bd 64dd e8bc 6fca ab3d 16e0 e13c
00000330: b9ec d73b cd1d 853d 3595 34bd 756e 58bd
00000340: 2c17 cd3c 4511 9c3d d9de 89bd 29cc e8bc
00000350: da8d 9c3c 2d48 a73d b79b 293b b64a bfbc
00000360: af49 dcbc 5b34 e13c c6d9 87bd b341 723d
00000370: 6dd0 513c 50e8 8e3c eb20 9fbd 5141 a2bd
00000380: 0cf8 833c fbb5 223d 6fe5 1d3d ffa8 933c
00000390: 707c 93bd 4604 86bd d85e 74bd 001b 583b
000003a0: add2 63bd b7df 9bbd a846 77bd 7ccc 29bc
000003b0: a5a3 113d 50a2 0e3c 0eec e5bc 4254 19bd
000003c0: 9886 8ebd 2210 293d 43d3 833d 17f8 463d
000003d0: f775 963d b75a 19bd b7c0 52bd 45fc 70bd
000003e0: e83e 8b3d 302c 9abc 6b36 923d 28fe e43c
000003f0: 0254 2c3d dd16 3fbd 80e2 703d 8781 953d

layer.4.bias f4 [64]
0.067284524 0.08054136 0.043405376 -0.052933708 0.05340642 0.043354206 -0.020479633 0.06261156
0.06720803 0.043864112 0.06259793 0.009920879 0.079821184 -0.06626271 0.041311108 -0.0092504565
0.08306765 0.031021137 -0.0764179 -0.008487656 0.05779756 -0.015012776 0.02580385 -0.082617775
0.08170258 0.0641075 -0.08463934 -0.077702984 0.04000528 -0.042914957 0.022777414 -0.066909246
0.025142808 -0.08837768 0.07390212 -0.045102097 0.031141741 -0.041248646 0.07729162 0.032650888
-0.023576818 0.00086642004 -0.052077185 0.03525443 -0.04909848 0.04095992 -0.04234188 -0.015352475
-0.055377703 0.0694299 0.016906627 0.004764795 0.08670778 0.011444537 -0.0024118237 -0.08415607
0.027833205 0.07308537 -0.04556298 -0.09163663 0.0060068974 0.034197196 0.08449675 -0.046059877
00000000: 78cc 893d def2 a43d d6c9 313d 04d1 58bd
00000010: b1c0 5a3d 2e94 313d e7c4 a7bc 7d3a 803d
00000020: 5da4 893d dbaa 333d 5833 803d 2f8b 223c
00000030: 4a79 a33d beb4 87bd d635 293d 3a8f 17bc
00000040: 5f1f aa3d 0a20 fe3c fd80 9cbd cf0f 0bbc
00000050: 22bd 6c3d 25f8 75bc 9862 d33c 8233 a9bd
00000060: af53 a73d cb4a 833d 6457 adbd be22 9fbd
00000070: 94dc 233d 98c7 2fbd b397 ba3c b707 89bd
00000080: 4af8 cd3c 5bff b4bd ff59 973d fabc 38bd
00000090: f71c ff3c 57f4 28bd 124b 9e3d f0bc 053d
000000a0: 2c24 c1bc 7720 633a e34e 55bd f366 103d
000000b0: 7d1b 49bd 97c5 273d ae6e 2dbd f388 7bbc
000000c0: bbd3 62bd 4331 8e3d c47f 8a3c ff21 9c3b
000000d0: d993 b13d de81 3b3c b00f 1ebb 055a acbd
000000e0: 7602 e43c c8ad 953d 3fa0 3abd fcab bbbd
000000f0: 82d5 c43b 5c12 0c3d a20c ad3d 48a9 3cbd

layer.6.weight f4 [23, 64]
-0.02787959 0.055299606 0.0057568424 0.030719511 0.08605257 0.0034311253 -0.04458211 0.11976889
-0.021296691 0.00451683 -0.09474783 -0.10039427 0.009139681 0.053099588 -0.04545348 -0.022176072
-0.005624242 0.10689584 0.08469755 0.03258581 0.04105183 0.10835542 0.06103707 -0.085467465
-0.057787843 -0.076841965 -0.1130958 0.10594047 0.023431867 0.11041017 -0.06531474 -0.12149667
-0.05357388 -0.04485386 0.07307866 0.10368074 0.11721798 -0.062358603 0.05829682 -0.0158444
-0.06209846 0.023759643 0.025189765 -0.10174651 -0.023074206 -0.05086844 -0.069972284 0.11972894
-0.0806769 0.062310312 -0.065574974 -0.038196456 -0.004179165 -0.09513216 0.12001302 -0.024146348
-0.06257825 -0.0020769686 0.10162191 0.07799359 0.061758842 -0.017903356 0.051402323 -0.049012717
0.043566335 -0.08315097 0.011502478 0.03672894 0.09608144 0.06717536 -0.014175411 -0.013754621
0.073006384 0.03665591 0.09887196 0.067626625 0.09589524 -0.092203684 -0.08303791 -0.0749484
0.11848372 -0.1031824 0.012874697 -0.042043038 -0.024453113 0.017027305 -0.009813247 -0.06585813
-0.033951104 -0.037544828 0.10933718 -0.049346022 -0.012079457 -0.063840374 -0.09699231 0.11937459
0.042377297 0.07822567 -0.079644606 0.020549929 0.030089179 0.112801604 -0.069730096 -0.04980877
-0.07798061 0.10267417 0.07373872 -0.04149912 -0.071092814 0.055787887 -0.025387457 -0.04929326
-0.039534926 0.050176553 -0.002975319 0.08658405 0.07613547 -0.05070668 -0.010057147 0.08728671
0.07258638 -0.021659225 -0.045040082 0.09141771 0.00047456042 0.03613796 -0.08660924 0.08561257
0.068028785 -0.119856685 -0.11521526 0.09111015 -0.065885514 0.076833375 -0.11293158 0.07213077
0.04828225 -0.05822971 -0.007757554 0.07207513 -0.08750327 -0.12071487 0.03293877 -0.09123963
-0.11356902 0.06629403 -0.089817 -0.016329916 -0.070896454 -0.100150526 0.015058002 -0.039072108
0.038276114 -0.034642577 0.115735695 -0.0017291271 -0.046669673 -0.085460834 0.08450615 0.08163617
0.031764947 -0.08656847 -0.031237036 -0.063505694 -0.028736046 0.006371253 -0.062103644 0.050746646
0.049298078 -0.018778589 0.094491 0.06371354 0.015338762 0.10218077 0.019640367 0.017172951
-0.067303285 0.03724134 -0.041250903 -0.051614255 -0.10331479 0.09314529 -0.08303529 0.10194635
0.0956701 0.07655057 -0.0010462916 0.052643936 -0.012598959 -0.062000543 -0.023154313 0.04410125
-0.00076575484 0.053842478 -0.0633166 0.08717551 0.10745428 -0.06853417 0.02956384 -0.09685597
-0.0696063 0.011329716 0.08509573 -0.043151293 0.058727723 -0.020985913 -0.015978307 -0.10727215
-0.08862981 0.09931629 -0.11416629 -0.11024955 0.07276123 0.07495041 -0.07651284 -0.016800338
-0.117478505 0.07430663 -0.008988443 -0.037079826 0.002364038 -0.09678332 0.035075527 0.065047435
0.0036866844 -0.030123262 -0.0666132 -0.028576193 -0.10668162 -0.036053073 -0.035052948 0.09327745
-0.0016534925 0.023540838 0.11134122 0.0047166734 0.0024667971 -0.07491197 -0.09699797 0.0049568517
-0.048165046 0.118875794 -0.120528206 0.029115243 -0.061972946 -0.097708054 0.004450895 0.12073526
-0.03283193 -0.02897502 -0.057968263 0.07859164 0.10021932 0.108122945 0.03263481 -0.078451924
00000000: bd63 e4bc d781 623d e5a3 bc3b 7ca7 fb3c
00000010: 543c b03d bbdc 603b bb9b 36bd 6449 f53d
00000020: 6676 aebc eb01 943b 260b c2bd 839b cdbd
00000030: 9abe 153c f47e 593d 6e2d 3abd 98aa b5bc
00000040: 904b b8bb 35ec da3d e975 ad3d b378 053d
00000050: f725 283d 72e9 dd3d 0202 7a3d 9109 afbd
00000060: f2b2 6cbd 525f 9dbd c59e e7bd 51f7 d83d
00000070: 30f4 bf3c ba1e e23d bcc3 85bd 3fd3 f8bd
00000080: 4970 5bbd aeb8 37bd 44aa 953d 9156 d43d
00000090: fb0f f03d bc6b 7fbd a5c8 6e3d 1dcc 81bc
000000a0: f45a 7ebd 95a3 c23c c45a ce3c 7960 d0bd
000000b0: 1e06 bdbc 6d5b 50bd a14d 8fbd 7234 f53d
000000c0: ee39 a5bd 1939 7f3d 2c4c 86bd e373 1cbd
000000d0: 60f1 88bb a6d4 c2bd 63c9 f53d 90ce c5bc
000000e0: 0729 80bd c01d 08bb 261f d03d 1abb 9f3d
000000f0: d7f6 7c3d 0faa 92bc 3e8b 523d 8fc1 48bd
00000100: 9d72 323d 0e4b aabd e474 3c3c 1671 163d
00000110: 59c6 c43d 3c93 893d fc3f 68bc 105b 61bc
00000120: 5f84 953d 8224 163d 627d ca3d d47f 8a3d
00000130: b964 c43d 49d5 bcbd c80f aabd 8c7e 99bd
00000140: 98a7 f23d 4b51 d3bd 65f0 523c 5235 2cbd
00000150: e551 c8bc d97c 8b3c bec7 20bc a1e0 86bd
00000160: 5010 0bbd 9bc8 19bd 2cec df3d 0e1f 4abd
00000170: eae8 45bc bebe 82bd e7a3 c6bd aa7a f43d
00000180: d193 2d3d c834 a03d b61c a3bd 5358 a83c
00000190: 957d f63c 8704 e73d a7ce 8ebd 4804 4cbd
000001a0: 4cb4 9fbd d646 d23d 5304 973d fbfa 29bd
000001b0: 1c99 91bd d781 643d 5bf9 cfbc bbe7 49bd
000001c0: 60ef 21bd ee85 4d3d 92fd 42bb fa52 b13d
000001d0: eaec 9b3d cfb1 4fbd bbc6 24bc 60c3 b23d
000001e0: 2ba8 943d b06e b1bc f37b 38bd 3539 bb3d
000001f0: 6cce f839 6605 143d 2f60 b1bd a555 af3d
00000200: ad52 8b3d 6c77 f5bd faf5 ebbd f597 ba3d
00000210: fcee 86bd d15a 9d3d ac48 e7bd 4cb9 933d
00000220: 9cc3 453d 4782 6ebd 1433 febb 209c 933d
00000230: ea34 b3bd 5c39 f7bd ceea 063d d8db babd
00000240: e096 e8bd 2ac5 873d faf1 b7bd 51c6 85bc
00000250: 2932 91bd b81b cdbd d7b5 763c 130a 20bd
00000260: 6ac7 1c3d 60e5 0dbd d606 ed3d e1a3 e2ba
00000270: b328 3fbd 1706 afbd 8f11 ad3d dd30 a73d
00000280: f61b 023d cf4a b1bd d0e4 ffbc 460f 82bd
00000290: db67 ebbc f2c5 d03b 6460 7ebd b7db 4f3d
000002a0: c8ec 493d 8ed5 99bc 7f84 c13d 3f7c 823d
000002b0: 6e4f 7b3c 2744 d13d d6e4 a03c 4aae 8c3c
000002c0: 4ed6 89bd 608a 183d b5f6 28bd 7869 53bd
000002d0: b496 d3bd f5c2 be3d 680e aabd 3fc9 d03d
000002e0: afee c33d 8cc6 9c3d b823 89ba 2ba1 573d
000002f0: dd6b 4ebc 48f4 7dbd 1dae bdbc 83a3 343d
00000300: f0bc 48ba ee89 5c3d 22ac 81bd 1389 b23d
00000310: fd10 dc3d a55b 8cbd de2f f23c 6c5c c6bd
00000320: bf8d 8ebd 46a0 393c ac46 ae3d 69bf 30bd
00000330: 7b8c 703d a6ea abbc f0e4 82bc 80b1 dbbd
00000340: 8c83 b5bd 5766 cb3d 04d0 e9bd 84ca e1bd
00000350: d703 953d 9a7f 993d c4b2 9cbd dda0 89bc
00000360: 9298 f0bd 132e 983d 4344 13bc 04e1 17bd
00000370: faed 1a3b 5536 c6bd 5bab 0f3d 9737 853d
00000380: 4d9c 713b 0fc5 f6bc 806c 88bd 9f18 eabc
00000390: e57b dabd 63ac 13bd ae93 0fbd 3f08 bf3d
000003a0: 00ba d8ba b7d8 c03c de06 e43d 538e 9a3b
000003b0: fda9 213b 726b 99bd dfa6 c6bd 166d a23b
000003c0: b648 45bd 2775 f33d 7ed7 f6bd 1783 ee3c
000003d0: 58d7 7dbd 291b c8bd d0d8 913b 0c44 f73d
000003e0: c67a 06bd 055d edbc 2170 6dbd a7f4 a03d
000003f0: c93f cd3d 906f dd3d 14ac 053d 67ab a0bd

layer.6.bias f4 [23]
-0.022148503 -0.080190755 -0.08998064 -0.06750968 0.024760485 -0.07771689 0.051387966 0.09206617
0.020074384 0.098776706 -0.028682359 0.057324074 -0.093604274 -0.006309289 0.0016722915 -0.08555974
-0.12801673 0.05237107 -0.05780222 -0.031193484 -0.07953903 0.011735306 -0.023370743
00000000: c770 b5bc 0d3b a4bd c547 b8bd 8442 8abd
00000010: 80d6 ca3c 082a 9fbd 307c 523d 308d bc3d
00000020: 0973 a43c 714b ca3d 44f7 eabc a6cc 6a3d
00000030: 99b3 bfbd 27be cebb cb30 db3a f239 afbd
00000040: d116 03be 0c83 563d 05c2 6cbd 7a89 ffbc
00000050: 5ce5 a2bd 7145 403c 0074 bfbc
