weight/save_270.pth (torch_old, 72900 bytes, 8 tensors)

layer.0.weight f4 [32, 139]
000000 d5 4a a4 3d ab 02 42 be 7b 60 87 3c 55 92 a4 bd
       0.080220856 -0.1894633 0.016525498 -0.08035723
000010 2e ee 83 bd ba 6d f1 bc 06 12 88 bd 8e eb 5e 3c
       -0.064419135 -0.029471267 -0.06644063 0.013605965
000020 76 0c 8c bc e6 78 55 bd e4 4d 00 bd b1 78 14 3d
       -0.017095786 -0.05211725 -0.031324282 0.036247913
000030 3e 01 26 3d c7 10 75 3d b5 3c a7 bd 3b 47 a5 bc
       0.04052853 0.059830453 -0.08165876 -0.020175567
000040 a1 90 f8 bc 64 b5 1d 3c 03 26 e5 3c 0e 40 83 3c
       -0.030342402 0.009625766 0.027972227 0.016021755
000050 11 6f 05 bd 23 44 bd 3c 0a a0 3c bd e4 16 2b bc
       -0.032576624 0.02310378 -0.046051063 -0.010442469
000060 ea 54 53 bc f0 53 df 3c e7 ed 8e 3d 1f 42 42 3d
       -0.012898663 0.027261704 0.0697897 0.04742634
000070 37 87 42 3d 42 12 31 bd ac 94 1f 3d e7 8f 42 bd
       0.047492232 -0.043230303 0.038960144 -0.047500517
000080 fe 42 e3 3c f7 40 3a bd f4 da a3 bd 2d d0 c6 bc
       0.027741905 -0.04547211 -0.08000746 -0.024269188
000090 2d 77 86 bc f8 10 a3 bb cc 27 53 3c fb 7e 89 bd
       -0.01641425 -0.004976388 0.012887906 -0.06713673
0000a0 16 53 a3 3c 2d 4a 3d 3d 98 d0 18 3d f1 c7 db bc
       0.01993708 0.046213318 0.037308306 -0.026828738
0000b0 e0 04 14 bc 47 51 9a 3c 30 aa 0a 3c 8c 09 0c 3b
       -0.009034365 0.018837584 0.008463427 0.0021367995
0000c0 75 c0 85 3d 47 27 93 bd 24 e9 2d bd 27 a8 96 3b
       0.06530849 -0.07185226 -0.04245867 0.004597682
0000d0 5a 8c 1d 3d f0 60 74 3d 65 e3 4e bd 5d de 9e 3d
       0.038463928 0.05966276 -0.05050983 0.07757256
0000e0 c3 16 dc bc f9 6a 6a bd e8 e5 4d 3c 44 c4 6e bd
       -0.026866322 -0.057230923 0.012567021 -0.058292642
0000f0 23 14 1d bc c9 74 31 bd 13 45 2d bc 13 fc 74 3d
       -0.0095873205 -0.043324266 -0.010575551 0.05981071
000100 23 aa 7e bd 41 58 8d 3c 01 dd 22 bd dc f9 8c bc
       -0.062173974 0.017253997 -0.039761547 -0.017208986
000110 85 95 39 bd 34 bf 8d bc 3c 94 86 bd 46 eb 70 bd
       -0.04530861 -0.017303087 -0.06571242 -0.058818124
000120 f9 c8 c1 3c 63 e9 13 3b 0f f4 c3 bc a3 b0 44 3c
       0.023655402 0.002256953 -0.023920087 0.012005004
000130 21 a6 16 3d 43 17 04 bd 83 5c 9a bd 22 7b 87 bd
       0.036779527 -0.032248747 -0.075371765 -0.066152826
000140 c6 09 bb bc 76 0e 82 bc 62 12 46 3d ae 1d 13 3d
       -0.022831809 -0.015876036 0.048357375 0.035916977
000150 1a 8f 81 bc 00 bc a7 bd b6 e8 d1 bc 88 5c 4b bd
       -0.015815306 -0.08190155 -0.02562366 -0.04964879
000160 70 f4 25 bd d2 f7 57 3d 30 c2 18 3c c3 2f 45 bd
       -0.040516317 0.052726574 0.009323642 -0.048141252
000170 a5 9a 18 3c 68 5a cd bc 00 28 90 3c f9 3b 70 bd
       0.009314214 -0.025067523 0.017597198 -0.058650944
000180 53 11 a7 bc 23 34 53 3b aa e7 49 3d da 30 30 bd
       -0.020394003 0.003222712 0.049293198 -0.04301534
000190 aa 6d a6 bd cc 10 3c bd 57 39 98 bd 60 63 09 3c
       -0.081263855 -0.045914456 -0.07432812 0.008385509
0001a0 4c 40 3e 3c 7b d6 06 3a 70 1b 88 3c 24 2b ac bd
       0.011612009 0.00051436544 0.016614646 -0.08406666
0001b0 19 b2 2c 3c 9c e9 65 3d 6a f7 9d bd e1 8a 50 3d
       0.010540509 0.05613099 -0.07713206 0.050913695
0001c0 55 01 c7 b9 a7 89 72 bd e2 11 12 3d 8d 74 3d bc
       -0.0003795723 -0.059213307 0.035661586 -0.011563432
0001d0 f9 c6 ab bc 98 55 70 3d 9c e1 21 bd 7b 43 7b 3d
       -0.020968901 0.05867538 -0.0395218 0.06134365
0001e0 a5 1f 58 3c e4 12 df bb cf 16 e3 3c 0d b3 52 bd
       0.013191138 -0.006807672 0.027720837 -0.051440287
0001f0 4b cc 9f bd 91 21 46 3d 65 00 0f bd 27 40 1e bd
       -0.07802638 0.048371855 -0.034912486 -0.0386354
000200 2e ea f8 b9 95 cd 2c bd ee ac 70 bc 20 8c 0f bd
       -0.00047476724 -0.042188246 -0.014689667 -0.035045743
000210 e2 bd a6 bd 96 a3 88 bd a9 5c 87 bd 10 72 a4 bd
       -0.08141686 -0.066718265 -0.066094704 -0.08029568
000220 a5 42 16 3d bf 5b 9a 3b d2 bf 20 3c 02 3e 46 3d
       0.03668465 0.004710644 0.0098113585 0.04839898
000230 51 bc 63 be f3 d5 c3 3e 52 66 76 3d 00 0b 99 3e
       -0.22239806 0.38249168 0.060156174 0.29891205
000240 2a 9a 3a 3d 45 a0 90 bd 33 84 ac bc 55 9d 0e be
       0.04555718 -0.07061819 -0.021059131 -0.13927205
000250 05 15 08 be 1a fd ce bd f1 42 56 3c 78 27 91 3d
       -0.13289268 -0.10106869 0.0130774835 0.07087606
000260 c1 bb d1 3b 7f 15 6e bd 41 a1 2e 3c 11 44 a6 bd
       0.006400556 -0.05812597 0.010658563 -0.081184514
000270 48 c5 6e bc 60 e3 63 3d f7 21 5c 3c 9a b0 82 3b
       -0.014573403 0.055636764 0.013435832 0.0039883377
000280 5b 32 78 3d 62 c7 37 3d f4 d4 dc bc eb f1 26 3d
       0.060594898 0.04486788 -0.026957013 0.040758055
000290 12 c2 b6 bc 6a 88 a8 3c 0d 01 a6 bd fe 1c 03 bd
       -0.022309337 0.02057286 -0.08105669 -0.03201007
0002a0 89 bf 7f 3b 2c 5a 74 3d a2 67 ab bc 5c 5a 97 bc
       0.0039024076 0.059656307 -0.02092344 -0.018475704
0002b0 3f 04 f8 bc 56 6d 88 bd cc 10 b3 bc 22 d8 20 bc
       -0.030275462 -0.06661479 -0.021858595 -0.009817155
0002c0 21 3a 81 bd 0b 05 8d bc 5d 6b 75 bd ec f4 55 bb
       -0.06309915 -0.017214319 -0.059916843 -0.0032647206
0002d0 a6 e1 7f 3d 1c 79 93 bd 2c 34 c4 3c 0d dd e0 3c
       0.062471054 -0.07200834 0.023950659 0.027449155
0002e0 eb c3 24 3c 35 51 14 3c fb 95 4d bd ee 81 c2 bc
       0.010056476 0.009052564 -0.05019186 -0.023743596
0002f0 b6 45 ea 3c 30 22 a3 3b f6 ab bb 3d 63 00 02 3c
       0.028597694 0.0049784407 0.09163658 0.0079346625
000300 91 5d 23 bd e9 cc b6 bc bb f7 65 bc b5 9e 6e bc
       -0.039884154 -0.022314506 -0.014036114 -0.014564206
000310 69 41 48 bc a5 3c bc 3b ac ea 9c bd 33 ca a1 bc
       -0.012222626 0.005744534 -0.076619476 -0.019749736
000320 f7 bc 3c bd 50 7e 21 3d f6 15 b1 bd d1 93 a2 bd
       -0.04607865 0.0394271 -0.08646767 -0.0793835
000330 82 7e 12 3d 22 66 83 3a d4 19 ba bd c9 da e6 bd
       0.03576518 0.0010024945 -0.090869576 -0.11272199
000340 17 4c 05 bd 81 81 86 bd 4d 0f 35 3c fa 73 19 3d
       -0.032543268 -0.0656767 0.011051011 0.03746412
000350 40 ca 81 3a 2d a8 ae bd 02 ab 04 bc 47 98 0e 3d
       0.0009902194 -0.08528171 -0.008097412 0.03481319
000360 6f d1 4a bd 76 52 77 3d 57 34 a1 bd 18 3d ac 3c
       -0.049516138 0.060381375 -0.07871311 0.021025226
000370 12 66 c2 bc a2 1e e3 bd 5c a4 5d 3d 16 3f 0f bd
       -0.023730312 -0.11089827 0.054111823 -0.034972273
000380 0f da be bd 8b e6 c5 bd a8 2b 42 bd e2 f0 a1 bd
       -0.09318935 -0.09663113 -0.047404915 -0.07907273
000390 c4 8a e7 3b 7b 8b 74 3d af b3 3c bd 6a a3 f1 3c
       0.0070661027 0.05970333 -0.046069797 0.029496867
0003a0 39 a9 e0 b8 77 6b 34 3c fa f8 c5 3c 5d 30 c7 3c
       -0.000107126725 0.01101195 0.024166573 0.024315054
0003b0 14 3d 50 bc a6 6d 1a 3d 01 fa 88 bd 22 e9 04 bd
       -0.012709875 0.037702225 -0.066883095 -0.032448895
0003c0 9b b9 2f bc 0c ba 3a 3c 12 91 69 bd 07 6f 7f bd
       -0.010725404 0.011396896 -0.057023115 -0.062361743
0003d0 dc 76 a5 bc 23 57 42 bc 64 9c ba bd b7 1d 9b 3c
       -0.020198278 -0.011861595 -0.091118604 0.018935068
0003e0 09 f8 d7 3c 99 78 bf bc 0e 56 99 bd f6 46 cb 3c
       0.02636339 -0.023372935 -0.07487117 0.02481411
0003f0 41 db 4e bb 32 a6 67 bd 38 a1 13 3d f1 d9 bc 3b
       -0.003156379 -0.05655498 0.036042422 0.0057632853

layer.0.bias f4 [32]
000000 72 47 23 3c ff ea 99 3e 56 51 49 bd 09 17 2f 3b
       0.009965764 0.300621 -0.049149834 0.002671661
000010 e3 4f 05 be 8b 3c 35 3d 3a ea 73 3c e7 af 37 3d
       -0.13018756 0.04424719 0.014887387 0.044845488
000020 8d 09 4b bd 22 b6 1b 3d fd 0c fb 3c de 83 3c bd
       -0.049569655 0.038015492 0.030645842 -0.046024196
000030 09 53 92 bd b8 8b 86 3e 72 65 8a 3d 69 18 60 3c
       -0.07144744 0.26278472 0.067576304 0.013677695
000040 ce ac 2f bd 2b 91 50 bd 2b c5 8f 3d e2 73 94 3e
       -0.04288941 -0.050919693 0.07020029 0.28994662
000050 be 57 e0 bd 46 99 b7 3e f1 bf ad bd a7 e0 40 3d
       -0.109542355 0.35859126 -0.084838755 0.047089245
000060 1b 11 ac bd 53 75 ab 3e 9f 5a b3 bd af 39 71 3d
       -0.084017 0.3348795 -0.08757519 0.058892902
000070 31 a9 f9 3e 41 77 0c bc 28 28 fe bd 50 2e 96 bc
       0.48761895 -0.008573354 -0.12410003 -0.01833263

layer.2.weight f4 [64, 32]
000000 47 45 f2 3c b6 01 9d bd 80 3d cc bd 89 9d 99 3d
       0.02957405 -0.07666342 -0.09972668 0.075007506
000010 05 2f 27 bb 6d d6 72 bd 0d da 6f 3d 50 0f 14 3e
       -0.0025510204 -0.059286524 0.05855756 0.14458966
000020 9e 59 28 3e e5 11 1a be 52 db ad 3d 1f 69 af 3c
       0.16440436 -0.15045889 0.08489098 0.02141243
000030 e0 e4 05 3e 08 59 b8 bc aa 53 12 3e ce 42 09 3d
       0.1307559 -0.02250339 0.14289728 0.033510976
000040 c4 a6 1e 3e f3 6b 81 bd df a1 a6 3d 40 6d c6 3d
       0.15493304 -0.06319418 0.08136343 0.096888065
000050 62 f1 9c bd b5 59 26 be 24 96 4e bd 15 f9 8a 39
       -0.076632276 -0.16245158 -0.050436154 0.00026506992
000060 7f df 81 3b 4a e8 17 3d d6 46 ee 3d 00 06 75 3d
       0.0039634104 0.037086762 0.11634605 0.059820175
000070 3d 3d 6c 3c 35 6a 22 3e be f3 a0 bd de 9f 22 be
       0.014418897 0.15860827 -0.0785899 -0.15881297
000080 af 26 af bd 4f 74 d7 bd 08 58 88 3d c1 24 15 be
       -0.085523 -0.10520231 0.06657416 -0.14564802
000090 c3 1d dc bd e9 f2 21 be 0f cd 8c bd 8f e7 9b 3d
       -0.10747864 -0.15815319 -0.06875049 0.07612526
0000a0 45 b5 f6 bd 4e 78 bc 3d 32 05 30 bd 69 6d 4f bc
       -0.12046293 0.09202634 -0.042973705 -0.012660363
0000b0 00 bb fe bd ae 96 34 be 4d 72 18 3e c6 67 9d bd
       -0.12438011 -0.17635605 0.14887352 -0.07685809
0000c0 5e 6f 6a 3d 16 db 13 3e 5a a8 32 bd 2d eb fa 3c
       0.057235114 0.14439043 -0.043617584 0.030629719
0000d0 86 0d b6 3d 24 c8 89 3c c7 f6 6a be 3d d0 e2 bd
       0.08889298 0.016819067 -0.229457 -0.110748746
0000e0 a5 9e fe bd 72 e2 8f bd 34 59 de bd 78 2f 53 bd
       -0.12432603 -0.07025613 -0.10856858 -0.05155894
0000f0 02 91 8c bc 40 63 44 3d a4 88 f6 3d 6f 55 c1 3c
       -0.017158989 0.047946215 0.12037781 0.023600308
000100 b2 c1 02 be 4f 11 43 be b8 f7 b8 3d bb a7 f5 bd
       -0.12769201 -0.19049571 0.090316236 -0.11994883
000110 e8 e3 1b be 1d 71 54 be dc 31 36 3d 14 b8 a5 3d
       -0.15223658 -0.20746274 0.044481143 0.08091751
000120 ff 58 10 3e fd 94 c2 3d e9 f9 02 3e f4 d2 af bd
       0.1409645 0.095010735 0.12790646 -0.08585158
000130 9a e7 bb 3d 93 07 05 be 6e 46 2e be 0e b7 b3 3d
       0.09175034 -0.1299117 -0.17019054 0.08775149
000140 20 59 cd 3c 1c 10 b1 3d 9e 47 dc bb 04 e0 44 3d
       0.025066912 0.08645651 -0.0067224046 0.0480652
000150 d6 f3 08 3e e6 89 a3 3c b3 a9 80 bd bc a8 14 3e
       0.13374266 0.019963216 -0.062823676 0.14517492
000160 0a e8 20 be 1b ba b2 bd b2 03 a7 bd 21 1e e2 bd
       -0.15713516 -0.08726903 -0.08155002 -0.11040903
000170 d1 3d f9 bd 5e f9 bd 3d 29 eb c7 bd cb 3a 1b bb
       -0.12169994 0.09276079 -0.0976165 -0.0023686166
000180 20 f2 b7 3d 0b 83 0a 3e 78 c9 0e be 83 4a 9d bd
       0.089817286 0.13526551 -0.13944042 -0.076802276
000190 ed 6f fd bd 78 85 34 be 55 32 33 bd d7 13 37 3d
       -0.12374864 -0.1762904 -0.043749172 0.044696655
0001a0 23 97 c4 bd 0b 1f 3b 3d 91 a5 06 3e d7 2e 5d 3e
       -0.095991395 0.0456839 0.13149096 0.21599899
0001b0 0e b6 f8 3c ad 0e 32 3e 15 09 da 3d 6a 24 07 be
       0.030360248 0.17388411 0.106462635 -0.13197485
0001c0 b6 ab a0 3d 12 75 c6 3d 3b 37 18 be 11 32 20 3e
       0.07845251 0.09690298 -0.14864819 0.15644099
0001d0 e1 68 16 3b 47 d2 d3 bd 0b 4d f6 bd ea 42 8b 3d
       0.0022950696 -0.103428416 -0.120264135 0.06799872
0001e0 c6 b6 2c 3e 9e 49 16 3d 86 22 fa 3c 91 5d a7 3d
       0.16866598 0.0366913 0.03053404 0.08172143
0001f0 80 af d7 3e 46 78 0c be 57 6f 47 3d ed ad 9f 3c
       0.42126083 -0.13717756 0.048690166 0.019492114
000200 bd f8 ea bc 2f ac a6 3d 26 17 fa 3d 84 b7 64 bd
       -0.02868306 0.0813831 0.122114465 -0.055839077
000210 26 5d 08 3d f1 69 85 bc e5 3c a0 3d 17 1c 20 3e
       0.03329196 -0.016285868 0.07824115 0.15635715
000220 73 93 45 bd eb c0 ee bc 80 45 bb bd 64 15 37 bd
       -0.04823632 -0.029144725 -0.091441154 -0.044698134
000230 7f f4 53 3c 57 d1 c3 3d f7 9d 57 3d 85 a1 d3 3d
       0.01293671 0.09561413 0.05264088 0.10333542
000240 e7 ea 1e be 91 54 d3 3d 2c 21 11 be a1 cf fa bc
       -0.15519296 0.10318864 -0.1417281 -0.030616583
000250 a3 62 03 bd 1c 70 c5 ba 4a e5 80 3d f1 b5 a6 bc
       -0.03207649 -0.0015063318 0.062937334 -0.020350428
000260 7c 88 c4 bc a4 d5 f7 bd 06 6d be bd 80 b4 aa bc
       -0.023990862 -0.121012956 -0.09298138 -0.020838022
000270 54 d1 66 bd 19 d8 12 3e 87 2a 02 be 9c e2 5b bd
       -0.056351975 0.14340247 -0.12711535 -0.05368291
000280 47 9a fc bd 67 06 44 be 24 fa 63 bd 8f 04 ab bd
       -0.123341136 -0.19143067 -0.055658475 -0.08350479
000290 ca d5 0d 3d 60 e3 08 3d e8 82 6f 3c af 6f 28 3d
       0.034627713 0.033419967 0.014618613 0.041122135
0002a0 74 3c e0 3c d0 a8 ff 3c c8 b7 32 3e 66 6e 33 be
       0.027372576 0.031208426 0.1745292 -0.17522582
0002b0 e7 43 29 3d 51 67 81 bd af 9e 0c be be f0 4e be
       0.041324522 -0.06318534 -0.13732408 -0.20209023
0002c0 06 9e 3f 3d 8b e7 fe 3d d5 91 ad bd 57 24 74 3d
       0.046781562 0.12446507 -0.08475081 0.05960497
0002d0 3a 80 49 be b4 7f d3 bd d5 18 fe 3c 3c cd c5 3d
       -0.19677821 -0.10327092 0.0310177 0.09658286
0002e0 58 86 6a be 5a 12 83 bd ec b0 05 be 7d 57 81 3c
       -0.2290281 -0.06399985 -0.13055772 0.015788788
0002f0 ff b7 07 be 0c e3 3c be 80 f4 8f 3c 64 2e e7 3d
       -0.13253783 -0.18445987 0.017572641 0.11288145
000300 a5 f1 bc 3d 2e 7f bc bc 0f 88 ff 3d d6 96 9c bd
       0.092257775 -0.023009863 0.12477123 -0.07645957
000310 35 16 62 bd 0b 60 c8 bc fb 18 a8 3d f4 33 1b be
       -0.05519696 -0.02445986 0.0820789 -0.15156537
000320 2d b4 df bd ea 99 29 bd 5a ba 3c 3d aa 5b 6e bd
       -0.10923038 -0.04140655 0.046076156 -0.058192886
000330 4b 2d f1 bd de 7e 15 3e d3 82 1e 3e 42 1a 76 3d
       -0.11776217 0.14599177 0.15479593 0.060083635
000340 9d 59 ac bc 4a ef b6 bd 5b b5 73 bd 83 82 78 bd
       -0.021038825 -0.089323595 -0.059499126 -0.06067134
000350 de fc e2 bd c2 57 d2 bd 9c c1 28 3e 6d 3f cc 3d
       -0.11083387 -0.10270645 0.16480106 0.09973035
000360 0b a1 cc bc ca f2 bb bd bf c4 ac 3d e9 e6 de 3d
       -0.024979135 -0.09177168 0.08435964 0.10883886
000370 94 91 85 bd 4a 57 cf 39 8f 7a 6e 3d b2 91 22 be
       -0.065219074 0.00039547152 0.05822235 -0.15875891
000380 bb 6b 5e bd e4 87 13 3e 21 08 53 bb b8 78 b0 bd
       -0.05430196 0.14407307 -0.003220089 -0.08616775
000390 54 4e bd 3d b7 33 4f be 3c af 8e bd c7 a3 28 be
       0.092434555 -0.20234571 -0.06967017 -0.16468726
0003a0 38 d0 8c 3d 29 f8 58 3c 23 45 e8 3d 18 40 16 3d
       0.06875652 0.01324276 0.11341312 0.03668222
0003b0 af 67 cf bd e1 07 dd bd e2 85 32 be a7 cd 31 3d
       -0.10127198 -0.107925184 -0.17433885 0.043409016
0003c0 bb d2 92 bd 21 b7 e6 bd 06 5e 40 bd ff 31 3d 3c
       -0.071691 -0.11265398 -0.046964668 0.0115475645
0003d0 61 71 0c be 4a 8c 32 3c 9a f1 00 bc 98 13 db 3d
       -0.13715126 0.010897705 -0.007870102 0.106970966
0003e0 7b fb 32 be a9 77 e0 3d 47 49 2b be 1a 0f 16 3d
       -0.17478745 0.10960323 -0.16727172 0.036635496
0003f0 e3 45 2f be 77 56 de 3d b7 9e 88 3c 1c 7e 98 bd
       -0.17116503 0.108563356 0.016677244 -0.074459285

layer.2.bias f4 [64]
000000 7d d3 83 3e a5 fb 23 be 0c 77 40 3d 7c 04 66 3e
       0.2574729 -0.16013964 0.046988532 0.22462648
000010 04 b3 ce bd 4f 2c 17 3f 40 15 30 be 69 2a e5 3d
       -0.10092738 0.59051985 -0.17195606 0.1118973
000020 84 14 be 3d 19 7b 0a be 3d 8c 1c be 54 29 3c 3e
       0.09281257 -0.1352352 -0.15287872 0.1837514
000030 0c aa 71 3e a9 89 91 3e 2d 26 2a be 57 15 81 bd
       0.23600024 0.2842534 -0.16616125 -0.063028984
000040 4f e4 1f bd 43 dc b7 3d 2b 08 37 be 92 61 88 bd
       -0.03903609 0.089775585 -0.1787421 -0.06659235
000050 9d b2 00 be a4 57 ca 3d 11 df 84 bd be 46 d5 3d
       -0.12568136 0.098799974 -0.06487859 0.104138836
000060 69 8e f4 3d bf a5 ab 3e f3 97 4c be c2 73 d3 3d
       0.11941225 0.33524892 -0.19979839 0.103248134
000070 d3 51 57 3e 4b 84 08 3e 87 0b 04 3e 8e 52 9c 3e
       0.21027307 0.13331716 0.12895022 0.30531734
000080 08 0f 9a 3d 98 bc 0b be 24 ee 2f 3e 85 f1 1e be
       0.07522398 -0.13646162 0.17180687 -0.1552182
000090 70 f2 d6 bd d2 f8 15 be d3 f9 ac 3d a9 21 7d 3e
       -0.1049546 -0.14645699 0.08446088 0.24719872
0000a0 29 8f 23 be 54 53 44 3e 8e f5 52 bd 39 2a b1 3e
       -0.1597258 0.19172412 -0.05150371 0.34602526
0000b0 59 d8 de 3d ac 90 8d 3e 07 f8 51 bd 3c 1c e9 bd
       0.10881109 0.27649438 -0.051261928 -0.113823384
0000c0 03 ba bd bd 6d ec 6f 3c 4d ae 61 bb 85 59 8f bd
       -0.092639945 0.014643771 -0.0034436167 -0.06999496
0000d0 68 a7 09 3d b1 a9 29 3f 39 61 04 3e 09 c8 31 3e
       0.033606917 0.66274554 0.12927713 0.17361464
0000e0 58 89 03 3d 51 4a de 3e 39 10 bc bd cb 62 c0 3e
       0.032113403 0.43416074 -0.09182782 0.37575373
0000f0 0a 62 cc 3d 61 f2 09 3f 0c 00 95 bc 40 59 e8 3e
       0.09979637 0.53885466 -0.018188499 0.45380592

layer.4.weight f4 [128, 64]
000000 61 c5 bc bc 40 99 d2 bd 7a f6 85 3d 07 d4 85 bd
       -0.023043336 -0.10283136 0.06541152 -0.06534582
000010 89 f7 81 3d ea c1 17 bd fa 6c ec 3d f8 09 00 3d
       0.06346042 -0.037050165 0.11544223 0.031259507
000020 4c b7 ab bd 68 3b f8 bb d5 d7 e8 bc 33 ab cf bc
       -0.083845705 -0.007575441 -0.02842323 -0.025350189
000030 85 1e 2f bd 16 dd ed 3c ad ce 6a bd 04 6d 09 3d
       -0.042753715 0.029036086 -0.057326008 0.03355123
000040 cb 7f 40 3d 09 8c 7b 3b 11 f0 9c 3d bf eb 0a 3d
       0.046996873 0.0038383028 0.076629765 0.03391623
000050 f8 54 57 3d 1b 83 c6 bd 90 b8 b6 bd d3 44 d0 3d
       0.052571267 -0.09692975 -0.08921921 0.10169377
000060 54 c1 ed bc 8f bc 2c bb 86 0d 2e 3c 46 43 c7 3c
       -0.02902285 -0.0026357507 0.010623341 0.02432407
000070 e3 24 8b bd 32 9c 6e 3d 63 da 74 3d e7 98 cb 3d
       -0.06794145 0.05825443 0.059778582 0.09941273
000080 5a b4 57 3c b0 35 58 3d e5 c5 59 bd 75 cf 7c 3c
       0.013165558 0.052785575 -0.053167243 0.015430321
000090 ba e0 b9 bc 1a 60 ce 3b 6e ad ac bd 51 13 54 3d
       -0.022690166 0.0062980773 -0.084315166 0.051776234
0000a0 5a 20 23 bd a9 f6 77 bd 17 59 a3 bb c8 f7 ca 3d
       -0.039825775 -0.060537968 -0.0049849856 0.09910542
0000b0 f5 0b b5 3d 2f ab c6 3c 13 a1 c6 3d 4d f4 7b 3d
       0.08840171 0.024251549 0.09698691 0.06151228
0000c0 f5 d5 75 3d a9 74 25 bd 3e dd a8 3d b0 82 f4 bc
       0.0600185 -0.04039446 0.082453236 -0.029847473
0000d0 f4 73 21 3d 48 65 d3 3c 91 db 3a bd 78 b6 c6 bd
       0.039417222 0.02580513 -0.04561955 -0.09702772
0000e0 84 31 18 bb 89 1b 02 bd 31 da 8a 3d 19 5c 93 bd
       -0.0023222873 -0.03176454 0.06779898 -0.071953006
0000f0 28 e4 fe 3c 02 f0 fe 3c 32 73 99 3d 5f cc 80 3c
       0.031114653 0.031120304 0.07492675 0.015722452
000100 aa 28 0d bd 44 9c b7 3c 42 41 f4 3d e0 86 21 3d
       -0.03446261 0.02241338 0.119265094 0.039435267
000110 7d 55 a5 bc 8d 83 18 be 0b 2c db bd 5f 2e 23 bd
       -0.020182366 -0.14893933 -0.1070176 -0.039839145
000120 4d b7 c5 3d bb 8e 60 3d 67 42 5d 3d 26 14 d1 3c
       0.096541025 0.05482362 0.054018404 0.025522303
000130 22 cb a0 3d 02 cb 51 bd 4b b4 1a bd d2 60 a5 bc
       0.078512445 -0.051218994 -0.037769597 -0.02018777
000140 c3 6f 5e 3d 7a f3 56 3d 68 4f 12 be be e1 1c 3c
       0.054305803 0.05247829 -0.14288104 0.0095753055
000150 05 a3 3e bd bb b9 29 3c f8 f6 ef bc 51 18 92 bd
       -0.046542186 0.010359223 -0.029292569 -0.07133544
000160 b9 2e a3 3e d8 ac b2 3d cb 57 83 be 5e 5b 57 3e
       0.31871584 0.087243736 -0.25652918 0.21030948
000170 68 09 43 3d 47 dd db 3d ad 34 c4 3c 06 ee 2e 3d
       0.047616392 0.10735565 0.023950899 0.042707466
000180 fd da 95 bd 57 ee 0b 3c bb 80 ec 3c b2 ea c2 bc
       -0.07317159 0.008540711 0.028869977 -0.023793552
000190 87 9b 81 bc e9 02 30 3d 77 78 23 3e aa 03 e0 3d
       -0.015821232 0.042971525 0.15963922 0.10938199
0001a0 e8 fc ac 3d c8 2a 7c 3e e0 4f 03 bd 00 f5 24 3c
       0.084466755 0.24625695 -0.032058597 0.010068178
0001b0 91 41 e6 3d 5f 03 ba 3b 40 36 25 be ec 44 41 3d
       0.112429745 0.0056766714 -0.16133976 0.04718487
0001c0 7e c7 b8 bd d6 1f 85 3d 6e 0d bd bd a9 52 3f bd
       -0.09022425 0.06500213 -0.09231077 -0.04670969
0001d0 3e c3 4b 3d 10 d5 eb bd 55 2b 9b bc 76 d6 e7 3c
       0.049746744 -0.11515248 -0.01894156 0.028300505
0001e0 34 ea c8 bb d4 d7 cd bb 5f 70 b8 bd fb 5b fd bb
       -0.006131435 -0.0062818322 -0.09005808 -0.007731912
0001f0 9c 04 7c bd cd 85 18 3d d8 a8 57 bd 1b c4 ee bd
       -0.061527833 0.037236977 -0.052651256 -0.11658498
000200 30 52 4b bc 42 d4 87 bd f7 47 96 3d 0d 1d 0d 3d
       -0.012409732 -0.06632282 0.07337945 0.034451533
000210 97 25 cc bd 59 a7 8f 3e c5 ea 05 3e 51 40 ba 3d
       -0.09968107 0.28057364 0.13077839 0.09094299
000220 04 b7 c3 3d c8 a7 d6 bb 62 1d c5 bd ee 87 47 3d
       0.09556392 -0.006550763 -0.09624745 0.048713617
000230 5c 7a a5 3c 6e 98 bb bd 8c 8a 15 3c 23 b7 f4 3d
       0.020199947 -0.09159933 0.00912727 0.11948993
000240 ca 70 a9 3c e8 f4 02 3c 28 3f 0c 3d bd 85 de 3a
       0.020683665 0.0079929605 0.034239918 0.0016977113
000250 0d a9 e0 3c 43 fb c3 3d 16 9d 80 bc 06 d5 99 3b
       0.02742436 0.09569409 -0.015699904 0.004694584
000260 86 07 de ba c5 37 99 bd e3 d5 1c 3d 96 bb 02 bd
       -0.0016939498 -0.0748134 0.038289916 -0.031917177
000270 6e f1 9a 3d af 21 1a bc a7 fd 87 bd c2 ed 0f 3d
       0.0756558 -0.009407445 -0.06640177 0.035138853
000280 7e a6 c7 3d 81 fb 08 be bd da 80 bd 2d a4 fb 3d
       0.09748553 -0.13377191 -0.06291721 0.122871734
000290 4d 91 17 3d b5 db e8 3c fc f0 12 be d7 c4 c0 bd
       0.037003804 0.028425077 -0.1434974 -0.09412544
0002a0 cf 7a 36 bc e9 8b d5 bd 65 e0 e1 bd ce b8 04 3e
       -0.011137678 -0.10427076 -0.11029128 0.12961122
0002b0 13 6a 72 3c bd ad 76 bd 8b 78 ae bd 15 77 6a 3d
       0.014795798 -0.060224283 -0.085190855 0.05724247
0002c0 9a a1 c5 bd 8b 78 64 3c 06 ee 5e 3d bd 8e d4 3c
       -0.09649964 0.013944755 0.054426216 0.02594697
0002d0 4a 88 14 bd 21 7e 99 3d 6a 4e a4 bb 82 b7 c1 3d
       -0.036262788 0.0749476 -0.0050142305 0.094588295
0002e0 f6 d4 c5 bc cb f6 b4 3c 0b 10 81 bd 87 64 e2 bb
       -0.0241494 0.022090336 -0.06301888 -0.0069089564
0002f0 77 bd 2e bd af 2f 8b 3d dd 2f 71 b9 45 ab 88 bd
       -0.042661157 0.06796204 -0.00023001381 -0.06673292
000300 8b 38 8f bd 55 79 69 bb 5f 07 db bd be 0e 2a bd
       -0.069932066 -0.0035625298 -0.10694765 -0.041517965
000310 b3 c8 c1 bd fe 96 a7 be 92 23 e0 3a df ea c7 3d
       -0.094621085 -0.32732385 0.0017100445 0.09761595
000320 e5 db 17 3d 75 df 96 bd c4 58 74 3c 5e 1f 5b bd
       0.037074942 -0.0736684 0.0149137415 -0.05349671
000330 b4 c2 e4 3d 7a 78 dc 3d 1b bf a6 bd 51 a7 16 3b
       0.11169949 0.107651666 -0.08141919 0.0022987912
000340 91 2a 09 3c 5b 91 a8 3e e3 2e f3 3c 4f 0c 8c 3c
       0.008371965 0.32923397 0.029685443 0.017095713
000350 93 05 8c bc fc 18 c8 bc 83 14 ff bd 6f 38 88 3d
       -0.017092502 -0.024425976 -0.12455084 0.06651389
000360 55 02 27 3e e6 45 20 3e b1 37 15 3d 1c e0 3a 3e
       0.16309483 0.15651664 0.036430065 0.18249553
000370 aa b9 0d 3e 59 59 09 3d bb 86 18 be eb 04 9a 3c
       0.13840356 0.033532474 -0.14895146 0.018801173
000380 46 71 f6 3c 4f 12 2f 3d be 28 83 bd 19 eb aa bd
       0.03008331 0.04274207 -0.06404255 -0.083456226
000390 f8 b8 0c bd 84 ac 39 3d 31 09 1d 3e 59 b9 33 3e
       -0.034356087 0.04533054 0.15335537 0.17551173
0003a0 a6 c9 d7 bd 21 da f8 3d fe 76 3e bc 2d 64 9b 3d
       -0.10536508 0.1215098 -0.01162505 0.075874664
0003b0 ae 4e 30 3d da e8 62 3d 1a 0b 92 bd 27 a2 54 3d
       0.043043785 0.055397846 -0.07131024 0.051912453
0003c0 3b 61 01 be 04 0a 59 bd 4c 40 ad 3d 11 3d d1 3d
       -0.12634747 -0.052988067 0.08459529 0.102167256
0003d0 c0 86 02 3c 86 f6 55 be c3 29 2b 3e fe c5 11 3d
       0.007966697 -0.20894822 0.1671515 0.03558921
0003e0 b2 e9 ae 3d 11 d9 b7 bc 2d b5 2e bd f0 6e 4b 3e
       0.085406676 -0.022442373 -0.04265325 0.19866538
0003f0 27 ec 14 3d 0f 76 9e 3e 79 51 94 3d ad 53 87 3e
       0.036358025 0.30949447 0.07242102 0.26431027

layer.4.bias f4 [128]
000000 06 d1 78 bc fa 56 86 3e e1 e6 88 bd c0 1c 6b 3e
       -0.015186554 0.26238233 -0.06684662 0.22960186
000010 44 c7 7f bc bd d7 e0 3d 3e 48 7e 3d 73 75 9a bd
       -0.0156114735 0.10978649 0.062080614 -0.07541933
000020 38 08 06 3e 24 13 51 3e 82 cf b9 3d 5a 6a f2 bd
       0.13089073 0.20417458 0.09072782 -0.11836691
000030 64 dd 1a 3d 65 6d f8 bd 3a 36 2b bd b8 7a a4 3e
       0.03780879 -0.1213024 -0.04179976 0.32124877
000040 a3 c1 8d bc 66 54 8c 3d 5c 00 14 be d4 ff bf bd
       -0.017304247 0.06852035 -0.14453262 -0.09374967
000050 80 65 83 3e 91 7c 81 bd 87 50 c0 bd c5 ac 9a 3e
       0.25663376 -0.06322587 -0.09390359 0.30209938
000060 76 14 5c 3e 55 d1 a8 bc 0a 2d 3d 3e 0c 88 14 3d
       0.2149218 -0.02060763 0.18474212 0.036262557
000070 97 cc 23 3e 12 4e 2d 3b a6 0b 94 3e 18 05 2b 3d
       0.15996014 0.0026444239 0.28915137 0.041752905
000080 cd 37 74 3d 76 f4 c0 3d cb 54 d8 bd 7a b5 91 3d
       0.05962353 0.09421627 -0.10563048 0.07114692
000090 fb 2e 34 be 5d c8 65 3e 5b 8f 9a 3c f6 88 f7 bd
       -0.17596047 0.22439714 0.018867185 -0.1208667
0000a0 d8 20 ff bd ec cc 95 3d 62 39 38 3e 87 cb 30 3d
       -0.12457436 0.07314476 0.1799064 0.04316285
0000b0 1b 69 3b 3d 72 00 8a 3c c4 06 95 bc 42 f4 0a 3e
       0.045754533 0.016845915 -0.018191703 0.1356974
0000c0 65 b6 43 3c a1 d0 91 bd 8e 41 a2 3c ee 8e 95 bc
       0.011945342 -0.07119871 0.01980665 -0.01825663
0000d0 13 fa 06 be d1 4e 5b 3e af 88 e3 bd 0f 80 de 3d
       -0.13181333 0.21416785 -0.11110055 0.10864269
0000e0 8f a3 e1 bc 0c 03 23 3d c4 10 94 bd 3a f2 fc 3d
       -0.027543811 0.039797828 -0.0722976 0.123508886
0000f0 e0 ca 5f bd 0a 9e b9 bd 73 aa ee 3e b4 31 be bd
       -0.054636836 -0.09063347 0.46614417 -0.09286824
000100 cb 20 62 3d e2 01 59 bd 62 7d b7 bc 34 dd af 3d
       0.055207055 -0.05298031 -0.022398654 0.08587113
000110 02 ca 96 3e c0 fa 77 3e 91 fc 7c 3e c4 ba 3f 3e
       0.29450995 0.24216747 0.24705721 0.18723589
000120 cd e6 1a be 0f 8f b9 bd a3 22 fb 3b 55 85 e0 3d
       -0.15127106 -0.090604894 0.007664041 0.10962931
000130 d9 f6 08 be 14 b9 95 3e d0 65 be 3c 40 d4 23 3e
       -0.13375415 0.29242766 0.023241907 0.15998936
000140 44 a9 d8 bc a3 a5 4f 3e 74 87 9a 3c 40 59 57 3e
       -0.0264479 0.20278029 0.018863417 0.2103014
000150 61 dc aa 3e 4a 2a ab bd 84 23 71 bd 59 dd d0 bd
       0.3337126 -0.083576754 -0.05887176 -0.10198469
000160 df 24 3c be 63 e5 08 3d 06 28 01 3f 65 67 a3 3d
       -0.1837344 0.033421885 0.50451696 0.07978705
000170 be 4c ab 3d 6e 6b 5f 3e a9 dd d7 3d c0 b7 76 bd
       0.08364247 0.21818325 0.10540325 -0.06023383
000180 20 bc b4 bd ec ba b5 3d d8 d0 74 3e c7 ce 77 3e
       -0.088249445 0.08873543 0.23907793 0.24199973
000190 e4 6e f9 3d 82 0c 55 3e 03 53 7b 3b de eb 01 be
       0.12179354 0.20805553 0.003834904 -0.12687632
0001a0 e5 1b 2a 3d 51 f1 83 bd f1 b4 87 3e b3 4a bd bc
       0.04153051 -0.06442512 0.26505235 -0.023106908
0001b0 12 a5 cb 3b 19 11 fb 3c 55 68 02 bd ab c7 5b 3c
       0.0062147463 0.030647801 -0.03183778 0.013414304
0001c0 ae 6b ba 3c f1 87 34 bd d4 42 04 3c 09 c9 a3 bd
       0.022756424 -0.044074956 0.008072574 -0.07997329
0001d0 a2 60 e9 3c 32 17 03 bd 74 02 65 3c 9b 3b aa 3d
       0.02848846 -0.032004543 0.013977636 0.0831215
0001e0 86 66 9c bd 50 bf 05 3a 2e ec ea 3d c2 0e b2 bc
       -0.07636742 0.0005102055 0.11470829 -0.021735553
0001f0 27 1f 98 bd b1 e1 d1 bd 8e c8 c2 bd a4 38 6a 3d
       -0.07427817 -0.10248125 -0.09510909 0.057182923

layer.6.weight f4 [23, 128]
000000 8a 7f 1d bd f6 e6 f7 3a 25 c3 53 3d 4a fd 0b 3c
       -0.03845171 0.0018913436 0.051699776 0.008544276
000010 02 fd ad 3c 15 1d 7a 3c e2 19 a8 3b 62 74 c7 bc
       0.021238808 0.015265723 0.0051300386 -0.024347488
000020 ae 97 d1 bc 98 91 e4 3c 99 f1 07 bd c1 c7 97 bc
       -0.025585022 0.027901456 -0.03318939 -0.018527867
000030 af 3e fa 3c ac 62 c2 3b 8c e5 72 3d e4 19 26 3d
       0.030547468 0.0059321728 0.059300944 0.040552035
000040 06 51 b1 3c 88 5a 58 3d bf f5 87 bd 68 ba 5b bd
       0.02164508 0.052820712 -0.06638669 -0.053644568
000050 e0 b8 77 bd be d4 82 bc ec 89 21 bd 73 f8 28 3d
       -0.060479045 -0.015970584 -0.039438173 0.041252565
000060 55 c3 86 bd 66 d7 6f 3d 26 9c 50 3d e2 18 60 bd
       -0.065802254 0.05855503 0.050930165 -0.05471123
000070 35 43 b2 bc c0 f5 72 bc 83 5c f6 3b 54 a4 9b 3c
       -0.021760562 -0.014829099 0.0075183525 0.018999256
000080 32 c0 2c 3d 56 73 01 3d 02 d4 9b bd 1b 7e 40 3d
       0.04217548 0.031604134 -0.07608797 0.046995264
000090 77 25 a0 bc 85 aa 20 bc 53 c3 0b bd 1d f6 47 bc
       -0.019549115 -0.00980628 -0.034121823 -0.012204674
0000a0 89 19 cb 3a 3b bc 22 3d 5b 1b 9e 3c cf d1 97 bd
       0.0015495281 0.03973029 0.019300153 -0.07413065
0000b0 30 e3 3c 3d a0 60 c3 ba 0b 7c 19 bd bd 8b d4 bc
       0.0461151 -0.0014906116 -0.037471812 -0.025945539
0000c0 42 b5 db bc 75 02 e4 bc 26 62 77 bd a6 3f 29 bd
       -0.026819829 -0.027833203 -0.060396336 -0.041320466
0000d0 59 d9 06 3d 10 85 44 3d d3 de 10 3d 1d 8c 80 3d
       0.032922123 0.04797846 0.03536875 0.062767245
0000e0 f7 99 cf bc 6a 62 f2 3c ac 55 94 3d 66 c1 58 3d
       -0.02534197 0.029587943 0.07242903 0.052918814
0000f0 a3 5f d0 bb ed 56 ea bc 25 33 52 bd a3 33 bd bc
       -0.006359057 -0.028605903 -0.051318306 -0.023095911
000100 8b b5 c1 3c bf 97 bc bd 86 c4 55 bc 6f 51 94 bd
       0.023646137 -0.09208631 -0.013047343 -0.07242095
000110 1b e3 d9 bb e9 13 03 bc 55 03 34 bd 4e 87 91 bb
       -0.0066493875 -0.008000352 -0.04394849 -0.0044411784
000120 50 bb 68 bd ce df d2 bc 04 77 55 3b cf 9f 12 ba
       -0.05681926 -0.025741484 0.003257216 -0.00055932713
000130 b3 1c de bc 14 03 12 bd a7 66 28 3d 12 de 83 3c
       -0.027113294 -0.035647467 0.041113522 0.016097102
000140 b6 06 94 bd da 4c 8a bd c3 85 98 bc 16 eb a5 3b
       -0.072278425 -0.067529395 -0.01861847 0.005063425
000150 f9 b5 83 3d 22 9e ac 3c 91 dd 98 bb 07 d5 94 3c
       0.06431193 0.021071497 -0.0046650846 0.018167986
000160 22 84 23 3c 54 e2 aa 3d 38 4c 88 bd d9 7e c4 bc
       0.009980233 0.0834395 -0.066551626 -0.023986267
000170 c0 99 88 bd 57 47 6f bd 07 d5 f5 3d a1 92 1b 3d
       -0.066699505 -0.058417644 0.12003522 0.037981633
000180 b1 9c 4e bd 95 cc 87 3c db 81 8c bc fa bd f2 bc
       -0.0504424 0.016577045 -0.017151764 -0.029631604
000190 f3 35 c3 bc e7 77 92 3d 59 cd 14 3d 79 f8 c0 b8
       -0.023829436 0.07151776 0.036328647 -9.201555e-05
0001a0 81 52 c2 bb 4a 14 39 bd 8e bd d4 3c 88 31 da bc
       -0.0059302454 -0.045185365 0.025969293 -0.026634946
0001b0 65 80 32 bb 48 31 03 3d 0f 98 87 3d 9d 6d c3 3d
       -0.0027237174 0.03202942 0.066208 0.095423914
0001c0 d7 03 5b bc b3 ae de 3c a4 f7 69 3c 13 0a 73 bd
       -0.013367615 0.027182912 0.0142802335 -0.05933578
0001d0 f1 69 dc bc cf 5d 28 3b 92 0f 5c bd 2e 83 32 3c
       -0.026905986 0.002569068 -0.053725787 0.0108955335
0001e0 e8 c0 54 bc c2 d7 be 3c c5 25 c2 3c 1d b2 08 bd
       -0.012985446 0.02329624 0.02369965 -0.033372987
0001f0 69 43 86 3d 06 0b bb bc 6c d0 b0 bc 0c 36 65 bd
       0.06555826 -0.022832405 -0.021583758 -0.055959746
000200 45 84 dc bc 2a 97 a7 bc 4d 0d 1d bd 82 7c ba bb
       -0.02691854 -0.020457823 -0.038342763 -0.005691112
000210 9b 5d 65 bd 44 3e 49 3d e5 36 ec bc ef 10 23 3d
       -0.055997472 0.049131647 -0.02883477 0.03981107
000220 cd 16 88 bc 9e b3 f6 bb 46 07 aa 3c 82 a3 59 bb
       -0.016612435 -0.0075287363 0.020755421 -0.003320903
000230 4d f7 fd ba 42 fd 4b 3c 6b a0 eb 3c df 91 11 bd
       -0.001937607 0.012450518 0.028763017 -0.035539504
000240 f9 56 2e bc 8f 1a 46 bd ef f7 08 3b 26 24 12 3d
       -0.010640853 -0.048365172 0.0020899733 0.035679005
000250 3e b1 50 3d c9 e8 ad 3c a9 16 cc bb ee 44 a4 3c
       0.05095028 0.021229165 -0.0062282872 0.0200524
000260 52 d1 62 3d 3b 9e 59 bd f3 e5 37 3d 7c d0 51 3c
       0.055375405 -0.053129416 0.04489703 0.012806054
000270 15 86 1f bd 33 b1 2a 3d a7 52 d2 3c 23 bb 00 3c
       -0.03894623 0.041672897 0.025674177 0.007857117
000280 16 b1 04 3d dd 7c cd bc e6 ad ce bd 5c c1 a3 bc
       0.032395445 -0.025083954 -0.10091762 -0.019989662
000290 c6 ed 05 3d b3 ff 0d 3d c7 bb 3a 3d 28 b7 c8 3c
       0.03269746 0.034667682 0.045589235 0.024501398
0002a0 07 c1 4e 3d 84 1f 19 bd 70 99 81 3b 71 3c 25 bb
       0.050477054 -0.03738357 0.0039550588 -0.0025213028
0002b0 d5 0f a0 bd a2 4a 03 bd c6 55 33 bc dd a0 ad 3d
       -0.0781552 -0.032053597 -0.010945743 0.08477948
0002c0 27 9e d3 bc 07 33 af bc 9e 71 9e 3c ac 87 ef 3c
       -0.025832249 -0.021386636 0.019341286 0.029239498
0002d0 d6 b4 5e bd 88 76 3f 3c 01 dc 5b 3d e6 31 81 3d
       -0.054371677 0.011685975 0.05367661 0.063083455
0002e0 27 e2 2d bd c8 df 0d bd c0 0a 1a 3d b4 04 ac 3c
       -0.042452004 -0.034637243 0.03760791 0.020998336
0002f0 4f 87 97 bc 88 3d 25 bd 82 aa 27 3d 6d 59 95 3c
       -0.018497137 -0.040341884 0.040934093 0.018231118
000300 ec b3 6f bd 6a 43 9c bc 82 8f 8d 3a a8 30 17 bd
       -0.058521196 -0.019075114 0.0010800215 -0.036911637
000310 e1 4c 38 3c a1 c5 a8 3c b7 ad 84 bd 7b 7e 71 bc
       0.011248798 0.02060205 -0.06478446 -0.014739628
000320 5f 03 eb 3c 08 fa 90 3b 48 8a 2f 3d c8 e3 c4 bc
       0.02868813 0.0044243373 0.042856485 -0.024034396
000330 d9 01 6c 3d 16 d1 83 bc 1c 84 85 bc 17 3a 73 bb
       0.05761895 -0.01609091 -0.016298346 -0.0037113482
000340 dd 3b 4c 3d dc a5 89 bc 99 73 0a bd dc 7c ae bb
       0.049861778 -0.01680272 -0.03380165 -0.005324943
000350 4f a4 59 3d ef 94 8a bd 29 54 c7 3c f8 8b 26 3c
       0.053135213 -0.06766688 0.024332123 0.010165207
000360 59 d1 b3 3b a4 74 bd bc 34 81 df 3c d8 e4 11 3d
       0.0054876027 -0.023126908 0.027283289 0.035618633
000370 18 bb 00 3c b5 00 b0 3b a8 2a 02 bd 95 c3 4e 3c
       0.007857107 0.005371178 -0.03177896 0.012619873
000380 fc ee 49 bc fa d3 10 ba 0d ac 75 bd 56 19 d1 bc
       -0.012325045 -0.0005524751 -0.059978534 -0.025524776
000390 52 f8 63 bd e5 1d 79 3b 71 c2 3e bd b8 0c a2 3c
       -0.05565674 0.0038012203 -0.046572153 0.019781455
0003a0 e7 f5 22 bd cb 35 1b 3d 90 58 5f 3c c2 cd a8 bc
       -0.039785292 0.037893098 0.013631955 -0.020605925
0003b0 62 40 12 3c f7 56 d1 bc db 5f 96 3d d2 b4 f1 3c
       0.008926483 -0.025554163 0.07342502 0.029505167
0003c0 97 27 bb 3c fb 65 9a 3c d1 c0 1b bd c0 a1 fb bc
       0.022846026 0.018847456 -0.03802568 -0.030716777
0003d0 52 a8 0d bc 7e 88 bc 3a a3 09 72 bd b1 e1 84 3c
       -0.008646088 0.001438394 -0.05909122 0.0162209
0003e0 d1 8b 6a 3d fc 49 dd 39 c7 55 0e 3d 10 b5 e0 3c
       0.057262246 0.00042207527 0.034749772 0.027430087
0003f0 ac e3 7b 3c 4c 02 8e bc e2 69 37 bc c4 1b 05 3d
       0.015374105 -0.01733508 -0.011194678 0.032497182

layer.6.bias f4 [23]
000000 04 b3 b7 3d 4f 38 2c bc 20 e2 0a 3e 52 30 15 3d
       0.089696914 -0.010511472 0.13562822 0.036423035
000010 e1 d3 86 3d 6b 7e 65 3e 60 48 21 3d 9e 82 cf 3d
       0.065833814 0.22411506 0.039375663 0.10132335
000020 2b 76 5c bd de b5 94 3d 1d 7b 8a bc 7e 53 72 3d
       -0.05382363 0.07261251 -0.016904408 0.059161656
000030 26 0f 5a 3d 48 67 db bc 41 5b ad bc 91 42 99 bd
       0.053237103 -0.026782647 -0.021161677 -0.074834
000040 fe a5 aa 3d 01 69 6e 3e 77 3e 7b 3d 0e ae b7 3c
       0.08332442 0.23282243 0.061338868 0.022421863
000050 c1 67 42 3c 10 cd 61 3d 8d 9d 87 bc
       0.011865557 0.055127203 -0.016554618
