weight/save_2_30.992790000526.pth (torch_old, 87748 bytes, 8 tensors)

layer.0.weight f4 [64, 54]
00000000: 40fc 5f3d 6400 5f3c 9833 f0bd 8ec1 63bd
00000010: f0b5 2a3c c9d6 c7bd a487 e23d 3262 9c3c
00000020: 0274 3cbd b909 c33c 60f7 d83d 5dc0 323d
00000030: 1199 40bc 8ff4 0c3d 2806 3fbc 5f9c 83bd
00000040: 72fe d73d 8a4a e4bd 6771 02bd 25bf 913d
00000050: f7d7 fe3d 6625 513d 8249 99bd 6637 c03d
00000060: dae3 99bd 6727 33bd 928e 8c3d a8de 72bc
00000070: f22d b73d 44e2 863d 6157 93bd 7056 99bd
00000080: ccd9 afbd 007e ff3b 6af9 063e a48a 6d3d
00000090: 5ff3 efbd de64 0cbd 264a 8d3d 5699 863d
000000a0: 5e15 963d 4225 6dbd c894 54bc 5222 94bd
000000b0: ac23 7dbd 6c69 b1bc d038 6cbc 26f4 7abd
000000c0: be25 09be 28cd 36bc 0c59 3cbd 105c d0bd
000000d0: d445 98bd c0b5 e93c 7c9d e9bd 6d06 ec3d
000000e0: b8f5 c03d da5a 5e3d e34b d9bd 0a1d 01be
000000f0: 0ab5 9fbd 94e0 35bd 54e5 e33d d079 04be
00000100: bef0 a0bd 0c27 7a3d 4a92 c93d 3aa4 b43d
00000110: c078 703d eade c73c eeb8 acbd 1c73 59bd
00000120: 216f 06be 9b45 e93c 1f3e 873d 586d 4b3b
00000130: ece9 1ebd 26d1 a8bd 94f0 213d dada 6dbd
00000140: f685 97bd bd67 75bd 370f 07be 2008 0fbc
00000150: 2ac0 d2bd 561e 1dbd 18a6 873d e431 013d
00000160: 90ba 26bd f9db e3bb d0f6 093d 2b2e 03be
00000170: d693 a13d a756 eb3d c000 e13c 6504 80bd
00000180: ea64 3abd e8cd 9d3d e295 1fbd 14e5 e33d
00000190: 5ac4 063e 4d9b 03bd 46a9 97bd 383a 73bd
000001a0: 8e7b 033e 04fb a23d 8046 cc3c 88fe 81bd
000001b0: 94bb 993d 96da c7bc ae71 7ebd 8e15 753c
000001c0: c05b e6bd d731 a03d 84d1 163d f93f 16bd
000001d0: b595 a53d f84a 81bd d68f d3bd 3406 bebc
000001e0: 2013 353d 11b8 ba3a 4871 473d 83d6 903d
000001f0: a4fa 1a3d 7441 c03d 4632 bc3d dd42 e13d
00000200: 981e 583d 7779 c43d 8839 973d 86dc a63d
00000210: e232 5bbc 3a94 ffbd 81ad 033e 0f7f 5b3d
00000220: 2b2d e63d 70e8 9e3d c946 b6bb f7d8 ab3d
00000230: f405 073e 9421 4d3d c50b fc3d 0230 e338
00000240: ec6a e5bc 9257 2abd f7a7 f6bd 5302 50bd
00000250: 9257 0abe 74e6 013e 9d20 b8bd c31f 05be
00000260: 6304 043e e457 edbd 8463 e23c 177e 1f3d
00000270: 0c2e b63d cc7a f4bd 4d4d cdba aeb6 06be
00000280: c85e c73c 2409 46bd 0d26 d2bd 3064 263c
00000290: 83c0 90bd d57d 31bc fc32 84bc fddf d53d
000002a0: 60df 01bd 110d ddbd 5709 af3c 2234 e83d
000002b0: 0a90 7dbd 0ce9 b63d 2b48 0f3e e617 cd3c
000002c0: 8a4a 54bd f6f9 a3bd b445 6ebd 9c09 013d
000002d0: a58f 04be b819 613c cfa0 01bd 3bc4 cb3c
000002e0: 995a 0d3e 1a46 e6bd 92fb 95bc 7b61 ddbc
000002f0: e92e 07be ceff 603d 9017 9cba a17c ddbd
00000300: fccb e9bd 6e1b c83d 58b3 bd3d e807 463d
00000310: f81f e83d b7b0 013d 92f4 c5bd 7085 943d
00000320: 1089 76bd f0f3 a53d ae45 de3d c051 9b3d
00000330: e62c 903d 8918 40bd 1af9 01bd ee41 033e
00000340: 0041 a2bd 0f87 363d 5c27 bcbd ea13 083e
00000350: a00c 0fbc d2f1 d3bd 0a5d e9bd 9020 b43c
00000360: a0da 47bc e5c7 033e 7651 88bc 9fb2 0cbe
00000370: 388b 833c 4306 9dbc d5ba a2bd 056e 5fbd
00000380: 173c 973d cb5a aabd b2b4 02bd 201d 05be
00000390: 5e76 67bc f706 f6bd 5a86 0abd 674e b8bd
000003a0: d607 df3d a863 ec3d 13ae e6bc 67c9 143d
000003b0: db98 3dbd 947d cc3a bfe3 06be 3f73 f4bc
000003c0: 185c b2bc 58a9 863c 3be0 a03d 68ce 823d
000003d0: d552 913d 505d c5bd f7e8 033e 9f31 933d
000003e0: 4ae8 a3bd 141a 2d3d 5a3e babd 85c1 da3b
000003f0: e485 cd3d 04da 073e e13d b23d 07fa 4cbc
0.054683924 0.013610933 -0.11728591 -0.05560451 0.010419354 -0.09757764 0.11061028 0.019089792
-0.04600907 0.023808347 0.10594058 0.043640483 -0.011755244 0.034412917 -0.011659183 -0.0642631
0.105465785 -0.1114703 -0.03184643 0.07116536 0.12443536 0.051061057 -0.07484724 0.093855664
-0.07514162 -0.04373875 0.06863131 -0.014823593 0.0894431 0.065861255 -0.071944006 -0.0748719
-0.08586463 0.007797003 0.13181081 0.057993546 -0.11716341 -0.034275882 0.06898908 0.06572215
0.07328294 -0.05789686 -0.012974925 -0.072331086 -0.061801597 -0.021656714 -0.014417842 -0.061267994
-0.13393304 -0.0111573115 -0.04598336 -0.101738095 -0.07435194 0.028529048 -0.11406991 0.11524663
0.09421867 0.05428586 -0.10610177 -0.12608734 -0.07798202 -0.044403628 0.11127725 -0.12937093
-0.07858418 0.061072394 0.098423555 0.08820386 0.058708906 0.024398286 -0.0843371 -0.053088292
-0.1312833 0.028475573 0.066036455 0.0031040516 -0.038797304 -0.08243017 0.039536074 -0.05807004
-0.07398598 -0.059913386 -0.13189398 -0.0087299645 -0.10290559 -0.03835901 0.06623477 0.03154172
-0.040705264 -0.006953713 0.033682644 -0.1281058 0.078895256 0.11491137 0.027466178 -0.06250838
-0.045506395 0.07705289 -0.0389613 0.111276776 0.1316084 -0.03213053 -0.07405333 -0.059381694
0.12840101 0.07958034 0.02493596 -0.06347376 0.07506481 -0.024396222 -0.062120132 0.014958752
-0.11247969 0.07822006 0.036820903 -0.036682103 0.08085195 -0.06313127 -0.10330169 -0.023196317
0.044207692 0.001424553 0.048692018 0.07072165 0.037836686 0.09387484 0.091892764 0.10999081
0.05276355 0.0959348 0.0738402 0.0814753 -0.013378831 -0.12479444 0.12859155 0.05358797
0.11239084 0.07759178 -0.0055626375 0.08390992 0.13185865 0.05008085 0.12306932 0.00010833146
-0.028005086 -0.04158742 -0.120437555 -0.050783467 -0.13509968 0.12685567 -0.089905955 -0.13000397
0.12892298 -0.115890294 0.027635343 0.038938608 0.088955015 -0.11937484 -0.0015663296 -0.13155624
0.024337187 -0.04834856 -0.10261164 0.0101557225 -0.07067969 -0.010833223 -0.016137592 0.10443113
-0.031707168 -0.10793508 0.021366758 0.113380685 -0.061904944 0.08931169 0.13992374 0.02503581
-0.0518289 -0.08006661 -0.058171943 0.031503305 -0.12945421 0.013739042 -0.0316475 0.024873843
0.13804092 -0.112438396 -0.018308435 -0.027024021 -0.13201489 0.054931454 -0.0011908878 -0.10814787
-0.1141586 0.09770857 0.09262723 0.048347384 0.113342226 0.03166267 -0.09665789 0.07252014
-0.060189307 0.08103168 0.10853134 0.07583952 0.07039814 -0.0468984 -0.031731702 0.12818119
-0.07922554 0.044562396 -0.09187195 0.13288847 -0.008731037 -0.10348858 -0.11394699 0.021988183
-0.01219812 0.12869222 -0.016640406 -0.13740014 0.016057596 -0.019168025 -0.07945792 -0.054548282
0.07384508 -0.08318099 -0.031910606 -0.12999392 -0.014127342 -0.12013047 -0.033819534 -0.08999329
0.108901665 0.115424454 -0.028159177 0.036324885 -0.046288352 0.001560139 -0.13172816 -0.02984011
-0.02177243 0.016438171 0.078552686 0.06387025 0.07095877 -0.096369386 0.12881838 0.07187199
-0.0800329 0.0422612 -0.09093924 0.0066759014 0.10035303 0.1326676 0.08703209 -0.012510783

layer.0.bias f4 [64]
00000000: a997 fcbd 92b2 133d e532 3bbd df82 9abd
00000010: 89a4 52bc f783 70bd bc47 033e e915 aa3b
00000020: 3e5f 8ebd a168 31bd 8a31 b93d 9732 80bd
00000030: b0cf 26bd 4034 013e f93e a13d 2a53 e6bd
00000040: 6bcf a13d e816 9fbd b0ce 653d 68b0 5dbc
00000050: 2dac 163d 47b6 e13d 9d66 6fbd fbda 80bd
00000060: 82ba a4bd 10b3 263d a463 dbbd 0a60 e23d
00000070: 61f2 a2bd 534b 05be b75c 7abd 64c8 0c3e
00000080: c530 b1bd 89ea 9ebd ef12 803d 7112 cf3c
00000090: 4290 63bd 8cd0 403d ced7 673d 9fca c83c
000000a0: cea5 aa3d 3f80 6b3d 7a5c a43d e297 b1bd
000000b0: 36c7 333d 454e 1abd ef5a 1bbc 357e 8abc
000000c0: ef34 82bc e48a 8e3d c803 76bb 4539 a33d
000000d0: 1a3a 24bc f369 2e3c ac3f 963d 24dd fcbd
000000e0: 315d f93c 86e9 9cbd 0fd6 643c c954 8fbd
000000f0: 0544 b5bd 66f9 853b 49a8 70bc 1f7a 173b
-0.123336144 0.03605897 -0.045702834 -0.07544493 -0.012856611 -0.0587196 0.12820333 0.0051906
-0.0695176 -0.043312673 0.09042652 -0.06259649 -0.04072541 0.12617588 0.07873339 -0.11246331
0.0790089 -0.07768041 0.056105316 -0.013530828 0.036785293 0.11021095 -0.05844747 -0.06291767
-0.08043386 0.04069811 -0.10712364 0.11053474 -0.07956386 -0.13017015 -0.061123576 0.13748318
-0.0865188 -0.07759578 0.06253611 0.025277348 -0.055557497 0.047073886 0.05660229 0.02451068
0.08332406 0.057495352 0.08025451 -0.086715475 0.043891154 -0.0376723 -0.0094821295 -0.016905883
-0.015894381 0.06960085 -0.0037538875 0.07969908 -0.010023618 0.010645377 0.07336363 -0.12346867
0.030439945 -0.076617286 0.013967051 -0.06998593 -0.08850864 0.0040885685 -0.01468856 0.0023113561

layer.2.weight f4 [128, 64]
00000000: a997 52bc de3e e53d 3edc e93c fbeb e83d
00000010: addd cbbd 5561 c23d 8989 9f3d 61a1 b4bc
00000020: 4857 d83d 0539 8b3c 54d9 fabd e0dd 1fbd
00000030: bf1e 973c 0bb3 583c f535 44bd cc58 c43d
00000040: 8939 f53d e734 47bc 045e 803d 5285 d53d
00000050: 4d7b febd 6de9 aa3c 3f14 c4bd d6de 41bb
00000060: ddc1 b8bd bd38 bcbc a1d9 d33d 2092 823c
00000070: e918 b53d 4fc8 c9bd c9ef 87bc 36c9 84bd
00000080: 1621 91bd 189d 2f3c bd69 43bd f603 df3c
00000090: 8d81 bdbd 43af 513d 8b26 6f3c 47d2 e7bd
000000a0: 46bd 883c 72ba f5bd c71a 0fbc 5287 9c3d
000000b0: ac8e 27bd 50c3 57bd f06c d13d ec18 b63c
000000c0: 06ed 9fbd 578b 27bd e1d5 ee3d 251a ef3d
000000d0: 85ae 9d3d 8f64 46bd cbae 15bd c957 dfbc
000000e0: c833 ec3d b71f 0f3d 0481 ddbc cc03 d0bd
000000f0: d4eb 9e3d 9f15 b2bc 734b bd3d 59ad f33d
00000100: e7de d13d 1d00 dcbd f75d 5f3d 5eea ffbc
00000110: 29f9 1b3d f650 1dbd 39f3 fc3d bf0b b23d
00000120: 6559 19bd 795f 813d 887b 663d f39c 473d
00000130: 67bd 29bd 0efe ea3d 3b2d 9bbd 5a3c 1c3d
00000140: bbf3 a33d 8a62 223d 735e 6cbd d1aa a03d
00000150: 13a5 903d 80f5 693d 2173 f83d 552e d7bd
00000160: 363d babc 29c6 7f3d caa7 d7b9 59e4 bf3d
00000170: c0cb 94bd fb6f 0d3d 2321 a1bd 43f2 aa3d
00000180: 3674 04bc c392 67bd 5844 97bd b719 f5bd
00000190: 1788 853b ec00 c5bd 4214 0abd b92b b5bd
000001a0: 1173 2ebd 9559 c63d 56c6 2bbd 2c31 cbbd
000001b0: 002d cb3d dbea 08bd 7b4a 463d f860 54bd
000001c0: 1143 f93c 6835 833c 6680 12bd 0a4b 903d
000001d0: 4764 093d 3edb 103d 383b ba3d e6ae 043e
000001e0: d58d 103d 140d 8c3d bc00 8fbd 77b7 b63d
000001f0: 3b28 633d 2f7b 143d 7934 1c3d 6bdb ffbd
00000200: 2b79 d0bd c3c4 02bb 2825 6abd 34e3 24bd
00000210: 8934 ce3d 4f9a 5ebd 504c adbd 0865 c03d
00000220: b4a4 d9bd a2be acbd ed56 23bc 4035 d13d
00000230: b768 b1bc 9f01 c5bd 8b45 0e3d fbff b13d
00000240: 25a1 ac3d fdd1 5ebd 6e59 c7bb d8e4 693d
00000250: d249 9abd 1d43 babd 0a2c 2f3d ffb6 873d
00000260: 9490 c2bd 96c3 2ebd 4c78 be3d c962 03bd
00000270: 9563 613d 1920 babc b2a1 cf3c 7226 c0bc
00000280: 85ed 07be 2733 0bbd 9e6c 983d 0ab6 0bbd
00000290: e85f 79bd b9ea d1bd 634e e3bb bbb0 64bc
000002a0: 8b54 9ebd 5578 3bbd 9c64 8ebd d8e0 a33c
000002b0: cca4 81bc 0c93 d93d d0f0 edbd 9d3b a43d
000002c0: 8f2e cd3d 41cc d83d 6344 28bd 74a8 c33b
000002d0: 9dec 6d3c 1170 f63d d738 df3d a980 bd3d
000002e0: 533a f23d 73c5 be3d 8d88 87bc 67da 0e38
000002f0: a253 02bd e8fa 383d 40ef d3bd 2e50 c4bd
00000300: 241d af3d 5867 0e3d 2030 d9bc fcb4 6a3d
00000310: 5cc4 c03d 808c 34bb a67a 8ebd a4c9 57bd
00000320: eacc ebbd 0ea2 eb3d 00b3 13bb c0da 4a3c
00000330: 9c2f 3c3d 2868 b33d a086 04bc d83f 9ebd
00000340: a079 f8bd 3458 2abd 385f e8bc 4c42 c0bd
00000350: 2046 a1bc 2a37 b73d 482f 313d c8f3 bdbd
00000360: 9c5c 16bd 1aef b1bd 0064 4d3c 402c 383d
00000370: 0050 4539 54ce 09bd 5829 90bd 8cbc fa3d
00000380: b0ca 0d3d f041 fdbd 2842 cbbd d660 9f3d
00000390: 3c5e 13bd 2a9a a5bd e21a d1bd 5811 9fbc
000003a0: 72df b6bd 70eb df3d b4a9 6fbd d268 8ebd
000003b0: a038 e9bd 56a2 85bd 629a c93d b0ae 17bc
000003c0: 1870 ee3d f02d 31bd 780e afbc 6853 f83c
000003d0: 501f 18bd 687a a43d c017 20bd e006 60bd
000003e0: a8c5 cb3d 684e e5bc a805 61bd 081a d1bd
000003f0: ce10 c5bd 24ea 573d 54b5 68bd 5c03 61bd
-0.012853541 0.111936316 0.028547402 0.11373135 -0.09954391 0.09491221 0.077899046 -0.022049608
0.105635226 0.016994962 -0.12248483 -0.039029956 0.018447278 0.013226281 -0.04790302 0.09587249
0.119738646 -0.012158609 0.06267932 0.104258195 -0.124258615 0.02086326 -0.09574174 -0.0029582283
-0.090213515 -0.022976274 0.10344244 0.015938818 0.08842642 -0.09852659 -0.01659383 -0.064836904
-0.07086389 0.010718606 -0.04770826 0.027223568 -0.092532255 0.051192533 0.014596592 -0.11319404
0.016691815 -0.11998452 -0.008734412 0.07642998 -0.040907547 -0.0526765 0.10225856 0.02222868
-0.078088805 -0.04090437 0.11661888 0.116749085 0.076993026 -0.048435744 -0.03654365 -0.027263539
0.11533314 0.034942355 -0.027039059 -0.10156974 0.077598244 -0.021738825 0.092429064 0.11898298
0.102475934 -0.10742209 0.05453297 -0.031239685 0.038079415 -0.03840729 0.123510785 0.08693647
-0.03743877 0.06317038 0.056270152 0.048733663 -0.041440394 0.11474238 -0.075769864 0.038143493
0.08005472 0.039644755 -0.05770726 0.07845081 0.070627354 0.057118893 0.12131334 -0.10506884
-0.022734266 0.06244484 -0.00041133008 0.09369726 -0.07265425 0.03453062 -0.078676485 0.08346989
-0.0080843475 -0.056536447 -0.073860824 -0.11967795 0.004075061 -0.096193165 -0.033710726 -0.0884623
-0.042590205 0.09685055 -0.041937195 -0.09921488 0.099206924 -0.0334271 0.048410874 -0.05185029
0.030427488 0.016016677 -0.03576698 0.070455626 0.033542898 0.035365336 0.09093326 0.12957343
0.03529151 0.06838432 -0.06982562 0.08921712 0.05545829 0.03625029 0.03813598 -0.124930225
-0.10179361 -0.0019953705 -0.05716434 -0.04025574 0.10068614 -0.05434638 -0.08461821 0.0939427
-0.10627118 -0.08434798 -0.009969455 0.10215235 -0.021656377 -0.0961945 0.03473429 0.086914025
0.084291734 -0.05439948 -0.006083659 0.057103008 -0.07533611 -0.09094832 0.04276661 0.066267006
-0.09500232 -0.042666994 0.093002886 -0.03207663 0.05502661 -0.022720383 0.025345657 -0.023455832
-0.132742 -0.03398433 0.07442592 -0.034109153 -0.06088248 -0.10249848 -0.0069368347 -0.013958151
-0.07730969 -0.045769054 -0.069527835 0.020004675 -0.015825652 0.1062375 -0.11618197 0.08019183
0.10018646 0.10585833 -0.041080844 0.005971009 0.014521745 0.12033094 0.10899513 0.092530556
0.11827531 0.09315004 -0.016544605 3.405884e-05 -0.03181804 0.045161158 -0.10348368 -0.095856056
0.0855048 0.034766525 -0.026512206 0.057301506 0.094124526 -0.0027549565 -0.06956987 -0.052682534
-0.11513694 0.11505519 -0.0022537112 0.012381256 0.04594384 0.087601006 -0.008088738 -0.07727021
-0.12132573 -0.041588023 -0.028365716 -0.09387645 -0.019686759 0.089460686 0.04325798 -0.09275013
-0.036709413 -0.08688183 0.012536049 0.044964075 0.00018817186 -0.033644035 -0.07039136 0.12242994
0.034617126 -0.12366092 -0.09924728 0.07782142 -0.03597854 -0.08086045 -0.102102056 -0.01941745
-0.089293376 0.10933578 -0.05851145 -0.06953587 -0.113877535 -0.06525104 0.09843899 -0.009257957
0.11642474 -0.0432567 -0.021369204 0.030313209 -0.037139237 0.0803116 -0.03908515 -0.054694057
0.09949809 -0.027991489 -0.054937035 -0.10210043 -0.09622346 0.05271353 -0.056813553 -0.054934844

layer.2.bias f4 [128]
00000000: c862 c03d 2dbd be3d ba26 8a3d e45e d0bd
00000010: 3f13 b53c 5261 623d 00be cbbd cac6 dabd
00000020: d57f a0bd 9272 d23d d28b 7c3d 9f87 b6bd
00000030: 40ba f43d a62e 993c 0f06 dcbd 62e4 e3bd
00000040: 1a81 99bd e717 9bbc 4704 debd d3d7 47bd
00000050: 103a d9bd 4be8 d03c d6ef c13d 3b51 a53c
00000060: 5afb b1bc 79a1 893d b859 38bb 09b7 f53d
00000070: 226d 203d 0f48 eabd 3fb5 abbd 6473 94bd
00000080: 1dc4 f33d 6b44 a5bc e6cb f2bc f491 753c
00000090: 0a3c 733d ee1b 863d 19e8 d8bd de71 9c3d
000000a0: d8ba 5fbd 4a93 56bd ec6a a4bc 8079 41bd
000000b0: 369d 8a3c e119 afbd c3fa 43bd 8e08 dabd
000000c0: f728 bb3d 6a0e b83d c8bb ebbd fb74 8f3c
000000d0: 3d58 bbbd 3b66 a1bd bd97 10bd d212 7fbb
000000e0: a1ca 1f3d e6f3 023e dbac e4bc f776 523d
000000f0: 2eec f9bb efe7 dd3d c119 d8bd 0791 bb3d
00000100: 088c 85bd 72b3 b63d 6079 79bd 6d20 42bd
00000110: b332 b3bc 4eff 343d 763b d9bc cf22 57bd
00000120: 878c 83bc 6a2f 2cbd 35c7 bc3c 8d93 d23d
00000130: 5ba7 9cbd 60dd eabd 04dc d5bd 7808 083d
00000140: f05d 28bc a839 a4bd 9886 e2bc 4616 823c
00000150: c00f 88bd 34c6 0b3d 3aaa 5dbd ec92 b2bc
00000160: 3ab9 193d e232 b23b 2f39 cdbd af9b db3d
00000170: 21a2 ee3d c69f ca3d 2aa0 d1bb eaca 4c3d
00000180: 509a 073d e1e5 ee3c 79ef 6d3d 1e42 c5bd
00000190: 0921 ebbc 1eeb 5abd 5e86 86bd 42e3 b03d
000001a0: c4bc f33d a019 223b 8f16 d5bd 16f6 69bd
000001b0: 59a5 c0bc e50f 4e3d c092 fb3d b465 dcbd
000001c0: 1982 013c e265 8f3b a936 ee3d bd37 e93d
000001d0: 6597 853d 2e87 a03d 6571 0cbc 8bcc 95bd
000001e0: 851f 83bd 7fc1 0abc 2246 d9bd 0646 1bbb
000001f0: 6502 c4bd 7328 163d b6f3 6abd d535 b53d
0.09393841 0.09313426 0.06745668 -0.10174349 0.022103904 0.055268593 -0.09948349 -0.10682447
-0.07836882 0.10275759 0.06165678 -0.089125864 0.11949587 0.018699002 -0.10743343 -0.11127545
-0.07495327 -0.018932296 -0.108406596 -0.04878981 -0.10606778 0.02550139 0.09469573 0.020180335
-0.0217263 0.067202516 -0.0028129648 0.11997802 0.039166577 -0.11439525 -0.08384179 -0.072485715
0.1190264 -0.020174226 -0.029638242 0.014988411 0.05938343 0.06548296 -0.10591144 0.07638906
-0.054621547 -0.05238656 -0.020070516 -0.047235012 0.016920667 -0.08549858 -0.047846567 -0.10646163
0.09138673 0.08987124 -0.11510426 0.017511835 -0.091476895 -0.07880827 -0.03530096 -0.003892113
0.0390116 0.12788352 -0.027914455 0.051382985 -0.0076270318 0.108352534 -0.10551787 0.09158521
-0.065208495 0.08920945 -0.060906768 -0.047394205 -0.021874761 0.04418879 -0.026517611 -0.05252343
-0.01605822 -0.042037405 0.023044208 0.10282049 -0.07649108 -0.11468005 -0.10442355 0.0332112
-0.010276303 -0.080188096 -0.02765207 0.015879761 -0.06643629 0.034124568 -0.05411742 -0.021798573
0.03753016 0.0054381946 -0.100206725 0.10723054 0.116520174 0.098937556 -0.006397267 0.0499982
0.03310615 0.02916235 0.058089707 -0.096317515 -0.028702276 -0.05344688 -0.06568597 0.08637096
0.119012386 0.0024734512 -0.10404693 -0.05711945 -0.023516344 0.050308127 0.1228385 -0.10761586
0.007904553 0.004376159 0.11631519 0.11387584 0.06523017 0.078382835 -0.008571957 -0.07314404
-0.06402496 -0.008468985 -0.1060908 -0.002369286 -0.09570769 0.03665967 -0.057361327 0.08848158

layer.4.weight f4 [64, 128]
00000000: 4fb0 0fbd 03c1 a33d fa78 30bd 14f9 8dbd
00000010: dfb2 a63c 0f2a 773d e597 963d 33e8 e0bc
00000020: dfe4 aa3d 1dce 2d3c 6f0e 193c 359d 2d3d
00000030: e23d ac3c 441f a43d b3a5 59bc a078 9abd
00000040: 927d 893c 3db8 0e3c af35 913d 780a 48bc
00000050: ec81 b4bc 84bb f4bc e5f4 6b3d de12 abbd
00000060: c2b9 f5bc a16a 86bc f738 adbd a2c6 ab3d
00000070: ba09 323d 8622 933d 25fc ad3d 2877 8cbc
00000080: b73a 6f3d 710f b5bd 28da 45bd c921 f2bc
00000090: 212d 5f3d de50 5d3d c51e a23c 9b7e 92bd
000000a0: 6912 a03d 1152 953d a3c3 0a3d cb05 b1bd
000000b0: 9c0a b5bd 6714 853d 1ae5 963d b460 4f3d
000000c0: 105a 9fbd 4e9f 9c3d afc4 493d e0bd 84bd
000000d0: 4204 a93d 9d7d e43c e923 8e3d 71bc 9bbc
000000e0: 846c 85bd 0772 53bd 2bf5 6dbd a919 213c
000000f0: 2df9 6d3d ef45 c3bc 35cc 8aba 62fb 0a3d
00000100: 70dd b7bb caa5 133c 6a22 f43c 1473 b0bd
00000110: d923 8dbd 42ae 7abc fa68 debc 0470 32bd
00000120: d98b 993b 758b 1bbd d350 4f3d 6717 943c
00000130: e759 913d ccc2 13bd c0f1 5c3d 4d91 863d
00000140: 7269 753d e220 343d ceed c8b9 d768 2cbc
00000150: effd 97bd 78c1 6e3c cc83 69bd ab68 e93c
00000160: 2dd3 183d e9d6 51bd 4268 8cbd 105d 95bd
00000170: 3fc0 293d c1d1 9b3d 754c bbbd 8f49 833d
00000180: 574d 913d 919b 053d fd87 8b3b 260c 86bd
00000190: 5d36 aabc afe0 f63c 4e47 7c3d 2f6b 793c
000001a0: 359b b5bd 2e6b bcbc 9700 bcbd 60a5 473b
000001b0: c018 723c 16de b3bd f5cb 5cbd adf4 b5bd
000001c0: 556f 7dbd c569 963d 2add 663d 914e 76bd
000001d0: 507e 8f3c c9ed 8bbd 3efc 883d 5518 03bd
000001e0: 5e96 42bd dc1e bb3b 093c 09bd ba54 46bc
000001f0: 5017 28bd 7058 43bd cd50 0fbd cfb4 03bd
00000200: f425 57bd 04f1 083c d42a 9fbd a5b5 80bd
00000210: b043 89ba 9745 993c 9ab9 17bd 6f02 973c
00000220: 7caf 7d3d cef7 653d 1c59 62bd d0ec a63c
00000230: b5e2 04bd 23a6 db3c 260a 04bd 8ca6 933d
00000240: 95f3 11bc dfe0 dbbc d113 883d 507e 38bd
00000250: ed85 10bc 835d aebd ef33 78bd bc8b 34bd
00000260: 3210 013d ac0e 83bd 86a7 f5bc 8ace 033d
00000270: 64eb 67bd e99f 31bd 1589 babc 472b d7bc
00000280: d254 983d fe36 b4bd 6691 86bd d2e3 2fbc
00000290: e4fa e8ba c248 abbd 2e42 acbd cf41 803d
000002a0: ec9d 083d 7314 88bd a0da 703b 5bae 43bd
000002b0: 87dc 833d 76d5 a4bd e6ed 66bd c1fc 3abc
000002c0: f4a7 8ebc 652b 8e3d 4eef 8dbd d56f 49bc
000002d0: 0c92 6fbd 4de1 31bd e3b9 3cbb 448f a73d
000002e0: 4c1c 043d 4f8f 403d da08 00bd dd54 e63c
000002f0: 5d9a 6ebd 7b5b 51bd a4b7 6e3d e8a2 b1bd
00000300: f45e 7cbd 3999 8cbd 01f5 853c 5493 a33b
00000310: c18f 78bc bd7f 653c 29e2 a33d 9c39 353d
00000320: 185a 983d 5db1 aabd 5227 493d e777 fb3a
00000330: 97a0 3e3d 1534 ab3d 7dcb 7e3c 87fc b13d
00000340: 1356 57bd 47b8 883d 47ad 233d 0fda 083c
00000350: 6fe7 363d 64fa bd3c 2fd5 ab3d f856 363d
00000360: 3d39 953b b7cf 5b3d b832 9c3b 1f1e 403d
00000370: 91d1 4e3d 4063 3abb 2724 923d e7f8 87bd
00000380: 027b a7bd 28a5 a43d 8784 953d 2723 833c
00000390: 4705 63bd 8a2a 56ba 0ec7 a43d 4dcb ab3c
000003a0: 61cc 84bb 451c 90bd 73f8 88bd 322d d9bc
000003b0: 016c 853d a08d db3c ab6e 5a3d 1573 543c
000003c0: e72f ddbc f078 9d3c 4b37 a2bd 16bd cd3c
000003d0: 39d8 b1bb 1a23 6dba b346 b1bd 2a8a 913d
000003e0: fb93 d73c f801 a6bd fe6b 08bd 3003 95bd
000003f0: 227a a4bd 39b7 83bd 3367 01bd 4680 fcbc
-0.03508025 0.079957984 -0.043084122 -0.069322735 0.020348964 0.060342845 0.0735319 -0.027454471
0.08344435 0.010608223 0.00934182 0.042386252 0.021025602 0.08013776 -0.013284135 -0.07542539
0.01678351 0.008710918 0.070903175 -0.012209527 -0.022034608 -0.02987457 0.057606596 -0.08353208
-0.029995803 -0.016408266 -0.08458131 0.083874956 0.043466307 0.07184319 0.084953584 -0.017146662
0.058405604 -0.08840836 -0.048303753 -0.029557126 0.054486398 0.0540322 0.019790063 -0.07153054
0.078160115 0.072910435 0.03387798 -0.08643683 -0.08839914 0.06498032 0.073679164 0.050629333
-0.0778085 0.076475725 0.049259838 -0.06481528 0.08252765 0.027891928 0.06940443 -0.019010754
-0.06514838 -0.051622417 -0.05809514 0.009832778 0.05809896 -0.023837058 -0.0010589423 0.033931144
-0.005611114 0.009011695 0.029801566 -0.086156994 -0.06891603 -0.015300335 -0.027149666 -0.043563858
0.0046858606 -0.037974793 0.05061419 0.018077565 0.07097226 -0.036074445 0.05394149 0.06570683
0.059915014 0.043976672 -0.0003832415 -0.010523043 -0.07421481 0.014572494 -0.057010457 0.028492292
0.037310768 -0.051230345 -0.06855823 -0.07293141 0.041443106 0.07608367 -0.091454424 0.064105146
0.070948295 0.032619063 0.0042581544 -0.06545286 -0.020777876 0.030136434 0.06159144 0.0152233085
-0.08867494 -0.023000326 -0.091798 0.0030463561 0.014776409 -0.08782594 -0.053905446 -0.08884559
-0.061873753 0.07344393 0.056363262 -0.06013352 0.017516285 -0.06832463 0.066887364 -0.032005627
-0.047506683 0.005710466 -0.03350452 -0.012105161 -0.041037858 -0.047691762 -0.034989167 -0.032154854
-0.05252643 0.008358244 -0.07771841 -0.06284646 -0.0010472443 0.01870994 -0.037042238 0.018433778
0.061934933 0.056144528 -0.055260763 0.020376593 -0.032442767 0.026812619 -0.03223624 0.07209501
-0.008908172 -0.026840625 0.06644405 -0.045042336 -0.008820993 -0.0851393 -0.060596403 -0.044078574
0.031509586 -0.06399283 -0.029987108 0.032179393 -0.05662097 -0.043365393 -0.022770444 -0.026265753
0.07438053 -0.087995514 -0.06570701 -0.010735469 -0.0017774967 -0.08363487 -0.0841106 0.06262552
0.03335373 -0.066445254 0.0036751404 -0.0477737 0.06438547 -0.08048527 -0.05637922 -0.0114128
-0.01741407 0.069418706 -0.06930409 -0.012294729 -0.05848889 -0.043427754 -0.002879732 0.081816226
0.03225355 0.04701167 -0.03125844 0.028116638 -0.05825268 -0.051112633 0.058280602 -0.0867365
-0.06161399 -0.068651624 0.016352179 0.004991928 -0.015170992 0.014007506 0.08002121 0.044244394
0.07439059 -0.083346106 0.049109764 0.0019185514 0.04653987 0.08359543 0.015551445 0.08690744
-0.05257232 0.06675773 0.039960172 0.0083527705 0.044654306 0.023190685 0.08390271 0.044516534
0.0045539425 0.05366489 0.0047667883 0.046903726 0.050492827 -0.0028440505 0.07135802 -0.06639271
-0.08177759 0.080393136 0.07300668 0.016007973 -0.055424955 -0.0008169791 0.08045779 0.020970965
-0.004052684 -0.07036642 -0.06688013 -0.026510809 0.06514741 0.02680093 0.053328197 0.012966891
-0.02700038 0.019222707 -0.079207025 0.025114577 -0.005427387 -0.0009046063 -0.08656063 0.07106431
0.02631568 -0.08105844 -0.033306114 -0.072759986 -0.080311075 -0.06431431 -0.03159256 -0.030822884

layer.4.bias f4 [64]
00000000: 6eac 323d 0f16 523d 8e65 87bc ef9d ab3d
00000010: 37ad d53c 4519 933d becf 083d e292 143d
00000020: dc2b 683d 709b 4a3d a08d 9fbd 8db9 85bd
00000030: 38f9 a83d 3dbb b13c 49c0 99bc acf7 49bd
00000040: 8353 4a3d 2e78 b0bc 73ad 8fbd b636 a5bd
00000050: a2aa ac3d 3bbb b4bd 9f63 773c 2244 71bd
00000060: 157c 3abd 8e30 e7bc fae2 66bd c208 263d
00000070: be38 a63d 0641 023d bd8a 70bd 56f7 04bd
00000080: f884 1e3c 0d18 1a3d c2c8 43bd 05e2 31bd
00000090: c952 843d bdf6 b23d b17d 4abd a918 58bd
000000a0: bad1 d6bb 4ae3 843d b0fb 26bd 7a8d 03bc
000000b0: fb3f 1d3d 8117 7bbd d653 d9bc f4c2 a5bd
000000c0: a522 b33d b775 453d b6ce 333d c110 12bd
000000d0: 51c9 853c 1d56 273d c1f9 9bbc c765 a3bd
000000e0: 9b5e 50bd 00ed 6fbb 8d9c 303d 53be 52bd
000000f0: f901 223b 4ca9 68bd d99b a03b 126a 423d
0.043621473 0.051290568 -0.016527917 0.08379733 0.026083572 0.07182554 0.033401243 0.03627289
0.056682453 0.049464643 -0.07790685 -0.06529532 0.0825066 0.021695727 -0.018768447 -0.049308464
0.04939605 -0.021541681 -0.07015505 -0.08067076 0.08430983 -0.08824774 0.015099435 -0.058902867
-0.04552849 -0.028221395 -0.056368805 0.040535696 0.081162915 0.031800292 -0.05872606 -0.03246244
0.009675257 0.037620593 -0.04779888 -0.04342844 0.064611025 0.08738468 -0.049436275 -0.052757893
-0.006555763 0.064886644 -0.04076737 -0.008029336 0.038391095 -0.061301712 -0.026529234 -0.08093825
0.08746842 0.048207965 0.043898307 -0.03566051 0.016331347 0.04085361 -0.01903999 -0.07978397
-0.050871473 -0.003660977 0.04311805 -0.05145104 0.0024720414 -0.05680208 0.004901391 0.047464438

layer.6.weight f4 [23, 64]
00000000: af3c b3bd aa79 153d 8266 9abd d7ca ecbd
00000010: 0dc9 793d a448 583d 1ca5 96bc d50e 943c
00000020: b9f6 213d 8db5 ae3d c926 e3bd 0f5f d53d
00000030: e965 3b3d bc01 11bd 697c 8a3d f9b7 af3c
00000040: 843f d33d 2265 8ebc 5e43 39bd 3822 1b3b
00000050: eabd 033b a11b ba3d 0fd7 cfbd dd19 0fbd
00000060: 9312 033e 50f9 fbbd cfc1 d6bd 965a 93bd
00000070: 9f83 d6bc 7ab5 ab3d ef80 8c3c 3df6 f2bb
00000080: 92d8 d13d aac6 943d 41a4 cc3d e70c 9c3d
00000090: 1ffb d4bd 3a69 b8bd e8a4 7abd 07d8 9e3b
000000a0: ba3c 01be c8a0 ddbd c782 cfbd 4024 9abd
000000b0: 65d7 8abd 16cf 24bd 889e 55bd 11da e8bd
000000c0: c6fb 0e3d 349a 2b3d 038c f6bd c2ee f7bd
000000d0: bf63 88bd 6c16 863d c49a 52bc eae9 0bbd
000000e0: fd7c be3c 725c c73d 684d 86bd fa44 773d
000000f0: 960f df3c 236c 51bd d184 7bbd bc94 babd
00000100: 9d46 0e3d 3182 073d 3b09 14bd f21e 683d
00000110: 1806 aabb 9000 e2bc 9497 30bc 843f 3a39
00000120: 499c 053d 20b9 f9bc 9967 f73c 037b 573d
00000130: 7202 15bd 933f e6bb 7300 563d b459 c7bd
00000140: 7227 a53d 4c2a bf3a 226f d53d d322 98bb
00000150: 7fc2 343d 908b 863d 639c d53d ca68 c43c
00000160: b724 2e3c 43d9 99bd b1f7 48ba 6f5d 9d3d
00000170: f4a5 c23c c95e 5fbd c905 973d c973 9abd
00000180: ca93 c53d 6c29 75bd 842f afbd aed3 c83d
00000190: ae6c 40bd d090 ebbd 1a05 4bbd db86 ecbd
000001a0: d1bf eebd 1c7b bd3c 61ee a23d 325d b43d
000001b0: 37cf f0bd c590 533d baae 1a3d 63e0 8bbd
000001c0: 741a 8d3d ccb1 e1bd 99a7 b4bd 251f ea3d
000001d0: 41ac 29bd 4999 173d 7e95 63bd 920a 94ba
000001e0: 2821 ef3d d072 fdbc b3d3 323d 9a39 cb3d
000001f0: 3f47 8abc 282a 213d 18e3 f2bd 00af 473b
00000200: 6d2c df3c b0c6 a3bd b0b2 c6bd 37be 23bc
00000210: 37df 62bd 9e83 e03d 91a3 2abd 3da8 93bd
00000220: 6c4b 933d b17d 9cbc 2663 e03c 8ce2 d43b
00000230: c5bf 6cbd a06a f0bd 05d5 94bd a26c d03d
00000240: d692 e23d 889b d03d 0c27 d5bd 43ad 58bc
00000250: d241 bebd 6811 d13d d7ef cebd 33b2 42bd
00000260: 8877 73bd d4ad e83d 1f4b 323d b75e b63d
00000270: 1a71 afbd 19b2 33bc 9ead cfbd c889 0a3b
00000280: 4954 383d 9c26 ba3b 4aef a6bd afcd a5bd
00000290: a9ee 8dbd 1432 1cbd 41d3 e43d 493a 84bd
000002a0: 85d8 733b fa35 9fbd b697 fdbc 9ed2 ac3d
000002b0: 8d49 c53c 1b59 aa3d 5e2a e73c fc0d d3bd
000002c0: 2561 ff3d 0c5e 703d 85f5 ba3d 6bef de3a
000002d0: 8c25 3bbd 030b de3d 8f31 2a3c 4489 2dbd
000002e0: 5401 92bd d25b b3bd 5524 34bd 7820 d5bd
000002f0: 65de a2bd 67f5 813d 8465 b23d 821b 99bd
00000300: d596 c73d a51b bd3d f81e dabd f4a1 9d3c
00000310: 30c6 a9bc 8248 eebd 40a9 60bd b3ce cb3d
00000320: e172 9b3d 9ee3 66bd 733d e73b 224d ddbd
00000330: fb2a 023e 48b9 ee3d 54c9 b03d f9d8 b6ba
00000340: f6c8 fd3d f61a fe3d cd1a debb 6b6f 673c
00000350: f862 d33d 39e7 cebd b439 98bd 3ef7 8f3d
00000360: 5ebb bc3c b49e 9f3d 0ca4 553c ff21 8fbd
00000370: 4090 973d 4cb6 e43d 0b74 73bd 0edc a5bd
00000380: 377e 643d a147 76bd a2cf e43d fda0 62bd
00000390: 12a8 ba3d 7883 29bd c5c8 8bbd 7e22 d63d
000003a0: 6885 1dbd 5f22 1a3d acd1 a6bb ade4 393d
000003b0: 279d 013d 5540 7d3d 5a6c b63d b670 81bd
000003c0: a585 cdbd de82 b03d 859e af3d aff1 b2bd
000003d0: 5924 823c afb1 c43d b661 e4bd 5293 b9bd
000003e0: c15e 9abd 90ae f7bc 6718 ca3c e7fc 933c
000003f0: 861e 483d 29fd cfbd 7407 eabd e8d2 bbbd
-0.08751809 0.03649298 -0.07539083 -0.11562126 0.060982753 0.05280365 -0.018389277 0.018073479
0.039541934 0.08530722 -0.11091382 0.104185216 0.045751486 -0.035402045 0.067620106 0.02145003
0.10314849 -0.017382208 -0.045230262 0.002367152 0.0020102211 0.09087301 -0.10148441 -0.034936775
0.12800054 -0.12303412 -0.10486185 -0.07195012 -0.026185809 0.08384223 0.017151324 -0.007414608
0.10246386 0.07264455 0.099922664 0.076196484 -0.1039946 -0.090044454 -0.061192423 0.00484753
-0.12620822 -0.10821682 -0.10132366 -0.075264454 -0.067793645 -0.040236555 -0.05215314 -0.11369718
0.03490808 0.041895106 -0.12038424 -0.12106086 -0.0665965 0.065472454 -0.012854282 -0.034158625
0.023252958 0.097344294 -0.06557733 0.060368516 0.027229112 -0.051128518 -0.06140596 -0.091104
0.03473531 0.033083145 -0.036141615 0.056670137 -0.0051887147 -0.027588159 -0.010778327 0.00017762004
0.03261975 -0.030483782 0.030200766 0.052607547 -0.036379285 -0.0070266216 0.052246522 -0.097339064
0.08064164 0.0014584749 0.104215875 -0.0046428232 0.0441308 0.06569588 0.10430219 0.023975749
0.010628871 -0.075121425 -0.00076663034 0.07683837 0.023760773 -0.054533754 0.0737415 -0.075416155
0.09647329 -0.059853956 -0.08553985 0.09806 -0.046978645 -0.1150223 -0.049565412 -0.11549159
-0.1165768 0.023129992 0.079556234 0.08806838 -0.11758273 0.051651735 0.03776429 -0.06829908
0.06889811 -0.1102024 -0.08821029 0.114317216 -0.04142404 0.03701142 -0.05556249 -0.0011294654
0.11676246 -0.030938536 0.043658923 0.09923096 -0.016879676 0.039346844 -0.11859721 0.0030469298
0.027242864 -0.07996881 -0.09702051 -0.009994081 -0.055388656 0.10962604 -0.041659895 -0.07209823
0.0719212 -0.019102903 0.027391028 0.006496733 -0.057800073 -0.11739087 -0.07267193 0.1017697
0.11063163 0.10185915 -0.10407838 -0.013224903 -0.09289898 0.10208398 -0.101043396 -0.047533225
-0.059440166 0.1136128 0.043528672 0.08904784 -0.08566494 -0.010967755 -0.10140537 0.0021139253
0.045002256 0.005680872 -0.081511095 -0.08095872 -0.069302864 -0.038133696 0.11173106 -0.064564295
0.0037207913 -0.07773967 -0.03095613 0.084386095 0.024082923 0.08317777 0.028218444 -0.10305402
0.12469701 0.05868344 0.091288604 0.0017008608 -0.045690104 0.10841944 0.010387792 -0.042367235
-0.071291596 -0.08757748 -0.04397996 -0.104065835 -0.07952575 0.06345635 0.08710769 -0.0747595
0.09745566 0.092337884 -0.10650438 0.019242264 -0.020724386 -0.116349235 -0.05484891 0.09951534
0.07590271 -0.056369416 0.007056886 -0.108057275 0.12711708 0.11656433 0.0863215 -0.0013950161
0.12391846 0.12407486 -0.0067780972 0.014125685 0.10321611 -0.10102696 -0.07432881 0.070295796
0.023038562 0.07793942 0.0130396 -0.06988906 0.074005604 0.11167583 -0.05943684 -0.08098613
0.05578443 -0.060126904 0.11172415 -0.05532931 0.09114088 -0.041385144 -0.06825403 0.104557976
-0.038457304 0.037630435 -0.005090913 0.045384098 0.031644013 0.06182893 0.08907385 -0.06320326
-0.10035256 0.08618711 0.08575157 -0.08737504 0.015886473 0.09604203 -0.111514494 -0.09061302
-0.07537604 -0.030234605 0.02466984 0.01806493 0.048857234 -0.10155708 -0.11427203 -0.091710865

layer.6.bias f4 [23]
00000000: 941e edbd 0ca1 a93d 241c d5bd 16a7 4d3d
00000010: 667f f6ba ff3d 103d 090d 34bd 20f8 fa3c
00000020: da62 cfbd 37e1 b1ba 4cb8 f2bd 0a55 66bd
00000030: fee9 953d cea1 c03d 89b8 47bd ae3e f73d
00000040: 8197 f9bd 6669 5c3c f935 b1bd 4aaf 04bd
00000050: 66fa 873d fd94 b5bd d1e9 873c
-0.11578098 0.082826704 -0.10405758 0.050208174 -0.0018806278 0.035215374 -0.043957744 0.030635893
-0.10126276 -0.0013571148 -0.11851558 -0.056233443 0.07320021 0.09405862 -0.04875997 0.12072502
-0.121871 0.013452863 -0.086528726 -0.03239373 0.066395566 -0.08866308 0.016590985
