weight/save_70.pth (torch_old, 72900 bytes, 8 tensors)

layer.0.weight f4 [32, 139]
00000000: d54a a43d e80e f5bd 47bb 54bd 5592 a4bd
00000010: 8729 77bd ba6d f1bc 0612 88bd 86ca 203d
00000020: 9911 dd3c e5c0 85bc 2c74 1bbd bdc5 173d
00000030: 0ff8 313d c1a7 923d dda6 4fbd 49d7 5cbb
00000040: af4d d9bc 57bd ce3a 0fbe 1d3d 39d9 6cbc
00000050: 7187 91bc 051a 893c 454e 25bd 7a27 7ebc
00000060: 0799 bdbc eb86 bb3c 9f28 933d 1331 353d
00000070: 7034 063d 2cbe 3fbd 38da 303d 4f26 15bd
00000080: fd7e 163d 7bd6 07bd 5815 9ebd da96 aabc
00000090: afa5 28bc 5efa b23a 62a6 a33c 5c1a 8dbd
000000a0: da8b 8a3c 8c07 1f3d c0bb 103d c58c 56bc
000000b0: ff56 b0bb 2359 033d fff7 483c 9713 efba
000000c0: b47a 7f3d e774 9dbd 29f3 22bd dd5e 253c
000000d0: d378 083d 7cd9 903d 9348 62bd 49ca a03d
000000e0: a6e8 c7bc e37f 58bd 67e1 2e3b 03e5 92bd
000000f0: 2e5a dd3b 0577 73bd d899 ebbb 9989 783d
00000100: 4d89 75bd 698b 833c 2c88 12bd c5a0 58bc
00000110: 1dc0 13bd 602b 5abc 3c94 86bd 46eb 70bd
00000120: 31b1 b23c 63e9 133b 0ff4 c3bc a3b0 443c
00000130: 0124 e43c 4317 04bd 835c 9abd 227b 87bd
00000140: 9dac debc 760e 82bc 6212 463d ae1d 133d
00000150: bdbb 82bc 00bc a7bd b6e8 d1bc 885c 4bbd
00000160: b7d4 ccbc d2f7 573d 30c2 183c c32f 45bd
00000170: 0943 1c3c 685a cdbc 0028 903c f93b 70bd
00000180: ae36 72bc 6f5f c53b aae7 493d da30 30bd
00000190: 7cd5 bcbd 6298 30bd 5739 98bd 6063 093c
000001a0: d7f0 933c 6440 593b 701b 883c 242b acbd
000001b0: 8861 7dba b70b 7b3d 6af7 9dbd 4e03 5c3d
000001c0: 05f5 393a e01f 78bd e211 123d 0c92 0fbc
000001d0: f3b3 5fbc a26a 4a3d 9ce1 21bd cc5d 833d
000001e0: 43cf 39bb b543 abbb f407 fa3c 2aa7 3dbd
000001f0: 78ad 97bd 002f 3c3d 6500 0fbd c89d 23bd
00000200: bc17 503c ee07 2cbd 77ca 42bc b799 35bd
00000210: 2baf 9abd 6779 89bd 3768 79bd 8073 9ebd
00000220: c558 eb3c d67c 3e3b f388 063c 023e 463d
00000230: d26f 28bd 123e 373d 5266 763d 5cff 093c
00000240: 2a9a 3a3d 45a0 90bd 2c15 f53a a0e5 293d
00000250: fec4 6abb 402d ecbd d9fe a03c 18d9 733d
00000260: 3bd3 9cbb f782 7cbd aaaf 153d 2c20 1dbd
00000270: cd4c f3bc c8f1 883d 8efd 923c 89b1 bdbb
00000280: 6b38 933d 2efe 3a3d ffdc d93b 1627 3a3d
00000290: a1db 103c a443 223d 1c66 3fbd de0f d9bc
000002a0: b3e6 3a3d 4fb1 8a3d a062 14bc 79b0 24bc
000002b0: 90ec cbbc 93b8 42bd 4250 46bc d75f d6bb
000002c0: 2521 55bd e582 9cbc e641 55bd 5b8f 803b
000002d0: 4fc5 823d 62f4 6fbd 3189 263d e41d d63c
000002e0: 27be 043d bb21 0a3c 5876 60bd cb06 d4bc
000002f0: 99f9 e53c f872 abbb 5c94 bf3d e321 a23b
00000300: 2c9f 18bd ccc9 afbc e863 a4bc 42f2 f83a
00000310: 0026 95bc 3d7f 323c d7cc 9dbd ab03 99bb
00000320: ddc9 5cbd ad28 373d 9a1d 90bd 5ce2 47bd
00000330: d1b7 683d 29f1 65bc 99db ddbd 823a 99bd
00000340: 7f30 47bd 7a03 92bd 1a37 4a3b 1d24 473d
00000350: eca1 0cbc c74a b8bd e601 c9bb b67c 083d
00000360: 8db7 33bd cd09 453d cd0a c2bd 62fc dc3c
00000370: 6b7d 2bbd 6233 d1bd 53bd 803d e493 c7bc
00000380: cdee acbd 8be6 c5bd a82b 42bd aa2e 92bd
00000390: c48a e73b 7b8b 743d afb3 3cbd d0de 003d
000003a0: 39a9 e0b8 776b 343c faf8 c53c 03aa 5b3c
000003b0: f423 a0bb a66d 1a3d 01fa 88bd ca0c 0dbd
000003c0: 6c3a 3ebb 0cba 3a3c 1291 69bd db9f 6ebd
000003d0: c9a5 89bc 2357 42bc 649c babd a0e1 003d
000003e0: fe73 043d 9978 bfbc d250 89bd 68e8 073d
000003f0: 8f9b ab3a 32a6 67bd ebab 333d 3aee a03c
0.080220856 -0.11965734 -0.051936414 -0.08035723 -0.060342338 -0.029471267 -0.06644063 0.03925564
0.02698593 -0.01632733 -0.037952587 0.037053812 0.043449458 0.07160903 -0.050696243 -0.0033697656
-0.0265263 0.001577298 0.038511332 -0.014456087 -0.017764779 0.01673604 -0.040357847 -0.015512342
-0.023144258 0.022891482 0.07185482 0.044236254 0.032764852 -0.04681222 0.04317686 -0.036413487
0.0367422 -0.03316353 -0.07718915 -0.020823885 -0.010293408 0.0013654938 0.019976798 -0.06889793
0.01691239 0.038825557 0.035335302 -0.0130950855 -0.0053814645 0.03206743 0.012266158 -0.0018240091
0.06237288 -0.07688313 -0.039782677 0.010093418 0.033318352 0.07072732 -0.055244993 0.07851083
-0.024402928 -0.052856337 0.0026684643 -0.07172587 0.006755135 -0.059439678 -0.0071899705 0.0606781
-0.059945393 0.016057687 -0.035774395 -0.013221924 -0.036071885 -0.0133160055 -0.06571242 -0.058818124
0.021813007 0.002256953 -0.023920087 0.012005004 0.0278492 -0.032248747 -0.075371765 -0.066152826
-0.027181918 -0.015876036 0.048357375 0.035916977 -0.015958661 -0.08190155 -0.02562366 -0.04964879
-0.025003774 0.052726574 0.009323642 -0.048141252 0.009537467 -0.025067523 0.017597198 -0.058650944
-0.0147835445 0.0060233395 0.049293198 -0.04301534 -0.092204064 -0.043114074 -0.07432812 0.008385509
0.018059177 0.0033149952 0.016614646 -0.08406666 -0.00096657174 0.06129047 -0.07713206 0.05371409
0.00070937007 -0.060577273 0.035661586 -0.008762848 -0.013653743 0.0494181 -0.0395218 0.06414375
-0.0028352297 -0.005226577 0.03052137 -0.046302 -0.074061334 0.04594326 -0.034912486 -0.039945394
0.012700971 -0.04199975 -0.011889092 -0.044336047 -0.07552942 -0.06712609 -0.060890403 -0.077368736
0.028728852 0.0029066107 0.008211362 0.04839898 -0.041122265 0.04473693 0.060156174 0.008422699
0.04555718 -0.07061819 0.0018698326 0.041478753 -0.0035822983 -0.11532068 0.01965277 0.05953321
-0.004785923 -0.061648335 0.03654448 -0.03836076 -0.029699707 0.06686741 0.01794317 -0.005788986
0.07188495 0.04565256 0.0066486592 0.04544743 0.008841426 0.03961529 -0.04672824 -0.026496824
0.04563017 0.067721 -0.009056717 -0.01005184 -0.024893075 -0.047539305 -0.012104096 -0.0065421867
-0.052033562 -0.019105384 -0.0520648 0.0039233393 0.0638529 -0.05858267 0.04065818 0.0261373
0.032407906 0.0084308935 -0.05480036 -0.025882145 0.028073119 -0.005232211 0.09354469 0.0049478873
-0.037261173 -0.021458529 -0.02006717 0.0018993097 -0.018206596 0.010894594 -0.07705086 -0.0046696267
-0.05390345 0.044716526 -0.07036896 -0.048799857 0.056815926 -0.014034548 -0.108329006 -0.074818626
-0.048630234 -0.07129569 0.0030855597 0.048618425 -0.008583527 -0.08998638 -0.0061342595 0.03332206
-0.04387622 0.04810505 -0.09474716 0.026975814 -0.041867655 -0.102148786 0.06286111 -0.024362512
-0.08443985 -0.09663113 -0.047404915 -0.07137807 0.0070661027 0.05970333 -0.046069797 0.03146249
-0.000107126725 0.01101195 0.024166573 0.013407233 -0.0048870984 0.037702225 -0.066883095 -0.034436025
-0.0029026521 0.011396896 -0.057023115 -0.05825792 -0.016802685 -0.011861595 -0.091118604 0.031465173
0.03233718 -0.023372935 -0.067048684 0.033180624 0.0013092625 -0.05655498 0.043865126 0.019644845

layer.0.bias f4 [32]
00000000: 1512 663c 9a06 263c bde8 a4bd d0b1 ed3c
00000010: 6a3c c6bd f388 583d cc7e 0f3d 873b 683d
00000020: 2e38 85bc de6f 293d 7545 413d b568 b7bd
00000030: c1dd 8cbd fbd4 cabd 18e1 8d3d 7e03 713d
00000040: ee5e aabc a2e0 78bd 4ccf 2e3d 55a0 76bd
00000050: 3695 c4bd cd31 cb3b ed29 a5bd eaa6 8dbd
00000060: 54c5 9ebd bb44 d13c 1fc0 90bd 08dd 583d
00000070: d206 2e3d 6a21 403c da71 d1bd abc0 373b
0.014042397 0.01013341 -0.08052204 0.029015452 -0.09679492 0.05286498 0.035033032 0.056697395
-0.01626214 0.04136645 0.04718538 -0.08955518 -0.06878234 -0.09903904 0.06927699 0.05884122
-0.02079722 -0.0607611 0.042678162 -0.0602115 -0.09598772 0.006201005 -0.08064637 -0.06916602
-0.07752481 0.025545469 -0.07067894 0.052945167 0.042486973 0.0117267165 -0.102267936 0.0028038423

layer.2.weight f4 [64, 32]
00000000: 3c2a 153d f978 a6bd e097 f2bd 27d6 9d3d
00000010: 4a1e 44bd 917c 5bbd f08c 813d 9e59 1b3e
00000020: eb79 2e3e ba4e 16be 52e1 ad3d 6665 213d
00000030: ec9d 0d3e 4dd8 cf3c 1659 123e 17f7 463d
00000040: 6aae 213e 952e 7cbd 2ac9 013e 5e36 ec3d
00000050: d995 94bd dbaf 21be 9798 61bd 2706 bd3b
00000060: 4542 9d3c 6add 6c3d 7c23 2a3e 94ba 213d
00000070: 0c4a f33c 9cbb 1f3e 9db0 78bd e844 44be
00000080: fe71 d9bd a49b eabd 5e83 813d 1621 0bbe
00000090: 771a b0bd fa6d 58be 8696 1fbd 3823 873d
000000a0: 0de0 a2bc 1bc1 b33d ec97 4abd cbdf 943c
000000b0: 56da dbbd 63f4 09be afb5 133e df96 9cbd
000000c0: a169 4b3d 1809 1c3e 5e5d 3dbc 4662 e83b
000000d0: 0f63 bb3d 83cd 9b3c 93da 77be a01b f4bd
000000e0: 07a3 9fbd 0835 78bd 416c 27be 2317 b1bd
000000f0: adbc 8b3c 2103 153d dfd9 123e a6b2 74bc
00000100: 952f d5bd 2ffc 40be c51e 823d 04da cdbd
00000110: 6bb8 26be bf94 1ebe a11b c03d 0142 b03d
00000120: f8cd f83d b19d bf3d 2550 e73d 3764 02be
00000130: e97d b83d 47da fdbd e10a 3bbe 9eeb 843d
00000140: ec01 e53c 3228 823d f73b b2bd ee93 2d3d
00000150: 7090 023e 17d0 5c3c fc02 c9bd d133 153e
00000160: 4846 d6bd 1891 a5bd b889 6bbd 43a4 eabd
00000170: b9bc 1bbe 0a56 b63d 3461 b8bd b02f cdbc
00000180: 446e a33d cadd 093e 7bd3 edbd 4c0a b0bd
00000190: e53e ddbd 2481 10be 4bd1 6ebd 2c86 3c3d
000001a0: 895d c9bd 1e45 363d 7089 093e 43e8 543e
000001b0: cca5 9b3c c315 2bbd 1ca2 d13d 0631 1cbe
000001c0: 14e5 9f3d d80c ed3d 5938 38be 67fd 39bd
000001d0: d920 b13b 280b 07be e657 09be c0d7 7c3d
000001e0: a6bd 253e 20a9 2f3c 1c9e 683d 5250 a23d
000001f0: 7f3c 1f3e 1d80 0cbe d106 da3c 9f55 583d
00000200: 7ef6 d1bc 95da a63d 689c dd3d 9889 85bd
00000210: ed09 963c bdc3 b6bc 7efc 9d3d e006 1a3e
00000220: 22e2 b8bd d204 03bd 6fc1 adbd fee7 3e3c
00000230: 0d96 d83b 501a c03d 4d1d 5e3d dc43 cc3d
00000240: 10e6 26be 62c3 b73d f331 90bd 1463 eabc
00000250: 1bdd b5bc 467a ae3b b98e 753d c670 d1bc
00000260: e3e2 9cbd d35b 02be 7121 ffbd 27a8 39bc
00000270: 3bd0 d1bc 310e 0d3e 8370 0abe d507 82bd
00000280: 9ca6 06be 9c13 3cbe 7600 edbc ece0 a3bd
00000290: 45a9 233d 6c95 ee3c 17f1 523c 715d 603d
000002a0: 20f9 903c 096e ed3c 1a5f 273e 09c7 1abe
000002b0: d579 7b3d 6ce2 62bc 68d3 10be aa9a 0cbe
000002c0: d72f 983c abb6 013e a1c4 dcbd 5926 8d3d
000002d0: bf6d 38be a1bc d6bd 1d2a 543c 65e1 083e
000002e0: 5f66 2dbe 8dd7 79bd be98 f5bd fe24 d73c
000002f0: fdf8 efbd 69e9 3dbe e650 633d 2ebb fe3d
00000300: f701 cc3d 2dbc a4bc ddd3 233e 9bf2 99bd
00000310: 02fb a1bd cd5f 95bc a22f b33d 0e10 10be
00000320: 7ffe ddbd b09d 4cbd c652 503d 01ff c6bc
00000330: 306d edbd 2cea 053e 15e4 243e cb3e 233d
00000340: 692c 9cbc 62db babd 8eea 4ebd c775 4bbe
00000350: c029 d0bd 2e52 03be 2e1a 293e fe7f dc3d
00000360: 9d07 68bc 61fa aebd e796 073d 9b55 ed3d
00000370: 9686 71bd 2e18 553b c798 c63d 9e57 1bbe
00000380: b444 a5bc ec7e 163e 4055 00bd bb44 b1bd
00000390: 08b0 b33d 022c 1dbe 6142 d6bd 33dc 2abe
000003a0: 1dd1 b13a b54e 7e3c 8ed9 ed3d 479a 323d
000003b0: 1679 b1bd 2ed4 8cbd 5a4a 2dbe baf6 783d
000003c0: a7a0 a2bd 881b fbbd 5d5b aeba f53e a83d
000003d0: bfa8 08be 35d9 ce3c 89ac 2dbd 5caa de3d
000003e0: 6937 2fbe 4d76 0f3e b2ad 30be 72b9 ff3c
000003f0: be8c 05be 2a93 ec3d eb99 0d3d 3173 43bd
0.03641723 -0.081285425 -0.11845374 0.07706862 -0.04788045 -0.053585593 0.0632571 0.15170905
0.17038696 -0.1467847 0.08490242 0.03940334 0.13829774 0.025371695 0.14291796 0.048575487
0.1578919 -0.06156786 0.12674394 0.11533807 -0.07255144 -0.1578974 -0.05507716 0.0057685557
0.019196639 0.057828344 0.16615099 0.039484575 0.029698394 0.15598911 -0.060715307 -0.1916691
-0.106174454 -0.11455467 0.063238844 -0.1358684 -0.08598798 -0.21135703 -0.03896191 0.06598514
-0.019882226 0.08777066 -0.04946129 0.018173119 -0.10735004 -0.13472132 0.14424776 -0.07645964
0.049661282 0.15237844 -0.011557905 0.007091793 0.09149753 0.019018894 -0.24204473 -0.119193316
-0.07794767 -0.06059745 -0.1634989 -0.08646991 0.017057741 0.036379937 0.14340924 -0.014935171
-0.10409466 -0.188462 0.06353525 -0.10051349 -0.16281287 -0.1548643 0.0938027 0.08606339
0.121486604 0.09356249 0.11294583 -0.12733541 0.090083905 -0.12395149 -0.18265869 0.06490253
0.027955018 0.06355323 -0.08702844 0.042377405 0.12750411 0.013477347 -0.09815022 0.14570548
-0.10462624 -0.08084315 -0.057504386 -0.11457112 -0.1520871 0.089031294 -0.09002915 -0.025047153
0.07980016 0.13463512 -0.11612602 -0.08595714 -0.10803012 -0.14111763 -0.058305066 0.046026394
-0.098322935 0.04449951 0.13431334 0.20791726 0.018999957 -0.0417688 0.10235998 -0.15253076
0.07807365 0.115747154 -0.17990245 -0.04540768 0.005405527 -0.1318785 -0.13412437 0.061729193
0.16185626 0.010721475 0.05679141 0.07925476 0.15550421 -0.13720746 0.026614578 0.05281603
-0.025630232 0.0814716 0.10820848 -0.065203846 0.01831528 -0.022310132 0.07714175 0.15041685
-0.090275064 -0.03198702 -0.0848416 0.011651991 0.0066096843 0.09380019 0.054227162 0.09973881
-0.162987 0.08972813 -0.07040777 -0.028611697 -0.022200158 0.0053246347 0.059950564 -0.02556647
-0.07660463 -0.1273034 -0.1245755 -0.011331595 -0.025611987 0.13774945 -0.13519482 -0.0634915
-0.13149494 -0.18366855 -0.028930884 -0.08001885 0.03995635 0.029123984 0.012874863 0.054776613
0.017696917 0.028983133 0.16344872 -0.15114988 0.061395485 -0.0138479285 -0.14143145 -0.13730875
0.0185775 0.12667339 -0.107796915 0.0689208 -0.18010615 -0.10485197 0.012949494 0.13367231
-0.16933583 -0.06099658 -0.11992024 0.026262756 -0.117174126 -0.1854607 0.055497073 0.124380454
0.09961312 -0.02010926 0.15998788 -0.075169764 -0.07909204 -0.018234158 0.087493196 -0.14068624
-0.10839557 -0.04995507 0.05086019 -0.024291517 -0.115930915 0.1307761 0.16102631 0.039854806
-0.019064145 -0.09123875 -0.050516658 -0.19869147 -0.10164213 -0.12824318 0.16513893 0.107666
-0.014161971 -0.0854385 0.033102896 0.115885936 -0.05896624 0.0032515633 0.09697109 -0.15170142
-0.020174362 0.14696854 -0.0313313 -0.086556874 0.0877381 -0.15348819 -0.104618795 -0.16685562
0.0013566349 0.015521695 0.11613761 0.04360416 -0.086656734 -0.068764076 -0.16922894 0.06078217
-0.07940798 -0.122611105 -0.0013302375 0.08215133 -0.13345622 0.025250057 -0.04240087 0.10872337
-0.17110981 0.14009972 -0.1725376 0.031216357 -0.1304197 0.11551507 0.034570616 -0.047717277

layer.2.bias f4 [64]
00000000: 6b62 1e3e 1cc7 3cbe ed02 4d3d da5f d1bb
00000010: 23cd a8bd 367a a23d 6db0 38be 8429 113d
00000020: ad9c 853d dc11 64bd d15f 33be 4f62 25bd
00000030: 48b0 35bd 7934 133b 1cd6 18be 77d3 aabd
00000040: 5025 c3bd 2381 40be da13 2dbe 794d 91bd
00000050: 4323 c1bd 5fda b2ba 42b2 8fbd e0c6 f73c
00000060: 843a 17be c4ec a83d 98f4 1ebe 759c 19be
00000070: f5d4 46bd 4ac1 eabc 0e74 263d 671d b73d
00000080: 9d5b 16be 15a2 19be ffc3 313e 1580 1cbe
00000090: fadf b1bd 464b 2fbe 8b1b 14bd 9ee3 12bc
000000a0: 9f7f 09be 9a42 c4bd fdcc 8dbc 1e59 143d
000000b0: 6118 bdbd 1cb2 3c3d de54 46bd 011b fabd
000000c0: d37d c4bd c120 59bd 6f0d 8dbd ece3 a3bc
000000d0: b169 3b3c a76a 673e c905 f5bd 2ad0 3cbd
000000e0: c6ea 3abe 4eb3 3b3e b1b7 14be c2fc e73d
000000f0: 2a01 ec3d d123 803e f823 0b3e 04a6 f73d
0.15467231 -0.18435329 0.05005162 -0.0063896 -0.08242252 0.07933466 -0.18036051 0.035439983
0.06524024 -0.055681095 -0.1751702 -0.040376958 -0.044357568 0.0022461696 -0.14925426 -0.08341115
-0.09528601 -0.18799262 -0.16902104 -0.07094855 -0.09430554 -0.0013645402 -0.07016422 0.030246198
-0.14768416 0.082482845 -0.15522993 -0.1500109 -0.048542935 -0.02865662 0.040638022 0.08941155
-0.14683385 -0.15003236 0.17359923 -0.15283234 -0.08685298 -0.17118558 -0.03615908 -0.008965401
-0.1342759 -0.09583016 -0.01730966 0.0362178 -0.092331655 0.046068296 -0.04842078 -0.12212182
-0.095943116 -0.053009752 -0.06887328 -0.020006143 0.011438773 0.22599278 -0.11963994 -0.04609696
-0.18253621 0.18330118 -0.14523198 0.113275066 0.115236595 0.25027326 0.1358794 0.12092212

layer.4.weight f4 [128, 64]
00000000: 18d0 e0bc 32dc d0bd ae79 853d 58b4 8ebd
00000010: d52a 863d a20f e3bc 7436 f03d a690 5d3d
00000020: 4942 bebd c1f2 ffbc c472 27bd fceb 52bd
00000030: 1a87 12bd bd75 cd3c 62cb 77bd 6029 0d3d
00000040: 2065 7e3d b41b 3f3d 27c7 833d d4d1 033d
00000050: 6418 9c3d e3ca c6bd 6a2d c3bd 8812 e83d
00000060: 87c9 95bd 5ed3 ae3c 412a 333d 1a47 303d
00000070: 414f 3cbd 90cb 823d 8ba1 673d 5a3f d33d
00000080: ae02 753c 9965 543d 90ad 5abd adb2 263c
00000090: 20d1 03bd 4764 173c f914 1cbc fd15 663d
000000a0: 5d31 36bd baf7 aebd 9b56 2dbc 4a37 bf3d
000000b0: fc90 b73d 0278 b73c 400e ce3d 41ef 813d
000000c0: 81c0 823d b6b1 04bd e0a0 a63d 356d 123d
000000d0: 938d 073d 5623 e9bc 7180 4ebd 52a8 a2bd
000000e0: e3ff 553b 824c 4dbd 2ce6 383d 2dc2 67bd
000000f0: 45d1 0a3d 2e98 683d 6921 d93d 7c25 e93c
00000100: 0d7b 07bd 37fc 1c3b 432b de3d 162c 3f3d
00000110: e744 643b 0225 10be 411a e4bd 4297 8ebd
00000120: 3c1d cd3d 0ee1 1b3d e8f5 ba3d 93c9 82bd
00000130: 4faf 743d d69e adbd bf36 34bd d8a0 debc
00000140: 2897 bb3d 5afa 62bd 7035 0bbe bb81 563c
00000150: 8469 27bd 35d9 1c3c 029d 53bc 8cae 00be
00000160: 9c0c 083e d974 ccbc 44bc 7bbd 7874 b63d
00000170: e3b2 3dbd 2e61 d23d 27c8 d53c a5a6 51bb
00000180: bf27 95bd 25fb 7f3c 0ab3 e23c 2f2f b1bc
00000190: b99e 0abc 4710 ef3c 5973 503d 2bfd d43d
000001a0: 59af 9e3d e148 4d3d 7a2c 2abd cf39 9a3c
000001b0: ae8b 5a3d d27d 94bc c04f 23be a0ff 27bc
000001c0: f6cc c7bd 86ef 853d f618 b8bd 00d7 a73c
000001d0: 8fea 0e3d ac6e debd f47a 3fbd c456 0fbd
000001e0: 2f6b 08bc 4b4e a5bd b7a1 50bd 89bf 09be
000001f0: 4ca7 50bd 8562 ffba d1e2 1fbe d4ba 05be
00000200: 5bf3 e0bc 4705 babd f5a7 373d 2b5f f23c
00000210: 6722 d8bd 373c 0e3e fbc9 f13d ee30 cc3d
00000220: a410 b43d 1461 8cbb d3a3 d8bd 130c f53c
00000230: 8db0 74bd a9c4 e5bd 3930 853a 7eb2 ae3d
00000240: 889f 913c 9939 e63c 247e 5abd 0ec4 30bc
00000250: d902 be3c 61b6 a83d 470d e83b 9857 783a
00000260: c7c4 29bc 2a4a 7bbd c93d 963d 8e2c 1fbd
00000270: 4714 3c3d e0dd a9bc b171 98bd f4bd 8d3d
00000280: 07e9 733d 0454 f9bd 411b a1bd 7eac ec3d
00000290: 953f a43c 3d02 c43c 5db1 7bbd a2f1 d4bd
000002a0: 5ca5 89bc 4159 f8bd 1576 eebd 66e1 b73d
000002b0: 9f89 103c 64f7 75bd fb65 56bd 8a94 6abc
000002c0: d37e 85bd 9600 acbc 0e62 943d 5854 d93c
000002d0: fa3b 68bc 670d 39bc 9bcb 77bd c2e0 cb3d
000002e0: 09c7 4bbd 0919 633d db6a b0bd 1ff3 d6bc
000002f0: 2c77 29bd c0a4 1c3d 9510 393c 6b66 e1bd
00000300: 6548 1fbd 09a0 523d d912 09bd 74bf c0bd
00000310: d264 7ebd 3bb8 90bd e645 993c 5ebe dd3d
00000320: 32ef 4f3d 717a 88bd 8ebc 493d 0289 a6bc
00000330: 62d8 4fbd 8ecd aabc 79a2 09bd 6ba6 d53c
00000340: 96ba db3c 9f9a b63d 7f7d f93c 5d9c 973d
00000350: 2f79 9bbc 1532 893c aa1c d5bd fa91 7b3d
00000360: 8328 e2bc 7fa6 93bc 8e13 0bbd 6cc2 823d
00000370: e3fc 33bd bdf2 ba3c 9fad eebd e02a dcbb
00000380: 6ed2 8bbd 6c1d b73d 37b7 47bd 744b 67bd
00000390: 73c1 5fbd 85fa 8c3d 29cc 823d b38b 9b3d
000003a0: 226d a6bd d782 adbd bbb0 143c 434e 793d
000003b0: 266e 8f3c ca5f 80bc 60bc f03c 3077 233e
000003c0: 84a2 c6bd 73df 48bc 06a4 ba3d 1dd4 8d3d
000003d0: a02c aa3d a947 51bd b8fd b33d b884 f5bc
000003e0: 34df 953d 3240 a5bd 99e8 263c 580b a53d
000003f0: 2d9a 823d b19b 873d 4a87 b73c e085 eebc
-0.027442977 -0.10198249 0.06517349 -0.069679916 0.06551138 -0.027717415 0.11729136 0.054093026
-0.09289987 -0.031243684 -0.040880933 -0.051494583 -0.035773374 0.025080556 -0.060496695 0.034463286
0.06210816 0.04665728 0.0643447 0.03218253 0.0762184 -0.09706666 -0.095301464 0.113316596
-0.07313829 0.021341022 0.04374147 0.043036558 -0.04597402 0.06386483 0.056550544 0.10314818
0.014954252 0.051854704 -0.05338818 0.010174436 -0.03218186 0.009240217 -0.009526485 0.056173313
-0.04448067 -0.08543344 -0.01057973 0.093367174 0.089632004 0.022396091 0.10061312 0.06344462
0.063843735 -0.03239604 0.08136153 0.03574868 0.033094 -0.028459232 -0.05041546 -0.07942261
0.003265374 -0.05012179 0.045141384 -0.056581665 0.03389098 0.056785755 0.106020756 0.028460257
-0.033076335 0.0023954043 0.10848095 0.046672903 0.0034831108 -0.14076617 -0.1113782 -0.06962444
0.10015342 0.038056426 0.09128934 -0.063861035 0.0597375 -0.08477561 -0.043997522 -0.027176306
0.0915969 -0.055414535 -0.13594604 0.013092454 -0.040872112 0.009573271 -0.012915852 -0.12566584
0.1328606 -0.024958061 -0.06145884 0.089089334 -0.046313178 0.10272442 0.026096417 -0.0031990197
-0.072829716 0.015623842 0.027673263 -0.021628944 -0.008460694 0.029182566 0.050891254 0.103998505
0.07748289 0.05011833 -0.041546322 0.018826393 0.053355865 -0.018126402 -0.15948391 -0.010253817
-0.0975589 0.06539826 -0.08989136 0.020488262 0.03489166 -0.10860953 -0.046748117 -0.034994856
-0.008326336 -0.08071574 -0.050935473 -0.13451971 -0.050940797 -0.0019484317 -0.15613867 -0.1305955
-0.02745979 -0.09083038 0.04483791 0.029586395 -0.10553437 0.13890158 0.11806103 0.0997027
0.087922364 -0.0042840336 -0.10578122 0.029912984 -0.059738684 -0.112191506 0.0010161466 0.085301384
0.017776266 0.028103637 -0.053342953 -0.010788931 0.023194717 0.08237911 0.007081661 0.00094735017
-0.010361857 -0.061350025 0.07336003 -0.03886085 0.045917775 -0.020735681 -0.0744356 0.06920996
0.059548404 -0.12174228 -0.078665264 0.11556338 0.02004985 0.023926849 -0.061448444 -0.1039765
-0.016802482 -0.12126399 -0.11643616 0.08978538 0.008821874 -0.060050383 -0.05234335 -0.014317641
-0.065183304 -0.020996373 0.07245265 0.026529476 -0.014174456 -0.011294699 -0.060496908 0.099549785
-0.04975036 0.055443797 -0.08614131 -0.026238976 -0.041373417 0.038243055 0.011295457 -0.11005863
-0.0388874 0.051422153 -0.03346524 -0.09411517 -0.06210787 -0.07066389 0.018710088 0.10827325
0.050765224 -0.06663979 0.049252085 -0.020329002 -0.050743468 -0.02084997 -0.03360221 0.02608033
0.02682237 0.089162104 0.030455349 0.07402871 -0.018978683 0.016747514 -0.10405858 0.06141851
-0.027607208 -0.018023727 -0.033954196 0.06384739 -0.043942343 0.022820825 -0.11654209 -0.0067189783
-0.06827246 0.08941159 -0.04875871 -0.056468442 -0.054627847 0.0688372 0.06386597 0.07595005
-0.08126284 -0.08472221 0.009075339 0.06086565 0.017508578 -0.015670676 0.0293867 0.15963435
-0.09698966 -0.012260306 0.09113316 0.06925223 0.08309293 -0.05109373 0.087886274 -0.029970512
0.07317963 -0.08068885 0.010187292 0.08058804 0.06377063 0.06621493 0.022403378 -0.029116571

layer.4.bias f4 [128]
00000000: 3909 a4bc a2c0 b83d 8a3e 82bd 479a 383c
00000010: 8fd7 16bb 8191 9f3d aa22 5e3d 5b03 6fbd
00000020: 30c5 36bd 844b 853c 9bd9 013e 5fbe a1bd
00000030: 74c1 5e3d c595 fbbd 1379 2bbd 18b3 ec3d
00000040: cfa6 d5bc 5f06 613d 9564 febd 6d7e bdbd
00000050: 22c1 d83d 7514 8ebd b7b9 dabd 2e7e 173d
00000060: 0028 943c f422 9bbd 59d4 f5bc 582a debd
00000070: 8cda 92bc dc7a 3fbc 655a 053e 45ba e8bd
00000080: 4b4f 3a3d 3b1f d63d 62b7 c4bd 9405 7dbb
00000090: cf0b 23be 92c4 2c3d f8be c0bb 90e1 f4bd
000000a0: f896 13be a7c4 16bd 266f ddbd 9bd5 ac3c
000000b0: f113 f0bd 4881 873c 7193 a5bd f0a7 cf3d
000000c0: c89e 963d 1c28 c2bd db3b 3a3d 1750 0bbd
000000d0: e554 0cbe 5f4f 4b3e 3a66 d1bd 6630 44bd
000000e0: 1597 68bd 3eb1 d23d 898b 5dbd 3a2f 843d
000000f0: 9639 7bbd 6e84 97bd b886 263e 9bfd 77bd
00000100: 62fa 873d 9955 a7bd 0243 ddbb 76f8 853d
00000110: 0ebc 433c 46ea 0fbc 479d bd3d 609b 94bd
00000120: aa37 f7bd c4dd 29bd 4249 81bd 4df9 b8bd
00000130: cdd9 21be c1d5 053d 5317 64bc 33fd dbbc
00000140: a42b bebc d05f a13d 44f4 9b3b fb3f 70bd
00000150: 274a 493d e05a bbbd ebfa d1bd 51f6 f4bd
00000160: 594b 0fbe ca38 c4bd 35f4 b93e d027 db3d
00000170: 5488 b83d cf16 43bd 2f25 ea3d 8f46 90bd
00000180: 8549 c1bd fb92 8cbd 56fd cf3d 0468 0d3d
00000190: 1797 dbbd 6a7e 113e 9c7f 873d 23f2 ddbd
000001a0: 6b5a 543d e583 d3bd 2af1 903d 557b af3d
000001b0: c074 a7bd e447 31bc 3e47 3cbd e213 58bd
000001c0: 0f4f 9f3d bdfc b9bd 473f 37bb 8c2b e0bd
000001d0: 85ca 3b3d 6184 ccbc f250 c03c e55d b23d
000001e0: cb39 2cbd d8de dcbc 5131 023e 82c0 a1bc
000001f0: 3a44 a8bd 515d a5bd ed42 cebd e3fa a73d
-0.020023929 0.09021117 -0.06359585 0.011267251 -0.0023016667 0.077914245 0.054232277 -0.05835281
-0.044621646 0.01627136 0.12680666 -0.078976385 0.05438371 -0.12284426 -0.041863512 0.11557597
-0.026080517 0.054937717 -0.12421528 -0.092526294 0.10583712 -0.069374956 -0.106799535 0.03698557
0.01808548 -0.07575026 -0.030008482 -0.1084792 -0.017926477 -0.011687007 0.13022764 -0.11363653
0.045485776 0.104551755 -0.0960529 -0.003860806 -0.15922473 0.04217965 -0.0058821402 -0.11957085
-0.14413059 -0.036808636 -0.108122155 0.021097949 -0.117225535 0.016541138 -0.08084763 0.101394534
0.07354504 -0.094803065 0.04546724 -0.034011927 -0.1370426 0.19854496 -0.10224576 -0.04789772
-0.056784708 0.102877125 -0.05408815 0.0645432 -0.061334215 -0.07398306 0.16262329 -0.06054459
0.066395536 -0.08170623 -0.0067523727 0.06541531 0.011946691 -0.0087838825 0.09258514 -0.07256198
-0.12071164 -0.041471258 -0.06312801 -0.09031925 -0.1580574 0.032674555 -0.013921577 -0.026854133
-0.023214169 0.07879603 0.0047593433 -0.058654767 0.049142983 -0.091481924 -0.10252937 -0.119610436
-0.13993587 -0.09581144 0.36319128 0.10700953 0.090103775 -0.047629174 0.114328735 -0.07044708
-0.09437851 -0.06863972 0.10155742 0.034523025 -0.107221775 0.1420838 0.066161364 -0.108371995
0.05184404 -0.10327891 0.070772484 0.085684456 -0.08176565 -0.010820363 -0.04596638 -0.052753337
0.07778751 -0.09081409 -0.00279613 -0.10945806 0.045847435 -0.024965467 0.023476098 0.08709315
-0.042047303 -0.026961729 0.12714125 -0.019745115 -0.08216138 -0.08074439 -0.10071359 0.0820215

layer.6.weight f4 [23, 128]
00000000: a552 14bd d83e a2bb e8f5 613d 4370 353d
00000010: 6d94 903c 0a99 a83c 8259 9f3d b174 e4bc
00000020: 518a a1bd 19df e2bc 081b 2fbd ab7d 9fbc
00000030: d901 c83b 9e04 3a3c 8594 693d 80e4 9ebb
00000040: c98d f33d bb44 5a3d 37fb 92bd e45f 5dbd
00000050: dbe3 7abd 92d8 9ebc 0e7c 6dbd 84bc 7c3d
00000060: 494e 89bd 7665 7a3d 01d2 873d 3454 9fbd
00000070: f5ff febc 820e a1bc a5bb 0bbc 63f0 e23b
00000080: 65f6 263d 0be6 35bb 97fe 17bd 10db 623d
00000090: 4750 85bc b20a 15bd f3b3 a6bc 64f6 90bc
000000a0: 0bb8 afbb 7159 093d 99eb a93c 8e99 64bd
000000b0: 8198 433d 6e8c 38bb aa66 31bd 158e 89bc
000000c0: b7a0 0fbd 7796 9bbc ccc0 93bd 0b41 1cbd
000000d0: 2690 8cbc 7ab0 483d f051 293d 373b 813d
000000e0: c552 95bc edb1 043d f828 a33d afe0 633d
000000f0: 05a7 8b3b a276 fbbc 7981 52bd c5fa a9bc
00000100: 84cd 8b3c 0318 47bd 9dd5 8abc 1911 90bd
00000110: f6b9 acbc 9500 d8bc 2cb3 1fbd de05 233c
00000120: ea8a 7abd 16dc c9bc 6bf1 ad3b de19 88bd
00000130: 45f3 2cbd 6278 a7bc bd67 1e3d 4444 2dbc
00000140: 2cf7 59bd d719 81bd 5210 96bc c52a 41bd
00000150: fe03 883d fc25 173d e790 1d3c 26bf b5b9
00000160: fd48 2f3c f607 903d 45bf f9bc 586a bcbc
00000170: 76b5 9abd 9c8b 90bd 3a81 d93c 327a 683d
00000180: 10b4 58bd cb6b 163d afb9 84bc 2f64 51bc
00000190: 0811 e2bc f8ae 8e3d 757e 173d 60f0 79bb
000001a0: e2de de3c 2587 9c3c d080 303d 833f f6bc
000001b0: 1f55 b5bb 264c f53c 050d 8f3d 85ac c03d
000001c0: 655a 57bc 0aeb db3c 5b56 823d d488 20bd
000001d0: e197 bcbc 4f5f 1d3b 772a 68bd bc0f b33c
000001e0: ff36 5bbc 0813 713b dc20 053d d2f8 ddbc
000001f0: 2351 8b3d 5869 bcbc 0d81 6cbc 8e8f 54bd
00000200: 007c d4bc 197b c9bc 2023 62bd dcc0 dabc
00000210: 33b2 80bd 99e9 573d 56f3 7bbd e0c0 263d
00000220: a402 22bd 0fa7 9ebc 3184 a73c e2a7 a339
00000230: f983 d83b 2ec9 ff3c 5076 ae3c 3226 aebd
00000240: 3965 003d 73cf 53bd ba68 98bc db1b 1d3d
00000250: 7178 513d 5ee7 bd3c 3013 02b9 8072 f23c
00000260: b2e2 933d ba8f 52bd 4e49 7c3d 116e fb3c
00000270: 80dc 7fbd bb4f 383d 4fb4 1b3d fb45 69bb
00000280: b464 203d 44db 143d fd14 79bd b277 67bc
00000290: a93a 053d 2a6a f43c cc9d 803d 3523 e83c
000002a0: d308 573d 6b1f 97bc 0bf0 283c 639e 3c3d
000002b0: 9710 9ebd 7096 ffbc 1fed 18bc 77f3 5b3c
000002c0: 51cd a7bc 153f 903d ba77 c13c 7ab8 01bb
000002d0: 47b9 c73b e4e5 303d 62cb 6d3d a2ef 8f3d
000002e0: 1d94 33bd bf43 10bd 08ea 1d3d 2940 383d
000002f0: fbc8 9fbd da65 25bd 533d 2f3d 090c 893c
00000300: 75c6 71bd f365 193d 3011 013d 0dfe 0cbd
00000310: 1419 783c dcb3 513c 088a 98bd 81c4 88bd
00000320: 751b 083d ce52 9c3b 8712 d03c b7d1 60bd
00000330: f5dc 953d 9726 96bc 235c 80bc 91b9 31bd
00000340: e4ec 553b e1dd 82bc e795 b0bc 7d2e bdbb
00000350: 4bcc 663d a656 8cbd b74d 243c 6e0c 873c
00000360: 9101 9a3c c02e 48bd 7a22 b03d 582d 333d
00000370: 79c0 a43c ec05 1cbd 6efe 703c 02f0 803d
00000380: 1014 51bc 1491 c13b ba18 84bd 08fe b0bd
00000390: a042 77bd 0631 79bc c2df 4bbd 0b61 043d
000003a0: 108e cbbd 6aff 923d 6ced a03d 6e76 d23b
000003b0: 5985 923c 0152 00bd caf9 a03d 6ad5 ca3c
000003c0: c315 e53c 8345 033c 1fb4 d4bc 046d 0ebd
000003d0: f80f 83bc d1df 453d 16a6 86bd 9512 963c
000003e0: 78d7 673d 84d5 d4bc e633 4f3d 254c 273d
000003f0: 30ac de3c 7abc f9bb 786d a6bc aa98 ce3c
-0.03621163 -0.004951339 0.055166155 0.044296514 0.0176489 0.020580787 0.07780744 -0.027887674
-0.0788771 -0.027694272 -0.04275039 -0.019469103 0.006103736 0.01135364 0.057026405 -0.0048490167
0.11892278 0.053288203 -0.07176822 -0.054046527 -0.061252456 -0.019390378 -0.057979636 0.06170322
-0.06704385 0.061131917 0.06631852 -0.07779732 -0.03112791 -0.019660238 -0.008528625 0.006925629
0.040762324 -0.0027755524 -0.03710803 0.055384696 -0.01627363 -0.036387153 -0.020349478 -0.017695613
-0.005362516 0.033532564 0.020742225 -0.055810504 0.04775286 -0.0028159874 -0.0433108 -0.016791383
-0.03506538 -0.018992646 -0.072145075 -0.038147967 -0.01715858 0.048996426 0.041337907 0.063101225
-0.018227944 0.032396246 0.079667985 0.055634197 0.0042618536 -0.030696217 -0.051393006 -0.020749459
0.01706577 -0.048606884 -0.016947562 -0.07034511 -0.021084767 -0.026367465 -0.03898923 0.009950129
-0.061167635 -0.024641078 0.0053083203 -0.06645559 -0.042224187 -0.020443145 0.03867315 -0.010575358
-0.053214237 -0.06303757 -0.018318329 -0.04715993 0.066413864 0.03690146 0.009617067 -0.00034665427
0.010698554 0.070327684 -0.030486712 -0.022999927 -0.07554142 -0.070578784 0.026550878 0.05675716
-0.052906096 0.036723893 -0.016201822 -0.012780233 -0.027596012 0.069669664 0.036985833 -0.003813766
0.027205888 0.01910741 0.043091595 -0.030059582 -0.005533829 0.029943537 0.06984905 0.094079055
-0.01314411 0.026845474 0.06364127 -0.03919299 -0.02302164 0.0024013107 -0.056681123 0.021858089
-0.013379811 0.0036785025 0.03250204 -0.027096186 0.06802585 -0.02299945 -0.014435065 -0.051894717
-0.025938034 -0.02459483 -0.05520928 -0.02670329 -0.06283989 0.05271301 -0.06151136 0.040711284
-0.0395533 -0.01936677 0.020448776 0.00031214865 0.0066075292 0.03122386 0.02129665 -0.08503379
0.031346533 -0.05171151 -0.018604625 0.038356643 0.051140253 0.023181614 -0.00012404914 0.029595613
0.07220973 -0.0514066 0.061593346 0.030692132 -0.062466145 0.044997912 0.038013753 -0.003559469
0.039158538 0.03634192 -0.06081103 -0.014127659 0.032526646 0.02983578 0.06280097 0.0283371
0.05249865 -0.018447598 0.010311137 0.046049487 -0.07718008 -0.031199664 -0.009333878 0.013424746
-0.020483645 0.07043282 0.02361666 -0.0019793794 0.006095085 0.04318799 0.05805529 0.07028128
-0.043842424 -0.035220858 0.038553268 0.044983063 -0.07802006 -0.040380336 0.042783093 0.016729372
-0.059027154 0.037450742 0.031510532 -0.03442197 0.015142698 0.0127992295 -0.07448202 -0.06678105
0.03322931 0.0047706133 0.02539946 -0.0548875 0.07317535 -0.018328948 -0.015668934 -0.04338986
0.0032642419 -0.01597494 -0.021555854 -0.005773364 0.056347173 -0.068524644 0.010028294 0.01648542
0.018799575 -0.04887271 0.08600326 0.043744415 0.02011131 -0.038091585 0.014709098 0.06295778
-0.012761131 0.0059071872 -0.06450029 -0.086422026 -0.060366273 -0.015209442 -0.04977394 0.03231911
-0.09939206 0.071776226 0.07857785 0.0064228093 0.01788585 -0.031328205 0.078601435 0.024759967
0.027964478 0.008012178 -0.025964795 -0.034771934 -0.015998825 0.04830915 -0.06574647 0.018319407
0.05660197 -0.025980718 0.050586604 0.0408441 0.027181715 -0.007621345 -0.02031587 0.02521928

layer.6.bias f4 [23]
00000000: 9387 913c 389e 35bd b207 a03c 0392 ebbc
00000010: c3d1 4a3d 50f8 b53c 3a3b 1f3c 9c73 6a3d
00000020: e447 3cbd 7dc3 693b 684e 0dbb d862 96bc
00000030: b0c3 c43c a35f 58bd d25f 913c ca9e 6fbd
00000040: 537c 343d 43d9 3c3d 69f0 123d 21e4 8a3c
00000050: 5de4 913c 1975 17bd 695c 26bc
0.017764842 -0.044340342 0.01953492 -0.028756147 0.04951645 0.022213131 0.009718711 0.05723916
-0.045966998 0.0035669499 -0.0021561626 -0.01835768 0.024019092 -0.05282558 0.017745886 -0.058501042
0.044063877 0.046105634 0.035873804 0.016954483 0.017809087 -0.036976907 -0.010153868
