weight/save_700_26.88641086035205.pth (torch_old, 87748 bytes, 8 tensors)

layer.0.weight f4 [64, 54]
0	0xbdb8bb6a	-0.090201214
1	0xbe5f3dc2	-0.21800902
2	0x3e5a5b4c	0.2132389
3	0xbb7e7e8a	-0.0038832747
4	0xbcdb0ce0	-0.026739538
5	0xbc8ac5ea	-0.016940076
6	0x3ef5b28e	0.4798779
7	0xbec8c0aa	-0.3920949
8	0x3df6cd36	0.1205086
9	0xbf6bfd2a	-0.9218317
10	0x3d5d1726	0.053977154
11	0x3d487c6d	0.048946787
12	0xbddf0982	-0.10890485
13	0xbdda4358	-0.10657376
14	0xbdea7db3	-0.114497565
15	0x3deb2384	0.114813834
16	0xbd93dff7	-0.07220452
17	0x3caad730	0.020854563
18	0xbc662d68	-0.014048912
19	0xbd7bb653	-0.061453175
20	0xbe113f11	-0.14184214
21	0xbdc3344a	-0.09531458
22	0xbd3af3dc	-0.04564272
23	0x3d9e2292	0.077214375
24	0x3d0a5f02	0.033782013
25	0xb9f2646b	-0.00046232654
26	0x3dd389e0	0.10329032
27	0xbe0d1dfd	-0.13780971
28	0xbca0b2a4	-0.019616432
29	0x3d83cefc	0.064359635
30	0xbd36727c	-0.044542775
31	0x3d88aa19	0.066730686
32	0x3d83dfee	0.064391956
33	0x3dbed6c6	0.093183085
34	0x3cdd84e0	0.027040899
35	0x3d6b4311	0.057437006
36	0xbdb075c6	-0.086162135
37	0xbdd6a5e2	-0.104808584
38	0xbd7150c8	-0.05891493
39	0x3d114a12	0.03547103
40	0xbd84eb72	-0.0649022
41	0xbde68f96	-0.112578556
42	0xbcfd08a0	-0.030887902
43	0x3c1bebbc	0.009516653
44	0xbce15808	-0.027507797
45	0x3e09c0b8	0.13452423
46	0xbcf3b064	-0.029747196
47	0x3e049e81	0.1295109
48	0x3d0f7820	0.03502667
49	0xbde297b2	-0.1106409
50	0xbd71ae08	-0.05900386
51	0x3d0f1316	0.03493031
52	0xbdf34bcf	-0.11879694
53	0x3e043a80	0.12912941
54	0xbcb27f4c	-0.021789216
55	0x3e905e95	0.2819716
56	0xbe990a04	-0.29890454
57	0x3bde0ab3	0.006776178
58	0x3dcb99dc	0.09941456
59	0x3d0651fb	0.032793026
60	0xbf340765	-0.70323783
61	0x3ecdd8f4	0.40204585
62	0xbe154ac8	-0.14579308
63	0x3f886616	1.0656154
64	0x3d27e6bd	0.040991534
65	0x3c1be5b3	0.009515214
66	0x3b17a67f	0.002314001
67	0x3b90d0b9	0.004419413
68	0xbdf76fed	-0.12081895
69	0xbd8c6d0e	-0.06856738
70	0x3d055a84	0.032557026
71	0xbb1c5040	-0.0023851544
72	0xbba35340	-0.0049842894
73	0x3bc27e39	0.005935457
74	0xbaef9278	-0.0018277904
75	0x3ce3c122	0.027802054
76	0xbd3bb96e	-0.045831136
77	0x3de3c0ce	0.11120759
78	0xbc137658	-0.009000383
79	0xbddb66c3	-0.107129596
80	0xbc2ad308	-0.01042629
81	0xbd752a29	-0.05985466
82	0xbdf9e330	-0.12201536
83	0x3d1c3134	0.03813286
84	0xbd1b73a2	-0.037952073
85	0xbdebb05c	-0.11508247
86	0xbe0a54c6	-0.13508901
87	0x3d84bb9e	0.06481098
88	0x3d9d3d3f	0.076776974
89	0x3ded9216	0.11600129
90	0xbd9a34d8	-0.075296104
91	0xbe085f26	-0.13317546
92	0x3d236fbe	0.039901488
93	0x3da12ade	0.078695044
94	0x3d9104d2	0.070809975
95	0xbdca7053	-0.098847054
96	0x3dc57223	0.096409105
97	0xbd99ca6e	-0.075093135
98	0x3dbf167a	0.09330459
99	0x3e070e0a	0.13188949
100	0x3d925da5	0.071467675
101	0xbcb7b41f	-0.022424756
102	0x3d095617	0.033529367
103	0xbd8eb38a	-0.06967838
104	0x3e015c7e	0.12632939
105	0x3c8611c7	0.016365899
106	0xbc437f35	-0.011932184
107	0xbd87178e	-0.065962896
108	0x3cc95d90	0.024580747
109	0x3e3b6bb9	0.18302812
110	0x3dda6b15	0.106649555
111	0x3d889bda	0.06670351
112	0x3dc6d49f	0.09708523
113	0x3850d10f	4.9785765e-05
114	0x3d17440d	0.036930133
115	0x3e574314	0.21021682
116	0x3bd838b9	0.0065985587
117	0xbc6deaea	-0.01452134
118	0x3c9be5b8	0.019030437
119	0x3d0e386a	0.03472177
120	0x3daf6531	0.085642226
121	0x3e43c532	0.19118193
122	0x3db88b38	0.09010929
123	0x3e4d677d	0.20059009
124	0x3c600fb0	0.013675615
125	0x3deba640	0.11506319
126	0x3dd3d8b9	0.10344071
127	0x3cccf489	0.025018947
128	0xbc6e5295	-0.014546056
129	0x3d936100	0.07196236
130	0xbb9126d6	-0.0044296784
131	0x3cf969fe	0.030446049
132	0xbc3ab91b	-0.011396672
133	0xbd9bd3d0	-0.076087594
134	0xbdb58298	-0.088627994
135	0xbd9c1916	-0.07621972
136	0xbc7d0a40	-0.015444338
137	0xbc6086b8	-0.013703994
138	0xbe0ad696	-0.1355842
139	0x3dd1ed90	0.102503896
140	0xbd90e5a1	-0.07075048
141	0x3c69e3f0	0.014275536
142	0x3da3d974	0.0800046
143	0xbd5d2552	-0.05399067
144	0x3c658804	0.014009479
145	0x3d8438b8	0.06456131
146	0xbddcdf0c	-0.1078473
147	0xbddcc4bb	-0.10779711
148	0x3df1107b	0.117707215
149	0x3daefac6	0.08543925
150	0x3da73a2a	0.08165391
151	0xbd0060d8	-0.031342357
152	0xbe07fe86	-0.13280687
153	0xbe00261b	-0.12514536
154	0x3c0e1c30	0.008673713
155	0x3cab16fa	0.02088498
156	0x3e048bc5	0.12943943
157	0x3d16c6dc	0.03681074
158	0xbdf93237	-0.12167781
159	0xbcea206e	-0.028579917
160	0xbe0306dd	-0.12795587
161	0xbd7c48e2	-0.061592944
162	0x3d490c80	0.049084187
163	0x3e49648c	0.19667262
164	0x3db45beb	0.088065945
165	0xbce07ddb	-0.027403763
166	0xbbd4f16f	-0.0064985077
167	0x3ca82371	0.020524712
168	0xbe553c63	-0.20823817
169	0x3e126f60	0.14300299
170	0x3dc4833e	0.09595345
171	0x3f220ce4	0.6330092
172	0x3ce17f7b	0.027526608
173	0x3c25c97a	0.010118837
174	0xbc76e864	-0.015070055
175	0xbc6b68cb	-0.014368246
176	0x3ded9e20	0.116024256
177	0xbd341086	-0.04396107
178	0xbda873d6	-0.08225219
179	0x3aba5b80	0.0014217943
180	0xbdc1aabb	-0.094563924
181	0xbd07d1f3	-0.033159208
182	0xbd91bdf4	-0.07116309
183	0xbd4a7735	-0.04943009
184	0xbdc97e5e	-0.09838556
185	0xbdae86c3	-0.085217975
186	0x3d1dbc84	0.03850986
187	0x3caf1398	0.021371648
188	0x3d5be3c6	0.05368402
189	0xbe031d05	-0.12804039
190	0x3db3c2cd	0.0877739
191	0xbd908c12	-0.07057966
192	0xbde418f1	-0.1113757
193	0x3def4480	0.11682987
194	0xbd9679f4	-0.073474795
195	0x3dea5de0	0.114436865
196	0xbdd95611	-0.10612119
197	0xbe00a973	-0.1256464
198	0x3d0fae07	0.035078075
199	0x3dac3ca8	0.08410007
200	0x3b84e8a2	0.0040560523
201	0xbda5b88b	-0.080918394
202	0x3df65280	0.120274544
203	0x3df9c170	0.121950984
204	0x3dfd0e3c	0.123562306
205	0xbdfe1a06	-0.12407307
206	0x3dad09a4	0.084491044
207	0xbb0520c0	-0.002031371
208	0x3dcb0a62	0.0991409
209	0x3dc40f52	0.095732346
210	0x3cdae4f6	0.026720505
211	0x3de75e86	0.11297326
212	0xbdde1ecd	-0.108457185
213	0xbd63075a	-0.055426933
214	0xbd780a8f	-0.060556944
215	0x3dedbd64	0.11608389
216	0x3cd84dd8	0.026404306
217	0x3c40dbf1	0.011771188
218	0x3d53a35e	0.05166947
219	0xbbd66212	-0.0065424526
220	0x3bdfcc9b	0.006829811
221	0x3bc8db25	0.0061296397
222	0x3de52bb5	0.11189977
223	0xbdee04e8	-0.116220295
224	0x3d8b4807	0.068008475
225	0x3e3ef848	0.186494
226	0x3b2c4fa6	0.0026292591
227	0xbba109ee	-0.004914514
228	0xbb2c5178	-0.0026293676
229	0xbbb8f794	-0.005644748
230	0xbcfdf9a0	-0.03100282
231	0x3db6c24b	0.08923777
232	0xbcc699ec	-0.024243318
233	0xbd2be910	-0.041970313
234	0xbc0c3db9	-0.008559638
235	0xbbe669ed	-0.0070316703
236	0x3c0d79da	0.008635009
237	0xbc2b0eed	-0.01044057
238	0xbd13bcb8	-0.036068648
239	0xbd290cf3	-0.041272115
240	0xbd5b55c0	-0.053548574
241	0x3dbe25a6	0.092845246
242	0x3e066b58	0.13126886
243	0x3dbf70e4	0.09347704
244	0xbd4bf983	-0.0497985
245	0x3c48bb30	0.01225166
246	0x3d24b825	0.040214676
247	0x3de84c60	0.113426924
248	0xbb6059f8	-0.0034233313
249	0xbdd1e41e	-0.10248588
250	0x3db20737	0.08692782
251	0xbd3170fe	-0.04332065
252	0xbd8daa52	-0.06917252
253	0xbdee0cc2	-0.11623527
254	0x3e0ee498	0.13954389
255	0xbd806ce0	-0.06270766

layer.0.bias f4 [64]
0	0xba33ebb5	-0.0006863431
1	0xbd83aa7c	-0.06429002
2	0x3ea4b746	0.32171077
3	0x3da5b502	0.08091165
4	0xbcddde3c	-0.027083509
5	0x3db429c2	0.08797027
6	0x3da9eedc	0.08297512
7	0xbd154e3e	-0.03645157
8	0xbdcaaf51	-0.0989672
9	0xbd92b0bc	-0.07162616
10	0xbdd03f70	-0.1016835
11	0xbb90ede0	-0.004422888
12	0xbd641758	-0.055686325
13	0x3cab973e	0.020946141
14	0x3d564a93	0.052317213
15	0xbda31bc0	-0.07964277
16	0x3c2bbc6e	0.010481937
17	0xbd1b721f	-0.03795063
18	0x3d8e112a	0.069368675
19	0x3dd77a5c	0.10521385
20	0x3d84dd26	0.06487493
21	0x3df9480d	0.12171946
22	0xbd2c040a	-0.04199604
23	0xbc7819f1	-0.015142904
24	0xbd85c779	-0.06532187
25	0xbdd44a0d	-0.103656866
26	0x3d53b7a4	0.051688805
27	0xbe000c26	-0.12504634
28	0xbc9f1fbd	-0.019424314
29	0x3de1cf78	0.110259
30	0xbdb62338	-0.08893436
31	0xbd74fe2c	-0.05981271
32	0x3d9b3346	0.07578139
33	0x3d959f86	0.07305817
34	0x3df4fe5b	0.11962577
35	0x3d730f8e	0.059341006
36	0x3affacf1	0.0019506497
37	0xbdee6cfe	-0.11641882
38	0x3df6af37	0.12045138
39	0x3d908d33	0.070581816
40	0x3de10745	0.10987715
41	0x3d1432e1	0.036181334
42	0x3e016d74	0.1263941
43	0x3dff1fe2	0.12457253
44	0xbdba3442	-0.09091999
45	0x3dd0405e	0.10168527
46	0xbcbb6dc5	-0.02287949
47	0x3d7d0d4f	0.06178027
48	0xbd2f18ed	-0.04274838
49	0xbd75ec7d	-0.060039986
50	0x3deb7c8d	0.114983656
51	0x3d21c78c	0.039496943
52	0xbcd1d305	-0.025613317
53	0xbdc13333	-0.094335936
54	0xbc869847	-0.016430033
55	0x3d09ebae	0.033672027
56	0x3db1405f	0.08654856
57	0xbcd4c4d9	-0.02597277
58	0xbb91e971	-0.004452877
59	0x3e056df3	0.13030224
60	0x3e6f77f3	0.23385601
61	0xbddc0a5d	-0.10744164
62	0xbc564b82	-0.013079526
63	0x3d971276	0.07376568

layer.2.weight f4 [128, 64]
0	0xbde516c2	-0.11185981
1	0xbc632e30	-0.013865992
2	0xbd9d9ee0	-0.076963186
3	0xbd775e5b	-0.06039272
4	0x3cff396b	0.031155309
5	0x3d049ee9	0.03237811
6	0xbd002f88	-0.03129533
7	0xbd79b2e2	-0.06096161
8	0xbcd3a9be	-0.025837775
9	0xbdb18a35	-0.08668939
10	0x3c521488	0.012822278
11	0x3be2a7ba	0.006916967
12	0x3d9fab64	0.07796362
13	0xbce0df7e	-0.02745032
14	0x3cd8608c	0.026413225
15	0xbd8240b4	-0.063599974
16	0x3ce6e5d0	0.028185755
17	0x3d3917c0	0.045188665
18	0x3cb8c52a	0.022554953
19	0xbcea5f07	-0.028609766
20	0xbdd6cde8	-0.10488492
21	0x3db870d4	0.09005895
22	0x3be4ba2c	0.006980201
23	0x3d8c1949	0.0684076
24	0x3dae834d	0.085211374
25	0x3cb1808b	0.02166774
26	0x3dba3676	0.09092419
27	0x3d9d747f	0.076882355
28	0xbd1a4090	-0.037659228
29	0x3b68bdb7	0.003551347
30	0x3ccb4e64	0.024817653
31	0xbd4a2b27	-0.04935756
32	0xbc7cf4c6	-0.015439218
33	0x3ca9b63c	0.020716779
34	0xbc31dec2	-0.010856332
35	0x3d6017a7	0.054710057
36	0xbd040493	-0.032230925
37	0xbd27a5dc	-0.04092966
38	0xbc8e4596	-0.017367166
39	0x3ba856bc	0.0051372927
40	0x3e004850	0.12527585
41	0xbd389ea6	-0.045073174
42	0xbdcdb3d5	-0.10044066
43	0x3d0d5970	0.034509122
44	0xbdddd691	-0.10831941
45	0x3d95fe7a	0.07323928
46	0x3d376a00	0.044778824
47	0x3da707d1	0.08155788
48	0x3db26c33	0.087120436
49	0xbdf398d5	-0.11894385
50	0x3e114c37	0.1418923
51	0xbda049f9	-0.07826609
52	0xbdf336be	-0.118756756
53	0x3dfdf62e	0.12400471
54	0x3d863c6d	0.06554494
55	0x3c5af64c	0.013364386
56	0x3d84264a	0.064526156
57	0xbd068210	-0.03283888
58	0xbda66aba	-0.08125825
59	0x3d78cd02	0.060742386
60	0xbda35071	-0.07974327
61	0x3d4dd6f5	0.050253827
62	0xbd16dd1d	-0.036831964
63	0x3df327e9	0.11872847
64	0x3cfe1c38	0.031019315
65	0x3d9598e1	0.0730455
66	0xbd291112	-0.041276045
67	0xbcfa2789	-0.03053643
68	0x3d7bfc4e	0.061519913
69	0xbdd39172	-0.10330476
70	0xbd86dac4	-0.06584695
71	0xbd1acfdb	-0.037795883
72	0xbd4fb00d	-0.050705004
73	0x3cacab80	0.021077871
74	0x3de8ea96	0.11372869
75	0x3d6d73c7	0.057971742
76	0x3dc12a20	0.09431863
77	0xbd64d143	-0.05586363
78	0xbd8bd0c7	-0.068269305
79	0xbdae6e70	-0.08517158
80	0x3cdaf97a	0.026730288
81	0xbb95cebc	-0.004571764
82	0xbd752fba	-0.05985997
83	0xbcce37b5	-0.025173048
84	0x3e0c07ca	0.13674846
85	0xbdb26a4e	-0.08711682
86	0x3db5811d	0.08862517
87	0xbd94a0b0	-0.07257211
88	0x3deab548	0.11460358
89	0x3d43b07c	0.04777573
90	0x3d59a241	0.053133253
91	0x3dab6537	0.083689146
92	0xbd94e9c8	-0.07271153
93	0x3da58da6	0.08083658
94	0x3d964d14	0.0733892
95	0x3d8fdb59	0.07024259
96	0xbdec2d60	-0.11532092
97	0xbe07c5b4	-0.13259012
98	0x3dba6c4b	0.091026865
99	0x3c30d569	0.010793068
100	0x3dc9535d	0.098303534
101	0xbdbe1dc6	-0.092830226
102	0xbceb4ab2	-0.028722141
103	0xbd8683bf	-0.06568097
104	0x3de1a8fc	0.11018559
105	0xbc5da476	-0.01352798
106	0xbc1fe433	-0.009758997
107	0x3d2f532d	0.042803932
108	0x3d91ad50	0.07113135
109	0xbbdb0725	-0.0066842013
110	0xbdc9062b	-0.098156296
111	0xbdb425a5	-0.087962426
112	0x3ceba44a	0.028764863
113	0xbde7781d	-0.11302207
114	0x3d31d63f	0.04341721
115	0x3d94a467	0.0725792
116	0x3d10e43b	0.035373908
117	0xbdc72727	-0.097242646
118	0x3da61043	0.081085704
119	0x3dabda52	0.08391251
120	0x3dea6f00	0.11446953
121	0xbdd2f091	-0.10299791
122	0xbd70e4c2	-0.05881191
123	0x3c51ede0	0.0128130615
124	0x3dbf982d	0.09355197
125	0xbd07120f	-0.032976206
126	0x3d3e944f	0.046528157
127	0x3c2690c6	0.010166353
128	0x3dc82c98	0.097741306
129	0x3d95bf0f	0.07311832
130	0x3d265c94	0.040615633
131	0x3c0e4971	0.008684502
132	0x3e1c8337	0.1528443
133	0xbd026d2e	-0.031842403
134	0x3df6b7b0	0.12046754
135	0xbe0ffc5e	-0.14061114
136	0x3de806d4	0.11329427
137	0x3dd26db1	0.10274828
138	0xbdb3dbac	-0.087821335
139	0x3da102df	0.07861876
140	0x3d765c23	0.060146462
141	0x3bc5394f	0.0060187946
142	0x3d9eb090	0.077485204
143	0x3ca78bf1	0.020452471
144	0xbd905e3c	-0.07049224
145	0x3d8eb996	0.069689915
146	0x3d053fd0	0.03253156
147	0xbd23f6aa	-0.04003016
148	0x3cd14aa0	0.02554828
149	0xbd5822ff	-0.05276775
150	0xbcb50074	-0.022094943
151	0x3d46e2db	0.04855619
152	0xbdda1ed0	-0.10650408
153	0x3d4264cd	0.047459412
154	0xbdd4f1f6	-0.10397713
155	0xbdc7f394	-0.09763256
156	0xbcf24aec	-0.029576741
157	0x3dddfafe	0.108388886
158	0xbdbb684e	-0.09150754
159	0x3cd315f1	0.025767298
160	0x3d0021bf	0.031282183
161	0xbd8c336c	-0.068457454
162	0xbc36bae7	-0.011152959
163	0xbd1552a0	-0.03645575
164	0xbdc01d27	-0.0938056
165	0x3d1b5a6b	0.037928026
166	0xbdae84b3	-0.08521404
167	0x3dade4b3	0.084908865
168	0xbcf94b2a	-0.030431349
169	0x3de56b96	0.11202161
170	0xbdaf1a07	-0.08549886
171	0x3d973feb	0.07385238
172	0x3dbc9639	0.0920834
173	0xbda26e3d	-0.079311825
174	0x3d7c3429	0.06157318
175	0xbc0ea55d	-0.008706418
176	0xbdbc72c3	-0.092015766
177	0xbd92bc48	-0.07164818
178	0xbca016b3	-0.019542074
179	0x3d7de30b	0.061984103
180	0x3df9017b	0.121584855
181	0xbd19c842	-0.037544496
182	0xbd4ca815	-0.049964983
183	0xbd9dfee5	-0.07714633
184	0x3dd04a58	0.1017043
185	0xbd73c28e	-0.059511714
186	0x3dd39d1c	0.103327006
187	0xbdc4f793	-0.096175335
188	0x3d9264e4	0.071481496
189	0xbcb88c9a	-0.022527982
190	0xbd3ada4f	-0.04561835
191	0x3dcbdfde	0.09954809
192	0xbda238f5	-0.0792102
193	0xbdad04ea	-0.08448203
194	0x3d917541	0.071024425
195	0x3dd9dd6f	0.10637938
196	0x3d9836c3	0.0743232
197	0x3dfa6a9e	0.12227367
198	0x3dcdec9e	0.10054897
199	0x3dad9268	0.084751904
200	0x3cb2d0f2	0.021828149
201	0xbda8d106	-0.08242993
202	0xbd770153	-0.060303997
203	0xbddd961d	-0.108196475
204	0x3d276d1d	0.040875543
205	0x3c86987e	0.016430136
206	0xbdfe9342	-0.12430431
207	0xbd1cb3d8	-0.03825745
208	0x3c51a467	0.012795544
209	0xbddf7db1	-0.109126456
210	0xbde068c7	-0.10957485
211	0xbd74391a	-0.05962477
212	0xbd7cc7a8	-0.061713845
213	0xbdae450f	-0.08509266
214	0xbd9dc378	-0.07703298
215	0x3db3b3d0	0.08774531
216	0x3d8491d5	0.06473128
217	0xbdd6d978	-0.104906976
218	0xbda5769a	-0.08079262
219	0xbcba2d52	-0.022726689
220	0xbdb74099	-0.08947868
221	0x3d2d7dab	0.042356174
222	0x3dcf406f	0.101197116
223	0x3ca4e731	0.020129772
224	0xbd42b1c9	-0.04753283
225	0xbd84b9ed	-0.06480775
226	0x3cf20ca1	0.029547038
227	0xbca9b1ea	-0.020714719
228	0x3d108ee5	0.035292525
229	0xbda5f433	-0.08103218
230	0x3d1dd5aa	0.038533844
231	0xbc8c5eac	-0.017134987
232	0x3ca623c0	0.020280719
233	0x3dc1667e	0.09443377
234	0x3dabf488	0.0839625
235	0x3e0df0b2	0.13861349
236	0xbc8e9fcc	-0.017410181
237	0x3d810d8b	0.06301411
238	0x39e426bf	0.00043516417
239	0xbdf5f482	-0.12009527
240	0x3d878b15	0.06618325
241	0x3dd27deb	0.10277923
242	0x3d40bc33	0.04705448
243	0x3df6bd82	0.120478645
244	0x3d39aa94	0.04532869
245	0xbdc26584	-0.09492019
246	0x3dbc16a5	0.091840066
247	0xbc8f26fd	-0.017474646
248	0xbdcfd0b7	-0.10147231
249	0xbd730c58	-0.059337944
250	0x3c9b66fc	0.018970005
251	0xbc1ee90f	-0.00969912
252	0xbcdc9a33	-0.026928997
253	0x3c154ab4	0.009112049
254	0xbd24c5cd	-0.0402277
255	0x3df71275	0.12064067

layer.2.bias f4 [128]
0	0x3d6b1b5f	0.05739915
1	0x3bb2380c	0.00543881
2	0x3d08064e	0.033209138
3	0x3e046934	0.12930757
4	0x3da35bee	0.079765186
5	0x3dd7fde8	0.10546476
6	0x3d19a68c	0.037512347
7	0xbd3d7988	-0.04625848
8	0xbd172afe	-0.036906235
9	0x3d001ac1	0.031275515
10	0xbc2c182f	-0.010503813
11	0xbdb6d7a0	-0.08927846
12	0xbd595921	-0.053063516
13	0x3c4c89d0	0.012484029
14	0x3daab08e	0.083344564
15	0x3d93e5e2	0.07221581
16	0x3d4185db	0.047246795
17	0x3d3af054	0.04563935
18	0xbd87c50c	-0.066293806
19	0x3c0e26e4	0.008676264
20	0x3c0b125d	0.008488265
21	0xbd1ec9b5	-0.03876658
22	0xbdcb2bc2	-0.099204555
23	0xbd3faab7	-0.046793666
24	0xbcd968b7	-0.02653919
25	0xbd347ffe	-0.044067375
26	0x3da8d914	0.08244529
27	0x3dafc308	0.08582121
28	0x3d583e8d	0.052794028
29	0xbd5c0a78	-0.05372092
30	0x3dd0976d	0.10185132
31	0x3dfd2840	0.12361193
32	0xbd8c314b	-0.068453394
33	0xbcd92fef	-0.026512114
34	0xbdb631dd	-0.088962294
35	0xbdaf0474	-0.08545771
36	0x3dc0be50	0.09411299
37	0xbac72ded	-0.0015196182
38	0x3b235fcd	0.0024928928
39	0xbdaddb8a	-0.084891394
40	0x3d93464e	0.07191144
41	0xbd292864	-0.041298285
42	0x3def1571	0.116740115
43	0x3bd8d80b	0.006617551
44	0xbce69341	-0.028146388
45	0x3dbdab05	0.09261135
46	0xbc65e262	-0.014031025
47	0x3dbde13b	0.09271475
48	0x3db9093e	0.09034966
49	0x3dcd3f51	0.10021842
50	0xbb0c7f2d	-0.0021438107
51	0x3d82f601	0.06394578
52	0x3ca9e23f	0.020737765
53	0x3d1b856d	0.03796904
54	0xbdb18d66	-0.08669548
55	0x3dd060af	0.10174691
56	0x3cc5b77a	0.02413534
57	0xbcc0d2da	-0.023538042
58	0x3e62ac46	0.2213603
59	0x3da0710d	0.07834063
60	0xbd88109c	-0.06643793
61	0xbcb1655c	-0.021654777
62	0xbd99fba2	-0.07518698
63	0x3d8d40ea	0.06897147
64	0xbdba0b35	-0.09084169
65	0xbd906992	-0.07051386
66	0x3b4d9b9d	0.003137327
67	0x3dbdc2e0	0.09265685
68	0x3ce9d784	0.028545149
69	0x3dd1bd38	0.10241169
70	0xbdd2b018	-0.102874935
71	0x3dbe9ce0	0.09307265
72	0x3df6dcf3	0.120538615
73	0x3d24e72a	0.040259518
74	0x3b7157ba	0.003682597
75	0xbc3d7c09	-0.011565217
76	0x3d5ad278	0.053423375
77	0xbe065a09	-0.13120283
78	0xbde8be0c	-0.113643736
79	0x3ce8f769	0.028438287
80	0xbd7ce55b	-0.061742168
81	0x3d106ca0	0.035259843
82	0x3d90c1d3	0.07068219
83	0x3d9bfdb7	0.07616752
84	0x3ddfacae	0.10921608
85	0x3b8bb1b8	0.004263129
86	0x3d8fc202	0.07019426
87	0x3dd69428	0.10477477
88	0x3cace7e2	0.021106664
89	0xbde2045d	-0.110359885
90	0x3dbd783e	0.0925145
91	0x3ddcb542	0.1077676
92	0x3db51416	0.08841722
93	0xbc7b5e3b	-0.0153422905
94	0x3de906d2	0.11378254
95	0xbca5d794	-0.020244397
96	0xbd1abb3f	-0.037776228
97	0xb7986af2	-1.8169612e-05
98	0x3be14bce	0.0068754917
99	0xbd71d3af	-0.059039768
100	0xbcf2059c	-0.02954369
101	0x3d9d3783	0.07676604
102	0x3c8551a9	0.01627429
103	0xbdec935e	-0.115515456
104	0xbc8006de	-0.015628275
105	0xbb783a38	-0.0037876498
106	0x3c42066d	0.011842352
107	0xbd4c19b2	-0.049829192
108	0xbd1b73f3	-0.037952375
109	0x3de2d16a	0.11075099
110	0x3e02f334	0.12788087
111	0x3d9492ae	0.072545394
112	0xbc48768b	-0.012235294
113	0x3ab69401	0.0013929607
114	0xbdc749af	-0.09730851
115	0xbd93a983	-0.07210066
116	0x3dde84d3	0.10865178
117	0x3dd48cff	0.10378455
118	0x3d84c00c	0.064819425
119	0x3db9f6c8	0.09080273
120	0xb9c3bcb6	-0.000373339
121	0xbd97e141	-0.07416011
122	0x3dde7553	0.108622216
123	0x3d117333	0.035510253
124	0x3b83d404	0.004023077
125	0x3ddccc5f	0.10781168
126	0xbc9a6828	-0.018848494
127	0xbc819915	-0.015820066

layer.4.weight f4 [64, 128]
0	0x3bb1a57b	0.005421338
1	0xbd9e7a82	-0.0773821
2	0x3cfb695a	0.030689884
3	0xbcb50f1a	-0.022101928
4	0xbd8ed869	-0.06974871
5	0xbd25d12c	-0.040482685
6	0x3d6a5087	0.057205703
7	0x3d109bd8	0.035304874
8	0x3d34253d	0.043980826
9	0x3c105920	0.008810312
10	0xbdbdeee6	-0.09274082
11	0x3d8595f8	0.06522745
12	0xbd18e49e	-0.0373274
13	0xbce0cfc0	-0.027442813
14	0x3ce62050	0.02809158
15	0xbc19730b	-0.009365807
16	0xbb471a92	-0.0030380827
17	0x3c9e7034	0.019340612
18	0x3cd3447b	0.02578949
19	0x3bab40d6	0.005226235
20	0xbbff1122	-0.007784025
21	0xbd0d3966	-0.034478568
22	0x3d0b6326	0.034030102
23	0xbd979c73	-0.07402887
24	0xbc395bb7	-0.01131337
25	0xbda67ceb	-0.08129295
26	0xbd163a5d	-0.036676753
27	0x3c43ede4	0.011958573
28	0x3c98e889	0.018665569
29	0x3cf51322	0.02991635
30	0xbd97c29c	-0.07410166
31	0xbcd4d5c6	-0.025980841
32	0xbcb07c0a	-0.021543521
33	0xbd162500	-0.03665638
34	0xbcc1ab6a	-0.023641307
35	0xbd8a5a00	-0.067554474
36	0x3d522e46	0.05131366
37	0x3d40dba5	0.04708447
38	0x3d50a17a	0.050935246
39	0x3d92d879	0.07170195
40	0x3d298c92	0.041393824
41	0xbbea62cc	-0.007152891
42	0xbd66c4c2	-0.056339987
43	0x3d4a063f	0.049322363
44	0x3d9e9cc2	0.07744743
45	0x3d0c4e68	0.03425446
46	0x3c24abe9	0.010050752
47	0x3db50963	0.08839681
48	0xbd2fe577	-0.042943444
49	0xbd1ee886	-0.03879597
50	0xbd60e5d2	-0.054906674
51	0xbd72da7d	-0.059290398
52	0xbcb37dd2	-0.021910582
53	0x3d825eff	0.06365775
54	0xbba29baf	-0.0049624066
55	0x3d817467	0.0632103
56	0xbd991c7c	-0.07476136
57	0xbd7d3017	-0.06181344
58	0xbd673846	-0.05645015
59	0x3afa5a03	0.0019100312
60	0x3c34dc84	0.011038903
61	0xbd55b512	-0.052174635
62	0xbdb99112	-0.09060873
63	0xbd250dcf	-0.040296372
64	0xbd285556	-0.041097008
65	0x3d808b1f	0.06276535
66	0xbcee8cb0	-0.02911982
67	0xbd382da2	-0.044965394
68	0xbca3ef8d	-0.020011688
69	0x3cd32241	0.02577317
70	0xbc0b1502	-0.008488895
71	0x3c2503b8	0.010071687
72	0x3d960e4d	0.073269464
73	0xbc9cd654	-0.019145168
74	0x3d88c077	0.06677335
75	0xbdbdec75	-0.09273616
76	0xbd50a072	-0.050934263
77	0xbbdb43ff	-0.0066914554
78	0xbd2027b3	-0.03910036
79	0xbbf84d06	-0.0075775413
80	0xbdb1b0d4	-0.086763054
81	0xbd175600	-0.03694725
82	0xbd890922	-0.06691195
83	0xbd973755	-0.073836006
84	0x3cac76a0	0.021052659
85	0xbd8c9751	-0.06864799
86	0x3ca1a9b3	0.01973424
87	0x3d9251ac	0.07144484
88	0xbcd389c4	-0.025822528
89	0x3d82696c	0.06367764
90	0x3d3fe883	0.0468526
91	0xbd93862d	-0.072033264
92	0x3db39dff	0.0877037
93	0x3cd8c522	0.026461188
94	0xbd80a210	-0.06280911
95	0xbd85d3ab	-0.06534513
96	0xbd85ccd7	-0.06533211
97	0xbd013dcf	-0.031553086
98	0xbd2e5bf4	-0.042568162
99	0xbd698cea	-0.05701915
100	0x3d058b4f	0.03260356
101	0x3ca6317e	0.020287272
102	0xbd5a6bf2	-0.0533256
103	0xbd625cc2	-0.055264242
104	0x3d95921c	0.07303259
105	0x3d018fae	0.031631164
106	0xbcdfb1d9	-0.027306484
107	0xbd90983e	-0.07060288
108	0xbdae5e5b	-0.085140906
109	0x3d7da625	0.061926026
110	0xbc885581	-0.016642334
111	0xbd1e6be7	-0.038677122
112	0x3cfbf3f2	0.03075597
113	0x3d038352	0.03210766
114	0xbcc505a1	-0.024050536
115	0xbdbe339e	-0.09287189
116	0xbdbe1666	-0.09281616
117	0xbd724e1c	-0.059156522
118	0x3da00ebf	0.078153126
119	0x3c4256e5	0.011861538
120	0xbc47393e	-0.012159644
121	0xbc8a487a	-0.016880263
122	0x3d41106d	0.047134805
123	0xbc9aedba	-0.018912185
124	0x3d4d065d	0.050054897
125	0xbc9e99b6	-0.019360404
126	0xbc7637a8	-0.015027918
127	0x3d75a6c0	0.05997348
128	0x3d9a5573	0.075358294
129	0xbd441d43	-0.04787947
130	0xbd70d321	-0.0587951
131	0x3c8cd166	0.017189693
132	0x3c400842	0.011720719
133	0xbdb2bdd7	-0.08727615
134	0xbc8265ed	-0.015917743
135	0xbd5c988b	-0.053856414
136	0x3d489ee4	0.048979655
137	0xbda2613d	-0.07928703
138	0xbd312121	-0.043244485
139	0x3d0eb3c5	0.03483941
140	0x3d8abe33	0.06774559
141	0x3d40ab0e	0.04703813
142	0x3d0a9ee4	0.033842936
143	0xbda2ec6d	-0.07955251
144	0x3d568f9d	0.052383054
145	0x3c8b4f6f	0.01700565
146	0x3dcf7d77	0.101313524
147	0xbdb0921d	-0.08621619
148	0x3d230456	0.039799057
149	0xbcc34456	-0.023836296
150	0x3d81eaf1	0.0634364
151	0x3c57acbb	0.013163741
152	0x3ceba259	0.028763937
153	0x3cddbfdb	0.027069023
154	0xbc90ea5d	-0.017689878
155	0xbd212a25	-0.039346833
156	0x3d2de5b4	0.04245539
157	0x3d84f7da	0.064925864
158	0x390fa984	0.00013700692
159	0xbc52a31d	-0.012856272
160	0xbdb1b637	-0.08677333
161	0x3d0f9bb9	0.035060618
162	0xbdc8e213	-0.09808745
163	0x3d18b867	0.037285235
164	0xbdb44cf9	-0.08803744
165	0x3ca3c9d7	0.019993706
166	0x3cce55da	0.025187422
167	0x3cd31b57	0.025769873
168	0x3d558555	0.05212911
169	0xbdbbeb5f	-0.09175753
170	0x3d6be764	0.05759372
171	0xbd2595cf	-0.04042607
172	0xbc309cd3	-0.010779577
173	0xbdc287de	-0.09498571
174	0x3d89d2a4	0.0672963
175	0xbdc2ac06	-0.09505467
176	0x3d831177	0.063998155
177	0x3cb36574	0.021898963
178	0xbd3df485	-0.04637577
179	0xbda6d8bf	-0.0814681
180	0x3ca39dc9	0.019972699
181	0xbd5cc585	-0.053899307
182	0x3c53d398	0.012928866
183	0xbd0de5ee	-0.034643106
184	0x3d621aee	0.055201463
185	0x3d8fd5bd	0.07023189
186	0xbd115972	-0.035485692
187	0x3d629a73	0.055323076
188	0xbd29db30	-0.0414688
189	0xbdb1dfbc	-0.08685252
190	0x3da233ac	0.07920012
191	0xbdbffd27	-0.09374457
192	0xbd7fd896	-0.06246241
193	0xbd3af254	-0.04564126
194	0xbd145e9b	-0.036223035
195	0xbd20dea9	-0.039274845
196	0x3b963cf5	0.0045849034
197	0xbb1f9816	-0.0024352125
198	0x3d8760cc	0.066102594
199	0x3c22114a	0.009891817
200	0xbe02ef9a	-0.12786713
201	0x3c5efe12	0.01361038
202	0x3d929875	0.07157985
203	0xbd5c4db2	-0.053785034
204	0xbc7a9313	-0.015293854
205	0x3d2e1df5	0.042509038
206	0xbc09ea2a	-0.0084176455
207	0xbcd37337	-0.025811775
208	0x3d436645	0.047704954
209	0xba49dafd	-0.00077001733
210	0x3d7d02fa	0.061770417
211	0xbda9c504	-0.08289531
212	0xbda50beb	-0.08058914
213	0x3d10236e	0.03519004
214	0xbaeade3c	-0.0017919014
215	0x3d817930	0.06321943
216	0xbceb69d2	-0.028736982
217	0x3d8ff2cd	0.070287324
218	0xbcb5f7c8	-0.022212878
219	0xbd21ee51	-0.039533917
220	0x3c5ff6b0	0.013669655
221	0x3d55fea8	0.052244812
222	0xbd0e5d2c	-0.034756824
223	0xbdabf2f5	-0.0839595
224	0x3d9517dd	0.07279942
225	0x3c98758e	0.018610742
226	0x3d918f5a	0.0710742
227	0x3d9924a8	0.07477695
228	0xbbacbb12	-0.005271324
229	0x3c331735	0.010930826
230	0x3d0ebe43	0.034849416
231	0x3d8c234f	0.06842672
232	0x3cb99699	0.022654818
233	0x3d267e36	0.040647708
234	0xbcaca369	-0.021074014
235	0xbdaad0d3	-0.08340611
236	0xbd569a74	-0.05239339
237	0x3d9cf0d6	0.07663123
238	0x3d74a147	0.05972412
239	0xbd8c7b82	-0.06859495
240	0xbd40bd51	-0.047055546
241	0xbd201623	-0.03908361
242	0xbdaba6b5	-0.08381406
243	0xbc869236	-0.01642714
244	0x3a62ec48	0.00086564245
245	0x3d960c87	0.07326608
246	0x3cbd2c02	0.023092274
247	0x3c4eda28	0.012625255
248	0xbce98449	-0.028505461
249	0xbd708193	-0.05871732
250	0x3d2c4042	0.04205347
251	0x3d4fee3f	0.05076432
252	0xbd784860	-0.060615897
253	0x3d829ecb	0.063779436
254	0x3983d219	0.00025142802
255	0x3cd4ed63	0.025992101

layer.4.bias f4 [64]
0	0xbb5709ed	-0.0032812313
1	0x3d2fb458	0.0428966
2	0xbc6c3ce5	-0.014418815
3	0xbd055fec	-0.03256218
4	0xbc93a3ca	-0.018022437
5	0xbcc2b758	-0.023769066
6	0x3ccb12b3	0.02478919
7	0x3c9b1230	0.01892957
8	0xbd94d4c7	-0.072671466
9	0xbd3a5e76	-0.04550024
10	0x3c1f21e3	0.009712669
11	0x3d6ac0ae	0.05731266
12	0x3cf6f5b0	0.03014645
13	0xbd861a25	-0.065479554
14	0xbd633801	-0.05547333
15	0x3d340b50	0.0439561
16	0xbd445551	-0.047932927
17	0xbda31429	-0.079628296
18	0x3d4034dc	0.04692541
19	0xbd4d5837	-0.050132956
20	0xbbb940ad	-0.005653462
21	0xbcfd1a91	-0.030896457
22	0x3c08d2b1	0.008351014
23	0x3ce85a35	0.028363327
24	0x3d6980ba	0.05700753
25	0xbd1e3648	-0.038625985
26	0xbc89b933	-0.016811943
27	0xbd73b2a5	-0.05949654
28	0xbc34202e	-0.010994
29	0xbc9fabaf	-0.019491045
30	0xbd6c2205	-0.05764963
31	0xbdb7ddc9	-0.08977849
32	0xbccf09fc	-0.025273316
33	0xbccea89c	-0.025226884
34	0x3d9e7f15	0.07739083
35	0x3db060a3	0.08612182
36	0x3c206514	0.009789724
37	0xbd92b5c7	-0.071635775
38	0x3d8e5477	0.06949704
39	0x3c8b3f85	0.016998062
40	0x3d228d18	0.03968534
41	0x3d8823e0	0.066474676
42	0xbd87d9a6	-0.0663331
43	0xbd7f24b6	-0.06229087
44	0xbd4adb77	-0.049525704
45	0xbc514eaa	-0.012775103
46	0xbd7d0c0d	-0.06177907
47	0xbd6569e0	-0.056009173
48	0x3cd13c9f	0.025541602
49	0x3cf8150d	0.030283475
50	0xbd9a0d2a	-0.07522042
51	0x3d37b252	0.044847794
52	0x3c674390	0.014115229
53	0xbd80366d	-0.06260381
54	0xbd198b0b	-0.037486117
55	0xbdafa6ed	-0.085767604
56	0xbcdba711	-0.026813062
57	0xbcf75ea9	-0.030196505
58	0xbd6a86b7	-0.05725738
59	0x3c1f52ae	0.009724302
60	0x3d246ebc	0.040144667
61	0xbda8bf4b	-0.08239611
62	0x3d29c35f	0.041446086
63	0x3d650d13	0.05592067

layer.6.weight f4 [23, 64]
0	0xbc14aa89	-0.009073862
1	0xbc21bfb8	-0.0098723695
2	0x3d4f1853	0.050560307
3	0xbd234626	-0.03986182
4	0xbc8eed41	-0.017447116
5	0xbd6869a9	-0.05674139
6	0xbd88e0c2	-0.06683494
7	0x3c0635fc	0.008191582
8	0xbca67f4f	-0.020324377
9	0x3b9954ae	0.004679284
10	0x3d1a5d24	0.037686482
11	0x3cf98b65	0.030461976
12	0x3d1a2750	0.037635148
13	0xbdd253d0	-0.10269892
14	0xbde362d1	-0.11102832
15	0x398795bf	0.00025860776
16	0xbd7f1af8	-0.06228158
17	0x3da45a4e	0.08025037
18	0xbcb4b708	-0.022059932
19	0x3d4438e6	0.047905825
20	0xbd36f5fa	-0.044668175
21	0xbdccbcd2	-0.09996952
22	0x3d8d0737	0.06886142
23	0xbdb62033	-0.0889286
24	0x3d4e6e38	0.05039808
25	0x3724da4d	9.825989e-06
26	0x3c176314	0.009239931
27	0xbe0f4482	-0.13990977
28	0x3b87a83b	0.0041399277
29	0x3d921bd7	0.07134216
30	0xbc298d59	-0.010348641
31	0x3dd1afad	0.102385856
32	0xbd988e5b	-0.07449027
33	0x3da41e75	0.08013622
34	0x3b9a38f4	0.0047064964
35	0x3dbb5ac7	0.09148174
36	0xbd752870	-0.059853017
37	0x3dc4e797	0.09614485
38	0xbd51c7fb	-0.051216107
39	0xb8db49da	-0.0001045649
40	0x3dec70c1	0.115449436
41	0x3db1e02c	0.086853355
42	0x3d828848	0.0637365
43	0x3e03c68c	0.12868708
44	0x3d0c8630	0.03430766
45	0xbdc7dd74	-0.09759036
46	0xbcc92fcd	-0.024558926
47	0xbc80eb63	-0.015737241
48	0x3c906060	0.01762408
49	0x3be3b066	0.0069485186
50	0x3d8e672b	0.069532715
51	0xbd3b5504	-0.045735374
52	0x3d80e81a	0.0629427
53	0xbd44d744	-0.048056856
54	0x3c66d003	0.01408768
55	0xbda49698	-0.08036536
56	0x3dbf0814	0.09327713
57	0x3d0a9a39	0.033838484
58	0xbc6a165f	-0.01428756
59	0x3d0d40f2	0.034485765
60	0xbb1b0405	-0.002365352
61	0xbd40bf9c	-0.047057733
62	0x3cd5a4d2	0.026079569
63	0x3daf4a14	0.08559051
64	0x3d852b9a	0.06502457
65	0x3ba4fb32	0.0050348276
66	0x3d173309	0.036913905
67	0x3d1aba42	0.037775286
68	0x3c38fc5f	0.011290639
69	0x3d9b78e7	0.0759142
70	0x3d810614	0.062999874
71	0x3d744fc8	0.059646398
72	0x3d292e6f	0.04130405
73	0x3d5bde75	0.05367895
74	0xbd6c0421	-0.057621125
75	0x3d12d426	0.03584685
76	0x3bed660a	0.00724483
77	0x3d8f9872	0.070114985
78	0xbda5876c	-0.0808247
79	0xbd203b5b	-0.039119106
80	0x3dc9c36a	0.098517254
81	0xbcd725b4	-0.026263095
82	0xbdc5c42b	-0.09656557
83	0x3bb27b46	0.0054468242
84	0xbd8e41f8	-0.06946176
85	0x3cdd02b5	0.02697883
86	0xbcb52415	-0.022111932
87	0xbd9e1ba0	-0.07720113
88	0x3cd8b6a0	0.02645427
89	0xbcfb644d	-0.030687476
90	0xba1d3e66	-0.0005998373
91	0xbd47cc56	-0.048778854
92	0xbdb705c7	-0.08936649
93	0x3dd0bd9c	0.10192415
94	0x3d2af27c	0.041735157
95	0x3de8e833	0.113724135
96	0xbc72fc84	-0.014830712
97	0xbd56d89d	-0.052452672
98	0x3dde5b40	0.10857248
99	0xbcca4e4c	-0.024695538
100	0x3d538c5a	0.05164752
101	0x3d67a148	0.056550294
102	0xbd96f295	-0.073704876
103	0x38f26de8	0.00011559931
104	0xbd1c2f52	-0.038131066
105	0x3da3b5c3	0.07993653
106	0x3ca9bafb	0.020719042
107	0x3c9d34ac	0.019190155
108	0x3cda83eb	0.026674232
109	0xbd14ae9a	-0.036299326
110	0xbd35c37e	-0.04437589
111	0xbd8cf5e4	-0.068828374
112	0x3d0534c7	0.032521036
113	0x3dc9018e	0.0981475
114	0x3d56a650	0.0524047
115	0xbde24943	-0.1104913
116	0xbd99eaf0	-0.07515514
117	0xbcee6672	-0.029101584
118	0xbd7d9c88	-0.061916858
119	0xbdbc7c09	-0.09203345
120	0xbb869695	-0.0041073062
121	0x3d817d67	0.06322747
122	0x3b2e6f47	0.002661662
123	0x3d87bb58	0.0662753
124	0xbdf5aa4b	-0.119953714
125	0xbd22ae98	-0.039717287
126	0x3d200304	0.039065376
127	0xbc8ceba5	-0.017202208
128	0xbd2ba845	-0.04190852
129	0xbda44b44	-0.08022168
130	0x3beecea7	0.0072878185
131	0x3c47cc00	0.0121946335
132	0x3ddb750d	0.10715685
133	0xbd9bacff	-0.07601356
134	0x3caee1dd	0.021347934
135	0xbde6eeaa	-0.1127599
136	0x3dc446c9	0.09583814
137	0x3daae337	0.08344119
138	0xbdd62df5	-0.10457984
139	0xbbf02c97	-0.0073295343
140	0xbd5aa539	-0.053380225
141	0x3dad0fb9	0.084502645
142	0x3d8a6e0c	0.06759271
143	0x3cfa48d2	0.030552302
144	0x3ccd4a6e	0.025059905
145	0xbd433134	-0.047654346
146	0x3cd49d06	0.02595378
147	0x3d028661	0.031866435
148	0xbd382169	-0.044953737
149	0xbc72eec8	-0.014827438
150	0xbca4da55	-0.02012364
151	0x3d81c6f2	0.06336774
152	0xbd18a140	-0.037263155
153	0x3d965a95	0.07341496
154	0xba5ebfc4	-0.0008497203
155	0xbd5a43e1	-0.05328739
156	0x3cf41ece	0.029799845
157	0x3d1be63c	0.038061365
158	0x3daa178b	0.08305272
159	0x3c76b86f	0.015058621
160	0x3dc6259c	0.09675142
161	0x3d8c62fa	0.06854816
162	0xbde3fb83	-0.111319564
163	0x3d856def	0.06515109
164	0x3d590767	0.052985575
165	0x3cfb9e87	0.03071524
166	0x3dba3066	0.090912625
167	0xbd7d967a	-0.061911084
168	0xbcd15f21	-0.025558056
169	0xbcca0433	-0.024660205
170	0x3d88c2b5	0.066777624
171	0xbbb677d9	-0.005568486
172	0x3d951d9f	0.072810404
173	0x3d9df264	0.07712248
174	0x3dce75cf	0.10081064
175	0x3d6f6885	0.058449287
176	0xbdc8b516	-0.098001644
177	0x3ce8b786	0.028407823
178	0x3dd6fd4e	0.10497533
179	0xbd8efcaa	-0.069817856
180	0xbcf2bdc0	-0.029631495
181	0xbced6bb9	-0.02898203
182	0x3d96eea1	0.073697336
183	0x3d240e37	0.04005262
184	0xbd8e0b70	-0.06935775
185	0x3dc14281	0.09436513
186	0x3deb5f9b	0.11492845
187	0x3d8c5352	0.068518296
188	0x3c3b9a23	0.011450323
189	0x3daf30df	0.08554243
190	0xbcb66a34	-0.022267438
191	0xbd99f26e	-0.07516943
192	0xbc8dcbdf	-0.017309127
193	0x3c0b2474	0.008492578
194	0xbd0b6f12	-0.03404147
195	0x3d3a8476	0.04553648
196	0xbd3b58c3	-0.045738947
197	0xbd75ee8f	-0.06004196
198	0xbc136f6a	-0.008998731
199	0xbcd6058b	-0.02612569
200	0xbd863f5f	-0.06555056
201	0xbc70a8de	-0.014688699
202	0xbc956cf4	-0.01824043
203	0xbd91c418	-0.0711748
204	0x3d0140dd	0.031556
205	0x3d2778dd	0.04088675
206	0xbd4b187d	-0.0495839
207	0xbd6d3e84	-0.057920948
208	0x3c2148ce	0.009844018
209	0x3cbfae46	0.02339853
210	0x3d473128	0.048630863
211	0x3d28d022	0.041214116
212	0xbcce13f1	-0.025155993
213	0xbbd0de28	-0.0063741393
214	0x3dc3e00b	0.09564217
215	0xbcaf8d3c	-0.02142965
216	0xbdb5d8de	-0.08879255
217	0x3bfa4956	0.007638137
218	0x3af3d324	0.0018602354
219	0xbd256afc	-0.04038523
220	0xbc6555cc	-0.013997506
221	0xbd43f4de	-0.047840945
222	0x3d2d8071	0.04235882
223	0xbd9b146f	-0.07572257
224	0xbcbdd39b	-0.02317219
225	0xbc9289fd	-0.017888064
226	0xbdb02b0f	-0.08601963
227	0x3c0c4426	0.00856117
228	0xbcce3bd2	-0.025175009
229	0xbca9cb84	-0.020726927
230	0xbda68912	-0.08131613
231	0x3d67b520	0.05656922
232	0xbc389a96	-0.011267325
233	0xbda1e0b0	-0.07904184
234	0xbd17d8bd	-0.037071932
235	0xbc5f08d8	-0.013612948
236	0xbd39e384	-0.04538299
237	0xbd292c71	-0.04130215
238	0x3de1e012	0.11029066
239	0x3b92201e	0.004459395
240	0x3d5ccc5e	0.053905837
241	0x3bfa8b54	0.0076460037
242	0xbda21d26	-0.07915716
243	0x3c880461	0.01660365
244	0xbdcd5ab4	-0.10027066
245	0xbd24e88a	-0.04026083
246	0x3d29f150	0.0414899
247	0x3da024db	0.078195296
248	0x3dd0816b	0.101809345
249	0xbd445bf2	-0.04793925
250	0xbbedf222	-0.0072615305
251	0x3dcd33cf	0.10019647
252	0xbda2aeb0	-0.07943475
253	0xbdb4fb0e	-0.088369474
254	0xbde3e86f	-0.111283176
255	0xbc89906c	-0.016792499

layer.6.bias f4 [23]
0	0xbdff84f1	-0.124765284
1	0x3c01c584	0.007920627
2	0x3c31dce6	0.010855889
3	0xbcc73cd9	-0.024321007
4	0xbb64a1f8	-0.003488658
5	0x3d1deefc	0.03855799
6	0x3df9b53d	0.121927716
7	0x3d245e9e	0.040129296
8	0x3c975eb2	0.018477771
9	0x3da17b55	0.07884852
10	0x3cab29b9	0.020893918
11	0x3d2f0500	0.042729378
12	0xbbd5813f	-0.0065156515
13	0xbdbea74b	-0.09309252
14	0xbd53b680	-0.051687717
15	0xbe02df8c	-0.12780589
16	0x3caece19	0.02133851
17	0x3db1f392	0.086890355
18	0x3d932aac	0.071858734
19	0x3d99e672	0.07514657
20	0xbc6aaed6	-0.014323911
21	0xbd35ad6e	-0.04435485
22	0x3d98257c	0.074290246
