weight/save_500_44.400155531595956.pth (torch_old, 87748 bytes, 8 tensors)

layer.0.weight f4 [64, 54]
00000000: 6abb b8bd 6efa 09be cd30 1d3e bc3f f0ba
00000010: 85c9 bc3a 3563 39bc daaf b63e e006 93be
00000020: 6b18 003e 7dc6 33bf 2806 003d 8f8f 52bb
00000030: 2942 27be e9ea bbbd b37d eabd 0112 ec3d
00000040: f7df 93bd 30d7 aa3c 538d 5ebc 22c9 ccbd
00000050: 1af8 0abe be67 dabd 0608 39bd af6a 9f3d
00000060: 7f84 183d 9d64 983b e089 d33d baf3 0cbe
00000070: a4b2 a0bc fcce 833d 7c72 36bd 3e69 893d
00000080: eedf 833d c6d6 be3d e084 dd3c e5e0 6e3d
00000090: c675 b0bd e2a5 d6bd c850 71bd a9db 143d
000000a0: 72eb 84bd 968f e6bd a008 fdbc 9dac 293c
000000b0: 0858 e1bc b8c0 093e 64b0 f3bc 0f66 053e
000000c0: 2078 0f3d b297 e2bd 08ae 71bd 2e49 123d
000000d0: cf4b f3bd 803a 043e 4c7f b2bc 0e38 6b3e
000000e0: 4735 62be 1e8d 3e3c ffcd ae3d 7a6a ff3c
000000f0: 2d69 15bf 5774 a13e f5c9 03be 6a1c 5f3f
00000100: ae7d bc3c 4317 783c 0de4 d1bb 1e63 b83c
00000110: ed6f f7bd f253 8cbd 845a 053d 4050 1cbb
00000120: 9efc a3bb af4f 8fbb 3a26 87bb e2f8 1f3d
00000130: d487 3bbd d210 e43d d866 92bb 59a9 c6bd
00000140: 0b42 2bbc 3180 76bd 7c7b fabd 3431 1c3d
00000150: 5590 1bbd 75c5 ebbd 6fa0 0abe 9ebb 843d
00000160: 0631 9d3d 1d4c ee3d 24cd 9abd 265f 08be
00000170: 0b53 233d 29ba a13d 866c 903d 5370 cabd
00000180: ea65 c53d 42b9 99bd 2e7e be3d 0a0e 073e
00000190: 6c51 923d a082 b7bc 1f26 083d 8ab3 8ebd
000001a0: 6f55 013e 0d57 863c e541 48bc 8e17 87bd
000001b0: 905d c93c 3a00 e63d 7939 b53d 79c1 8d3d
000001c0: cbee b53d ea05 96bc b747 833d ce69 203e
000001d0: c4ff c038 505f 2f3d 53a6 3a3d 564a 8b3d
000001e0: 2159 743d 17a3 d33d 388b b83d 076e 2c3e
000001f0: b00f 603c 40a6 eb3d 6207 f63d 0cd0 413c
00000200: be62 2dbd 0438 273d c25c 86bb 0210 453d
00000210: ff91 42bd 6761 9bbd 9882 b5bd 1619 9cbd
00000220: 400a 7dbc b886 60bc 96d6 0abe 90ed d13d
00000230: a1e5 90bd f0e3 693c 74d9 a33d 5225 5dbd
00000240: 0488 653c b838 843d 0cdf dcbd bbc4 dcbd
00000250: 7b10 f13d c6fa ae3d 2a3a a73d d860 00bd
00000260: 86fe 07be 1b26 00be 301c 0e3c fa16 ab3c
00000270: c58b 043e dcc6 163d 3732 f9bd 6e20 eabc
00000280: dd06 03be e248 7cbd 800c 493d 24c7 133e
00000290: 86a9 863d 0ad0 09bd ec30 6abc fda8 a23c
000002a0: 8e78 ffbd c337 e13d e507 683d e315 f33e
000002b0: 50ae 153d 8c1f 0f3d 9393 f63b b8d0 61bc
000002c0: 209e ed3d 0801 33bd d673 a8bd 805b ba3a
000002d0: a9dc c9bd d901 3fbd 5106 9abd cf30 59bd
000002e0: 40f6 c8bd c386 aebd 84bc 1d3d 9813 af3c
000002f0: c6e3 5b3d 051d 03be 07e1 b43d 128c 90bd
00000300: f118 e4bd 8044 ef3d 2131 96bd e05d ea3d
00000310: 1156 d9bd 73a9 00be c13f 103d a83c ac3d
00000320: a2e8 843b 8bb8 a5bd 539b f63d 70c1 f93d
00000330: 3c0e fd3d 061a febd 7752 ad3d c020 05bb
00000340: 620a cb3d 520f c43d 0a09 dc3c 865e e73d
00000350: cd1e debd 5a07 63bd d578 77bd 64bd ed3d
00000360: d84d d83c 3512 c6bc bde8 803c f443 33bc
00000370: c957 55bc a36c 0b3c 2e76 5b3e 9191 2abe
00000380: 4416 853d 283d d63d 93cf 1dbc 5c2a 33bb
00000390: 4ad6 223b 9753 adba a0f9 fdbc 0e95 b73d
000003a0: ec99 c6bc 10e9 2bbd a617 11bc 4862 c5ba
000003b0: 692b 42ba cfe5 84bc c40c 12bd 965e 65bd
000003c0: e328 a2bc 7de1 cb3d c4d7 063e e470 bf3d
000003d0: adff 48bd 30bb 483c 6368 263d 604c e83d
000003e0: 32b6 30bb 1ee4 d1bd 46e1 b23d fe70 31bd
000003f0: c92c 8cbd c20c eebd 0451 0f3e e06c 80bd
-0.090201214 -0.13474438 0.15350647 -0.0018329541 0.0014403319 -0.011315157 0.3568104 -0.28716183
0.12509315 -0.70224744 0.03125587 -0.0032129025 -0.16333832 -0.09175665 -0.114497565 0.115268715
-0.07220452 0.020854563 -0.013583499 -0.099993005 -0.13571206 -0.106643185 -0.045173667 0.0778402
0.037235733 0.004650666 0.10329032 -0.1376485 -0.019616432 0.064359635 -0.044542775 0.067095265
0.064391956 0.093183085 0.027040899 0.058319945 -0.086162135 -0.104808584 -0.05891493 0.036342297
-0.0649022 -0.112578556 -0.030887902 0.010356096 -0.027507797 0.13452423 -0.029747196 0.13027214
0.03502667 -0.1106409 -0.05900386 0.03571432 -0.11879694 0.12912941 -0.021789216 0.22970602
-0.22090636 0.011630325 0.085353844 0.031178702 -0.5836361 0.31534073 -0.12870009 0.8715273
0.023009147 0.015142265 -0.0064053596 0.0225082 -0.12081895 -0.06851949 0.032557026 -0.0023851544
-0.0050044795 -0.0043735127 -0.00412443 0.039055713 -0.045783833 0.11136021 -0.0044678263 -0.09700269
-0.010452758 -0.060180847 -0.12230584 0.03813286 -0.037979443 -0.11512271 -0.13537763 0.06481098
0.07675366 0.11635611 -0.07558659 -0.13317546 0.039874118 0.07896835 0.07051949 -0.098847054
0.09638579 -0.07506038 0.093014106 0.13188949 0.07144436 -0.022401154 0.03323948 -0.06967838
0.12630247 0.01639893 -0.012222742 -0.065962896 0.024580747 0.11230512 0.08848853 0.069216676
0.08883437 -0.018313367 0.06410163 0.15665361 9.2029135e-05 0.042815506 0.045568775 0.06801288
0.059655312 0.10333841 0.09010929 0.16838847 0.013675615 0.11506319 0.12013127 0.011829387
-0.042330496 0.040824905 -0.004100413 0.04811097 -0.047502514 -0.075869374 -0.088627994 -0.07621972
-0.015444338 -0.013703994 -0.1355842 0.102503896 -0.07075048 0.014275536 0.0800046 -0.05399067
0.014009479 0.06456131 -0.1078473 -0.10779711 0.117707215 0.08543925 0.08165391 -0.031342357
-0.13280687 -0.12514536 0.008673713 0.02088498 0.12943943 0.03681074 -0.12167781 -0.028579917
-0.12795587 -0.061592944 0.049084187 0.14431435 0.06575303 -0.033645667 -0.01429389 0.01985597
-0.12474166 0.10996964 0.056648154 0.47477636 0.03654319 0.034942195 0.0075249164 -0.013782673
0.116024256 -0.043702155 -0.08225219 0.0014217943 -0.09856541 -0.04663262 -0.07520736 -0.053025063
-0.098125935 -0.085217975 0.03850986 0.021371648 0.05368402 -0.12804039 0.08831983 -0.07057966
-0.1113757 0.11682987 -0.07333589 0.114436865 -0.10612119 -0.1256464 0.03521705 0.08410007
0.0040560523 -0.080918394 0.120413445 0.121950984 0.123562306 -0.12407307 0.084629945 -0.002031371
0.0991409 0.095732346 0.026859779 0.11297326 -0.108457185 -0.055426933 -0.06041797 0.11608389
0.026404306 -0.024178604 0.015735978 -0.010941494 -0.013021418 0.008509788 0.214318 -0.16657092
0.064983875 0.104608834 -0.009632009 -0.002733848 0.0024846965 -0.0013223764 -0.03100282 0.08963977
-0.024243318 -0.041970313 -0.008855736 -0.0015059197 -0.00074069813 -0.016222863 -0.035656705 -0.055998407
-0.019794887 0.09955118 0.13168246 0.09347704 -0.049071956 0.01225166 0.040626895 0.113426924
-0.0026964066 -0.10248588 0.08734374 -0.04332065 -0.068444796 -0.11623527 0.13995749 -0.06270766

layer.0.bias f4 [64]
00000000: 996c 6fb9 6c91 83bd c946 943e a53d a63d
00000010: a395 dabc 9f8d b43d 4b0e aa3d 16b2 14bd
00000020: a759 cabd f621 92bd 294d d0bd 5293 93bb
00000030: fba7 5fbd e0f0 ae3c a61d 573d c574 a1bd
00000040: 8d12 2f3c c9ee 24bd ce62 8e3d 1fcd d73d
00000050: 087a 823d 63d0 fb3d 3a41 20bd 4292 a9bc
00000060: 32b4 85bd 8dc8 d3bd cbbd 543d 7412 00be
00000070: 73cd b1bc 7dee e33d 0652 b8bd 6fa6 73bd
00000080: 3af9 983d 776f 983d eba1 f73d dacc 703d
00000090: b953 843b bab4 eebd db9a f63d 65ee 903d
000000a0: 5f0e e13d 75b3 153d 856c 013e 1818 fe3d
000000b0: 2df5 c1bd 294f d03d 1934 bcbc 6000 7e3d
000000c0: 093e 2abd cc3d 76bd 501d eb3d a584 233d
000000d0: 2e04 ccbc 4021 bebd ee1b 80bc 2036 0c3d
000000e0: 5c69 b33d 7ce2 ddbc ef36 97bb 5780 053e
000000f0: 5bf5 6a3e e043 dabd ed30 5ebc daca 973d
-0.00022833272 -0.064242214 0.28960255 0.081172265 -0.02668268 0.088160746 0.083035074 -0.03630265
-0.09880381 -0.07135384 -0.10170967 -0.004503646 -0.054603558 0.021355093 0.05251851 -0.078836
0.010685575 -0.040266786 0.06952439 0.105371706 0.06370932 0.12295606 -0.039124705 -0.020699624
-0.0652851 -0.103409864 0.051938813 -0.1250704 -0.021704411 0.111294724 -0.0900002 -0.059484895
0.07469411 0.07443135 0.1209143 0.05878911 0.004038301 -0.116555646 0.12041255 0.0707672
0.10989069 0.036548097 0.12639053 0.12406939 -0.09470592 0.101713486 -0.02297406 0.062012076
-0.041563068 -0.060117528 0.114802 0.03992142 -0.024904337 -0.09283686 -0.015638318 0.034231305
0.0876033 -0.027085535 -0.004614703 0.13037239 0.22945158 -0.106574774 -0.0135614695 0.07411738

layer.2.weight f4 [128, 64]
00000000: 2949 e5bd 86f8 64bc 7c66 a0bd 5b5e 77bd
00000010: 67f7 fd3c 669f 043d c090 01bd d840 78bd
00000020: e421 bdbc 5479 b1bd e111 553c 64c7 e13b
00000030: 33f1 9f3d a1f4 e0bc 4f4c d83c 3450 82bd
00000040: e3fd e83c 5a27 393d 710a c03c ae6b f6bc
00000050: 26e9 d2bd 2e78 b83d 09fd de3b 9300 9f3d
00000060: 8381 ae3d 92c0 ae3c 92d4 b93d 2682 9d3d
00000070: 30e9 42bd f880 763b ddea ce3c a784 4bbd
00000080: 2ce8 78bc 4161 a73c 42ef 2fbc 6558 5e3d
00000090: 68a0 02bd af1a 27bd f227 8dbc 6130 a63b
000000a0: 346b 003e c470 38bd d004 cebd 1105 0f3d
000000b0: 1a9d 82bd b405 963d 89d7 373d 55d5 a63d
000000c0: 1263 b23d 4416 f4bd 374c 113e a4ea 9fbd
000000d0: d089 f3bd 22b6 fd3d 990c 863d d866 463c
000000e0: e73c 843d 0b6a 06bd 78b1 a6bd 0eb4 793d
000000f0: 0684 a8bd c9b6 4d3d 1007 18bd c64a f33d
00000100: 8547 fe3c 5915 983d 7e76 21bd 05e9 efbc
00000110: 803c 7d3d 7808 d3bd 98dc 82bd a7f8 18bd
00000120: bfb0 52bd 7235 b03c 5fd5 e83d 05e9 6d3d
00000130: b94b c13d 97f0 64bd 3f4b 8bbd 8457 aebd
00000140: 661e dc3c ab10 91bb 3888 66bd 75d1 d3bc
00000150: da39 0c3e 5a52 b2bd 766c b53d 2cd6 93bd
00000160: 6a35 eb3d af74 433d abad 5b3d 5c92 ab3d
00000170: e9d0 95bd 1f55 a63d 91a8 963d 170e 903d
00000180: 0a0c ebbd 7348 07be 57ad ba3d ee43 2b3c
00000190: 2b5e ca3d 13d9 bcbd 62ef e6bc 3668 86bd
000001a0: e957 e13d 1dd9 5dbc c1cd 1dbc 4636 313d
000001b0: e0c8 8d3d 4d2f e9bb 8e82 c8bd 8a3f b4bd
000001c0: 6f25 ed3c a52d e7bd 3fd6 313d de02 963d
000001d0: 4efd 103d 47fe c6bd 27eb a63d cece a93d
000001e0: 3be3 ea3d 7be4 d1bd 0a30 70bd f976 613c
000001f0: 43cb c73d cfef 06bd d068 403d 1758 273c
00000200: 273e c83d 5b9b 953d 113b 313d 5ac2 123c
00000210: c4ab 1d3e 9b67 02bd fd8c f63d 0cd4 0fbe
00000220: 7539 e73d 57bb d23d 3113 b4bd 391b a13d
00000230: 48be 743d b156 c93b 0683 9e3d 8a08 a83c
00000240: 48f8 90bd 888d 943d eea4 053d 2ad7 25bd
00000250: a1ca dc3c 058e 58bd 1260 b6bc b462 533d
00000260: 5c0d dabd 17d2 423d c603 d5bd 99ea c7bd
00000270: 7bb2 ecbc 1d5f de3d 14e4 babd 5802 d63c
00000280: 65d0 003d 77d9 8bbd 6047 34bc b649 15bd
00000290: cbe0 bfbd 0f44 1b3d ab75 aebd a82f ae3d
000002a0: 42b7 f8bc 4cec e53d 5afc aebd c4dc 953d
000002b0: 8b50 ba3d 0bff a0bd 61a5 7c3d 8dba 0cbc
000002c0: f84f bcbd 07e9 92bd 51ee 9ebc 83b5 7c3d
000002d0: e727 f93d e5c0 19bd 653e 4cbd 1fbd 9dbd
000002e0: 9066 d03d 2f59 73bd d8c4 d33d 9b57 c4bd
000002f0: 5554 963d 597e b7bc 4ced 39bd ec43 cc3d
00000300: e978 b3bd a116 abbd 6990 813d 4f23 db3d
00000310: 684a 993d decf 013e be60 ce3d 189b ad3d
00000320: fa6b d63c cc84 a8bd d4c1 6dbd 4169 dbbd
00000330: 804a 283d 4c00 a1bb 8317 dbbd 468a 1abd
00000340: b24c 563c fc04 debd 9f65 e3bd 535e 5abd
00000350: e847 87bd 7642 aebd 4cf6 9cbd 7096 b33d
00000360: 5271 853d 7ebb cebd c8fa a4bd 993f b8bc
00000370: 973d b6bd a722 2e3d 8d9c cf3d ccbe c33c
00000380: eb93 42bd 006d 84bd 4f40 f53c fc1c a7bc
00000390: f535 113d cb9c a1bd f444 2c3d affe 87bc
000003a0: 6927 ad3c f0bb c23d 0b3f ad3d 041a 0e3e
000003b0: ff6f 97bc cfc4 883d 8d03 453a b2f9 eabd
000003c0: ae71 883d c70c d43d ac7f 423d 7d0e f73d
000003d0: 4561 403d 9062 c1bd 1bc1 bc3d 2f82 8fbc
000003e0: 1c40 cfbd 3ec3 72bd f6d2 9c3c 388c 1abc
000003f0: 6766 ebbc 39ce 1b3c ed82 24bd c067 013e
-0.11195595 -0.013975268 -0.07832047 -0.06039272 0.03100176 0.032378577 -0.031632185 -0.060608715
-0.02308745 -0.0866572 0.013004751 0.0068902243 0.07809677 -0.027460398 0.026403574 -0.06362954
0.028441375 0.045203544 0.023442479 -0.030080643 -0.10298376 0.090072975 0.0068050665 0.077637814
0.08520796 0.021332059 0.09073748 0.076908395 -0.047585666 0.0037613492 0.025258476 -0.049687054
-0.015192073 0.020432116 -0.010738196 0.05428352 -0.031891257 -0.04079693 -0.017230961 0.005071685
0.12540895 -0.045029417 -0.10059512 0.03491694 -0.06377621 0.073253065 0.044883285 0.081461586
0.087103024 -0.11918309 0.1418923 -0.07808426 -0.1189152 0.12388255 0.065453716 0.012109481
0.06456929 -0.032815974 -0.08139318 0.06096273 -0.082283065 0.050223146 -0.03711611 0.11879496
0.031039963 0.07425947 -0.039419644 -0.029285917 0.061825275 -0.1030435 -0.06389731 -0.03734651
-0.05143809 0.02150986 0.11368822 0.058083553 0.09438271 -0.055893507 -0.068014614 -0.08512786
0.026869964 -0.004427036 -0.056282252 -0.025856713 0.13693944 -0.087071136 0.08858578 -0.072185844
0.11484797 0.0477187 0.05363242 0.08377525 -0.07315237 0.08121704 0.0735637 0.070339374
-0.11476906 -0.13211231 0.09115093 0.010453207 0.09881242 -0.09221091 -0.028190318 -0.065628454
0.11003096 -0.013540533 -0.009631575 0.04326465 0.069230795 -0.0071162344 -0.09790526 -0.088011816
0.028948514 -0.11288003 0.04341721 0.073247656 0.03539782 -0.09716468 0.081503205 0.08291398
0.11469122 -0.10248657 -0.058639564 0.013761275 0.09755566 -0.032943543 0.046974957 0.010213873
0.097774796 0.07305022 0.04326922 0.00895747 0.15397555 -0.031837087 0.1203861 -0.14045733
0.11290256 0.102896385 -0.08792723 0.078665204 0.05975178 0.0061443676 0.077398345 0.020511884
-0.07078606 0.072535574 0.032627992 -0.0404884 0.02695209 -0.052869815 -0.022262607 0.051607803
-0.10647079 0.04756364 -0.1040111 -0.09761543 -0.0288937 0.10857985 -0.09125534 0.026124164
0.03144874 -0.068285875 -0.011003345 -0.03644725 -0.09369048 0.037906703 -0.08518537 0.085051835
-0.030360822 0.11226711 -0.08544226 0.07317498 0.090973936 -0.078611456 0.061681155 -0.008589399
-0.0919494 -0.07173353 -0.019400747 0.06169654 0.12165814 -0.037537474 -0.04986419 -0.077020876
0.10175812 -0.059411224 0.10340279 -0.09587022 0.07340304 -0.022399114 -0.04539232 0.099738926
-0.08763296 -0.083539255 0.06326372 0.10700094 0.07484895 0.12676951 0.10077046 0.084768474
0.026174534 -0.08228454 -0.058046177 -0.10713435 0.041086674 -0.0049133655 -0.10697844 -0.037729524
0.013079809 -0.108407944 -0.11103367 -0.05331261 -0.06605512 -0.0850877 -0.07664165 0.08768928
0.06515755 -0.10094355 -0.08055645 -0.022491263 -0.08898466 0.042513516 0.101372816 0.02389469
-0.047504347 -0.064661026 0.029937891 -0.020399563 0.035451848 -0.07891234 0.042057946 -0.016600935
0.021136956 0.095085025 0.0845929 0.13877112 -0.018486021 0.06678163 0.0007515483 -0.11473407
0.06662308 0.103539996 0.04748504 0.1206331 0.046967763 -0.094426274 0.092165194 -0.017518131
-0.1011965 -0.05926823 0.019143563 -0.009432845 -0.028735353 0.0095096165 -0.040163923 0.12637234

layer.2.bias f4 [128]
00000000: a762 6e3d db4b ce3b 1c8d 083d a235 043e
00000010: 28eb a23d b7e9 d63d 1dc2 183d 923a 3abd
00000020: 2ac4 12bd 531c 003d d1c8 27bc 00f9 b6bd
00000030: deac 57bd 809e 4e3c a89a ab3d 4d34 943d
00000040: b090 473d d729 3b3d 342f 87bd b189 053c
00000050: 6f62 0a3c 7aba 37bd 49ad cabd 4a38 3fbd
00000060: 247f cfbc 3d5d 34bd bfbb a93d d650 af3d
00000070: f7be 593d 26be 5bbd 6815 d13d 4c1f fe3d
00000080: 26d6 8cbd 4853 d7bc e2a6 b5bd 8bbf aebd
00000090: 79ff c13d 86f1 b2ba 7ee1 4c3b 7ce6 acbd
000000a0: 10c1 933d 1c30 29bd 5202 ef3d 5ef2 dd3b
000000b0: 648c eebc 57d0 bd3d 6315 40bc 9779 be3d
000000c0: 42a0 b93d c54d cb3d e717 19bb 8295 813d
000000d0: f24e b13c f825 1c3d de69 b1bd 2575 d03d
000000e0: 756c b83c 3892 bfbc d8d8 5c3e d6d0 a13d
000000f0: 1fba 87bd 722d b0bc 7c5f 98bd 67ec 8d3d
00000100: b9bc b9bd e581 90bd e5c8 2f3b 655e bd3d
00000110: 7f1c e93c 7168 d23d 2c5f d2bd b809 be3d
00000120: 13bc f73d 6169 253d 4963 743b bf91 1dbc
00000130: 9ad1 5b3d 83fd 05be cd28 e9bd e3a9 e73c
00000140: 0b19 7ebd 444f 113d d30c 923d 387b 9a3d
00000150: dbb4 df3d 65ae a03b 02c2 8f3d cb1f d73d
00000160: 687b ae3c 8901 e1bd 6bee ba3d 07fa dc3d
00000170: 6a92 b53d 3b5e 7bbc 492b ec3d ed66 99bc
00000180: 04c8 18bd 5d5c 5e38 e42d e43b e213 71bd
00000190: 392d f1bc d4da 9d3d 5013 8f3c 8f7c ecbd
000001a0: 28bf 81bc 3a49 89bb 2713 443c f980 4cbd
000001b0: 4000 1cbd 55de e23d 7d59 063e cedd 943d
000001c0: 5b27 4cbc 5aa3 c23a 77d7 c8bd 8210 93bd
000001d0: 9078 de3d bd14 d63d a977 853d 7d2a ba3d
000001e0: 10f5 193c 4918 98bd 8ad3 de3d 8f4d 133d
000001f0: 9e97 863b 06ef dc3d 2ccb 98bc 916d 82bc
0.05819955 0.006295664 0.033337697 0.12911084 0.07955009 0.10493796 0.037294496 -0.045466013
-0.035831608 0.031277012 -0.010240749 -0.08934212 -0.052655093 0.0126110315 0.08379108 0.07236538
0.04872197 0.0456942 -0.066008 0.008150504 0.00844632 -0.044855572 -0.09896333 -0.04668454
-0.02532918 -0.04403423 0.08287763 0.0856034 0.053160634 -0.053648137 0.10209161 0.12408313
-0.06876783 -0.026284829 -0.08869721 -0.08532628 0.09472556 -0.0013652302 0.0031262334 -0.08442399
0.07214558 -0.041305646 0.116703644 0.006773277 -0.029119678 0.09268253 -0.011723849 0.09300535
0.0906377 0.09926943 -0.0023360194 0.063273445 0.02164409 0.038122147 -0.08662771 0.101785935
0.022512654 -0.023385152 0.21567094 0.079011604 -0.06627297 -0.021506045 -0.07440087 0.06929856
-0.09069199 -0.070560254 0.0026822623 0.0924652 0.02845597 0.10273827 -0.10272059 0.092791975
0.12096419 0.0403837 0.0037290624 -0.009617268 0.05366669 -0.13084988 -0.11384735 0.02827925
-0.0620356 0.035475984 0.07131352 0.07543033 0.10923167 0.004903602 0.07019426 0.10504111
0.021299079 -0.10986621 0.09127506 0.107898764 0.08865817 -0.0153422905 0.115316935 -0.018725837
-0.037300125 5.3014945e-05 0.0069634784 -0.058856852 -0.02944051 0.07707754 0.017465264 -0.11547195
-0.01583822 -0.0041896375 0.011967457 -0.049927685 -0.038086176 0.11077563 0.13120075 0.072688684
-0.012460555 0.0014849708 -0.09806722 -0.07180883 0.10862839 0.10453174 0.06516964 0.09090135
0.009396806 -0.07426507 0.108801916 0.035962638 0.0041074296 0.107877776 -0.018651567 -0.015921386

layer.4.weight f4 [64, 128]
00000000: 7ba5 b13b 827a 9ebd 5a69 fb3c 1a0f b5bc
00000010: 69d8 8ebd 2cd1 25bd 8750 6a3d d89b 103d
00000020: 3d25 343d 2059 103c e6ee bdbd f895 853d
00000030: 9ee4 18bd c0cf e0bc 5020 e63c 0b73 19bc
00000040: 921a 47bb 3470 9e3c 7b44 d33c d640 ab3b
00000050: 2211 ffbb 6639 0dbd 2663 0b3d 739c 97bd
00000060: b75b 39bc eb7c a6bd 5d3a 16bd e4ed 433c
00000070: 89e8 983c 2213 f53c 9cc2 97bd c6d5 d4bc
00000080: 0a7c b0bc 0025 16bd 6aab c1bc 005a 8abd
00000090: 462e 523d a5db 403d 7aa1 503d 79d8 923d
000000a0: 928c 293d cc62 eabb c2c4 66bd 3f06 4a3d
000000b0: c29c 9e3d 684e 0c3d e9ab 243c 6309 b53d
000000c0: 77e5 2fbd 86e8 1ebd d2e5 60bd 7dda 72bd
000000d0: d27d b3bc ff5e 823d af9b a2bb 6774 813d
000000e0: 7c1c 99bd 1730 7dbd 4638 67bd 035a fa3a
000000f0: 84dc 343c 12b5 55bd 1291 b9bd cf0d 25bd
00000100: 5655 28bd 1f8b 803d b08c eebc a22d 38bd
00000110: 8def a3bc 4122 d33c 0215 0bbc b803 253c
00000120: 4d0e 963d 54d6 9cbc 77c0 883d 75ec bdbd
00000130: 72a0 50bd ff43 dbbb b327 20bd 064d f8bb
00000140: d4b0 b1bd 0056 17bd 2209 89bd 5537 97bd
00000150: a076 ac3c 5197 8cbd b3a9 a13c ac51 923d
00000160: c489 d3bc 6c69 823d 83e8 3f3d 2d86 93bd
00000170: ff9d b33d 22c5 d83c 10a2 80bd abd3 85bd
00000180: d7cc 85bd cf3d 01bd f45b 2ebd ea8c 69bd
00000190: 4f8b 053d 7e31 a63c f26b 5abd c25c 62bd
000001a0: 1c92 953d ae8f 013d d9b1 dfbc 3e98 90bd
000001b0: 5b5e aebd 25a6 7d3d 8155 88bc e76b 1ebd
000001c0: f2f3 fb3c 5283 033d a105 c5bc 9e33 bebd
000001d0: 6616 bebd 1c4e 72bd bf0e a03d e556 423c
000001e0: 3e39 47bc 7a48 8abc 6d10 413d baed 9abc
000001f0: 5d06 4d3d b699 9ebc a837 76bc c0a6 753d
00000200: 1dfd 9a3d 6ba2 46bd 2103 70bd a4af 8d3c
00000210: 0b55 433c 29c0 b2bd 32db 79bc 0dfb 5abd
00000220: cc38 483d 9779 a0bd e68e 30bd 3c7b 173d
00000230: 9472 8a3d 9bb2 403d 912d 0b3d eeb0 a2bd
00000240: 9030 573d 37af 8c3c c24d d13d 3375 b0bd
00000250: 6116 263d 5644 c3bc a218 823d 2664 633c
00000260: 3c43 ef3c 4274 de3c ed4f 79bc 909b 20bd
00000270: b986 2e3d 19af 853d d56e bf39 e90a 53bc
00000280: af91 b1bd 9666 103d b304 c4bd 81f3 173d
00000290: 1d8c b4bd 186a a33c 02bc d33c 8301 d53c
000002a0: 647f 6d3d 5952 bdbd a503 6d3d 4b5e 24bd
000002b0: 503f 31bc 2f21 ccbd 9c8f 8c3d 3231 c1bd
000002c0: 9381 833d 5969 b63c 18a5 3dbd 24c8 a6bd
000002d0: 9105 a53c f751 5cbd 2755 543c b4de 0cbd
000002e0: 3821 693d 713d 903d e9fd 0bbd 7704 643d
000002f0: 2140 2abd b987 b1bd 4eb7 a23d cfc5 bdbd
00000300: 05b9 7fbd 1d0a 39bd 5f17 18bd df25 20bd
00000310: ebde 7f3b 6930 2dbb 83ce 873d df7c 233c
00000320: 3b86 03be 038b 593c 5646 933d 7386 5bbd
00000330: d3de 74bc 655c 2e3d ec49 08bc 82f9 d1bc
00000340: 1802 443d 957b 43ba 19c0 7d3d c521 aabd
00000350: 94a1 a7bd f30d 113d 3cde eaba 284a 833d
00000360: 13cf eebc 59c6 903d abc1 d7bc cd3e 24bd
00000370: 796d 623c a8fe 553d 2035 0bbd 88e1 abbd
00000380: 4b3e 953d e0d2 9d3c ffd8 913d c686 993d
00000390: 35b0 a5bb 0a42 363c 0ad0 113d 5d4d 8d3d
000003a0: 0f9f ba3c 73f6 2c3d 2a7c aabc f4ed aabd
000003b0: 6533 56bd 9475 9d3d 47a1 743d 4e2b 8bbd
000003c0: 3c2c 43bd cd70 1fbd 01d6 abbd a4fe 82bc
000003d0: 8c4c 8b3a 5568 963d 8cf8 be3c cf0a 533c
000003e0: 1b0b f2bc ef8e 70bd 8f08 2f3d ef4f 503d
000003f0: 754e 77bd 8666 833d 4647 003a 129b ac3c
0.005421338 -0.0773821 0.030689884 -0.022101928 -0.06974871 -0.040482685 0.057205703 0.035304874
0.043980826 0.008810312 -0.09274082 0.06522745 -0.0373274 -0.027442813 0.02809158 -0.009365807
-0.0030380827 0.019340612 0.02578949 0.005226235 -0.007784025 -0.034478568 0.034030102 -0.07402887
-0.01131337 -0.08129295 -0.036676753 0.011958573 0.018665569 0.02991635 -0.07410166 -0.025980841
-0.021543521 -0.03665638 -0.023641307 -0.067554474 0.05131366 0.04708447 0.050935246 0.07170195
0.041393824 -0.007152891 -0.056339987 0.049322363 0.07744743 0.03425446 0.010050752 0.08839681
-0.042943444 -0.03879597 -0.054906674 -0.059290398 -0.021910582 0.06365775 -0.0049624066 0.0632103
-0.07476136 -0.06181344 -0.05645015 0.0019100312 0.011038903 -0.052174635 -0.09060873 -0.040296372
-0.041097008 0.06276535 -0.02911982 -0.044965394 -0.020011688 0.02577317 -0.008488895 0.010071687
0.073269464 -0.019145168 0.06677335 -0.09273616 -0.050934263 -0.0066914554 -0.03910036 -0.0075775413
-0.086763054 -0.03694725 -0.06691195 -0.073836006 0.021052659 -0.06864799 0.01973424 0.07144484
-0.025822528 0.06367764 0.0468526 -0.072033264 0.0877037 0.026461188 -0.06280911 -0.06534513
-0.06533211 -0.031553086 -0.042568162 -0.05701915 0.03260356 0.020287272 -0.0533256 -0.055264242
0.07303259 0.031631164 -0.027306484 -0.07060288 -0.085140906 0.061926026 -0.016642334 -0.038677122
0.03075597 0.03210766 -0.024050536 -0.09287189 -0.09281616 -0.059156522 0.078153126 0.011861538
-0.012159644 -0.016880263 0.047134805 -0.018912185 0.050054897 -0.019360404 -0.015027918 0.05997348
0.07567809 -0.048494738 -0.058596734 0.017295666 0.011922131 -0.08728058 -0.015250014 -0.053462077
0.04888229 -0.078356914 -0.04310503 0.03698276 0.06760135 0.04704533 0.033979002 -0.07943903
0.052536547 0.017173393 0.10219909 -0.08616104 0.040548686 -0.023836296 0.063523546 0.013878858
0.029206865 0.027155045 -0.01521681 -0.039210856 0.04260895 0.06527538 0.00036512935 -0.012881019
-0.08670365 0.035254084 -0.09571209 0.037097458 -0.08815787 0.01994805 0.025846485 0.026001697
0.057982817 -0.09244222 0.057864804 -0.040128987 -0.0108183175 -0.09967267 0.06863329 -0.094332114
0.06421199 0.02226703 -0.046300024 -0.081436425 0.020144256 -0.053789105 0.012959755 -0.034392074
0.056916445 0.07042969 -0.034177694 0.05566832 -0.041565064 -0.08668465 0.07945119 -0.092662446
-0.062432308 -0.04517566 -0.037131663 -0.039098617 0.0039042782 -0.002642656 0.06631186 0.009978502
-0.12844174 0.013277772 0.0719115 -0.053595018 -0.014945704 0.042568583 -0.008318406 -0.02563167
0.04785356 -0.0007457075 0.061950777 -0.08307222 -0.081851155 0.035413694 -0.0017919014 0.064106286
-0.029151475 0.07069082 -0.026337465 -0.040098954 0.013820046 0.052244812 -0.03398621 -0.08392626
0.07287272 0.019265592 0.07121467 0.07496409 -0.005056406 0.011124143 0.035598792 0.068995215
0.022780923 0.04222722 -0.02081116 -0.08346167 -0.052295107 0.07688442 0.05972412 -0.06795369
-0.047649607 -0.038925935 -0.083904274 -0.015990563 0.0010627671 0.073441185 0.023311876 0.012880995
-0.029546311 -0.058730062 0.04273277 0.05085748 -0.060377557 0.06416039 0.0004893433 0.021070037

layer.4.bias f4 [64]
00000000: ed09 57bb 0e72 333d 8aaf 6abc f998 04bd
00000010: 5d32 93bc bdd0 c0bc 8dae cb3c a725 9c3c
00000020: 4228 95bd 5c4c 3abd f10d 243c 778a 683d
00000030: ea9b f63c 0344 87bd 162c 63bd 0554 343d
00000040: 4e6d 42bd 5cf6 a2bd a4e6 413d 60d7 4cbd
00000050: ad33 97bb a1e4 fabc 6fab 053c df13 e73c
00000060: ba80 693d a069 1ebd 99ea acbc 4015 73bd
00000070: c687 33bc 2d4b 9fbc 32af 6abd c9dd b7bd
00000080: 5047 cbbc b7ca d0bc 45c0 9e3d a360 b03d
00000090: 7c5f 233c b4c4 93bd 42bc 8e3d 5f0e 933c
000000a0: 8ee0 223d 875c 883d a6d9 87bd b624 7fbd
000000b0: 9a8a 4cbd 638d 58bc 37ed 7ebd 88e8 64bd
000000c0: 9f3c d13c 0d15 f83c 2a0d 9abd df99 373d
000000d0: 9043 673c 090a 80bd 7914 19bd a1d1 aebd
000000e0: c014 dabc 4568 f8bc b786 6abd 4303 1c3c
000000f0: 5936 253d 4eda aabd f257 2b3d 0666 663d
-0.0032812313 0.043809943 -0.014324078 -0.03237245 -0.017968351 -0.023537034 0.024863506 0.019060923
-0.07283069 -0.04548298 0.0100130895 0.056772675 0.030103642 -0.06604769 -0.055461966 0.04402544
-0.047467522 -0.079571456 0.047339097 -0.050010085 -0.0046143145 -0.030626597 0.008158549 0.028207717
0.05700753 -0.03867495 -0.021107959 -0.059346437 -0.010957664 -0.019445026 -0.057295986 -0.08977849
-0.024814278 -0.025487287 0.07751516 0.08612182 0.009971496 -0.072152525 0.06969501 0.017951189
0.039764933 0.06658273 -0.0663331 -0.06229087 -0.04993687 -0.013217303 -0.062237944 -0.05588582
0.025541602 0.030283475 -0.07522042 0.044824477 0.014115229 -0.06251914 -0.03737304 -0.08536077
-0.026621222 -0.030323157 -0.05725738 0.009522262 0.040335033 -0.083424196 0.041831918 0.05624964

layer.6.weight f4 [23, 64]
00000000: 89aa 14bc 49ba 1ebc ca0a 853d ab2e 25bd
00000010: 5f7d 6fbc b772 8ebd d5b7 8dbd 19fd 0a3c
00000020: b3dc a6bc cf28 fb3b e825 1e3d 67f0 f93c
00000030: ed28 1f3d d50f d1bd 6bb6 e3bd 2087 1d3b
00000040: 4050 80bd 183a a43d f78c b3bc c34a 4a3d
00000050: 465e 2bbd 1f75 cdbd 54c1 8e3d ea0c bdbd
00000060: 386e 4e3d b02f 243a a216 203c 9d59 10be
00000070: e1b5 883b 8671 853d 595b 2dbc adaf d13d
00000080: 1e74 9cbd 00c9 a33d 6f4d 963b c75a bb3d
00000090: 3010 7cbd dc6c c53d 3cd0 50bd 3dcf 103b
000000a0: 2594 ec3d 2600 b43d 4888 823d 8cc6 033e
000000b0: 9b91 0d3d a421 d2bd 76c6 cabc 98f1 81bc
000000c0: 6060 903c 66b0 e33b 2b67 8e3d b30a 3ebd
000000d0: 1ae8 803d 0e06 4abd 0d35 133c bb12 a6bd
000000e0: cb9d bf3d e59c 123d 5f16 6abc a6c0 0e3d
000000f0: 8a1d 1dbb 002b 45bd 7a1c d53c c2cd b03d
00000100: 9a2b 853d 8b94 ab3b c9a7 2d3d 7e4c 193d
00000110: 9fd2 513c 68fc 9c3d ab69 973d 9671 793d
00000120: 1db2 293d 6f93 683d 0341 6ebd 5e26 123d
00000130: 13d6 673c f875 903d 920b a8bd 4288 2cbd
00000140: 4778 ca3d f207 d0bc 6549 c7bd e84c 123b
00000150: df50 96bd 8556 dd3c 2e75 a5bc d47c a0bd
00000160: a0b6 d83c e654 0abd 2fdf 00ba 9423 4abd
00000170: 26ef b5bd 668f d43d b4a3 2a3d 33e8 e83d
00000180: d074 90bc e5a7 6fbd e655 df3d 4c4e cabc
00000190: 52c8 503d 5037 6b3d 4407 92bd cc9e d53a
000001a0: 0ae9 4ebd 8cce a93d fbba a93c ac34 9d3c
000001b0: f158 dd3c 1e4e 26bd 707a 34bd ec52 8fbd
000001c0: c734 053d 8e01 c93d 50a6 563d 4898 e4bd
000001d0: f0ea 99bd e54b cabc 9de1 95bd 3faf bfbd
000001e0: 9d33 63bb 21ba 853d 476f 2e3b 9f6f 883d
000001f0: 7053 fabd 4a39 27bd 1bc4 203d 39ab 85bc
00000200: 45a8 2bbd 776a a4bd de7f 6e3c 04f9 533c
00000210: 6233 de3d 1e56 a2bd 19b3 bd3c fbc9 ebbd
00000220: ac13 c53d f30c aa3d 2e75 d8bd 092e e5bb
00000230: 6907 78bd d136 b03d dd65 8b3d 6a0f 0a3d
00000240: e079 cf3c ac83 48bd fe58 d73c 5c3d 063d
00000250: 1ced 36bd 8cc8 6fbc df6e aebc b4a8 873d
00000260: 40a1 18bd 1c27 983d af58 77ba 6576 60bd
00000270: 6e0a 0b3d 519e 1c3d 9be8 a93d 6fb8 763c
00000280: bdca cd3d 5283 a23d 46c7 e4bd ef6d 853d
00000290: 4125 663d 5bb5 f63c 3fd0 c43d f07e 82bd
000002a0: afbb dfbc 2917 c7bc b5c2 883d d977 b6bb
000002b0: 946a 953d 841f a73d 659d ce3d b07f 703d
000002c0: 16b5 c8bd 86b7 e83c 4efd d63d bc5a 8ebd
000002d0: c0bd f2bc 40bb dfbc 7b61 943d b507 283d
000002e0: 7220 8fbd c824 c23d 9b5f eb3d a7b8 8d3d
000002f0: 4567 5d3c b3b5 b23d 5f89 b8bc 4624 9cbd
00000300: dfcb 8dbc 6784 113c 7184 1dbd 9491 383d
00000310: b7cd 38bd 5503 7fbd 5263 a5bb aad8 d2bc
00000320: 2213 86bd f706 64bc a9a2 a0bc b9a3 95bd
00000330: ec79 0d3d 3002 293d dc12 4fbd 4925 7abd
00000340: 6c95 243c 408e c03c 9130 483d cd71 273d
00000350: a187 ccbc 9c1f dabb a554 c83d a3eb b4bc
00000360: ded8 b5bd 1e11 f13b a47f e13a f746 18bd
00000370: 55ab 81bc 5769 49bd 09d2 2c3d 6f14 9bbd
00000380: 0572 afbc fa77 f1bc f569 b1bd 2644 0c3c
00000390: 0d85 d7bc e1b9 a5bc 3788 a3bd 4458 723d
000003a0: cb28 b1bc a716 a9bd bdd8 17bd d808 5fbc
000003b0: b05e 39bd d6ed 3abd a569 e33d 47a4 833b
000003c0: 5ecc 5c3d 548b fa3b 261d a2bd bc42 843c
000003d0: b45a cdbd 8391 1bbd aa16 073d 8a31 a03d
000003e0: 353d d23d 2abf 43bd 22f2 edbb ff55 cf3d
000003f0: f993 a6bd 8005 b7bd bb67 e4bd 6020 82bc
-0.009073862 -0.0096879685 0.064961985 -0.04032771 -0.014617293 -0.06955474 -0.06919829 0.008483195
-0.02036891 0.007664777 0.03861037 0.03051014 0.03885739 -0.10208098 -0.11118778 0.002403684
-0.062653065 0.08018893 -0.021917803 0.049387705 -0.041837953 -0.10032105 0.06970468 -0.09230979
0.05039808 0.00062632095 0.009771021 -0.14096685 0.0041720723 0.065157935 -0.010580861 0.102385856
-0.07639335 0.07997322 0.0045868675 0.09148174 -0.061538875 0.09639904 -0.050979838 0.002209618
0.11551694 0.08789091 0.0637365 0.12868708 0.03456269 -0.10260323 -0.024752837 -0.015862271
0.01762408 0.0069485186 0.069532715 -0.046396922 0.0629427 -0.04932218 0.008984816 -0.08109041
0.093562685 0.035794158 -0.01428756 0.034851693 -0.0023973905 -0.04813671 0.026014555 0.08632995
0.06502457 0.0052362136 0.04239634 0.037426464 0.012806564 0.0766533 0.073932014 0.06089934
0.041429628 0.05678123 -0.05816747 0.03568112 0.01415016 0.07053751 -0.08205332 -0.042122133
0.09886222 -0.025394414 -0.09730796 0.0022323672 -0.07339644 0.027018795 -0.020197477 -0.07836309
0.02645427 -0.03377237 -0.00049160694 -0.049350336 -0.088835046 0.103789136 0.041660026 0.113724135
-0.017633826 -0.058509726 0.10905056 -0.024695538 0.05097229 0.057425797 -0.07130292 0.0016297936
-0.050515212 0.08291349 0.020719042 0.019190155 0.02701995 -0.040601842 -0.044062078 -0.06998238
0.032521036 0.0981475 0.0524047 -0.11161858 -0.07515514 -0.024694392 -0.07318423 -0.093595974
-0.0034668215 0.06529642 0.002661662 0.06661915 -0.12222946 -0.04082612 0.03924952 -0.016316997
-0.04190852 -0.08028119 0.014556853 0.012937788 0.10849644 -0.07926582 0.02315669 -0.11513134
0.09622893 0.08303251 -0.10569225 -0.006994013 -0.060553942 0.086042054 0.06806538 0.033706106
0.02532667 -0.048953697 0.026287552 0.03277336 -0.04465972 -0.014635216 -0.021293102 0.066239744
-0.037263155 0.074293345 -0.0009435517 -0.05480041 0.033945493 0.03823692 0.08296319 0.015058621
0.10048435 0.079352036 -0.11170821 0.06515109 0.05618787 0.030115774 0.09610032 -0.06371868
-0.027311174 -0.024303036 0.066777624 -0.005568486 0.07295719 0.08160308 0.100886144 0.058715522
-0.098001644 0.028407823 0.10497533 -0.069509 -0.029631495 -0.027310967 0.072451554 0.041022975
-0.0698861 0.09479672 0.11492845 0.06919985 0.013513391 0.087260626 -0.022526441 -0.07624106
-0.017309127 0.008881665 -0.038456384 0.04506071 -0.04511806 -0.062259037 -0.0050472403 -0.02573808
-0.06546618 -0.013917676 -0.019608812 -0.07306618 0.034540102 0.04126185 -0.050555095 -0.061070714
0.010045391 0.02350533 0.04887444 0.040880013 -0.024967017 -0.0066566 0.0978177 -0.022085017
-0.08879255 0.007356777 0.0017204178 -0.037177052 -0.015828768 -0.049172726 0.042192493 -0.07572257
-0.021416673 -0.029476155 -0.08662788 0.00856117 -0.02630856 -0.020230236 -0.07984965 0.059166208
-0.021625897 -0.08256274 -0.037071932 -0.013612948 -0.045256317 -0.045636974 0.111041345 0.004017386
0.053905837 0.0076460037 -0.07915716 0.016145103 -0.10027066 -0.037980568 0.0329806 0.07821949
0.102655806 -0.04778973 -0.0072615305 0.10123824 -0.08133692 -0.08936596 -0.111525975 -0.015884578

layer.6.bias f4 [23]
00000000: f252 ffbd 4043 ca3b 50bd 3e3c 2322 babc
00000010: 548a 9ebb 0fbd 153d 739a f53d 4975 2c3d
00000020: e6a8 863c b0b6 9e3d 17d6 bf3c 4b65 2f3d
00000030: 5445 9dbb 62d8 bbbd 61bb 56bd e462 02be
00000040: 1e7a b63c f70b b03d 8893 943d eebe 943d
00000050: a77e 62bc 8d8c 33bd 180a 973d
-0.124669924 0.0061725676 0.011641815 -0.022721356 -0.0048382673 0.036557253 0.119923495 0.04210404
0.016437959 0.077496886 0.023417516 0.04282121 -0.0047995243 -0.09172131 -0.052424792 -0.12733036
0.022275027 0.08596032 0.07254702 0.072629794 -0.013824142 -0.04383521 0.07374972
