weight/save_100.pth (torch_old, 72900 bytes, 8 tensors)

layer.0.weight f4 [32, 139]
000000 d5 4a a4 3d bb 58 fa bd 5f ce d5 bc 55 92 a4 bd
       0.080220856 -0.12223955 -0.026099382 -0.08035723
000010 a2 55 74 bd ba 6d f1 bc 06 12 88 bd 2a cb 16 3d
       -0.05965198 -0.029471267 -0.06644063 0.036814846
000020 58 b6 80 3c 36 eb b7 bc 97 36 9b bc 16 5d 18 3d
       0.015711948 -0.022451025 -0.018946929 0.03719815
000030 1e 76 30 3d c1 a7 92 3d 05 41 57 bd 6b f3 b0 bb
       0.043081395 0.07160903 -0.05255224 -0.0054001114
000040 b7 03 bd bc bc df 38 3b cd 1f 11 3d c3 f8 94 bb
       -0.02307306 0.0028209528 0.03543072 -0.0045462563
000050 f6 56 cb bc f2 a5 50 3c ed 6c 37 bd ba ce 58 bc
       -0.02482174 0.012734877 -0.044781614 -0.013232881
000060 6a 28 ba bc 20 16 de 3c b4 5a 94 3d e5 2e 2e 3d
       -0.022724349 0.02711016 0.07243863 0.04252519
000070 51 64 02 3d 6d 56 4b bd 3a c9 2c 3d c5 33 13 bd
       0.03183395 -0.04964297 0.042184092 -0.035938043
000080 0b 64 16 3d d8 b6 0f bd a7 22 97 bd 41 b0 9c bc
       0.036716502 -0.035086483 -0.07379656 -0.019127013
000090 5b 0e 34 bc eb 7f 12 3b 9e 11 93 3c 12 37 88 bd
       -0.010989751 0.0022354077 0.017952736 -0.06651129
0000a0 b8 4b 8e 3c d0 6e 2f 3d db 66 0f 3d 47 23 73 bc
       0.01737009 0.04283029 0.0350102 -0.014839954
0000b0 82 4b cd bb f5 a0 03 3d bc af 1e 3c 60 9a 89 bb
       -0.0062651047 0.032135922 0.009685453 -0.004199311
0000c0 f6 48 7b 3d 5e 68 a0 bd 0c 38 1d bd f2 88 11 3c
       0.061348878 -0.078324065 -0.03838353 0.008882748
0000d0 3a c4 09 3d 75 31 89 3d 03 14 4d bd 13 d6 a9 3d
       0.0336344 0.06698886 -0.050067913 0.082927845
0000e0 1f 59 d4 bc 3e 5e 48 bd 96 dc 03 3c 11 b4 87 bd
       -0.025921402 -0.048918 0.008048197 -0.06626142
0000f0 cc 95 e8 3b a9 c9 5d bd 2d f9 16 bc e4 17 80 3d
       0.0070979353 -0.054147396 -0.009214682 0.06254557
000100 d8 91 75 bd 74 88 a2 3c 66 73 36 bd e7 26 b4 bc
       -0.05995354 0.019840457 -0.044543646 -0.021991206
000110 47 78 0f bd 32 ec b4 bc 3c 94 86 bd 46 eb 70 bd
       -0.035026815 -0.022085283 -0.06571242 -0.058818124
000120 9b c4 ac 3c 63 e9 13 3b 0f f4 c3 bc a3 b0 44 3c
       0.021089843 0.002256953 -0.023920087 0.012005004
000130 c1 22 e2 3c 43 17 04 bd 83 5c 9a bd 22 7b 87 bd
       0.027604463 -0.032248747 -0.075371765 -0.066152826
000140 e0 03 e4 bc 76 0e 82 bc 62 12 46 3d ae 1d 13 3d
       -0.027833879 -0.015876036 0.048357375 0.035916977
000150 32 f7 76 bc 00 bc a7 bd b6 e8 d1 bc 88 5c 4b bd
       -0.015073584 -0.08190155 -0.02562366 -0.04964879
000160 33 0c c3 bc d2 f7 57 3d 30 c2 18 3c c3 2f 45 bd
       -0.023809528 0.052726574 0.009323642 -0.048141252
000170 5c 87 2f 3c 68 5a cd bc 00 28 90 3c f9 3b 70 bd
       0.0107134245 -0.025067523 0.017597198 -0.058650944
000180 88 ed 5f bc 6f 5f c5 3b aa e7 49 3d da 30 30 bd
       -0.013667472 0.0060233395 0.049293198 -0.04301534
000190 85 5f bc bd 62 98 30 bd 57 39 98 bd 60 63 09 3c
       -0.091979064 -0.043114074 -0.07432812 0.008385509
0001a0 ae 2b 92 3c 64 40 59 3b 70 1b 88 3c 24 2b ac bd
       0.017843094 0.0033149952 0.016614646 -0.08406666
0001b0 94 a4 45 ba b7 0b 7b 3d 6a f7 9d bd 4e 03 5c 3d
       -0.00075394777 0.06129047 -0.07713206 0.05371409
0001c0 5e a6 f5 39 37 ef 76 bd e2 11 12 3d 0c 92 0f bc
       0.00046853995 -0.060286727 0.035661586 -0.008762848
0001d0 65 81 64 bc 52 89 4a 3d 9c e1 21 bd cc 5d 83 3d
       -0.013946866 0.049447365 -0.0395218 0.06414375
0001e0 3b a5 66 bb 68 34 a6 bb f4 07 fa 3c 2a a7 3d bd
       -0.00351937 -0.0050721653 0.03052137 -0.046302
0001f0 5e c6 9a bd c8 46 35 3d 65 00 0f bd 1e 6d 22 bd
       -0.07557367 0.044256955 -0.034912486 -0.039654844
000200 56 2e 37 3c a3 cf 31 bd 77 ca 42 bc 32 49 35 bd
       0.011180481 -0.04341091 -0.011889092 -0.044259258
000210 12 ac 96 bd 78 68 87 bd 37 68 79 bd b8 49 9e bd
       -0.073570386 -0.06611723 -0.060890403 -0.077289045
000220 e4 15 f4 3c 55 e6 5e 3b 20 4c 0b 3c 02 3e 46 3d
       0.029795595 0.00340118 0.008502036 0.04839898
000230 82 3d e8 bc a2 de 4a 3d 52 66 76 3d c9 ef 24 3c
       -0.028349642 0.049528725 0.060156174 0.010066935
000240 2a 9a 3a 3d 45 a0 90 bd de 8b 05 3c 30 e0 be 3c
       0.04555718 -0.07061819 0.008151023 0.02330026
000250 85 8a 89 bc 1f 35 76 bd 55 a6 9e 3c 3e 44 74 3d
       -0.016789684 -0.060109254 0.019366423 0.059635393
000260 3b d3 9c bb a2 a6 7d bd 8d 86 03 3d 2e 26 1c bd
       -0.004785923 -0.06192649 0.03211074 -0.03812235
000270 dc 8d c8 bc 3e 1b 88 3d 45 24 9e 3c 18 27 9b bb
       -0.024481706 0.06645821 0.019304404 -0.004734885
000280 b8 9f 90 3d 97 db 37 3d 0d be a3 3b 90 2e 3c 3d
       0.07061714 0.04488715 0.004997021 0.045942843
000290 14 1d da 3b 62 2b 1a 3d 30 22 46 bd 08 e0 d9 bc
       0.0066562984 0.03763903 -0.048372447 -0.026596084
0002a0 1a a4 33 3d bb 96 8f 3d fc 29 30 bc 34 47 24 bc
       0.04385767 0.070111714 -0.010752197 -0.010026742
0002b0 96 a7 cb bc 14 e4 48 bd e9 fa 25 bc c2 86 e5 bb
       -0.024860185 -0.049045637 -0.010130622 -0.00700459
0002c0 c6 4a 4b bd 39 72 61 bc 41 d5 52 bd 19 01 84 3b
       -0.049631856 -0.013760143 -0.051472906 0.004028451
0002d0 1f c2 83 3d 73 4b 65 bd 9c bd 2d 3d 61 02 d8 3c
       0.0643351 -0.055980157 0.042417154 0.026368322
0002e0 f9 51 03 3d cc 5e 5a 3c e9 56 48 bd 8c 8f db bc
       0.032060597 0.013328265 -0.04891101 -0.026801847
0002f0 12 46 07 3d a5 4b 43 bb 5f 6e c3 3d dc 0a 9a 3b
       0.03302581 -0.0029799726 0.09542536 0.0047010016
000300 97 a7 0b bd 1c fd c0 bc 70 f4 a4 bc 29 9a 98 3a
       -0.034095373 -0.023558192 -0.020136088 0.0011642623
000310 bd de 95 bc 97 e5 37 3c 36 2e 9e bd a7 55 42 bb
       -0.018294686 0.011224172 -0.07723658 -0.0029653104
000320 ce 32 55 bd 96 3d 2f 3d 24 33 97 bd a7 c5 48 bd
       -0.052050404 0.042783342 -0.07382801 -0.04901662
000330 2d a4 55 3d 71 7b 64 bc 53 ee d9 bd 1e cc 9b bd
       0.052158523 -0.013945446 -0.1064116 -0.07607292
000340 68 cf 40 bd 52 c5 96 bd 58 0d 85 3a d8 8d 48 3d
       -0.047072798 -0.073618546 0.0010151071 0.048963398
000350 e6 e9 27 bc 6e ac bc bd 4d c6 09 bc 75 22 07 3d
       -0.010248637 -0.09212576 -0.008409095 0.032991845
000360 d1 0f 3e bd d9 42 2a 3d 52 70 c6 bd eb 23 d5 3c
       -0.046401802 0.041567657 -0.09689392 0.026018104
000370 71 04 2a bd df 6d e7 bd c0 05 55 3d 30 7f c9 bc
       -0.041508142 -0.11300253 0.052007437 -0.02459678
000380 4c 29 c3 bd 8b e6 c5 bd a8 2b 42 bd bb c0 92 bd
       -0.09529361 -0.09663113 -0.047404915 -0.07165667
000390 c4 8a e7 3b 7b 8b 74 3d af b3 3c bd ca 97 04 3d
       0.0070661027 0.05970333 -0.046069797 0.03237132
0003a0 39 a9 e0 b8 77 6b 34 3c fa f8 c5 3c 71 04 54 3c
       -0.000107126725 0.01101195 0.024166573 0.012940512
0003b0 34 20 b7 bb a6 6d 1a 3d 01 fa 88 bd c3 4f 0d bd
       -0.0055885557 0.037702225 -0.066883095 -0.034499895
0003c0 f3 32 6c bb 0c ba 3a 3c 12 91 69 bd e9 47 6a bd
       -0.003604111 0.011396896 -0.057023115 -0.057197485
0003d0 69 34 86 bc 23 57 42 bc 64 9c ba bd be e6 f8 3c
       -0.016382413 -0.011861595 -0.091118604 0.030383464
0003e0 eb ed 03 3d 99 78 bf bc 85 c0 8a bd 2e e2 05 3d
       0.032209318 -0.023372935 -0.067750014 0.032686405
0003f0 5b ff de 3a 32 a6 67 bd 6b cc 30 3d 93 80 97 3c
       0.0017013358 -0.05655498 0.0431637 0.018493926

layer.0.bias f4 [32]
000000 f2 61 71 3c f9 f6 40 3c 1a d2 a6 bd ed 12 e8 3c
       0.014732825 0.011777633 -0.081455424 0.028329337
000010 4d 2f bf bd 3d 28 58 3d 26 33 10 3d 27 8c 5d 3d
       -0.09335194 0.05277275 0.03520503 0.054088738
000020 2e eb 6f bc 08 c9 27 3d e7 60 40 3d 8d 76 b7 bd
       -0.014643474 0.040963203 0.046967413 -0.08958159
000030 34 0a 91 bd d6 1c ce bd 81 e5 8e 3d 23 37 62 3d
       -0.07082024 -0.10064094 0.06977368 0.055228364
000040 92 7a b9 bc 1a a7 79 bd 4e 11 3a 3d ba f8 81 bd
       -0.022641454 -0.060950376 0.04542666 -0.06346269
000050 45 8e c3 bd ee a2 0a 3c 22 a6 a3 bd af fc 92 bd
       -0.0954862 0.008461697 -0.07990672 -0.07177102
000060 7d 44 9d bd 4e a9 cc 3c 4b 20 98 bd df da 54 3d
       -0.07679079 0.024983075 -0.074280344 0.051966544
000070 d8 34 0c 3d 57 54 55 3c 37 26 d4 bd ab c0 37 3b
       0.034230083 0.0130205965 -0.103588514 0.0028038423

layer.2.weight f4 [64, 32]
000000 36 bb 0e 3d 6a 88 a5 bd d7 62 e9 bd 57 3e a0 3d
       0.034846507 -0.080826595 -0.11395805 0.078243904
000010 c6 45 37 bd 05 c9 5c bd 20 38 83 3d 43 e4 1a 3e
       -0.044744276 -0.053902645 0.06407189 0.15126137
000020 1a a3 2d 3e ec 9d 16 be 30 9c ad 3d b7 26 2c 3d
       0.1695675 -0.1470868 0.08477056 0.04202911
000030 fe e6 0e 3e a4 39 b5 3c 45 8e 12 3e 7f b4 47 3d
       0.13955304 0.022122212 0.14312084 0.04875612
000040 5f 74 21 3e 74 30 76 bd d6 4a 04 3e c1 cb ee 3d
       0.15767048 -0.060104802 0.12919173 0.11659957
000050 af 9e 95 bd 0a 08 22 be 5e c3 5c bd 1d ee d7 3b
       -0.07305657 -0.15823379 -0.053897254 0.0065896646
000060 1b dd a9 3c 6e 52 74 3d a1 06 1c 3e e5 37 31 3d
       0.020735314 0.059648924 0.15236904 0.043266196
000070 40 5b fe 3c 2b 85 1f 3e 41 9f 7b bd e8 44 44 be
       0.03104937 0.15578143 -0.061431173 -0.1916691
000080 65 f0 ba bd ed 51 e7 bd 5e 62 8a 3d 16 3a 18 be
       -0.09127883 -0.11294923 0.06757043 -0.14865908
000090 49 e2 b2 bd 00 7c 4f be 7e 65 21 bd df bc 88 3d
       -0.08734567 -0.20262146 -0.03940343 0.06676649
0000a0 66 5c e0 bc 2c 14 b5 3d be 1a 45 bd c5 fd 89 3c
       -0.027387809 0.08841738 -0.048121206 0.01684464
0000b0 a7 84 d5 bd 2d 95 07 be 67 48 14 3e fe 7e 98 bd
       -0.10425692 -0.132405 0.14480744 -0.07446097
0000c0 25 1e 50 3d 09 51 1b 3e a4 5e 82 bc 74 cb f9 3b
       0.050809998 0.15167631 -0.015914269 0.0076231305
0000d0 05 83 be 3d b7 4e a9 3c eb 05 6e be d2 44 f3 bd
       0.09302334 0.020667417 -0.23244445 -0.11878361
0000e0 15 f0 b8 bd c7 6a 7b bd f2 cb 22 be 04 18 a1 bd
       -0.09030167 -0.061381128 -0.15898111 -0.07865909
0000f0 21 09 89 3c e6 d1 1a 3d a7 fe 0f 3e a6 b2 74 bc
       0.016727986 0.03779783 0.14061986 -0.014935171
000100 5f 14 e1 bd ba d5 40 be 35 80 89 3d 4f 62 da bd
       -0.109902136 -0.1883153 0.06713907 -0.10663282
000110 5d 28 23 be 70 dc 25 be 40 e5 a4 3d 5f 09 b0 3d
       -0.15933366 -0.16197371 0.080515385 0.085955374
000120 0c 9a 0b 3e 99 13 c0 3d 4d 36 e7 3d 2a fa 08 be
       0.13632983 0.09378738 0.11289654 -0.1337668
000130 5a f4 bc 3d d7 95 03 be 07 53 3a be f9 16 8c 3d
       0.09226294 -0.12850128 -0.18195735 0.06840319
000140 d8 69 e9 3c f1 54 87 3d e4 80 a5 bd 07 b7 83 3c
       0.028492853 0.06607998 -0.080812246 0.016078485
000150 41 a8 03 3e 53 9a 8c 3c f0 09 c2 bd 02 c4 15 3e
       0.12857153 0.017163431 -0.09474552 0.14625552
000160 72 f7 b5 bd 21 7d a1 bd 4b 83 72 bd 96 ed 06 be
       -0.08885087 -0.078851946 -0.059207242 -0.1317657
000170 b9 bc 1b be f7 17 b6 3d 67 4c b5 bd b0 2f cd bc
       -0.1520871 0.0889129 -0.08852463 -0.025047153
000180 97 22 a5 3d 21 a6 09 3e a3 14 f4 bd 78 5f ab bd
       0.08063238 0.1344228 -0.11917999 -0.083678186
000190 f6 60 da bd 84 c5 16 be 58 45 65 bd 7b cd 39 3d
       -0.10663025 -0.14723784 -0.055974334 0.045361977
0001a0 67 52 c8 bd 3b aa 35 3d b9 40 09 3e 8f 97 51 3e
       -0.09781342 0.044351798 0.13403596 0.20467971
0001b0 0b 0c ad 3c 19 2b 3f bd 02 19 d5 3d ef 67 1d be
       0.021123907 -0.04667196 0.104051605 -0.15371679
0001c0 09 2c a1 3d 40 36 ef 3d 24 a9 31 be ff 46 4d bd
       0.07869727 0.11680269 -0.17349678 -0.050116535
0001d0 f7 e9 ad 3b 53 a8 06 be cf 8b 05 be af 05 82 3d
       0.005307432 -0.13150148 -0.13041614 0.0634874
0001e0 c5 71 27 3e c5 49 53 3c db 54 5e 3d 89 94 a5 3d
       0.16351993 0.012896006 0.054280143 0.080849715
0001f0 d5 39 1e 3e 37 33 0b be 17 97 d2 3c 9f 55 58 3d
       0.15451749 -0.13593756 0.02570681 0.05281603
000200 65 6a cc bc ef d6 a5 3d 82 ae d9 3d ba 1f 8b bd
       -0.024953077 0.08097636 0.10628988 -0.06793161
000210 0f 11 99 3c 9f 89 ca bc af 31 9a 3d b8 95 19 3e
       0.018684892 -0.024723826 0.07529008 0.1499852
000220 f1 7e bb bd f2 39 03 bd 40 07 af bd 0c 33 7f 3c
       -0.091550715 -0.032037683 -0.08546305 0.015576135
000230 f4 4e bf 3b 1c 74 c0 3d 96 f1 59 3d 19 3a c9 3d
       0.0058382694 0.09397146 0.05320891 0.098255344
000240 74 00 27 be 3b de b8 3d be c6 93 bd 6c d6 08 bd
       -0.16308767 0.09026762 -0.072156414 -0.033407614
000250 9f c6 b9 bc a1 f9 a5 3b 16 6e 68 3d a2 93 d4 bc
       -0.022677718 0.0050651585 0.05674561 -0.025949303
000260 63 96 8e bd e0 a5 03 be 67 33 f9 bd ba f9 ab bc
       -0.06962278 -0.12856245 -0.12168007 -0.020993102
000270 de a3 ee bc 03 94 0b 3e 3e 7a 0a be d5 07 82 bd
       -0.029130872 0.1363068 -0.13523194 -0.0634915
000280 07 d1 04 be e4 e1 3f be 0f 22 c5 bc e9 b3 a2 bd
       -0.12970363 -0.18738514 -0.024064092 -0.079444714
000290 ba 03 1c 3d 8a c6 f8 3c 47 7c 4d 3c c9 5b 63 3d
       0.03808949 0.030368108 0.012541837 0.055507455
0002a0 20 f9 90 3c ef c0 ed 3c 93 3a 26 3e a9 3a 20 be
       0.017696917 0.029022662 0.16233282 -0.15647377
0002b0 bc e6 81 3d 82 97 5c bc bb ae 0f be 87 3c 10 be
       0.06342837 -0.013463857 -0.14031498 -0.1408559
0002c0 54 2f 94 3c 64 a0 00 3e b7 6e c4 bd b2 e9 84 3d
       0.018088974 0.12561184 -0.0959143 0.06489886
0002d0 bc 2d 32 be 2b 3e d6 bd 25 f2 7e 3c 34 b6 09 3e
       -0.17400259 -0.10461076 0.015560661 0.13448411
0002e0 27 e4 2c be 8d d7 79 bd 6b 66 ec bd 9d 37 e7 3c
       -0.16883908 -0.06099658 -0.11542972 0.02822476
0002f0 41 bd f3 bd 08 a2 3c be 20 b9 6b 3d 2e bb fe 3d
       -0.11901332 -0.18421185 0.057549596 0.124380454
000300 74 ec c8 3d 3b 1b b1 bc 08 9a 25 3e c4 4d 9a bd
       0.09810725 -0.02161943 0.1617204 -0.07534364
000310 4e 32 a3 bd 82 15 de bc d8 21 b3 3d bc bd 09 be
       -0.07968579 -0.027109865 0.087466896 -0.13451284
000320 eb 5a e0 bd 84 90 5e bd 32 34 49 3d 32 aa d8 bc
       -0.10954841 -0.05433704 0.049122043 -0.026448343
000330 64 64 ec bd 09 73 06 3e cd 85 23 3e eb e2 22 3d
       -0.115425855 0.1312982 0.1596901 0.039767187
000340 49 e3 98 bc 8a 7b bb bd cb 99 8a bd 38 1f 46 be
       -0.018663066 -0.091544226 -0.06767615 -0.19347847
000350 12 ed db bd 13 c0 ef bd d5 28 29 3e 7b 11 d9 3d
       -0.10738577 -0.11706557 0.16519482 0.10599037
000360 c1 f1 64 bc b6 dc b0 bd 04 27 4b 3d 36 52 d7 3d
       -0.013973654 -0.08635847 0.049597755 0.10513727
000370 17 a7 7a bd a5 d2 7e 3a 75 cf c7 3d 9e 57 1b be
       -0.061194506 0.00097207195 0.09756366 -0.15170142
000380 7b b2 af bc 54 2f 16 3e 63 64 fa bc 7a bb b0 bd
       -0.02144741 0.14666492 -0.030565446 -0.08629508
000390 ac 71 b3 3d 0d a4 1c be c5 b0 d5 bd 30 12 2b be
       0.087619156 -0.15296955 -0.10434107 -0.16706157
0003a0 dc 32 b4 3c a8 32 7c 3c d4 46 ed 3d d5 c4 34 3d
       0.021996908 0.015392937 0.11585775 0.044133026
0003b0 33 08 b3 bd 39 cd 8b bd 4f 58 2d be 72 4f 78 3d
       -0.08741798 -0.068262525 -0.16928218 0.06062264
0003c0 7e b5 a2 bd 51 dc fb bd 88 e4 98 3b 3c 61 a4 3d
       -0.07944773 -0.122978814 0.004665915 0.080263585
0003d0 98 ba 08 be 54 12 cc 3c d9 7f 28 bd 1b 9a de 3d
       -0.1335243 0.024911083 -0.04113755 0.10869237
0003e0 b1 20 4d be 44 2e 0f 3e b2 ad 30 be 10 71 da 3c
       -0.20032002 0.13982493 -0.1725376 0.02666524
0003f0 1d 30 12 be 90 79 eb 3d e1 fc 0e 3d 31 73 43 bd
       -0.14276166 0.114977956 0.034909133 -0.047717277

layer.2.bias f4 [64]
000000 d4 db 0f 3e 92 2f 3a be 45 73 db 3c 26 92 c2 3a
       0.14048702 -0.18182209 0.026788363 0.0014844581
000010 63 6e af bd b6 b5 ff 3d 58 80 38 be 8c f8 f6 3c
       -0.085659765 0.124858305 -0.1801771 0.030147813
000020 fe 62 8d 3d 76 aa 96 bd f8 df 31 be 22 3c 23 bd
       0.06903647 -0.073567316 -0.17370594 -0.03985227
000030 56 73 1b bd fe f0 23 3b 51 aa 11 be 5f 0e a4 bd
       -0.03795179 0.0025015469 -0.14225127 -0.080105536
000040 bd 40 be bd b0 99 46 be e5 c3 2e be 93 c1 8c bd
       -0.092896916 -0.19394565 -0.17066915 -0.06872859
000050 bf 73 c9 bd 39 48 47 3b a3 ab 99 bd 10 50 89 3c
       -0.0983653 0.0030408038 -0.0750344 0.01676181
000060 ac 1c 1e be c6 73 e3 3d e6 a0 21 be 89 0e 1c be
       -0.15440625 0.111060664 -0.15784034 -0.1523992
000070 68 7b 28 bd 5e cc 7f bc c9 cf 26 3d 07 ca c2 3d
       -0.041133314 -0.01561269 0.040725503 0.0951119
000080 7e 92 0c be 7d f8 1a be 93 7a 30 3e f3 d0 1e be
       -0.13727757 -0.15133853 0.17234258 -0.15509395
000090 6e ed ae bd 49 4f 22 be 5b 04 45 bd a0 5a cc ba
       -0.0854138 -0.15850557 -0.048099857 -0.0015590973
0000a0 0e 80 0c be 50 4d d2 bd fa b8 3b bc c9 5c e2 3c
       -0.13720724 -0.102686524 -0.011457676 0.027632134
0000b0 a6 6e c9 bd ed b9 21 3d 3d b8 3b bd 22 24 fa bd
       -0.09835558 0.039483953 -0.04583 -0.12213923
0000c0 13 91 c6 bd ce bb 20 bd 9c e4 66 bd a6 01 bc bc
       -0.096956395 -0.039241605 -0.056370363 -0.022950005
0000d0 b1 03 47 3c dd 8c 88 3e 43 e5 fa bd 61 03 48 bd
       0.012146876 0.2666997 -0.122507595 -0.048831347
0000e0 84 86 43 be 6a ab 4f 3e 6f fa 12 be 0b 4c f0 3d
       -0.19094282 0.20280233 -0.14353345 0.11733254
0000f0 54 3a f4 3d cd 7f 88 3e f8 eb 43 3e c1 a5 0a 3e
       0.11925188 0.26660004 0.19132984 0.13539793

layer.4.weight f4 [128, 64]
000000 4a 39 de bc 3c 9d ce bd 47 f9 81 3d f0 67 8f bd
       -0.027126927 -0.10088584 0.06346374 -0.070022464
000010 74 b8 82 3d ec 7a ec bc 2a 45 f2 3d a2 26 5a 3d
       0.06382838 -0.028867207 0.11829598 0.0532595
000020 1c d4 bd bd be fe 20 bd cd 6f 28 bd 85 ca 1b bd
       -0.09268972 -0.03930544 -0.041122247 -0.038034935
000030 83 72 14 bd 4d cb cc 3c 7c 98 74 bd a3 f1 10 3d
       -0.03624202 0.024999285 -0.059715733 0.035386693
000040 3d 44 86 3d bf 5e 4f 3d fe 30 8d 3d dd 17 09 3d
       0.06555984 0.050627466 0.0689411 0.033470023
000050 fa 53 9f 3d 6c b3 c5 bd 19 4c c2 bd 5f b6 e7 3d
       0.07779689 -0.09653363 -0.09487171 0.113140814
000060 c2 65 8c bd e5 78 a9 3c 53 a9 39 3d 0a 0f 38 3d
       -0.06855346 0.02068753 0.045327496 0.044936217
000070 d3 f9 3b bd d4 c4 82 3d 1d ca 68 3d c8 ed d2 3d
       -0.045892548 0.06385198 0.056833375 0.102992594
000080 51 99 7c 3c d0 4b 4e 3d 3d c2 58 bd 84 3e 2c 3c
       0.015417413 0.05036527 -0.052919615 0.010512952
000090 31 f7 06 bd f6 1f 19 3c 09 98 cc bb a7 54 66 3d
       -0.032950584 0.009345999 -0.00624371 0.056233075
0000a0 08 9f 37 bd 35 f8 90 bd 28 e0 46 bc 5f e1 c1 3d
       -0.0448294 -0.07078592 -0.012138404 0.09466814
0000b0 3f c2 b7 3d 74 6e b7 3c 79 4c cd 3d d6 c3 5b 3d
       0.089725964 0.022391535 0.100243516 0.05365356
0000c0 7c d6 83 3d e6 25 f4 bc 4c ea a5 3d 62 4b ca bb
       0.06437394 -0.029803228 0.08101329 -0.006173537
0000d0 0b 20 07 3d a6 b4 0f bd 2a 24 4f bd 88 53 a1 bd
       0.032989543 -0.03508439 -0.050571598 -0.078772604
0000e0 24 d3 1e 3b 9a 25 4f bd 26 98 2d 3d 02 9e 68 bd
       0.0024234736 -0.05057297 0.04238143 -0.056791313
0000f0 ad 3c 08 3d 5d 22 58 3d af 34 c8 3d a9 47 f9 3c
       0.03326099 0.052767146 0.097756736 0.030429678
000100 3b 61 03 bd c4 0c db 3a 54 23 dd 3d 6d 9a 40 3d
       -0.032075148 0.0016712178 0.10797754 0.047022272
000110 fc 01 10 3b 82 6d 18 be a9 87 e2 bd a3 b4 8f bd
       0.002197384 -0.14885524 -0.11061031 -0.070168756
000120 91 03 d7 3d bd ff 17 3d f8 fc b8 3d 51 fd 8e bd
       0.10498727 0.037109125 0.09032625 -0.0698191
000130 2a a1 7e 3d 2b 5b ec bd 51 ab 2b bd ae e8 dc bc
       0.062165417 -0.115408264 -0.041911427 -0.02696642
000140 65 55 be 3d 00 95 50 bd 08 bf 0c be 24 98 6b 3c
       0.092936315 -0.050923347 -0.13744748 0.014379535
000150 5a c2 33 bd 3c fd 31 3c cb a6 97 ba 8a 6b f7 bd
       -0.04388652 0.010863598 -0.0011570094 -0.12081058
000160 1d 48 14 3e a6 3a 02 bd 07 fa 65 bd b9 a0 ba 3d
       0.14480634 -0.031794213 -0.056146648 0.09112687
000170 a2 c6 30 bd ec e0 d3 3d 5e 20 d8 3c 80 f7 92 bb
       -0.04315818 0.10345635 0.026382621 -0.0044850707
000180 0c d4 93 bd 52 b4 84 3c 60 68 f1 3c c6 4e 9e bc
       -0.07218179 0.016199265 0.029468715 -0.019324671
000190 c9 04 4d bc 9b d8 dd 3c 37 85 43 3d 73 3c d6 3d
       -0.012513348 0.027080825 0.047734465 0.104607485
0001a0 f5 36 a1 3d 01 43 68 3d d3 fd 25 bd 6a f9 b6 3c
       0.0787181 0.056704525 -0.04052527 0.022335727
0001b0 6e bf 56 3d 6d 4b c2 bc 61 37 2e be 5f de 0a bb
       0.052428655 -0.023717606 -0.17013313 -0.0021189672
0001c0 7e 9f c4 bd 83 fd 84 3d 5b 5a b5 bd 7b 5d 2e 3c
       -0.09600733 0.06493666 -0.088551246 0.010642405
0001d0 66 6d 18 3d 1d 96 f9 bd 10 ef 5d bd 4b 12 fb bc
       0.037213705 -0.12186835 -0.054183066 -0.030648371
0001e0 b0 45 05 bc 20 c9 a5 bd a5 4d 5a bd 12 9b 05 be
       -0.008134291 -0.08095002 -0.053296704 -0.13047436
0001f0 7d d8 56 bd 33 48 bc bc c8 95 2a be 1b 93 04 be
       -0.052452553 -0.022983646 -0.166587 -0.12946741
000200 c6 8a e0 bc 39 c4 a1 bd b6 c2 1b 3d 6d 93 85 3c
       -0.027409922 -0.078987546 0.038027488 0.01630565
000210 15 ae d8 bd e0 0e 17 3e 45 b3 ee 3d 70 b9 cb 3d
       -0.105800785 0.14751768 0.11655287 0.09947479
000220 d6 43 b3 3d db 86 ee bb cb f6 d9 bd 51 1b 9c 3c
       0.08753173 -0.0072792596 -0.10642775 0.019055994
000230 53 38 5a bd d4 e6 c6 bd 37 3e 8f bb 83 df ad 3d
       -0.05327637 -0.09711996 -0.0043714303 0.08489897
000240 db 05 90 3c ac 90 86 3c b9 b0 69 bd c3 ab 78 bb
       0.017580917 0.016426407 -0.0570533 -0.0037944175
000250 35 12 b5 3c 27 b7 ac 3d 48 b9 01 3c af 84 bd 3b
       0.022103408 0.08433371 0.00791771 0.0057836394
000260 aa 92 dc bb 9c eb 7b bd 9b 55 85 3d da 8e 25 bd
       -0.006731351 -0.06150399 0.065104686 -0.040419437
000270 b5 ad 48 3d 73 46 9f bc 0d 65 9d bd 3b 57 8c 3d
       0.048993785 -0.019442772 -0.076852895 0.068525754
000280 c1 ea 94 3d d3 9f f8 bd 36 5c 95 bd 53 0c e6 3d
       0.07271338 -0.12139859 -0.072929785 0.112328194
000290 4b 1f a8 3c 9c 6c 82 3c 6b 3a 96 bd 49 69 e0 bd
       0.020522734 0.01592093 -0.07335361 -0.109575815
0002a0 69 63 9f bc 95 17 cc bd ed 20 ee bd b3 b4 bd 3d
       -0.019456582 -0.099654354 -0.11627374 0.09262981
0002b0 be e4 07 3c fb e8 79 bd 71 f5 86 bd 64 39 b4 bc
       0.0082942825 -0.061013203 -0.06589783 -0.022000022
0002c0 d6 53 89 bd 74 f5 84 bc 5f 9f 8c 3d a1 ba 02 3d
       -0.067054436 -0.016230322 0.06866335 0.031916264
0002d0 6b 94 64 bc 53 91 57 bb 94 34 62 bd 38 a4 c8 3d
       -0.013951401 -0.0032893016 -0.055225924 0.09796947
0002e0 66 a5 31 bd 69 5b 60 3d 98 6c b3 bd 3f f4 d8 bc
       -0.043370627 0.054774676 -0.08760947 -0.026483653
0002f0 ec 53 2b bd 6f 6b 2a 3d d0 0d 98 3a 65 43 da bd
       -0.04182808 0.041606363 0.0011600796 -0.10657386
000300 c4 30 2a bd 31 df 59 3d e3 89 fa bc 07 32 e0 bd
       -0.041550413 0.053191368 -0.030583328 -0.10947042
000310 b2 72 7a bd 11 91 4b bd 05 31 a8 3c d7 58 dc 3d
       -0.06114454 -0.049698893 0.020531187 0.10759132
000320 86 67 4b 3d f6 10 81 bd a6 06 49 3d 2c 5e e7 bc
       0.049659275 -0.06302063 0.049078606 -0.028243147
000330 7d fa 4b bd a1 0b 3c bd db bb 10 bd da d5 de 3c
       -0.04979943 -0.045909528 -0.035335403 0.027201582
000340 66 4b da 3c 55 25 c3 3d b9 2d 0c 3d e4 23 97 3d
       0.02664728 0.09528605 0.034223292 0.073798925
000350 b3 3d a0 bc 0b 07 69 3c cc 1c d9 bd c2 d1 61 3d
       -0.01956067 0.014222871 -0.10601196 0.05513168
000360 12 2c c7 bc 84 ca e9 bc f8 22 03 bd 6b 42 81 3d
       -0.024313007 -0.02853895 -0.03201577 0.06311496
000370 65 b4 23 bd 6e db a4 3c 7d 17 f7 bd 77 63 cf bb
       -0.03996696 0.020124163 -0.12065027 -0.006328996
000380 17 6d 87 bd d6 8d b0 3d 04 8a 4e bd 64 c7 69 bd
       -0.06612604 0.08620803 -0.05042459 -0.05707492
000390 70 68 5c bd 3a f7 b7 3d e2 e6 61 3d 1a be 9b 3d
       -0.053810537 0.089827016 0.055151828 0.07604618
0003a0 e9 86 ac bd 83 35 e2 bd 99 e1 1a 3c b6 c5 76 3d
       -0.084241696 -0.11045363 0.009453201 0.060247146
0003b0 88 45 90 3c 78 62 85 bc 77 2b dc 3c 37 f4 22 3e
       0.01761128 -0.016282305 0.026876194 0.15913473
0003c0 4e c8 c7 bd c2 0e 27 bc 48 68 be 3d 11 b2 b3 3d
       -0.09755002 -0.01019639 0.09297234 0.08774198
0003d0 30 37 99 3d 2f db 71 bd 42 c2 b5 3d b4 a2 f9 bc
       0.07481229 -0.05904692 0.08874942 -0.03047309
0003e0 bc 1d 8f 3d 9b 29 a5 bd 3a 35 48 3c 02 56 9e 3d
       0.06988093 -0.08064576 0.012219721 0.077312484
0003f0 72 39 82 3d 9b 1c 6a 3d e6 b1 9e 3c 93 c1 b4 bc
       0.06358613 0.057156187 0.019371938 -0.02206496

layer.4.bias f4 [128]
000000 56 69 85 bc 90 c3 c4 3d 0e 0f 7e bd 57 3a 20 3c
       -0.01628558 0.09607613 -0.062026076 0.009779534
000010 66 d2 cb 3a f6 cc 97 3d 00 1f 55 3d 80 0b 85 bd
       0.0015550375 0.0741214 0.052031517 -0.06496334
000020 80 6f 35 bd bb ad 79 3c f4 f5 f7 3d ec 45 aa bd
       -0.044295788 0.0152391745 0.12107459 -0.08314118
000030 92 ff 4c 3d 51 20 fd bd 11 a2 2c bd d8 33 04 3e
       0.05004842 -0.123596795 -0.042146746 0.12910402
000040 b6 78 71 bc 25 99 57 3d f7 6e f6 bd 22 72 ba bd
       -0.014738252 0.052636284 -0.120328836 -0.091038
000050 06 4e e3 3d 8a e2 83 bd de 98 d2 bd 1e 7d 2c 3d
       0.11098866 -0.06439693 -0.10283063 0.04211151
000060 f6 d8 2f 3c c0 6e 9a bd 7a 48 f1 bc 7e e4 d4 bd
       0.01073288 -0.07540655 -0.029453505 -0.10395144
000070 bf 08 63 bc c2 59 90 bc 27 92 16 3e ab d4 e3 bd
       -0.013857066 -0.017620925 0.1470419 -0.111245476
000080 10 f2 5f 3d c9 71 b3 3d c5 08 c9 bd 64 9e 98 bb
       0.05467421 0.08761937 -0.09816126 -0.0046575535
000090 e7 6f 23 be fb 54 2e 3d 20 1f b7 bb ef 31 f1 bd
       -0.15960656 0.042561512 -0.005588427 -0.11777102
0000a0 7f dc 03 be c8 f9 1e bd c3 7b e7 bd c4 7c 9f 3c
       -0.12877081 -0.03881243 -0.113029025 0.019468673
0000b0 74 91 fc bd 57 08 df 3c 46 4a a7 bd 70 de c0 3d
       -0.123324305 0.027225656 -0.081684634 0.094174266
0000c0 62 26 a6 3d 90 a3 c0 bd e5 1f 4e 3d 3a 62 02 bd
       0.0811279 -0.09406197 0.050323386 -0.031831957
0000d0 30 2f 0e be 25 e8 5f 3e e2 43 d1 bd 6f 45 1a bd
       -0.13885188 0.218659 -0.10218026 -0.037663873
0000e0 d2 00 7b bd 02 09 e0 3d 50 2f 4c bd aa 7b 80 3d
       -0.06128008 0.10939218 -0.04984981 0.06273587
0000f0 8a 14 56 bd 6b f9 98 bd 6a da 23 3e ce 1b 73 bd
       -0.05226568 -0.07469448 0.16001287 -0.05935269
000100 b9 a3 83 3d a5 a2 a4 bd a1 69 6d bb 75 b7 8f 3d
       0.06427712 -0.080388345 -0.003622629 0.070174135
000110 19 71 6e 3c 05 69 a9 bc c5 d1 d2 3d c3 2c 6d bd
       0.014553332 -0.02067996 0.102939166 -0.057904016
000120 3a 4f f5 bd 33 cb 06 bd be 30 71 bd d4 97 bd bd
       -0.11978002 -0.03290863 -0.058884375 -0.092574745
000130 8e 51 25 be 27 08 f3 3c e6 ab 22 bc e2 99 fa bc
       -0.16144392 0.029666973 -0.009928679 -0.030590955
000140 6f c7 bb bc 8a 04 b9 3d ad 2b 3a 3c 20 36 29 bd
       -0.022922246 0.09034069 0.011362952 -0.041311383
000150 fb 6b 38 3d 70 de a3 bd 36 34 bf bd e5 0e fd bd
       0.045024853 -0.08001411 -0.0933613 -0.123563565
000160 36 1f 14 be af 6b ca bd b0 9c b9 3e f9 95 db 3d
       -0.14465031 -0.0988382 0.36252356 0.107219644
000170 cb 6d bc 3d 00 43 52 bd 47 8c ec 3d e0 24 95 bd
       0.09200629 -0.051333427 0.11550193 -0.07282424
000180 a5 e4 b0 bd 77 ff 8b bd 1d c0 d8 3d a0 b6 09 3d
       -0.086373605 -0.068358354 0.10583518 0.03362143
000190 51 94 d6 bd 8d 0f 15 3e 3a b6 60 3d 8c f5 cf bd
       -0.10477508 0.14556713 0.054861285 -0.10154256
0001a0 67 f9 6d 3d 3d e0 d2 bd 61 f0 8d 3d 32 9d bb 3d
       0.058099177 -0.10296676 0.06930614 0.09160842
0001b0 00 fd b4 bd 4a 9f 67 bc a4 c8 35 bd 78 87 5d bd
       -0.088373184 -0.014137099 -0.0443808 -0.05408427
0001c0 b0 89 97 3d 0a d4 b7 bd 30 72 04 3c c4 26 e2 bd
       0.07399309 -0.0897599 0.008083865 -0.1104255
0001d0 9c 59 14 3d e1 13 cd bc be 42 d2 3c b7 40 9f 3d
       0.03621827 -0.025033893 0.02566659 0.07776015
0001e0 1b bd 45 bd 6f 4a ee bc ee 0d 06 3e ff 2c b5 bc
       -0.04827605 -0.029088227 0.13091251 -0.022116182
0001f0 31 bc ab bd 80 d8 b9 bd 58 28 b3 bd 75 36 a3 3d
       -0.08385504 -0.09074497 -0.08747929 0.07969371

layer.6.weight f4 [23, 128]
000000 ca 00 14 bd 6f 1d 40 bb d1 3b 61 3d 04 0a 35 3d
       -0.036133565 -0.0029314419 0.054988686 0.044199005
000010 42 7c 8f 3c 77 04 a6 3c 71 4c b4 3d 76 57 dc bc
       0.017515305 0.0202658 0.088036425 -0.026897173
000020 95 74 a1 bd 96 19 e6 bc ac c9 2f bd da 8c 9d bc
       -0.078835644 -0.028088372 -0.04291694 -0.019232202
000030 05 32 52 3c 87 61 23 3c 0b ca 67 3d 79 0f 35 bc
       0.012829308 0.009971983 0.056589168 -0.011051052
000040 51 43 f5 3d 9e 0e 5c 3d 4b 59 8c bd 5a 99 58 bd
       0.1197573 0.053724878 -0.06852969 -0.052880622
000050 bc dc 79 bd d3 1b 97 bc 0a 9f 6b bd 44 59 7a 3d
       -0.061001524 -0.018445885 -0.05752472 0.061120287
000060 0a 4f 88 bd f8 85 7a 3d 94 f5 87 3d 49 51 9e bd
       -0.066557005 0.06116292 0.06638637 -0.07730348
000070 dc 20 e8 bc 5b e4 9a bc 23 d8 69 bc ef 77 d8 3b
       -0.028335981 -0.018907716 -0.014272722 0.006606094
000080 20 d5 25 3d 5a 4e 33 bb ed 7f 58 bd c9 92 63 3d
       0.040486455 -0.0027359934 -0.052856375 0.055559907
000090 51 12 7d bc 40 6b 14 bd 35 84 ab bc 13 fb a1 bc
       -0.0154462615 -0.036235094 -0.020937065 -0.019773042
0000a0 f1 9c a7 bb 6d e0 00 3d d8 4c ad 3c 80 1d 66 bd
       -0.0051151444 0.03146403 0.021154806 -0.056180477
0000b0 31 1d 42 3d f6 1b 8a bb cd bf 2c bd 60 be 92 bc
       0.04739112 -0.004214759 -0.042175103 -0.017913043
0000c0 cf eb 0b bd 2c 32 8b bc c4 73 93 bd e6 f3 17 bd
       -0.03416043 -0.016991697 -0.07199815 -0.037097834
0000d0 fb 6f 8c bc e9 e8 63 3d 5d 42 28 3d 9d 7a 82 3d
       -0.01714324 0.055642042 0.041078914 0.06371043
0000e0 a7 8c 8f bc af 98 03 3d 28 d0 a2 3d 81 2e 63 3d
       -0.017523123 0.032128032 0.07949859 0.05546427
0000f0 c3 74 b7 3b 17 d1 ef bc a7 c4 52 bd d8 e5 a5 bc
       0.005598636 -0.029274506 -0.051457074 -0.0202512
000100 f0 b7 8d 3c 32 61 80 bd 1b fc 8a bc e8 7e 8f bd
       0.017299622 -0.062685385 -0.016965916 -0.07006627
000110 a9 9b 90 bc e9 1d e6 bc c8 f1 21 bd b7 b8 21 3c
       -0.01765235 -0.028090434 -0.03953722 0.0098707
000120 40 f6 7a bd 76 33 cc bc c3 f5 2c 3b ff 8e 8a bd
       -0.06127 -0.024926882 0.0026391603 -0.067655556
000130 96 47 2c bd d4 5e b7 bc d1 3e 1f 3d a0 70 30 bc
       -0.042060457 -0.022384085 0.038878266 -0.010769039
000140 d4 80 56 bd 94 56 80 bd 9b 58 92 bc dd f6 51 3c
       -0.052368954 -0.062665135 -0.017864516 0.012815204
000150 ed 06 88 3d bf e9 16 3d 1f 48 35 3c e4 75 07 3b
       0.06641946 0.03684401 0.011064558 0.0020669634
000160 1a 19 33 3c 92 98 8d 3d 0e 2e e4 bc c3 92 c5 bc
       0.010931278 0.06913866 -0.027853992 -0.024117833
000170 48 76 98 bd f1 5b 91 bd a5 ac 37 3d 65 f9 38 3d
       -0.07444435 -0.070976146 0.04484238 0.045159716
000180 d0 d6 58 bd 6f 1c 14 3d 46 db 85 bc 74 23 67 bc
       -0.052939236 0.03615993 -0.01633991 -0.014107574
000190 df 34 df bc 15 78 8b 3d 85 0a 15 3d c7 45 63 bb
       -0.02724689 0.06810013 0.036386985 -0.0034679042
0001a0 1d c3 e2 3c 3c 4a 90 3c 2e 8f 2f 3d 95 40 e0 bc
       0.027680928 0.017613523 0.042861156 -0.027374545
0001b0 60 48 cc bb 70 45 f9 3c 1f 05 8e 3d 89 ba c3 3d
       -0.0062342137 0.030428618 0.069345705 0.09557063
0001c0 ae c4 53 bc 97 7b dc 3c c6 91 81 3d a9 4f 1c bd
       -0.01292531 0.026914401 0.06326632 -0.038161907
0001d0 18 b2 c2 bc ea d8 0f 3b 57 4b 68 bd 03 2b b2 3c
       -0.023766562 0.002194936 -0.056712475 0.021749025
0001e0 fc a9 56 bc 86 d0 7c 3b 31 b4 fb 3c 2d a3 df bc
       -0.013102051 0.0038576438 0.03072557 -0.027299488
0001f0 be c6 8c 3d 35 92 bd bc 8e 4a 57 bc aa 4a 53 bd
       0.068738446 -0.023141006 -0.013140334 -0.051584877
000200 d1 0d db bc 7f bc a4 bc 36 c4 83 bd 9f 61 c5 bc
       -0.026739987 -0.020109413 -0.06433909 -0.0240944
000210 f6 1a 81 bd 4f a2 53 3d 12 3e 70 bd 28 df 24 3d
       -0.063039705 0.05166846 -0.058652945 0.04025188
000220 2c 80 2a bd 5e f2 8d bc d5 4f 9e 3c 4a be 94 b9
       -0.04162614 -0.017327484 0.019325176 -0.00028370536
000230 4a 18 e0 3b b8 27 e6 3c 08 c4 9f 3c 6a c6 a5 bd
       0.006838833 0.028095111 0.019502655 -0.08094485
000240 0a 03 07 3d 73 bd 51 bd 0f 69 94 bc 8b 69 1d 3d
       0.032961883 -0.051206063 -0.018116502 0.03843073
000250 cc 53 4d 3d 93 0e ce 3c b1 29 78 b9 51 bc f3 3c
       0.050128743 0.025153434 -0.00023666654 0.029752882
000260 18 e8 93 3d 61 72 53 bd b5 70 75 3d 8c 40 ef 3c
       0.07222003 -0.051622752 0.05992194 0.029205583
000270 30 6f 98 bd 51 39 3b 3d 5c 41 30 3d e0 9b 8e bb
       -0.07443082 0.045708958 0.04303108 -0.004352078
000280 a1 59 20 3d bd da 2c 3d 84 38 92 bd 68 85 7f bc
       0.039147977 0.042200793 -0.07139686 -0.015595771
000290 70 20 0b 3d 06 03 de 3c b9 c4 76 3d 5f 01 ec 3c
       0.03396648 0.027101051 0.060246203 0.028809248
0002a0 ab e9 53 3d fb 9f a7 bc db db 2c 3c bd 50 00 3d
       0.051736515 -0.020462027 0.0105504645 0.031326998
0002b0 21 94 9d bd 43 c3 fd bc 82 8f 34 bc c3 47 3a 3d
       -0.07694269 -0.030976897 -0.011020543 0.045478594
0002c0 14 62 a0 bc 9c b0 90 3d cb 5c bc 3c 12 06 f6 3c
       -0.019578017 0.070649356 0.022993466 0.030032191
0002d0 a0 02 a2 3b 2f a5 2e 3d 2d 38 70 3d f2 d3 90 3d
       0.0049441606 0.042638 0.058647323 0.07071675
0002e0 ce de 32 bd 38 f7 0f bd 69 5d 1c 3d 43 d2 40 3d
       -0.043669514 -0.035147876 0.03817502 0.04707552
0002f0 d9 1e aa bd e5 e4 25 bd 83 7e 2e 3d 53 ab 8b 3c
       -0.08306665 -0.040501494 0.04260112 0.017049467
000300 b2 32 71 bd 1d 66 66 3d 28 b9 02 3d b9 33 0f bd
       -0.058886237 0.056249727 0.03191486 -0.034961436
000310 65 f3 5b 3c 1b 52 d1 3c 34 ea 95 bd 69 87 81 bd
       0.013424729 0.025551846 -0.07320061 -0.063246556
000320 58 a4 04 3d a3 17 b7 3b b3 08 de 3c b5 fe 55 bd
       0.032383293 0.0055875345 0.027103757 -0.05224486
000330 80 77 95 3d 00 00 92 bc 78 52 85 bc 2a 89 3c bd
       0.072981834 -0.017822266 -0.016274676 -0.046029247
000340 32 3f 69 bc 71 21 6a bc b8 70 d9 bc 9b 90 33 bd
       -0.014236258 -0.0142902 -0.026543006 -0.04383908
000350 0b 22 64 3d d0 bc 8a bd 46 71 2b 3c 2a ca be ba
       0.05569653 -0.067742944 0.010464018 -0.0014556099
000360 f0 7c 97 3c d2 24 4d bd e3 3e b2 3d 3a 85 2e 3d
       0.018492192 -0.050083943 0.08703401 0.042607524
000370 bf 98 a6 3c 0d b0 12 bd 5b 80 f4 3a 62 94 1c 3d
       0.020336507 -0.035812426 0.0018653976 0.038227446
000380 7d 78 49 bc fc 91 0e bb bf 6b 82 bd 5f 84 a5 bd
       -0.012296793 -0.0021754494 -0.06368207 -0.080818884
000390 49 ec 73 bd 85 02 c5 bc ac 56 4e bd 17 a6 05 3d
       -0.05955151 -0.024049053 -0.050375625 0.0326291
0003a0 75 bd c0 bd a5 b9 a6 3d b8 90 a7 3d 18 2f 59 ba
       -0.09411136 0.08140878 0.081819 -0.00082849106
0003b0 13 c3 89 3c 90 20 fe bc c9 71 9f 3d 3c 2e d1 3c
       0.016816651 -0.031021386 0.07785375 0.025534742
0003c0 d3 c8 dd 3c 9b 13 0a 3c 23 39 f0 bc 03 c8 24 bd
       0.0270733 0.008427526 -0.02932412 -0.04022981
0003d0 5d f4 d3 bb 31 be 4f 3d 89 ae 86 bd c2 95 97 3c
       -0.0064683394 0.05071849 -0.06576259 0.018504027
0003e0 59 32 66 3d f2 5a 8e bc 8e c6 47 3d fa fd 41 3d
       0.05620036 -0.01737735 0.04877334 0.04736135
0003f0 c4 c0 df 3c d3 a3 fe bb 95 eb 8f bc d9 f5 e0 3c
       0.027313598 -0.007770994 -0.017568389 0.02746098

layer.6.bias f4 [23]
000000 11 04 98 3c 08 af 40 bd 4c fd 06 3d d2 4c bb bc
       0.018556627 -0.047041923 0.032956406 -0.02286378
000010 1a f9 0e 3d 5f 3f 88 3c d9 48 bb 3b ea cc 35 3d
       0.03490553 0.01663178 0.005715471 0.044384874
000020 e3 1b 26 bd 38 a7 84 3c 73 26 b0 bb 1c c8 04 bb
       -0.04055394 0.016193017 -0.0053756773 -0.0020260876
000030 59 5b b4 3c 6b 44 29 bd f2 1e aa 3c 0b 7c 60 bd
       0.022016214 -0.041325014 0.020766709 -0.054805797
000040 19 47 3d 3d d7 4e 4a 3d 02 3f 05 3d df 7d aa 3c
       0.046210382 0.049391594 0.032530792 0.020811973
000050 11 27 86 3c b7 52 18 bd ff 87 18 ba
       0.01637605 -0.037188258 -0.0005818605
