weight/save_160.pth (torch_old, 72900 bytes, 8 tensors)

layer.0.weight f4 [32, 139]
0.080220856 -0.124875136 0.001806809 -0.08035723 -0.06122197 -0.029471267 -0.06644063 0.026951402
0.0015496019 -0.03961286 -0.014096588 0.03621557 0.042226683 0.059830453 -0.08165876 -0.016396139
-0.02503755 0.0053969356 0.031424627 0.0050050844 -0.023097599 0.011193843 -0.044324007 -0.013392674
-0.02168891 0.024071299 0.0710667 0.048377726 0.03374114 -0.042078476 0.040901314 -0.044854812
0.036029764 -0.042648926 -0.07932806 -0.022222454 -0.010447159 -0.0024154128 0.013812091 -0.06769434
0.017140666 0.043648355 0.028499449 -0.027259437 -0.008444193 0.017090304 0.007850002 -0.0026100923
0.061696388 -0.07656025 -0.045719843 0.0042177876 0.03502033 0.06413034 -0.057540704 0.07143267
-0.032237444 -0.06268134 0.0072635664 -0.06588192 0.003028614 -0.052353382 -0.0075182216 0.060291562
-0.05717957 0.015218401 -0.03811341 -0.015561335 -0.034420375 -0.015655389 -0.06571242 -0.058818124
0.018275123 0.002256953 -0.023920087 0.012005004 0.025476119 -0.032248747 -0.075371765 -0.066152826
-0.02748814 -0.015876036 0.048357375 0.035916977 -0.013622685 -0.08190155 -0.02562366 -0.04964879
-0.025529502 0.052726574 0.009323642 -0.048141252 0.01227997 -0.025067523 0.017597198 -0.058650944
-0.014133886 0.0055539245 0.049293198 -0.04301534 -0.090507776 -0.043583427 -0.07432812 0.008385509
0.017429652 0.002845585 0.016614646 -0.08406666 -0.004385892 0.060821116 -0.07713206 0.05324473
1.8046767e-05 -0.05870916 0.035661586 -0.00923226 -0.017033134 0.051024422 -0.0395218 0.063674435
-0.004666918 -0.008222257 0.030051982 -0.046771355 -0.07808986 0.049666755 -0.034912486 -0.0380768
0.008302991 -0.038983513 -0.012358496 -0.042681213 -0.074903086 -0.06583458 -0.06135976 -0.08152956
0.029564526 0.005030379 0.010076797 0.04839898 -0.019980447 0.062754944 0.060156174 0.002100402
0.04555718 -0.07061819 -0.022582406 0.0069088205 -0.016170979 -0.026059974 0.019830761 0.058511008
0.006400556 -0.05812597 0.00478665 -0.040402636 -0.013327876 0.061426666 0.020433389 -0.01218366
0.061692968 0.04325284 -0.018191831 0.039747514 -0.013998323 0.020591687 -0.0750054 -0.022911668
0.009450804 0.0612653 -0.019654186 -0.012638299 -0.030729648 -0.065782756 -0.022057187 -0.008389992
-0.061260533 -0.024889017 -0.06345888 0.0046540885 0.057866387 -0.07674408 0.018136559 0.028724208
0.004182768 0.0061544613 -0.05617978 -0.026430013 0.023160845 -0.00613624 0.090057254 0.007403003
-0.03824793 -0.026153559 -0.022382358 -0.0050655473 -0.020372469 0.0049363784 -0.07979996 -0.0018255681
-0.05256386 0.03933326 -0.083343014 -0.049106218 0.039690632 -0.005798933 -0.09610495 -0.092623115
-0.036259927 -0.07427994 0.0035644125 0.050876617 -0.0057315603 -0.09704141 -0.016632222 0.036610737
-0.056418628 0.04258795 -0.09650648 0.025171913 -0.041523673 -0.11089827 0.054111823 -0.025213264
-0.09318935 -0.09663113 -0.047404915 -0.070141286 0.0070661027 0.05970333 -0.046069797 0.03142188
-0.000107126725 0.01101195 0.024166573 0.017345252 -0.0055885557 0.037702225 -0.066883095 -0.034933995
-0.003604111 0.011396896 -0.057023115 -0.05414248 -0.025142033 -0.011861595 -0.091118604 0.03252493
0.030029772 -0.023372935 -0.067750014 0.029739924 -0.0013005154 -0.05655498 0.0431637 0.018949345
00000000: d54a a43d 89be ffbd 73d2 ec3a 5592 a4bd
00000010: e3c3 7abd ba6d f1bc 0612 88bd 30c9 dc3c
00000020: 031c cb3a 1841 22bd 60f5 66bc c756 143d
00000030: e3f5 2c3d c710 753d b53c a7bd 3251 86bc
00000040: 8c1b cdbc c7d8 b03b 1cb7 003d b101 a43b
00000050: 2d37 bdbc 6166 373c 178d 35bd f26c 5bbc
00000060: f1ac b1bc 2c31 c53c 6b8b 913d b927 463d
00000070: 2634 0a3d 7b5a 2cbd 2388 273d aeb9 37bd
00000080: f293 133d a4b0 2ebd c076 a2bd dd0b b6bc
00000090: 902a 2bbc e74b 1ebb 1c4c 623c 55a3 8abd
000000a0: 956a 8c3c 9ec8 323d ad77 e93c 2f4f dfbc
000000b0: 8359 0abc f700 8c3c 4b9d 003c 150e 2bbb
000000c0: 5ab5 7c3d 9fcb 9cbd bb44 3bbd 5e35 8a3b
000000d0: 7a71 0f3d c556 833d cdaf 6bbd 4b4b 923d
000000e0: 690b 04bd 135f 80bd 3603 ee3b 1aed 86bd
000000f0: b67b 463b 8070 56bd 6a5b f6bb 49f4 763d
00000100: 2035 6abd 9a56 793c cf1c 1cbd f8f4 7ebc
00000110: 61fc 0cbd bb3f 80bc 3c94 86bd 46eb 70bd
00000120: b6b5 953c 63e9 133b 0ff4 c3bc a3b0 443c
00000130: 4bb3 d03c 4317 04bd 835c 9abd 227b 87bd
00000140: cf2e e1bc 760e 82bc 6212 463d ae1d 133d
00000150: af31 5fbc 00bc a7bd b6e8 d1bc 885c 4bbd
00000160: 3f23 d1bc d2f7 573d 30c2 183c c32f 45bd
00000170: ed31 493c 685a cdbc 0028 903c f93b 70bd
00000180: d191 67bc b2fd b53b aae7 493d da30 30bd
00000190: 245c b9bd 8984 32bd 5739 98bd 6063 093c
000001a0: a1c8 8e3c ff7c 3a3b 701b 883c 242b acbd
000001b0: 87b7 8fbb 901f 793d 6af7 9dbd 2517 5a3d
000001c0: 2363 9737 0479 70bd e211 123d e842 17bc
000001d0: 1289 8bbc fcfe 503d 9ce1 21bd be67 823d
000001e0: f2ec 98bb a5b6 06bc 932f f63c 5293 3fbd
000001f0: 94ed 9fbd 5e6f 4b3d 6500 0fbd 6bf6 1bbd
00000200: 4509 083c 2dad 1fbd 4a7b 4abc 7fd2 2ebd
00000210: ca66 99bd 48d4 86bd 5f54 7bbd f8f8 a6bd
00000220: 4e31 f23c e1d5 a43b 2619 253c 023e 463d
00000230: 09ae a3bc aa85 803d 5266 763d e6a6 093b
00000240: 2a9a 3a3d 45a0 90bd bdfe b8bc 6363 e23b
00000250: 0079 84bc ba7b d5bc 1f74 a23c 3da9 6f3d
00000260: c1bb d13b 7f15 6ebd 55d9 9c3b 3c7d 25bd
00000270: 2a5d 5abc 879a 7b3d ec63 a73c f99d 47bc
00000280: c4b1 7c3d e429 313d 0907 95bc 4ace 223d
00000290: 3959 65bc e6af a83c 6e9c 99bd 40b1 bbbc
000002a0: 8cd7 1a3c 53f1 7a3d d101 a1bc de10 4fbc
000002b0: bebc fbbc 1cb9 86bd 46b1 b4bc 2d76 09bc
000002c0: 53ec 7abd 0de4 cbbc bbf6 81bd 5381 983b
000002d0: 4e05 6d3d 002c 9dbd 1f93 943c 084f eb3c
000002e0: 9a0f 893b 5dab c93b c51c 66bd c183 d8bc
000002f0: d0bb bd3c 8312 c9bb f06f b83d e494 f23b
00000300: dda9 1cbd fd3f d6bc 355b b7bc e4fc a5bb
00000310: 2ae4 a6bc 58c1 a13b 296e a3bd e747 efba
00000320: 344d 57bd ea1b 213d beaf aabd 9a23 49bd
00000330: a592 223d fa04 bebb acd2 c4bd 30b1 bdbd
00000340: 4a85 14bd 1520 98bd eb98 693b 0064 503d
00000350: d0cf bbbb a6bd c6bd 4c40 88bc 24f5 153d
00000360: 3817 67bd b470 2e3d 30a5 c5bd 5435 ce3c
00000370: ba14 2abd a21e e3bd 5ca4 5d3d 0c8c cebc
00000380: 0fda bebd 8be6 c5bd a82b 42bd 3ca6 8fbd
00000390: c48a e73b 7b8b 743d afb3 3cbd 3bb4 003d
000003a0: 39a9 e0b8 776b 343c faf8 c53c a117 8e3c
000003b0: 3420 b7bb a66d 1a3d 01fa 88bd f316 0fbd
000003c0: f332 6cbb 0cba 3a3c 1291 69bd 81c4 5dbd
000003d0: aaf6 cdbc 2357 42bc 649c babd dc38 053d
000003e0: ff00 f63c 9978 bfbc 85c0 8abd 24a1 f33c
000003f0: 0e76 aaba 32a6 67bd 6bcc 303d a83b 9b3c

layer.0.bias f4 [32]
0.013162396 0.003811017 -0.08869192 0.02217594 -0.102538794 0.049910016 0.017277222 0.046276335
-0.043342706 0.041556817 0.0399422 -0.0944661 -0.07511067 -0.1006566 0.07015634 0.04745253
-0.029010685 -0.056915674 0.046200447 -0.05499661 -0.10295833 0.014509731 -0.08820911 -0.07808562
-0.086907595 0.013564744 -0.086890906 0.058892902 0.09606768 0.014306119 -0.11994517 -0.01833263
00000000: 17a7 573c 41c2 793b 1ca4 b5bd 51aa b53c
00000010: dcff d1bd 726e 4c3d f688 8d3c 418c 3d3d
00000020: 1f88 31bd 7b37 2a3d 6f9a 233d 7177 c1bd
00000030: 9fd3 99bd 0c25 cebd 21ae 8f3d 965d 423d
00000040: d1a7 edbc 6920 69bd ae3c 3d3d 2044 61bd
00000050: d1db d2bd 39ba 6d3c faa6 b4bd 5beb 9fbd
00000060: 9cfc b1bd a93e 5e3c dcf3 b1bd af39 713d
00000070: 22bf c43d 3664 6a3c d0a5 f5bd 502e 96bc

layer.2.weight f4 [64, 32]
0.035306577 -0.075689085 -0.116280496 0.08155639 -0.04085764 -0.055691533 0.070390925 0.14482561
0.16814694 -0.14735048 0.08657615 0.03738448 0.14695132 0.014945953 0.14642496 0.041821353
0.15546465 -0.064152144 0.06654074 0.11584961 -0.072248116 -0.15191258 -0.042634573 0.0030697794
0.015914833 0.061851956 0.16072212 0.059820175 0.0466918 0.15485196 -0.06133525 -0.15881297
-0.07500288 -0.11042978 0.050457146 -0.14687464 -0.091082856 -0.18238665 -0.056662485 0.07162245
-0.08761585 0.09324922 -0.045694206 0.01987532 -0.11364784 -0.13370591 0.14486146 -0.079714596
0.052102465 0.14988808 -0.04615071 0.014704709 0.0928126 0.012641639 -0.23185822 -0.11597606
-0.09117533 -0.06530066 -0.14403851 -0.05155894 -0.03893519 0.03917156 0.12920801 0.023600308
-0.08669368 -0.19478351 0.059482414 -0.10431045 -0.14668652 -0.16108574 0.08477568 0.07697296
0.15726702 0.09262306 0.12260602 -0.13848159 0.08827004 -0.1417865 -0.17548771 0.0755107
0.019819662 0.070927225 -0.10147797 0.022157758 0.13092244 0.021569608 -0.09259031 0.14011666
-0.101828136 -0.076544285 -0.04720511 -0.11040903 -0.1520871 0.08331612 -0.088440605 -0.0023686166
0.08320381 0.13521211 -0.12558255 -0.084180124 -0.10037302 -0.15828775 -0.048773192 0.04498505
-0.09349632 0.045034543 0.13448049 0.21294229 0.020964354 -0.08414813 0.10568156 -0.13995886
0.079317845 0.11817448 -0.16521536 -0.058136936 -0.0011607221 -0.12085499 -0.12597904 0.06707998
0.15858221 0.015176416 0.040205806 0.08172143 0.14326063 -0.13375442 0.032014977 0.019492114
-0.03356531 0.08154446 0.110695146 -0.06700794 0.019576201 -0.0325597 0.06976662 0.15599898
-0.07152685 -0.0276649 -0.09426247 0.0021450678 0.005471441 0.095274694 0.04784962 0.09029565
-0.15812111 0.08980939 -0.10782479 -0.030469842 -0.029046057 -0.004987105 0.05537739 -0.022579174
-0.06820586 -0.12951985 -0.092402205 -0.020838022 -0.033328887 0.13588873 -0.12847239 -0.05368291
-0.12860274 -0.19404544 -0.024045328 -0.084189214 0.033038735 0.030349465 0.015573532 0.04032765
0.017696917 0.027645621 0.17931049 -0.16907391 0.06325665 -0.047269113 -0.14208068 -0.1942082
0.025947195 0.12234495 -0.091297425 0.056458294 -0.19922437 -0.10357542 0.014859619 0.09921755
-0.17609693 -0.045547586 -0.13606939 0.015788788 -0.12689623 -0.18476665 0.01928361 0.11288145
0.098949485 -0.022567047 0.1579751 -0.07075802 -0.07743228 -0.035835903 0.08752441 -0.12600522
-0.10557246 -0.065273784 0.04813201 -0.022795193 -0.11192348 0.12842351 0.15708432 0.04027587
-0.019703314 -0.091108985 -0.01236684 -0.17724681 -0.109091036 -0.11446572 0.16725166 0.10707207
-0.016883532 -0.08405628 0.049573403 0.10883886 -0.06746424 -0.0016163717 0.1038189 -0.15875891
-0.02592222 0.14397883 -0.023163019 -0.08166547 0.088558875 -0.18293308 -0.09637544 -0.16603774
0.016991228 0.015017796 0.11307346 0.04857768 -0.08456535 -0.06848737 -0.17352824 0.044807255
-0.07416941 -0.11908506 0.013969801 0.055677626 -0.13391386 0.017243773 -0.03400996 0.1061711
-0.18264477 0.12251426 -0.16443259 0.036635496 -0.15385243 0.10663678 0.028383236 -0.074459285
00000000: a19d 103d e102 9bbd 7824 eebd 0907 a73d
00000010: 575a 27bd ce1c 64bd 1e29 903d 2a4d 143e
00000020: b62e 2c3e 0be3 16be d64e b13d 7820 193d
00000030: 687a 163e dfdf 743c 6df0 153e de4c 2b3d
00000040: 2032 1f3e 3362 83bd 8346 883d 8f42 ed3d
00000050: d2f6 93bd f98e 1bbe 97a1 2ebd 5a2e 493b
00000060: d35f 823c 7a58 7d3d 5794 243e 0006 753d
00000070: e73f 3f3d 8391 1e3e ac3a 7bbd de9f 22be
00000080: 1c9b 99bd 0229 e2bd 27ac 4e3d 4e66 16be
00000090: a689 babd 91c3 3abe ec16 68bd cbae 923d
000000a0: f06f b3bd 72f9 be3d d929 3bbd 91d1 a23c
000000b0: 33c0 e8bd 34ea 08be 9056 143e 6841 a3bd
000000c0: 6569 553d 437c 193e 8708 3dbd 05ec 703c
000000d0: 8814 be3d e11e 4f3c 3e6c 6dbe db84 edbd
000000e0: 22ba babd 5abc 85bd d57e 13be 782f 53bd
000000f0: 817a 1fbd 5c72 203d 1b4f 043e 6f55 c13c
00000100: 758c b1bd 5475 47be d5a3 733d b8a0 d5bd
00000110: fe34 16be a9f3 24be df9e ad3d 00a4 9d3d
00000120: 9b0a 213e 29b1 bd3d dd18 fb3d 1ece 0dbe
00000130: ecc6 b43d 7b30 11be 0db3 33be 5ba5 9a3d
00000140: d85c a23c 4b42 913d afd3 cfbd 3084 b53c
00000150: 8810 063e bfb2 b03c fd9f bdbd be7a 0f3e
00000160: 458b d0bd 40c3 9cbd 255a 41bd 211e e2bd
00000170: b9bc 1bbe a4a1 aa3d 5920 b5bd cb3a 1bbb
00000180: c266 aa3d 0b75 0a3e b698 00be a166 acbd
00000190: 5f90 cdbd 2f16 22be 66c6 47bd 3e42 383d
000001a0: 007b bfbd 2476 383d 41b5 093e 8b0d 5a3e
000001b0: 70bd ab3c db55 acbd 936f d83d 6051 0fbe
000001c0: 6571 a23d 7605 f23d 372e 29be ff20 6ebd
000001d0: 5f23 98ba d282 f7bd a600 01be 3b61 893d
000001e0: 6063 223e 81a6 783c d8ae 243d 915d a73d
000001f0: eab2 123e ebf6 08be 2322 033d edad 9f3c
00000200: c77b 09bd c800 a73d 23b4 e23d 753b 89bd
00000210: 455e a03c 525d 05bd cde1 8e3d 32be 1f3e
00000220: ab7c 92bd 80a1 e2bc af0c c1bd 4494 0c3b
00000230: c649 b33b 611f c33d f7fd 433d edec b83d
00000240: 80ea 21be fced b73d 3ed3 dcbd e49b f9bc
00000250: fff1 edbc de6a a3bb 67d3 623d f6f7 b8bc
00000260: 84af 8bbd daa0 04be 5e3d bdbd 80b4 aabc
00000270: df83 08bd 6a26 0b3e 448e 03be 9ce2 5bbd
00000280: 70b0 03be d9b3 46be b5fa c4bc 656b acbd
00000290: a053 073d 719f f83c 2128 7f3c 9b2e 253d
000002a0: 20f9 903c 1279 e23c 2b9d 373e b621 2dbe
000002b0: b48c 813d 429d 41bd 997d 11be 84de 46be
000002c0: 368f d43c fd8f fa3d 25fa babd d040 673d
000002d0: 7901 4cbe 5a1f d4bd c275 733c 9232 cb3d
000002e0: c152 34be 1b90 3abd c655 0bbe 7d57 813c
000002f0: 16f1 01be 7833 3dbe a9f8 9d3c 642e e73d
00000300: 07a6 ca3d 87de b8bc 3ac4 213e 95e9 90bd
00000310: d194 9ebd abc8 12bd ff3f b33d 8307 01be
00000320: 6036 d8bd 43ae 85bd 1226 453d fcbc babc
00000330: 2338 e5bd 7481 033e b6da 203e 50f8 243d
00000340: d868 a1bc 5997 babd 499e 4abc 3080 35be
00000350: 1f6b dfbd 016d eabd 0544 2b3e 9a48 db3d
00000360: 554f 8abc b325 acbd 7b0d 4b3d e9e6 de3d
00000370: b12a 8abd 6fdc d3ba 019f d43d b291 22be
00000380: d65a d4bc 306f 133e 5fc0 bdbc 3a40 a7bd
00000390: 5b5e b53d cf52 3bbe 7d60 c5bd cc05 2abe
000003a0: 3031 8b3c 340d 763c 0f93 e73d 64f9 463d
000003b0: 9930 adbd 1b43 8cbd 63b1 31be d087 373d
000003c0: 22e6 97bd dee2 f3bd 98e1 643c 390e 643d
000003d0: b720 09be d042 8d3c 074e 0bbd 3c70 d93d
000003e0: 3b07 3bbe c2e8 fa3d 0461 28be 1a0f 163d
000003f0: 7e8b 1dbe 6264 da3d f683 e83c 1c7e 98bd

layer.2.bias f4 [64]
0.16636682 -0.19142492 -0.008488056 -0.003473737 -0.084736586 0.22219767 -0.1827566 0.017196685
0.090866975 -0.08289717 -0.18736127 -0.0013377909 -0.026950376 0.0033123589 -0.16510493 -0.08776109
-0.073996715 -0.19351062 -0.19682989 -0.072544195 -0.12719598 0.003957392 -0.07597793 -0.0039816666
-0.16300184 0.092132166 -0.18257573 -0.1791819 -0.024602368 -0.020595152 0.037367117 0.09236838
-0.15236491 -0.14588223 0.18101078 -0.14384864 -0.1046931 -0.16474852 -0.076981716 0.024938503
-0.1625918 -0.0974992 -0.009838409 0.031805992 -0.09410311 0.041923948 -0.05658076 -0.14263092
-0.10764537 -0.03650809 -0.03766563 -0.06344274 0.014044608 0.38980812 -0.1261178 -0.062732205
-0.21713148 0.21814875 -0.13965167 0.09880535 0.12690043 0.27507767 0.16730134 0.18658051
00000000: 105c 2a3e e504 44be 7d11 0bbc a3a7 63bb
00000010: 608a adbd c987 633e 8c24 3bbe 10e0 8c3c
00000020: 7718 ba3d fec5 a9bd a2db 3fbe d058 afba
00000030: 09c7 dcbc 2914 593b 4411 29be 16bc b3bd
00000040: 978b 97bd a627 46be c68d 49be 0d92 94bd
00000050: aa3f 02be 03ad 813b 519a 9bbd a478 82bb
00000060: f4e9 26be caaf bc3d 22f5 3abe 767b 37be
00000070: e88a c9bc 2ab7 a8bc 430e 193d a22b bd3d
00000080: 8c05 1cbe 2762 15be e45a 393e 0f4d 13be
00000090: 5669 d6bd d6b3 28be 97a8 9dbd d54b cc3c
000000a0: 777e 26be a9ad c7bd 4731 21bc 0047 023d
000000b0: 22b9 c0bd 72b8 2b3d 3ac1 67bd d70d 12be
000000c0: 2d75 dcbd 8289 15bd 4747 1abd 44ee 81bd
000000d0: 5b1b 663c ee94 c73e 0625 01be be79 80bd
000000e0: b757 5ebe 6362 5f3e d900 0fbe 765a ca3d
000000f0: 30f2 013e fbd6 8c3e 0b51 2b3e f60e 3f3e

layer.4.weight f4 [128, 64]
-0.02534326 -0.10449732 0.05566302 -0.065323204 0.054311384 -0.02881539 0.113381006 0.039888993
-0.08396267 -0.026507895 -0.04195692 -0.016212113 -0.03733317 0.03197048 -0.0641375 0.03125932
0.06521271 0.0552993 0.06579212 0.034737337 0.07857538 -0.09783229 -0.090724416 0.11522034
-0.04701383 -0.0012160225 0.035227884 0.03714667 -0.08766631 0.058948983 0.057601 0.10021492
0.015111698 0.049911935 -0.05239566 0.014214231 -0.045461424 0.0056072427 0.009816645 0.052049514
-0.039807968 -0.049984697 -0.009446073 0.09600288 0.0884072 0.027210934 0.09696159 0.061600376
0.061170887 -0.032952752 0.07845056 -0.017411212 0.038777143 -0.013010025 -0.053108707 -0.07609746
-0.0017021102 -0.016715575 0.044400234 -0.06481055 0.031987175 0.04820814 0.1114581 0.026290167
-0.03276345 0.03921853 0.12621944 0.039218165 -0.0072789663 -0.17577745 -0.10486141 -0.06000759
0.09886158 0.07723775 0.08163552 -0.066332415 0.062324464 -0.12325037 -0.032570407 -0.020513939
0.10326839 -0.051252924 -0.16051596 0.0128589235 -0.052775532 0.01415186 -0.011743788 -0.11197544
0.19515857 -0.0120262895 -0.16767119 0.08232934 -0.03495677 0.105275504 0.024078878 -0.011721289
-0.076234266 0.013696129 0.027671266 -0.019035 -0.016263656 0.029853327 0.008623245 0.10389273
0.078748874 0.13292223 -0.044660952 0.015781393 0.059900694 -0.022299774 -0.20952854 0.022271566
-0.09513787 0.061147496 -0.08565105 -0.0059638764 0.04374611 -0.119219996 -0.06509994 -0.029986441
-0.008417412 -0.09631429 -0.06328203 -0.12765892 -0.06709127 -0.036711223 -0.12583616 -0.13424182
-0.028405165 -0.07901089 0.056171093 0.010662976 -0.104510024 0.16664921 0.11658704 0.10450803
0.08421279 -0.019571735 -0.10254747 0.03945324 -0.060523 -0.078781955 -0.012985927 0.09690834
0.022937354 0.010761013 -0.011530222 -0.0016831101 0.019935727 0.081707284 0.008414239 0.017027205
0.009568977 -0.05099076 0.050813437 -0.033001628 0.05878535 -0.021757655 -0.07441047 0.06671103
0.08750957 -0.14218995 -0.075765826 0.10859897 0.022795156 0.012047522 -0.11137197 -0.107108645
-0.018094812 -0.07216167 -0.12155953 0.084638484 0.0061892653 -0.07395877 -0.045119807 -0.014703034
-0.081398904 -0.006061259 0.06339 -0.013563199 -0.044513118 -0.0033539506 -0.07737075 0.08194909
-0.03736417 0.048854116 -0.0837955 -0.016006216 -0.044189975 0.039571524 0.0008469823 -0.0800287
-0.03991959 0.026477259 -0.056686718 -0.11577549 -0.065774284 -0.07284446 0.019635793 0.10161966
0.048594024 -0.06649962 0.046870645 -0.047363788 -0.06014647 -0.045102585 -0.030834494 0.03384215
0.03461589 0.10418628 0.030825445 0.055565864 -0.028645804 0.0041535813 -0.11065301 0.060633928
-0.029972373 -0.006649303 -0.01473443 0.056382794 -0.03851907 0.017264597 -0.123704694 -0.011204054
-0.059112895 0.080094926 -0.060347203 -0.06409065 -0.051878292 0.072549835 0.042075206 0.059260953
-0.091074325 -0.12444971 0.008333121 0.058635056 0.014509335 -0.024685156 0.008756142 0.13324903
-0.105113566 -0.0048392625 0.08762758 0.101808794 0.054128878 -0.07504595 0.069773056 -0.03388181
0.06836233 -0.08841444 0.0056064106 0.042469766 0.058355615 0.0688955 0.016193496 0.051141016
00000000: ab9c cfbc b102 d6bd e8fe 633d 2cc8 85bd
00000010: 9d75 5e3d 410e ecbc 4d34 e83d a462 233d
00000020: 9ff4 abbd 1627 d9bc 05db 2bbd 44cf 84bc
00000030: abea 18bd 7af3 023d 865a 83bd c609 003d
00000040: 3e8e 853d 8581 623d 05be 863d bd48 0e3d
00000050: 21ec a03d 4c5c c8bd b9cd b9bd a4f8 eb3d
00000060: 9391 40bd f262 9fba 1d4b 103d 1b27 183d
00000070: 658a b3bd 7d74 713d 07ef 6b3d 7b3d cd3d
00000080: 0e97 773c 7570 4c3d d59c 56bd cee2 683c
00000090: c235 3abd f6bc b73b fed5 203c df31 553d
000000a0: ae0d 23bd c1bc 4cbd b4c3 1abc 289d c43d
000000b0: d60e b53d 77e9 de3c cc93 c63d ad50 7c3d
000000c0: 538e 7a3d 77f9 06bd b0aa a03d f5a1 8ebc
000000d0: c8d4 1e3d 0028 55bc 8488 59bd fcd8 9bbd
000000e0: 5719 dfba 1aef 88bc 05dd 353d 65bb 84bd
000000f0: fc04 033d e675 453d 2544 e43d 7a5e d73c
00000100: f832 06bd 9ca3 203d ab3f 013e 3aa3 203d
00000110: 6584 eebb 01ff 33be 94c1 d6bd 85ca 75bd
00000120: f177 ca3d d32e 9e3d 8630 a73d 4ad9 87bd
00000130: f047 7f3d b16a fcbd 8c68 05bd d90c a8bc
00000140: 617e d33d 96ee 51bd 4c5e 24be 3cae 523c
00000150: 282b 58bd 34dd 673c 0469 40bc 6153 e5bd
00000160: a6d7 473e ea09 45bc ffb1 2bbe 499c a83d
00000170: d42e 0fbd af9a d73d 1141 c53c a60a 40bc
00000180: b620 9cbd bb65 603c daae e23c 4aef 9bbc
00000190: 5c3b 85bc f78e f43c 8348 0d3c b6c5 d43d
000001a0: 1747 a13d c41c 083e 67ee 36bd fb47 813c
000001b0: 6e5a 753d 04ae b6bc a68e 56be dc72 b63c
000001c0: a5d7 c2bd cc75 7a3d d169 afbd 9f6c c3bb
000001d0: 1f2f 333d 9d29 f4bd 1e53 85bd 20a6 f5bc
000001e0: 2fe9 09bc 6d40 c5bd 029a 81bd 05b9 02be
000001f0: 2667 89bd 825e 16bd 32db 00be b076 09be
00000200: f3b1 e8bc 76d0 a1bd a913 663d c3b3 2e3c
00000210: 5a09 d6bd 17a6 2a3e 30c5 ee3d 4e08 d63d
00000220: c177 ac3d e754 a0bc 6804 d2bd b899 213d
00000230: f7e6 77bd 6f58 a1bd edc2 54bc e177 c63d
00000240: 1ee7 bb3c f64e 303c 42e9 3cbc ce9b dcba
00000250: 4050 a33c 2656 a73d e0db 093c a37c 8b3c
00000260: 33c7 1c3c b0db 50bd c021 503d b72c 07bd
00000270: e8c8 703d 1c3d b2bc 8464 98bd cb9f 883d
00000280: 3838 b33d 3e9a 11be 1d2b 9bbd 2369 de3d
00000290: e8bc ba3c f862 453c fd16 e4bd c75b dbbd
000002a0: 923b 94bc 7fc9 93bd 34f4 f8bd f156 ad3d
000002b0: 52cf ca3b b277 97bd 8ccf 38bd ffe4 70bc
000002c0: 78b4 a6bd 879d c6bb 9ed2 813d 2e38 5ebc
000002d0: 6353 36bd f4cd 5bbb 8e74 9ebd edd4 a73d
000002e0: 2c0b 19bd 411b 483d fa9c abbd 781f 83bc
000002f0: 8c00 35bd c015 223d 0508 5e3a 16e6 a3bd
00000300: b982 23bd d6e6 d83c 5530 68bd b31b edbd
00000310: abb4 86bd 7a2f 95bd 3edb a03c f81d d03d
00000320: 870a 473d f430 88bd 6ffb 3f3d 8800 42bd
00000330: 255c 76bd 7dbd 38bd 9f98 fcbc 119e 0a3d
00000340: 64c9 0d3d 9e5f d53d a585 fc3c 0899 633d
00000350: 9baa eabc c41a 883b 0c9e e2bd 485b 783d
00000360: 9f88 f5bc 65e2 d9bb ae68 71bc a5f1 663d
00000370: 2cc6 1dbd 7c6e 8d3c e358 fdbd 3591 37bc
00000380: 5d20 72bd cf08 a43d a12e 77bd f541 83bd
00000390: 557e 54bd 0295 943d 0d57 2c3d 9dbb 723d
000003a0: 2d85 babd 7ddf febd a587 083c 502b 703d
000003b0: 90b8 6d3c 8638 cabc ec75 0f3c 6f72 083e
000003c0: c845 d7bd ad92 9ebb 1776 b33d 2181 d03d
000003d0: 3eb6 5d3d b1b1 99bd 2de5 8e3d a7c7 0abd
000003e0: 8d01 8c3d a112 b5bd fbb5 b73b c7f4 2d3d
000003f0: 4c06 6f3d 1519 8d3d 39a8 843c 3e79 513d

layer.4.bias f4 [128]
-0.008128455 0.105514854 -0.06078002 0.015902968 0.002200225 0.077283315 0.046726305 -0.07939577
-0.045745462 0.011809198 0.1289101 -0.0836537 0.048713695 -0.13468158 -0.033920057 0.13183534
-0.04520904 0.047103822 -0.13754486 -0.09012302 0.120555416 -0.08435774 -0.09688112 0.03952536
0.005160618 -0.07876439 -0.023264948 -0.1166917 -0.022776768 -0.0008630763 0.15697592 -0.10705474
0.057236332 0.053092398 -0.11959877 0.0048928615 -0.15795232 0.059428208 -0.0014113857 -0.10152918
-0.12281273 -0.03151294 -0.11433191 0.012322499 -0.12703899 0.03650731 -0.0767241 0.11263915
0.06990068 -0.10844118 0.04221745 -0.024013788 -0.14329685 0.24010602 -0.100939944 -0.022742977
-0.06705891 0.11051533 -0.06557742 0.07643138 -0.060852602 -0.068285935 0.17659162 -0.05993789
0.07302374 -0.07425593 0.00513335 0.06744071 0.020903846 -0.00975381 0.094978355 -0.050607733
-0.11989766 -0.02804999 -0.026596157 -0.06775556 -0.17053306 0.042974226 -0.005036193 -0.026258072
-0.030766781 0.09738398 0.019631933 -0.030020254 0.040653173 -0.07579895 -0.09426762 -0.11485463
-0.136334 -0.119311534 0.36632803 0.107313275 0.09029351 -0.05091089 0.07676133 -0.07009637
-0.097861215 -0.087726995 0.10786595 0.039629422 -0.096296474 0.16488029 0.05066268 -0.10156693
0.048666794 -0.09886335 0.062275276 0.06794136 -0.066743724 -0.014549021 -0.036088906 -0.0523031
0.08673713 -0.07097447 0.016378487 -0.093373485 0.009510312 -0.036222324 0.032549627 0.084812224
-0.050808296 -0.018705754 0.15104759 -0.030129468 -0.07873704 -0.08851999 -0.09896283 0.07718426
00000000: 362d 05bc 2c18 d83d 78f4 78bd f146 823c
00000010: a631 103b b746 9e3d 1564 3f3d 409a a2bd
00000020: 985f 3bbd 5e7b 413c 0201 043e a252 abbd
00000030: 0388 473d f8e9 09be c2ef 0abd d8ff 063e
00000040: 1d2d 39bd f0ef 403d 8fd8 0cbe 6b92 b8bd
00000050: c2e5 f63d c0c3 acbd 9c69 c6bd 58e5 213d
00000060: 671a a93b 394f a1bd 2296 bebc 0ffc eebd
00000070: 5896 babc 1240 62ba 4cbe 203e 843f dbbd
00000080: a570 6a3d 6a77 593d 33f0 f4bd 4c54 a03b
00000090: 41be 21be fe6a 733d 3ffe b8ba 88ee cfbd
000000a0: 3e85 fbbd b613 01bd d926 eabd 4fe4 493c
000000b0: 8216 02be b088 153d 8621 9dbd 5baf e63d
000000c0: 1628 8f3d 6916 debd 34ec 2c3d 90b8 c4bc
000000d0: 69bc 12be 5ade 753e 9ab9 cebd 7b4f babc
000000e0: 2f56 89bd dd55 e23d 744d 86bd 0e88 9c3d
000000f0: 9440 79bd 7fd9 8bbd 6fd4 343e 6f81 75bd
00000100: 788d 953d 7e13 98bd a935 a83b 5b1e 8a3d
00000110: 8b3e ab3c 72ce 1fbc 0384 c23d 0e4a 4fbd
00000120: e88c f5bd 18c9 e5bc 2fe0 d9bc 6dc3 8abd
00000130: 38a0 2ebe be05 303d a606 a5bb 2b1b d7bc
00000140: 9e0a fcbc 4171 c73d 26d3 a03c 09ed f5bc
00000150: f183 263d 7b3c 9bbd 620f c1bd e738 ebbd
00000160: 249b 0bbe 9b59 f4bd 598f bb3e 10c7 db3d
00000170: ceeb b83d f087 50bd 0b35 9d3d b08e 8fbd
00000180: 766b c8bd 36aa b3bd d3e8 dc3d 7652 223d
00000190: 1637 c5bd 61d6 283e ac83 4f3d 5302 d0bd
000001a0: d556 473d de78 cabd 5c14 7f3d d724 8b3d
000001b0: efb0 88bd 045f 6ebc f6d1 13bd c63b 56bd
000001c0: 3da3 b13d 105b 91bd 2d2c 863c 993a bfbd
000001d0: 24d1 1b3c dc5d 14bd c252 053d 08b2 ad3d
000001e0: 5c1c 50bd cf3c 99bc 38ac 1a3e 13d2 f6bc
000001f0: e340 a1bd f849 b5bd 06ad cabd c812 9e3d

layer.6.weight f4 [23, 128]
-0.0366675 -0.0027496486 0.052841272 0.043725327 0.022022594 0.017776094 0.06702804 -0.022629512
-0.08080222 -0.028344924 -0.03516616 -0.020260863 0.026014112 0.0075137983 0.053984176 -0.011578741
0.08394993 0.05170409 -0.06658159 -0.05632345 -0.05964078 -0.02524862 -0.0450465 0.055875096
-0.064166635 0.059297565 0.055881944 -0.07620765 -0.025476644 -0.016133659 -0.008421068 0.01678932
0.039208062 -0.0009837169 -0.07541365 0.04989568 -0.016715592 -0.034148596 -0.008975076 -0.016876934
-0.0031561786 0.026892515 0.018811075 -0.062394526 0.046377856 0.00055624166 -0.03127118 0.0034534908
-0.030308034 -0.0068245702 -0.06683979 -0.035244945 -0.01511125 0.044952147 0.037868917 0.06365381
-0.024685845 0.030746093 0.07634559 0.055345263 -0.0039943084 -0.029746793 -0.051962666 -0.019996436
0.020338735 -0.017261622 -0.02464702 -0.070884556 -0.015137642 -0.022214832 -0.040860176 0.007523838
-0.05912135 -0.025576346 0.00026347055 -0.08745062 -0.04090509 -0.032560166 0.040019233 -0.008804069
-0.065246366 -0.053852256 -0.021726422 0.01760692 0.0650835 0.024784446 -0.0015748114 -0.00038314
0.009978124 0.06488957 -0.033073954 -0.023606107 -0.07711056 -0.07573305 0.009752074 0.061344672
-0.05141086 0.042988762 -0.018472759 -0.016587673 -0.0254784 0.062083382 0.039588913 0.00073003274
-0.012146377 -0.0058876956 0.035215244 -0.028464578 -0.00520459 0.031723116 0.0633395 0.09811532
-0.011599124 0.026925359 0.052920837 -0.047397297 -0.033904854 -0.0008101238 -0.056649532 0.017216116
-0.01684565 0.03796844 0.02394697 -0.020233333 0.06494986 -0.01998776 -0.017682282 -0.05202575
-0.026876317 -0.009004717 -0.03407657 -0.0056455093 -0.060678635 0.055116978 -0.046350237 0.042164814
-0.022431618 -0.02097184 0.024783084 -0.0026870489 -0.010154501 0.032361563 0.02289016 -0.08633449
0.004159833 -0.047457613 -0.017827759 0.038708176 0.0484667 0.0068922825 -0.0018812584 0.026271146
0.06425814 -0.04876162 0.05353398 0.030917225 -0.08482756 0.04822077 0.048474133 0.004068304
0.035151895 0.051548284 -0.04715587 -0.010888107 0.034121104 0.037475202 0.07967546 0.02390895
0.048128903 -0.017552964 0.007623803 0.022197228 -0.077307604 -0.034950458 -0.0134988045 0.026049966
-0.02183336 0.056378014 0.018883124 0.04118242 0.003202394 0.034615956 0.05583121 0.06927296
-0.037434764 -0.0348203 0.037117943 0.037199285 -0.067410365 -0.037168417 0.04048489 0.018221477
-0.058326982 0.024821684 0.028406113 -0.03673683 0.0027560312 0.017746096 -0.07530417 -0.051275596
0.02795616 0.0071851346 0.026569813 -0.046106488 0.0681758 -0.025287967 -0.01554758 -0.037090346
-0.006766573 -0.005893272 -0.025686026 0.0008892599 0.05322287 -0.069207676 0.020504938 -0.0026208223
0.013138303 -0.045440063 0.06802941 0.039242327 0.020111486 -0.022672048 -0.0052602 0.051419012
-0.016440816 -0.014107921 -0.060251974 -0.079800114 -0.05684793 -0.029424412 -0.04953274 0.03427801
-0.082388595 0.07421255 0.009080495 -0.0027443913 0.013455871 -0.027368294 0.07574109 0.028808033
0.028001461 0.010224387 -0.016446846 -0.033573367 0.012882683 0.00986191 -0.06348275 0.018467896
0.055745475 0.018192157 0.042795543 0.05341753 0.024813209 -0.010352069 -0.0027379578 0.03352496
00000000: a930 16bd 7333 34bb 1770 583d 5419 333d
00000010: ba68 b43c 2c9f 913c ff45 893d 8761 b9bc
00000020: a27b a5bd 9d33 e8bc 640a 10bd 1cfa a5bc
00000030: 8c1b d53c 4f36 f63b 831e 5d3d c2b4 3dbc
00000040: f1ed ab3d abc7 533d ee5b 88bd 6bb3 66bd
00000050: e449 74bd 32d6 cebc ae82 38bd 49dd 643d
00000060: cc69 83bd 01e2 723d 77e4 643d c212 9cbd
00000070: 65b4 d0bc bc2a 84bc 85f8 09bc c289 893c
00000080: a298 203d 10f0 80ba 7972 9abd 6a5f 4c3d
00000090: 23ef 88bc 66df 0bbd 320c 13bc 7f41 8abc
000000a0: e4d7 4ebb b14d dc3c af19 9a3c 6791 7fbd
000000b0: b5f6 3d3d bfd0 113a 3516 00bd f653 623b
000000c0: 8e48 f8bc a5a0 dfbb 4de3 88bd 015d 10bd
000000d0: 2d95 77bc be1f 383d 701c 1b3d ee5c 823d
000000e0: f839 cabc 3bdf fb3c 145b 9c3d b7b1 623d
000000f0: b0e2 82bb 8caf f3bc ced6 54bd 91cf a3bc
00000100: 6b9d a63c 3f68 8dbc 8ce8 c9bc ec2b 91bd
00000110: df03 78bc e1fb b5bc 005d 27bd 878a f63b
00000120: 3b29 72bd 7c85 d1bc 6b22 8a39 5019 b3bd
00000130: 188c 27bd cf5d 05bd 35eb 233d f13e 10bc
00000140: e39f 85bd 2f94 5cbd 9cfb b1bc 633c 903c
00000150: 804a 853d c008 cb3c e769 ceba 2ee0 c8b9
00000160: 497b 233c d3e4 843d 8e78 07bd 9861 c1bc
00000170: 24ec 9dbd ee19 9bbd 2ac7 1f3c 8d44 7b3d
00000180: 3294 52bd fc14 303d 2f54 97bc dfe2 87bc
00000190: 14b8 d0bc 254b 7e3d fc27 223d ab5f 3f3a
000001a0: 9901 47bc 92ed c0bb dc3d 103d 8c2e e9bc
000001b0: 448b aabb 19f0 013d 24b8 813d aff0 c83d
000001c0: 410a 3ebc 9292 dc3c 85c3 583d ab23 42bd
000001d0: d1df 0abd 7d5e 54ba 5709 68bd d008 8d3c
000001e0: e3ff 89bc cc84 1b3d 702c c43c 60c0 a5bc
000001f0: 6f04 853d 5fbd a3bc 6fda 90bc f418 55bd
00000200: b92b dcbc 8588 13bc e093 0bbd f7fd b8bb
00000210: 298a 78bd 57c2 613d bfd9 3dbd 03b5 2c3d
00000220: 83c2 b7bc 23cd abbc e505 cb3c 3319 30bb
00000230: 105f 26bc 8f8d 043d 2584 bb3c 23d0 b0bd
00000240: 354f 883b ea62 42bd 850b 92bc 778c 1e3d
00000250: 0585 463d a8d8 e13b 8f94 f6ba 9636 d73c
00000260: c699 833d 44ba 47bd 7246 5b3d 1f46 fd3c
00000270: 12ba adbd 2483 453d d08c 463d 684f 853b
00000280: 6ffb 0f3d 4b24 533d 8326 41bd 0864 32bc
00000290: 92c2 0b3d 997f 193d e32c a33d b4dc c33c
000002a0: d022 453d 3ccb 8fbc 18d1 f93b f6d6 b53c
000002b0: 7353 9ebd 3628 0fbd 172a 5dbc bd66 d53c
000002c0: e0db b2bc a2ec 663d c8b0 9a3c e6ae 283d
000002d0: 41df 513b 76c9 0d3d 44af 643d fbde 8d3d
000002e0: 3255 19bd bb9f 0ebd fc08 183d 475e 183d
000002f0: 720e 8abd e93d 18bd 7cd3 253d 3545 953c
00000300: 46e8 6ebd d856 cb3c f0b3 e83c 5c79 16bd
00000310: 889e 343b 4360 913c 1339 9abd 5c06 52bd
00000320: 5104 e53c 4771 eb3b f0a8 d93c 28da 3cbd
00000330: c19f 8b3d b628 cfbc 47bb 7ebc 0cec 17bd
00000340: 21ba ddbb 591c c1bb 806b d2bc 391d 693a
00000350: 3900 5a3d c1bc 8dbd f9f9 a73c 1ac2 2bbb
00000360: 0942 573c 5c1f 3abd 0153 8b3d 90bc 203d
00000370: d8c0 a43c bbba b9bc c15d acbb be9c 523d
00000380: e4ae 86bc e924 67bc c6ca 76bd 3e6e a3bd
00000390: 60d9 68bd 770b f1bc d8e2 4abd 1967 0c3d
000003a0: 5abb a8bd c0fc 973d 5bc6 143c 3fdb 33bb
000003b0: 0376 5c3c 7933 e0bc 251e 9b3d d3fe eb3c
000003c0: 5263 e53c 3084 273c 89bb 86bc 3a84 09bd
000003d0: e411 533c d993 213c 3e03 82bd fc49 973c
000003e0: 5e55 643d b807 953c 614a 2f3d 57cc 5a3d
000003f0: 1245 cb3c b99b 29bc 4f6f 33bb 7851 093d

layer.6.bias f4 [23]
0.023738734 -0.042241227 0.037112255 -0.013076824 0.032841668 0.028089749 -0.000240857 0.042281836
-0.032788873 0.03296849 -0.0121182045 0.009784336 0.020961007 -0.046501797 0.015906466 -0.047047094
0.02944076 0.051627204 0.028458448 0.029141707 0.008264247 -0.021721344 0.00886011
00000000: bc77 c23c 2305 2dbd 0503 183d 2d40 56bc
00000010: fc84 063d 791c e63c 8f8e 7cb9 b82f 2d3d
00000020: a04d 06bd f809 073d 6f8b 46bc 7b4e 203c
00000030: 6bb6 ab3c ab78 3ebd 474e 823c 74b4 40bd
00000040: c02d f13c 0c77 533d b121 e93c 97ba ee3c
00000050: c466 073c f6f0 b1bc ff29 113c
