weight/save_6_38.40755032057562.pth (torch_old, 87748 bytes, 8 tensors)

layer.0.weight f4 [64, 54]
00000000: 8cee f03d 22b8 913d a12d 753b 983d 97bd
00000010: 7c93 a0bc 75d4 a03d 3161 a93c 3680 18bd
00000020: e582 013e 2241 f5bd a84b 563d 87cc b53d
00000030: 5399 a9bd 7f24 ac3d 5a41 03bd 6043 4bbd
00000040: ecd0 c23d 2036 20bc 22d3 7cbd 898f 703d
00000050: b38f de3d fe23 913d 7ea0 c8bd 0506 213c
00000060: b9f1 d6bd 1e82 6ebc c046 853d c819 213d
00000070: 7652 0bbd 1e47 c33d 4614 ba3d ecd5 c2bd
00000080: 3265 00bd 8876 f53c 5c7f 933d 0834 803c
00000090: 70cd fe3d 38ba 62bc 603c 9fbb 6172 dabd
000000a0: 9e13 d1bd 00be 043e 6078 de3b c7b7 d6bd
000000b0: 57a6 b8bd 3600 f7bd 54a9 093d 263c 013e
000000c0: 94ec 84bd 3c6b 1ebd ec2d 1abd 405e fcbb
000000d0: d8bd aa3d 9844 d6bd a04a 57bc 0731 fcbc
000000e0: e4c5 33bd b0dc 2f3d 077d 86bc ed86 05bd
000000f0: f4f8 7fbd 368d ddbd 19b1 92bd a192 d0bd
00000100: 72a0 febd ba79 f03d ad18 33bd 76b4 ef3c
00000110: fa41 063e 9395 b9bd 36f9 f9bd 982b ff3d
00000120: fef5 2abd af61 93bd 2383 54bc 1e89 07be
00000130: b6b8 543d 5e5e 5c3d c397 c23d cb9c 00be
00000140: c40d 9cbd 4164 89bd ca08 d5bd 58ad b03c
00000150: 629b 8f3d 096f 373b 0def 2f3d a237 82bd
00000160: ebe4 25bc 70fd 16bd a272 20bc 51fe 87bd
00000170: fcf4 91bd 72cf 6dbd ea20 cb3d 3cfd c13d
00000180: fb29 eabd 9bdd fe3d d310 07be 684b a83c
00000190: ee73 033e 0e88 97bd 6895 29bd 9293 a03d
000001a0: 0f87 0e3d ffdb a3bd fbce c0bc b9c0 9abd
000001b0: 9133 ccbd fe46 3abd fc10 d8bc 468b fcbd
000001c0: 521c dd3d 547a ffbc ba00 a6bd 58c3 dc3d
000001d0: 869b 23bd 6015 e23c 4073 1c3d d476 6e3d
000001e0: 2641 993d 00ff 27ba 005f 553a c443 d0bd
000001f0: 5823 89bc 3cc9 eb3d dc77 133d 9522 c9bd
00000200: b028 e13d d958 f8bd b4da 65bd 4c15 5a3d
00000210: a0c8 db3b 7c65 b23d c020 efbd e881 04be
00000220: cc95 e3bc 1866 fa3c 1cc2 b53d 541a 8c3d
00000230: 8a50 db3d c2f6 823d a2c8 8e3d c470 81bd
00000240: 40ff 88bb 5ccb afbc 926f a7bd 8921 fdbd
00000250: 3679 3ebd 2c47 4f3d 8a3c 883d a065 f0bc
00000260: 10dc 48bd 7e86 f6bd d8e9 6b3d 6e26 63bd
00000270: 6a2b 9abd a021 063d b6bc 41bd 4cb2 0abe
00000280: a679 043e d043 103d ea24 8b3d 0757 153c
00000290: 2ff9 553d 4052 b23d 81c7 35bd 6af3 c7bc
000002a0: 2023 62bd fc99 a53c 1a27 a9bd 10af 0f3e
000002b0: ad66 fe3d 3fd4 f53d 3424 f53d ccda 403d
000002c0: 5efb cd3d 2ded d3bd 4e6f 7bbd 00c2 f53c
000002d0: 9c9c eb3d b25b cabd d310 1e3e f8a7 5dbd
000002e0: 88ba b53c f1da 09be e924 113c 1e76 f9bd
000002f0: 2c6d 66bd bb65 6a3d a1bf 1cbd 707c 71bc
00000300: ce1a efbd f01c f73d 8220 483d d689 b9bd
00000310: 1f9f 08be 96cd 7a3d d00e a63d 5cb3 9d3d
00000320: 305b 05bd ce6b d43d 6bfc 0abe 30ff 843d
00000330: d0ab 4d3c 364e 863d 159d d1bd ea08 09be
00000340: 248d 49bd 27b8 a93d 9abf 753d 983e 4fbc
00000350: f692 8f3d a5bc a23d 73bb 3c3d d04a 1b3c
00000360: 5ad0 fabd e3e9 983d 35f9 08be 784a 983d
00000370: a095 dfbd cf66 6d3c 8bf8 03bd b8e3 84bd
00000380: 15c9 30bd 83bf d43d 6e55 053e 484b d83d
00000390: 01cf fabd c457 e0bc 608a a53b b66f 913d
000003a0: 2b2f fdbd 38a1 d03d 6681 4abd 1c33 c4bd
000003b0: 9ced bdbd da6f 4dbc f4f6 d13c db9c 3abc
000003c0: 4206 05be c019 2fbc f897 ce3c f6cc a1bd
000003d0: cb9f f9bd 664a e73d 46f5 f3bd da85 883d
000003e0: a753 2d3d dbb3 02be 9850 7ebc 069d 06bd
000003f0: b562 a93d 405e 3d3c 3008 e8bd 7c89 cbbc
0.11764249 0.07115199 0.003741123 -0.07384795 -0.019601576 0.07853023 0.020676227 -0.037231646
0.12647589 -0.11975314 0.052318245 0.08876901 -0.082811974 0.084053986 -0.032044746 -0.0496248
0.09512505 -0.009778529 -0.06172479 0.058730636 0.10867252 0.07086943 -0.097962365 0.009828095
-0.10495324 -0.01455739 0.06507635 0.039331228 -0.034014188 0.09535049 0.09085898 -0.095134586
-0.031346507 0.029963747 0.07202026 0.01564981 0.12441528 -0.013838343 -0.004859492 -0.10666347
-0.1020882 0.12963104 0.006789252 -0.104842715 -0.09016102 -0.12060587 0.03360875 0.12620601
-0.06490436 -0.038676485 -0.03764145 -0.007701665 0.08336991 -0.10462302 -0.013140351 -0.030785097
-0.043889895 0.042935073 -0.01641704 -0.03259938 -0.06249328 -0.108179495 -0.07162685 -0.10184217
-0.12432946 0.117419675 -0.043724705 0.029260855 0.13111106 -0.09061732 -0.12205736 0.12459487
-0.041738503 -0.07196366 -0.012970719 -0.132359 0.051933967 0.053800933 0.095016025 -0.12559812
-0.07619813 -0.06708575 -0.10402067 0.021567032 0.07012059 0.0027989766 0.042952586 -0.06358267
-0.010125379 -0.03686279 -0.009792956 -0.06640304 -0.07126805 -0.058059163 0.09918387 0.09472129
-0.114337884 0.12444612 -0.13190012 0.020543769 0.12837192 -0.07398997 -0.04140225 0.07840647
0.03479677 -0.08000945 -0.023536196 -0.0755629 -0.09970773 -0.04547786 -0.026375286 -0.12331252
0.10796417 -0.03118626 -0.08105607 0.10779446 -0.03994324 0.027598083 0.03819585 0.058218792
0.07483129 -0.00064085424 0.0008139461 -0.10169175 -0.016740486 0.11512992 0.03600298 -0.09821049
0.10994089 -0.12126321 -0.056116775 0.053242967 0.006707266 0.08710763 -0.116761684 -0.1294018
-0.02778139 0.03056626 0.08874914 0.06840959 0.10708721 0.063947216 0.069718614 -0.063203365
-0.004180819 -0.021459274 -0.08175577 -0.12359912 -0.046502315 0.050604984 0.06652172 -0.029345334
-0.049037993 -0.12037371 0.057596058 -0.05545657 -0.07527812 0.03274691 -0.04729911 -0.13544577
0.1293703 0.03522092 0.0679415 0.009114987 0.052239593 0.08707094 -0.044379715 -0.024408061
-0.05520928 0.020215027 -0.08259411 0.14031625 0.124219276 0.12003373 0.11969796 0.04708366
0.1005771 -0.10347972 -0.061385445 0.029999733 0.1150448 -0.09880771 0.15436105 -0.054115266
0.022183672 -0.13462426 0.008858898 -0.12180732 -0.05625646 0.057225924 -0.03826869 -0.014739141
-0.116750345 0.12066066 0.048859127 -0.09059493 -0.1334195 0.06123122 0.08108294 0.07700226
-0.032557666 0.103721246 -0.13572852 0.06493986 0.01255317 0.06557886 -0.10235039 -0.13382307
-0.049206868 0.082870774 0.05999718 -0.012649201 0.070104524 0.07946137 0.046077203 0.009478286
-0.12246771 0.07466485 -0.13376315 0.07436079 -0.109172106 0.0144898435 -0.03221945 -0.064887464
-0.043160517 0.103880905 0.1302087 0.10561234 -0.12246514 -0.0273856 0.005051896 0.07101385
-0.12362512 0.10187 -0.04943981 -0.09580061 -0.09273836 -0.0125388745 0.025630452 -0.011389936
-0.12990668 -0.010687292 0.025218949 -0.07900421 -0.12188681 0.11293487 -0.119120166 0.06666155
0.042316105 -0.12763922 -0.015522145 -0.032864593 0.0827078 0.0115581155 -0.11329687 -0.024845831

layer.0.bias f4 [64]
00000000: 2197 b43d 603a c13d 74e5 80bd b389 a03c
00000010: 6955 843d 826f e6bd 2505 023e 83b5 053e
00000020: 4f76 043e f548 373d 5ac6 0d3e adfd 013e
00000030: eec8 eabd cee5 d93d 8f88 bcbd d4bd 013d
00000040: ad0d 903c 536c c43d cbd4 32bd 6346 033c
00000050: 8324 95bd 0d91 ef3c 1e2f 0abe 50e7 093e
00000060: 30cc dbbd 0979 36bd 701b 3cbd d70d 983c
00000070: eaa9 2dbd 4784 0dbe 98c2 f43c cf4f e83c
00000080: 1d5e 163b ea41 ed3d 8bdb 00be bcde c9bd
00000090: fcd5 28bd 8639 a83d 92d4 07be b1e5 873d
000000a0: cc4f 9d3d 0acd cbbd 244e 20bd 96b0 66bc
000000b0: 5237 823d 429c 82bd 8105 85bd 67d4 b83c
000000c0: d655 04bd 874b 9a3d f342 e23b be58 833d
000000d0: ff2d 1abe e888 8cbd ac26 54bc 148d 663d
000000e0: b064 efbd 570b bdbd e5fd 94bd 66e8 d93d
000000f0: a1da 2b3d d51d 4c3d 82d8 193d 17f7 9cbc
0.08817888 0.09434962 -0.06293765 0.01959691 0.06461603 -0.11251737 0.12697275 0.13057522
0.12935756 0.04474731 0.13845196 0.12694426 -0.114641055 0.10639535 -0.09205734 0.031675175
0.017584646 0.09590974 -0.043659966 0.008012387 -0.07282355 0.02924397 -0.13494536 0.13467145
-0.10732305 -0.044549022 -0.045924604 0.018561287 -0.04239837 -0.13819991 0.029877946 0.028358368
0.002294428 0.11584838 -0.12583749 -0.09856936 -0.041219696 0.08214097 -0.13264683 0.06635607
0.07681236 -0.099512175 -0.03913702 -0.014080187 0.06358208 -0.0637746 -0.064951904 0.022562219
-0.032308422 0.07533937 0.0069049536 0.064134106 -0.15056609 -0.0686205 -0.012948673 0.056286886
-0.116891265 -0.092306785 -0.07274989 0.106400296 0.041956548 0.049833138 0.037559994 -0.01916079

layer.2.weight f4 [128, 64]
00000000: dbed ae3c 066a a3bd 341f 29bd 4024 09bd
00000010: 22cb febd 50b3 1a3d d075 d03d 3439 ef3b
00000020: 05dd e93d e011 37bc 1f45 b73c 4ef5 813d
00000030: 3ec4 6f3d c99d 35bd 001a 833a e81b 363d
00000040: 56fc 81bd a8bf 74bd e4c9 be3d d28f 82bd
00000050: 0929 413c 9777 993c a4e2 47bd a17e bebc
00000060: 03fd 80bd 845f e93d 3c8b 953a 7000 70bc
00000070: 0001 f5ba f6e3 a0bd faa3 953d 404b a53c
00000080: 3de0 e5bd 1852 34bd 0384 38bd ea4b 313d
00000090: f578 863d b6ee 883c e8a3 89bc 6383 d9bc
000000a0: de02 d63d 2a67 9dbd 685d bf3d dae2 b73d
000000b0: 203f 83bd 1088 1e3d 4223 47bd 4872 223d
000000c0: c23f febd 3724 103c 1446 f7bd 1182 eb3d
000000d0: e41e 8e3d 0052 bfb9 d5c0 bf3d 04d7 49bd
000000e0: f02c 0b3c 3278 8fbd 90d0 183c 894a 61bd
000000f0: 7286 3cbd 7842 f3bd c28c f2bd 7063 67bd
00000100: 51aa a73d 39ee 56bc b01a 98bd b120 95bd
00000110: 3585 0c3d 4c25 87bd f4f4 4f3d 8600 803d
00000120: c877 f8bd c527 e23d 6eeb 95bd d703 cfbd
00000130: e5ca c3bc 31a0 83bc 55b9 93bd 2f2b 53bd
00000140: ee1a f53d a1c7 a53d 77fc 7a3d d4e8 bcbd
00000150: 1a1d 023d b2c4 cf3d be0a cbbd fe1d 9f3c
00000160: a0a5 0d3d af94 003d 0f9a ad3c 2ae3 65bd
00000170: 10f7 00bd 891a 71bd d049 c03d cbe0 01bd
00000180: 2b7e ba3d 82f6 4ebd 8644 0e3c eb9d 79bb
00000190: 5447 d3bd c67f e7bd 851a 11bd 13fb d73b
000001a0: fd42 85bc fe15 973d e755 cf3d 0e27 94bd
000001b0: c15c dabd fff5 61bd b729 72bc f22a 9b3d
000001c0: cef6 633d 212f 34bd a890 9cbc 8831 023e
000001d0: 16ec 03be e255 b9bd eeb4 d4bd 5d90 0cbe
000001e0: f7c8 7fbd 9301 5d3d 124e 063d 5694 edbd
000001f0: 49e1 dbbd f096 6dbc 3c26 b73d 457b 933d
00000200: fa6f cbbd e018 e83b 1cf9 22bd 6475 adbc
00000210: eb54 d3bd 5419 693d 4c6a 263d e3a6 c03c
00000220: 9cf2 b73d 77bb 9abb 780b a53d 9f76 943b
00000230: 7d2e f13c 2f78 74bb cd73 683d 3eca e0bc
00000240: 8e6c 233d e2ee 983d 3c8f 33bd c61a 35bd
00000250: d13e 84bd 9001 24bc e3c8 dd3d 1b98 8b3c
00000260: 4e5a 86bd 85e3 c8bd 1de1 08bc 8ec4 f0bc
00000270: 229f cd3d 7248 d0bd 3d36 28bd 82a0 cfbd
00000280: 65ba cb3d 2bfd 85bd caac 0ebd 35f2 aa3d
00000290: bebe 3cbd e032 b1bc 4b1c d1bb 031a 89bd
000002a0: e09c 043e af0b 0fbd 7372 19bd 0e0f 08be
000002b0: 9b4e 823c eb56 94bd 0396 bebd 9df5 d23d
000002c0: c8d8 d2bd cdca 813d c211 0c3e 414d 1a3d
000002d0: 89be 303d 9ab0 a93d c646 d33d 7402 e93d
000002e0: 27c2 f53d d5ea 3b3d 7ddc 543d 3c8c 4fbd
000002f0: 83f5 c7bd 5b9d f3bd 0b0e d2bd 28f3 99bd
00000300: c629 863d 7ebf b43d 62e1 f6bd 57c4 82bd
00000310: 1eb5 1abc 2083 8bbd 1807 113d 4c9f 71bd
00000320: 6346 a73a 37f7 fcbd 9dd8 0fbb 80b8 12bb
00000330: 4f3e d7bd 740d 16bb 0247 913d 5316 dbbd
00000340: c69f 71ba fc97 8cbd 22a0 bf3d 7194 1ebe
00000350: 84b8 25be 446a 5cbc 63e3 ce3d 5060 cf3c
00000360: 9c24 f8bd e389 e13d 92ab f5bd d859 ae3d
00000370: 123d 99bd c047 3cbd 6b69 77bd f97c 203d
00000380: 9bb8 293d 3f1b 423d 7e15 e43d e81d 5c3c
00000390: 8179 be3d e400 5b3d bd56 fb39 7514 fc3b
000003a0: 8168 d4bd c669 c0bd e3eb b7bd 3d0f 803d
000003b0: 6a45 7c3d 140b 393d f8b2 f1bd 74c2 b7bd
000003c0: fb33 c13d d167 d43d 59f1 b7bc 6a3c 8a3d
000003d0: d0a0 7dbc 9152 983d 16a5 193c 61f1 dabc
000003e0: 52e9 bcbd e218 a4bc 68db c3bd e110 68bd
000003f0: 0d4e 05be 5a92 fd3c 4b72 4a3d f533 db3d
0.021353653 -0.07979207 -0.041289523 -0.033481836 -0.12441088 0.037768662 0.10178721 0.0073005203
0.11419109 -0.011173695 0.022371827 0.06345616 0.05853676 -0.04433993 0.0010002255 0.044460207
-0.063469574 -0.05975309 0.09315851 -0.06375088 0.011789569 0.018733783 -0.048800126 -0.02325374
-0.06298258 0.11395171 0.0011409293 -0.014648542 -0.0018692315 -0.0785598 0.07306667 0.020177484
-0.11224411 -0.044023603 -0.04504777 0.043285288 0.065660395 0.016715389 -0.01680179 -0.026551908
0.104497656 -0.076856926 0.09343988 0.089788154 -0.064085245 0.038703978 -0.04861761 0.03965977
-0.124145046 0.008797697 -0.12073913 0.114994176 0.06939486 -0.00036491454 0.09362952 -0.04927732
0.008494601 -0.07005347 0.009327069 -0.055002723 -0.046026655 -0.11877912 -0.11843254 -0.056491315
0.08186782 -0.01311832 -0.07426965 -0.07281626 0.034306724 -0.06598911 0.050770715 0.062501
-0.121322215 0.11042742 -0.07320295 -0.10108154 -0.023900459 -0.016067596 -0.07213084 -0.051554855
0.11968027 0.08094717 0.061275925 -0.09224096 0.031766035 0.101449385 -0.09914158 0.019423481
0.03458178 0.031391796 0.021191625 -0.056124844 -0.031485617 -0.058863197 0.093890786 -0.03170852
0.09106096 -0.050528057 0.008683329 -0.0038088511 -0.10316339 -0.11303668 -0.03542568 0.0065912097
-0.016267294 0.073772416 0.101238064 -0.072340116 -0.10662223 -0.05516624 -0.014780453 0.075765505
0.055655293 -0.043990258 -0.019111946 0.12714207 -0.12883028 -0.09049584 -0.10386072 -0.13726945
-0.062447514 0.05395658 0.032789297 -0.116005585 -0.10736329 -0.014501318 0.089428395 0.07201246
-0.09933467 0.0070830435 -0.03978835 -0.02117414 -0.10318931 0.05690892 0.040628716 0.023517078
0.08981821 -0.0047220546 0.08058828 0.0045307423 0.029441113 -0.003730308 0.05675106 -0.027440187
0.039898448 0.07467438 -0.04383777 -0.044214986 -0.06457294 -0.010010138 0.10829332 0.017040303
-0.06560193 -0.09809021 -0.008354452 -0.0293906 0.10040118 -0.10170068 -0.04106735 -0.10138036
0.09947661 -0.065424286 -0.034832753 0.083469786 -0.046080343 -0.021630704 -0.0063815466 -0.066944145
0.12950468 -0.03492325 -0.037462663 -0.13286993 0.015906623 -0.07243141 -0.09305956 0.10300753
-0.10295254 0.06337509 0.13678649 0.03767133 0.04315046 0.08285637 0.10316233 0.11377421
0.11999922 0.04587825 0.051968087 -0.050670847 -0.097636245 -0.118952475 -0.10256585 -0.075170815
0.065509364 0.08825587 -0.12054707 -0.06385105 -0.009442596 -0.068121195 0.035407156 -0.058989808
0.0012762066 -0.1235184 -0.002194918 -0.0022387803 -0.10509931 -0.0022896202 0.07093622 -0.106976174
-0.00092172285 -0.06864926 0.09356715 -0.15486313 -0.16183668 -0.01345307 0.10101964 0.02531448
-0.12116358 0.11012628 -0.11995615 0.0851323 -0.07482351 -0.045966864 -0.06040327 0.039181683
0.04143582 0.047389265 0.11136912 0.013434865 0.09300519 0.053467646 0.00047939076 0.0076928684
-0.10371495 -0.09395175 -0.08980539 0.062529065 0.061589636 0.04517658 -0.11801714 -0.08972636
0.094337426 0.10371364 -0.02245395 0.06749804 -0.015480235 0.07437623 0.009377738 -0.026726427
-0.0922419 -0.020031396 -0.09563333 -0.056656722 -0.13018055 0.030953575 0.049425405 0.107032694

layer.2.bias f4 [128]
00000000: 0e68 be3d 5cbf b6bd bcfd f83a 7b35 70bd
00000010: a307 883d 2810 a53d 704e dd3c 0d32 b33d
00000020: 875a 3c3d b765 40bd c827 30bd 6373 82bd
00000030: dd34 6ebd 74a0 fc3d e404 89bd f1f5 ce3d
00000040: e802 aa3d a6e8 2fbd bbd8 06bd 4485 55bb
00000050: eed9 8abc 6bb2 213c e44e 833d beb4 80bd
00000060: 09e1 fa3d 9d07 b23d 12df d6bd 5cec 853c
00000070: 183f 183d 89e2 e2bc a0a7 34bd 7c7e d7bd
00000080: c9d4 e4bc b5a6 f1bb 39fd 04be d0a3 cbbd
00000090: 54b0 25bd a474 e0bc 29e5 a2bd f87c 993d
000000a0: 7bc4 60bc 5980 31bd 4eb1 6c3d bc70 6e3d
000000b0: 80b1 a43c f0fb 3cbd 7750 bc3d 198c a8bd
000000c0: f5a0 40bd 1568 d3bc 40ab d2bd 4154 85bd
000000d0: dfe2 a5bd d931 e83c 9208 61bd 5f33 a53d
000000e0: ce10 cbbd eced 283d a63c 82bd 460b f9bc
000000f0: a44f a5bd 12e8 b83d ac4a efbd 622d 56bd
00000100: 6187 3b3d c47d f3bd f5a1 cf3d 501a 5d3d
00000110: 7342 89bd b670 9fbd af5f dbbd 4ad1 8a3d
00000120: 13aa ea3c 5846 82bd a640 fd3c a85a 82bd
00000130: b0ab 9ebd bb47 913d 577c da3d 7444 7a3d
00000140: 65c4 ed3d 767c 12bb 12e0 1cbd 35ca 83bd
00000150: 9013 05bd 8c41 013d 9002 f9bd 8067 5ebd
00000160: 11fc e53d 2664 3c3d ed7c 4e3d ea4d debd
00000170: ea20 56bd 5381 fbbd 047c 33bd ebb2 6fbd
00000180: b1b6 be3d 3a5c bf3b 4a4c cebd 7f98 073d
00000190: ea2e 2b3d ddd4 343d b364 b33c ab9e f2bc
000001a0: fd2c c6bd da56 d1bd 8c1f b43d f6d6 e7bd
000001b0: fb59 3ebd f832 18bd bead 94bd fe09 9eb9
000001c0: d8f9 c0bd 7c7b ce3d f65c 203d 71f4 b53c
000001d0: ed7f bcbd 0767 d43d b9be 6b3d 2f0e 9ebd
000001e0: 6751 da3d b694 c23d 06c2 cabc 314f 483d
000001f0: fc13 d0bd cd98 ea3d 9f46 163d 0e82 a4bd
0.092971906 -0.08923218 0.0018996517 -0.058644753 0.066420816 0.08059722 0.027014941 0.08749781
0.04598477 -0.046972003 -0.04300669 -0.063696645 -0.058155883 0.123352915 -0.06690386 0.10105503
0.083013356 -0.04294648 -0.032921534 -0.0032580653 -0.01694962 0.009869198 0.064115316 -0.06284474
0.12249953 0.08692858 -0.10491766 0.016348056 0.037169546 -0.027695911 -0.044105172 -0.10522172
-0.027933495 -0.0073746094 -0.12987222 -0.09943354 -0.040451363 -0.027399369 -0.07953865 0.07494539
-0.01371872 -0.043335292 0.05778628 0.05821298 0.02010417 -0.046138704 0.09195035 -0.082298465
-0.0470285 -0.025806466 -0.102865696 -0.06510211 -0.08099913 0.028344082 -0.054939814 0.08066439
-0.099153146 0.041242525 -0.06359224 -0.030400883 -0.08071831 0.09028639 -0.116841644 -0.052289374
0.045783404 -0.11889222 0.10138313 0.05398017 -0.06702127 -0.0778517 -0.107116096 0.067782
0.02864555 -0.06361073 0.030914616 -0.063649476 -0.077475905 0.070937596 0.10668247 0.06110044
0.11609725 -0.0022352017 -0.038299628 -0.06435052 -0.03248936 0.03155665 -0.12158692 -0.054297924
0.112297185 0.045993946 0.050412107 -0.10854705 -0.052277483 -0.12280526 -0.043819442 -0.05852024
0.09312189 0.0058398517 -0.10073145 0.033104416 0.041792788 0.044148315 0.021898603 -0.029616674
-0.096765496 -0.10221644 0.087950796 -0.113202974 -0.04647253 -0.037157983 -0.07259701 -0.00030143553
-0.09422654 0.100821465 0.039151154 0.022211285 -0.092040874 0.103712134 0.057554934 -0.07717549
0.106600575 0.095010206 -0.02475072 0.048903648 -0.10160062 0.11454926 0.036688443 -0.080326185

layer.4.weight f4 [64, 128]
00000000: b5d4 99bc 8f99 223b 984a 2039 4595 37bd
00000010: a199 75bd 277a 073d 7c0f c6bc f5f7 f23c
00000020: 63e9 79bd bcdd 23bd eed3 7e3d c65e 9b3d
00000030: 0816 44bc 69cc 74bd cc56 84bd e82d 0a3d
00000040: 2545 77bd 5b4c a53c 19af 82bc bb09 4f3d
00000050: 701a 8c3d 2517 81bd 056e 62bd 53ac 423d
00000060: dd9d 973d 9c5a 5cbd 1c0e 683d db11 8f3d
00000070: b391 d7bd 43be 5a3d eb9d 9abc f3ff b43d
00000080: 1bd4 683d 1503 c43c 9530 8fbd 179b 823d
00000090: 0916 e93c cc3e 9ebd 0dd8 82bd 9672 403c
000000a0: bc9f 8fba cc19 8fbc e59e 8c3d 002d 8f3d
000000b0: 2bac e43a bce1 39bc fef4 c7bb bca7 343d
000000c0: 177b 4e3d db75 66bd 4933 3fbd 0ef3 76bd
000000d0: d39d 6f3d 0dfe 173d 3c49 853d 7b9f 5e3d
000000e0: 44ac 41bd 7994 04bd aa10 a7bd 5fa7 1f3d
000000f0: 540d 34bc 0cbe 043c 430e 65bd d2cb 833d
00000100: b2dd 13bc c1dc 5cbd 4d18 a03d 87ac 57bd
00000110: 539a 3e3d 32d5 8f3d 918e 27bc b63b 173c
00000120: 3b4e 73bc 063e a6bd 77e7 42bd 9ffa 26bc
00000130: b27a 67bd 5de2 9e3c f5f3 dfbc d3e6 a3bd
00000140: 878a 623c 5eb1 5c3d 40d5 d5bc bd10 02bd
00000150: 1b9b a1bd f7e0 843d bca8 81bd 3739 013c
00000160: 5a04 973d beef 81bc 5e4a 1abc 1e94 1b3d
00000170: 6a4a abbd 102d 8cbd 9b44 80bd cf08 a23d
00000180: af4b 9b3d ba9c 1ebd b3f0 52ba 93d9 85bd
00000190: c5d6 cc3c 5fd0 04bd 3c61 a0bd cfd7 3a3d
000001a0: a5fb 253d 3a70 f63b 4295 aebc ca0e 683b
000001b0: d347 6b3d 8221 1f3d 0a54 bdbd e5c3 3ebd
000001c0: eae6 c4bc 0965 90bc ec13 5dbd ab26 87bc
000001d0: ca1f 3c3d dbfe 84bd 22df 11bd 872d 93bd
000001e0: f156 04bd a461 d03c f1b5 6f3d c9c5 a0bd
000001f0: 309a fc3c a801 ad3d 270a 07bd ac27 b7bc
00000200: 44b0 3abd 278b 9dbb 2065 be3b 6275 ab3d
00000210: 4f54 a5bd d8fe c1bc 60f4 93bb 797a 8fbd
00000220: 80f9 9eba e921 37bd 704f 40bd 2d22 513d
00000230: e025 7c3b 995b aa3c b27f 873c 6d94 3abd
00000240: 62cf 093d 516f 533d c2a2 703d c4f2 23bd
00000250: b401 8d3d 1f83 a73d ead9 73bd 2401 6c3d
00000260: f76b 29bc 815e e73c a69e 5d3d fb0a f8ba
00000270: b612 25bc 28a2 b03c ca54 1a3d 8020 7d3c
00000280: 3dd4 a63d 381a 4b3c bdc5 123c 8c2e 4ebd
00000290: 9ecd 48bd 3cd6 7cbd e4d6 a9bd 847c 91bd
000002a0: a17b a5bd bfc0 6e3d a92b 1d3d 7bc4 a2bc
000002b0: 02d9 4fbd cd7d 04bd 8de1 0ebd 00db a9b9
000002c0: 92e8 113d 31b1 353c a8b3 473c 5ec9 873d
000002d0: f4ee ca3c b520 f43c 44b0 983d 2d2c 143d
000002e0: b8bc c43b 8cdc 29bd 9783 903d fc5b 35bd
000002f0: 18a7 a7bd 7411 f4bc 7a27 32bd 065a a13d
00000300: a292 aebd 3e22 71bd 4b32 88bd df5e 43bd
00000310: d894 ff3c df5d 423d 0c7f 143d 327e 063c
00000320: 3408 66bd 64dd e8bc 751e ab3d 25ba e03c
00000330: d60f d23b cd1d 853d b384 35bd 4467 60bd
00000340: 9bdc c83c 1128 963d d9de 89bd bea6 edbc
00000350: 8481 9c3c 2d48 a73d b79b 293b c4a7 c2bc
00000360: af49 dcbc a333 e13c c6d9 87bd d8fd 6f3d
00000370: ca0c 153c 9de4 8e3c acb8 a1bd 0aab a2bd
00000380: 0cf8 833c 0a0f 213d 6fe5 1d3d a2db 923c
00000390: 2ca4 93bd 9a59 88bd ab46 76bd 001b 583b
000003a0: 2a85 66bd df76 9dbd a846 77bd 4914 6dbc
000003b0: c146 0d3d 50d0 ff3b 0eec e5bc 4254 19bd
000003c0: 7faf 8fbd 912f 273d 43d3 833d 058e 443d
000003d0: 3f71 963d b75a 19bd 3b20 53bd 1a57 86bd
000003e0: 18f9 883d 4bcc a0bc 6b36 923d 28fe e43c
000003f0: 3dec 263d dd16 3fbd 80e2 703d 8781 953d
-0.018778184 0.0024810766 0.00015286577 -0.04482009 -0.059960965 0.033075478 -0.024177305 0.02965925
-0.06101359 -0.040006384 0.06221383 0.07586436 -0.011968143 -0.059765253 -0.06461868 0.033735186
-0.060368676 0.02017801 -0.015952634 0.05054639 0.0684098 -0.063032426 -0.055280704 0.047527622
0.07403157 -0.05379735 0.05665408 0.069858275 -0.10525837 0.053404104 -0.01887413 0.08837881
0.056842905 0.02392725 -0.06991688 0.06377237 0.02845289 -0.07726821 -0.06388865 0.011746069
-0.0010957639 -0.017468356 0.06866244 0.06991005 0.001744633 -0.011345323 -0.0061022034 0.044105276
0.050410356 -0.05626474 -0.04667977 -0.06029039 0.058500122 0.037107516 0.06508109 0.05435131
-0.047283426 -0.032368157 -0.08157475 0.038977977 -0.010989506 0.008101951 -0.055921804 0.0643536
-0.009025024 -0.053921465 0.07817135 -0.05265477 0.046533894 0.07023086 -0.010226862 0.009230545
-0.014850195 -0.08117299 -0.047584023 -0.010191589 -0.056513496 0.019395048 -0.027338007 -0.080030106
0.013826973 0.053880088 -0.026102662 -0.031754244 -0.07890912 0.06488221 -0.06331012 0.007887176
0.07373877 -0.015861388 -0.009417145 0.037983052 -0.08363803 -0.068445325 -0.062630855 0.07911836
0.07582795 -0.038723685 -0.0008046731 -0.065356396 0.025004754 -0.03242528 -0.07831046 0.045615967
0.04052319 0.0075207027 -0.021311406 0.0035409206 0.057441544 0.038850315 -0.09244545 -0.04657354
-0.02403589 -0.017626302 -0.053974077 -0.01649793 0.045928754 -0.06493922 -0.035613187 -0.07186418
-0.032309476 0.025437184 0.058523122 -0.078502245 0.030835241 0.084475815 -0.032968666 -0.022357784
-0.045578256 -0.004807848 0.005810395 0.08371998 -0.08072721 -0.02368109 -0.0045152158 -0.07005782
-0.00121288 -0.044710074 -0.046950758 0.051057983 0.0038474724 0.02079563 0.016540382 -0.045551706
0.03364504 0.05161983 0.058748968 -0.04002644 0.068850905 0.08179306 -0.05953399 0.057618275
-0.010340682 0.028243305 0.054106377 -0.0018924171 -0.010075262 0.021561697 0.037678517 0.015449643
0.0814595 0.012396388 0.008958277 -0.05033736 -0.049024217 -0.061727747 -0.0829294 -0.071038276
-0.08080221 0.058289286 0.038371716 -0.01986908 -0.050744064 -0.032346535 -0.03488307 -0.0003239736
0.035622187 0.011089609 0.0121888295 0.066302046 0.024772145 0.029800752 0.07455495 0.03617494
0.0060039423 -0.041470096 0.07056349 -0.044277176 -0.081861675 -0.029793479 -0.04349468 0.07878499
-0.08524062 -0.058870547 -0.066502176 -0.047697898 0.031198904 0.047452804 0.036253974 0.008208798
-0.056160167 -0.02842588 0.083554186 0.02743251 0.006410579 0.06499825 -0.044316005 -0.05478598
0.024519255 0.07331861 -0.06731958 -0.029010173 0.019104727 0.08168063 0.0025880167 -0.023761638
-0.026890604 0.027490443 -0.06633334 0.058591694 0.009097287 0.017442996 -0.078965515 -0.07942779
0.016109489 0.039320983 0.038548883 0.017926995 -0.07209048 -0.06657715 -0.060125988 0.0032975078
-0.05627934 -0.076886885 -0.060370117 -0.014470168 0.034491304 0.007806815 -0.028066661 -0.03743387
-0.07015895 0.040816847 0.06436779 0.047987003 0.07345819 -0.037440028 -0.05154441 -0.06559582
0.06688136 -0.019628664 0.07139286 0.027953222 0.040752638 -0.046652663 0.058809757 0.07300096

layer.4.bias f4 [64]
00000000: 8f17 8d3d 55dd a33d 3895 323d 7f84 56bd
00000010: 04fd 463d 4ba0 4d3d f875 94bc 7d3a 803d
00000020: 053c 593d 24bc 373d 7991 803d 736d 0f3c
00000030: 56fc a13d e80a 91bd f8b7 283d f8bf 4fbc
00000040: 996a a73d 0a20 fe3c f6fb 9bbd 7372 42bc
00000050: a947 563d a841 a2bc 275d be3c 1ad1 a8bd
00000060: d978 9f3d 7cb7 7d3d ba54 b0bd faf6 a3bd
00000070: 2a34 333d 34d1 1bbd 0ead b53c ea33 8cbd
00000080: eca3 af3c eaad b4bd ff59 973d fabc 38bd
00000090: f970 1c3d b043 2fbd 1e0b 9f3d 8aa5 ee3c
000000a0: 2c24 c1bc 783b e937 042d 84bd f366 103d
000000b0: e9a3 4bbd 8ce1 1a3d 00b5 3bbd 0232 9bbc
000000c0: b4ff 76bd d608 913d 9eab a03c 2cab e43b
000000d0: d993 b13d 5de3 583c 7c65 3dbb 583e b5bd
000000e0: 9fb0 eb3c 7136 943d ee11 3bbd e9a3 bfbd
000000f0: f78a 1e3a 17a2 0b3d df16 ac3d 83b6 43bd
0.06889259 0.080012 0.043599337 -0.052372452 0.04858114 0.050201695 -0.018122658 0.06261156
0.053035755 0.04485716 0.06277747 0.008754122 0.079094574 -0.07082158 0.04119107 -0.012680046
0.08174629 0.031021137 -0.07616417 -0.011868107 0.052314434 -0.019806698 0.023237778 -0.08243008
0.07786722 0.061942562 -0.0860991 -0.080060914 0.04375092 -0.03804131 0.022177245 -0.06845839
0.021440469 -0.08822234 0.07390212 -0.045102097 0.038193677 -0.04278916 0.07765792 0.02913167
-0.023576818 2.7803457e-05 -0.064538985 0.03525443 -0.049716864 0.037812755 -0.045826912 -0.018944744
-0.06030245 0.070817634 0.019613083 0.006978413 0.08670778 0.013237801 -0.00288996 -0.08849782
0.028770743 0.072369464 -0.045671396 -0.09357435 0.0006047929 0.034090128 0.084028 -0.04778148

layer.6.weight f4 [23, 64]
00000000: 3a5b debc e8e6 603d 2ee1 a93b 8d08 983c
00000010: 6c3d ad3d bf5a fd3c a4c1 48bd 6449 f53d
00000020: 5191 d9bc 9106 b33c 9ab4 b5bd e460 c7bd
00000030: e513 113c 5925 4f3d da20 40bd a3c3 0fbd
00000040: 9e59 e1bb 35ec da3d de2b b23d d617 fe3c
00000050: 71c9 1c3d 224f c73d 53c1 633d 6bfe b1bd
00000060: f0ce 7bbd 10b3 a5bd b047 e7bd cb55 d83d
00000070: 7eb3 903c bc51 ce3d 845d 85bd eaa6 f6bd
00000080: 1801 2ebd ddba 3abd 44aa 953d 9156 d43d
00000090: 0323 e53d a084 86bd 4fcf 6a3d 212b 04bc
000000a0: f45a 7ebd 78a4 a73c db15 ee3c 7960 d0bd
000000b0: a1fd b8bc 8646 56bd a8e8 94bd 361c fb3d
000000c0: 917a 95bd 1000 5c3d e294 87bd 2a28 12bd
000000d0: 60f1 88bb fb2c 83bd 90e2 dd3d d44c d3bc
000000e0: 05e7 82bd 8193 a1bb 53b6 cd3d 03cc 903d
000000f0: 9385 5a3d a4d6 f3bc f74e 373d 9a18 6fbd
00000100: 4f6a 343d de6c aabd 2477 473c 9309 d03c
00000110: 0b6b c53d db61 d43d b531 22bd 105b 61bc
00000120: 7c0d 853d 0b69 c33c 0572 e43d b955 773d
00000130: 1295 c43d e54d b7bd e787 a4bd f9e0 a3bd
00000140: 649c eb3d 4b51 d3bd f73f 893c 7635 20bd
00000150: 3155 c5bc 11f4 493c 9c13 31bc 90e2 85bd
00000160: 6012 0cbd 9731 23bd 8d10 e03d 211c 41bd
00000170: dea6 a3bc b0c7 99bd b6c2 c1bd 7678 f93d
00000180: c5d1 513d 5a6b a63d b61c a3bd 5358 a83c
00000190: c7e1 fd3c 4079 e93d 886d 8dbd 1b1e 36bd
000001a0: 4cb4 9fbd a7d4 b73d 4e36 9b3d fbfa 29bd
000001b0: 3722 93bd 897a 653d 7ed2 bfbc 597a 40bd
000001c0: 1756 46bd b2d3 4f3d 4ed4 1fbc 38de c33d
000001d0: eaec 9b3d 038b c6bc c748 07bc fc77 b63d
000001e0: a89d 953d 23de a7bc eb1a 36bd 0bce ab3d
000001f0: ae2a 2fbb 8ea5 6c3d 149b a3bd 48b8 973d
00000200: f1ca 803d c3ec f4bd 8f61 e5bd cd52 963d
00000210: fdc5 81bd 1e8f c03d f8cd ffbd 4cb9 933d
00000220: 4e29 353d 5bcb d9bc 87e4 a4bc b173 bf3d
00000230: 0d6c b5bd d961 f6bd e145 073d 18e3 c4bd
00000240: 563e c8bd 2ac5 873d 3483 a6bd d6f4 c3bb
00000250: 8a84 74bd b3ee a8bd d749 293c 9ac1 febc
00000260: 5554 093d bd1c 0bbd a4b6 e63d 8f3f 5ebb
00000270: 8137 29bd ec54 dbbd a168 af3d 63bf ac3d
00000280: 8da6 153d b1c4 bbbd d0e4 ffbc 460f 82bd
00000290: f313 fabc 6e34 7dbb e29f 87bd b991 643d
000002a0: c8ec 493d e3ce f43b 2269 9c3d 3f7c 823d
000002b0: b81d 7d3c f5bc d93d 52a3 c23c e7c6 9c3c
000002c0: a086 86bd e2a1 293d 106a 28bd 599d 43bd
000002d0: b496 d3bd 0d71 ed3d c358 c9bd f7ba cd3d
000002e0: a9fc bd3d e43d ab3d b1dd c4bb 1d75 823d
000002f0: d0f0 ebbb 10f1 a1bd fe3f 21bd 736b 443d
00000300: 3dc4 e53a eae6 5c3d dafb 7bbd 225b df3d
00000310: ad77 dd3d 0164 71bd 5b13 6b3c 6c5c c6bd
00000320: c7e5 61bd 7919 b53c ae74 983d 5f75 0fbd
00000330: 6839 703d 5e87 a1bc e3ac 6cbc f10c dbbd
00000340: 0d5a a7bd 5766 cb3d c18c e8bd 487b d5bd
00000350: bf3e a13d fc19 923d 714a 9cbd ea67 61bc
00000360: 6d44 f0bd f24f 963d acff b0bb d22e 15bd
00000370: 8663 be3b ebf6 9cbd 4f4d 283d 3257 853d
00000380: 2591 c13b 4452 f1bc 806c 88bd 9f18 eabc
00000390: 26b4 d4bd 3ad3 18bd 9b4d 11bd 25bd c63d
000003a0: 00ba d8ba 3c14 1b3d e257 e33d 538e 9a3b
000003b0: 3183 b53a 34c5 93bd 1385 c5bd 0dbd f13b
000003c0: bcc1 2bbd 03e3 f63d 02b6 edbd 5579 063d
000003d0: 58d7 7dbd c739 d3bd 0198 863b 4bf1 ef3d
000003e0: defb 0ebd 288a cbbc ce7c 6fbd 6e35 a93d
000003f0: 6d1c ca3d 1708 be3d 3349 e93c c800 a2bd
-0.02714311 0.05490771 0.005184314 0.018558765 0.08458981 0.03092706 -0.049012795 0.11976889
-0.02655855 0.021853717 -0.08872338 -0.09735277 0.008854841 0.050572727 -0.04690633 -0.035098683
-0.0068771383 0.10689584 0.08699773 0.031017225 0.038278047 0.0973189 0.05560429 -0.086911045
-0.061476648 -0.08090794 -0.1129297 0.10563239 0.017663714 0.10074183 -0.06511977 -0.12043555
-0.04248151 -0.045588363 0.07307866 0.10368074 0.111883186 -0.06568265 0.05732661 -0.008066923
-0.06209846 0.020464167 0.029063156 -0.10174651 -0.022581877 -0.05231335 -0.07270938 0.1226124
-0.07298768 0.053710997 -0.06620194 -0.035682835 -0.004179165 -0.06405064 0.10834229 -0.02579347
-0.0639172 -0.004930914 0.10044541 0.07070162 0.053350043 -0.029765435 0.04475304 -0.05837307
0.044046696 -0.08321546 0.012174401 0.02539519 0.096395575 0.10370227 -0.039598186 -0.013754621
0.064967126 0.0238538 0.1115456 0.060384486 0.095987454 -0.08950404 -0.08033734 -0.080018945
0.115044385 -0.1031824 0.016754134 -0.039113484 -0.024088474 0.012326256 -0.010807898 -0.06537354
-0.03419721 -0.039842214 0.10940657 -0.047145966 -0.01997703 -0.075087905 -0.09460966 0.12181179
0.051225442 0.081259444 -0.079644606 0.020549929 0.030991448 0.1140008 -0.06905657 -0.044462305
-0.07798061 0.08976107 0.07578717 -0.04149912 -0.0718426 0.05602506 -0.0234158 -0.04699168
-0.048421945 0.050738998 -0.009755207 0.09563869 0.07613547 -0.024236208 -0.008257098 0.08909604
0.07305461 -0.020491665 -0.044459265 0.08388909 -0.002672832 0.057775073 -0.07988563 0.07408196
0.06288708 -0.11959221 -0.112002485 0.07340012 -0.063365914 0.094022974 -0.12490457 0.07213077
0.044228844 -0.026586225 -0.020128502 0.09348238 -0.088585 -0.12030382 0.033025626 -0.09613627
-0.09777515 0.06629403 -0.08130494 -0.0059801145 -0.05969671 -0.08248653 0.010332546 -0.031098176
0.03352769 -0.033962954 0.11265305 -0.0033912396 -0.0413127 -0.10709557 0.08564878 0.084349416
0.03653579 -0.09168375 -0.031237036 -0.063505694 -0.03052709 -0.0038635987 -0.06622292 0.055803034
0.049298078 0.007470952 0.0763724 0.06371354 0.01544898 0.10631744 0.023759518 0.019137813
-0.065686464 0.04141415 -0.041116774 -0.04775748 -0.10331479 0.11593828 -0.09831383 0.10045426
0.09276707 0.08361414 -0.006007873 0.06369994 -0.007200338 -0.07907307 -0.03936767 0.047954034
0.0017529797 0.053931154 -0.06151948 0.10906054 0.10813842 -0.05893326 0.014347876 -0.09685597
-0.055150773 0.022106873 0.0744413 -0.035024043 0.058648497 -0.019717868 -0.014445516 -0.10695828
-0.08171473 0.09931629 -0.11354972 -0.10423905 0.07873296 0.071338624 -0.07631386 -0.013757685
-0.11731801 0.07339467 -0.005401572 -0.036421604 0.005810204 -0.07664283 0.041089352 0.06510772
0.005907195 -0.029458173 -0.0666132 -0.028576193 -0.10385923 -0.037310816 -0.0354744 0.09704045
-0.0016534925 0.037861094 0.11100747 0.0047166734 0.0013848302 -0.07215348 -0.096445225 0.007377273
-0.041932806 0.12055018 -0.11606981 0.032830555 -0.061972946 -0.103137545 0.0041074757 0.11715945
-0.034908168 -0.024846151 -0.058468632 0.08262144 0.09868703 0.09278887 0.028477287 -0.07910305

layer.6.bias f4 [23]
00000000: 40e2 abbc aca1 b1bd 9b64 86bd c01a 6cbd
00000010: a6ba 653c ba0a a0bd ef3b 743d 5301 d33d
00000020: 3433 913c 3212 ca3d 1c08 1dbd c7ee 663d
00000030: 768f cbbd f006 c0bb 2e0b 583c 02db 9ebd
00000040: 1b97 06be 0cdf 403d aeba 5bbd 80cd adbc
00000050: 968a 99bd e400 e839 085a e2bc
-0.020981908 -0.086734146 -0.06562158 -0.0576427 0.014021551 -0.07814546 0.05962747 0.10302987
0.01772461 0.09866752 -0.03833781 0.05638006 -0.099394724 -0.005860202 0.013186259 -0.07756616
-0.1314358 0.047087714 -0.05364483 -0.021216154 -0.07497136 0.00044251152 -0.02763082
