weight/save_5_23.638861520447318.pth (torch_old, 62020 bytes, 8 tensors)

layer.0.weight f4 [32, 54]
0.10636684 0.09003349 0.11505804 0.03764059 0.08089757 -0.13140826 0.0541441 0.04792244
-0.12923035 -0.01510184 -0.038184583 0.072561935 0.07986139 -0.068692684 0.06604397 0.10382482
-0.10873998 -0.09034618 0.0051267613 -2.3355278e-05 0.0115042785 0.024763353 0.0686126 -0.12596157
0.09501973 -0.13278055 -0.02019719 0.04334931 -0.062028527 -0.0918143 -0.10120632 -0.06028448
-0.0862882 -0.1258628 0.12476179 -0.06876925 -0.07240709 -0.06182249 -0.10473324 -0.080536306
-0.015235943 0.12656647 0.073940635 -0.09723134 -0.013692511 0.10765104 -0.13001205 -0.08794193
-0.02015466 0.028328434 -0.13430896 0.025965825 0.07554238 -0.09856472 -0.025534615 -0.11157225
0.05508308 0.08834755 -0.08663183 0.016020518 -0.12118029 0.060417127 0.033568904 -0.10939321
0.074898675 0.09479715 -0.12411225 -0.120327726 0.018379435 -0.12950788 -0.090829626 0.043790758
-0.010603591 -0.078280956 0.095728844 -0.07438774 0.0292161 0.035490148 -0.08833155 0.11360874
0.11810425 0.09239519 0.12459556 0.06613299 0.095034495 0.016935125 0.027561199 0.077878356
-0.12182903 -0.099823475 -0.047358293 0.005032882 -0.12527515 -0.101860285 0.027393188 -0.0007600188
-0.13020323 -0.10308339 0.069876544 -0.007612556 0.026083186 -0.11341579 -0.049548943 -0.09641227
-0.074887566 -0.04157587 -0.06656565 0.0038678795 -0.09361991 -0.122515544 0.025540104 0.016619394
-0.046636023 0.03869018 -0.033258162 -0.008183658 -0.081432745 -0.14028352 0.12039583 0.07966391
0.11030397 -0.11345862 -0.11972962 -0.03314363 -0.104930684 0.12854218 0.12749292 0.03749059
0.10910284 -0.11793683 0.09553395 -0.08385406 -0.04799574 0.06443796 -0.1226711 0.10317684
0.11795496 0.06447485 -0.0077387844 0.122906804 0.040188972 0.077497914 -0.107973635 0.05437695
0.03864712 -0.09483974 -0.01925475 0.013584866 0.052924786 0.05611272 0.06018918 0.076248445
-0.066230126 0.06814535 0.020059315 -0.01243103 -0.07636197 0.11278418 0.101918936 0.094253555
-0.025679206 0.0045686066 0.08160411 -0.09199188 -0.13091825 8.0195705e-06 -0.12062142 0.036779735
0.058335178 0.022479553 -0.0037356105 -0.03174942 -0.15374807 -0.08828216 -0.030918637 -0.069214
0.09915191 0.12097387 0.09530507 -0.12634903 0.073886506 -0.13794045 0.066843174 -0.111858524
-0.08159522 -0.107747994 0.015175435 -0.05131018 -0.02532056 0.0425692 0.087908626 -0.0766995
-0.061701246 -0.021466926 -0.05569587 -0.11008249 0.0926034 -0.10713357 0.09179653 -0.018050827
-0.09790766 0.040084478 -0.12457594 0.02642946 0.022540063 0.06970486 0.11249484 -0.0832673
-0.05132293 0.00521184 -0.0745631 -0.107017264 0.12499887 0.07551887 -0.070370585 -0.011715621
0.112509355 -0.009565967 -0.07728416 -0.04818165 -0.03998932 0.11050066 -0.013425088 0.097605065
0.016096719 -0.079071544 0.050251074 -0.056436107 0.06140901 0.06180278 0.08186017 0.05736168
-0.008575216 -0.12425923 0.12270629 0.03276415 -0.07842043 0.10657644 -0.14008759 0.0902271
0.09234034 -0.12695813 0.07536599 -0.03446992 0.13027251 0.0046946257 -0.10705605 -0.11590531
0.13091406 -0.009923369 0.03571877 -0.0765965 -0.0043316185 0.043655008 0.04197368 -0.040556997
00000000: dcd6 d93d 7a63 b83d 8da3 eb3d 052d 1a3d
00000010: a0ad a53d e38f 06be 34c6 5d3d 524a 443d
00000020: f654 04be b56d 77bc 7067 1cbd 5a9b 943d
00000030: 5e8e a33d c0ae 8cbd 1042 873d 1ba2 d43d
00000040: 11b3 debd 6b07 b9bd 64fe a73b 14eb c3b7
00000050: 717c 3c3c 84dc ca3c c384 8c3d 12fc 00be
00000060: b499 c23d a0f7 07be 9474 a5bc 0c8f 313d
00000070: a011 7ebd 2309 bcbd 4245 cfbd dcec 76bd
00000080: deb7 b0bd 2ee2 00be 1c83 ff3d e4d6 8cbd
00000090: 2b4a 94bd 9439 7dbd 627e d6bd 38f0 a4bd
000000a0: 2da0 79bc a49a 013e 306e 973d 3a21 c7bd
000000b0: 8e56 60bc 2678 dc3d e121 05be e61a b4bd
000000c0: 631b a5bc 0811 e83c 4a88 09be 48b6 d43c
000000d0: f7b5 9a3d 4ddc c9bd f82d d1bc fe7f e4bd
000000e0: cc9e 613d 8fef b43d 076c b1bd 763d 833c
000000f0: 5f2d f8bd f377 773d 8c7f 093d 8c09 e0bd
00000100: 7a64 993d 0225 c23d 902e febd 626e f6bd
00000110: 7890 963c b79d 04be e204 babd f05d 333d
00000120: afba 2dbc c451 a0bd 7c0d c43d 9958 98bd
00000130: 9a56 ef3c 1e5e 113d 2ce7 b4bd b3ab e83d
00000140: a4e0 f13d b039 bd3d f52b ff3d bc70 873d
00000150: 72a1 c23d 88bb 8a3c 06c8 e13c b07e 9f3d
00000160: 8081 f9bd 4070 ccbd c5fa 41bd e0ea a43b
00000170: 2148 00be 209c d0bd ae67 e03c 003c 47ba
00000180: ff53 05be 621d d3bd 6f1b 8f3d c072 f9bb
00000190: 68ac d53c 8a46 e8bd d5f3 4abd cc73 c5bd
000001a0: a75e 99bd 764b 2abd 9253 88bd 407c 7d3b
000001b0: ccbb bfbd 6ee9 fabd 7b39 d13c 6525 883c
000001c0: 6a05 3fbd 9879 1e3d b639 08bd c014 06bc
000001d0: 36c6 a6bd 7ca6 0fbe 1792 f63d d526 a33d
000001e0: 0ce7 e13d fe5c e8bd ce34 f5bd 9dc1 07bd
000001f0: e6e5 d6bd 90a0 033e 818d 023e bc8f 193d
00000200: 4f71 df3d dd88 f1bd 4ea7 c33d adbb abbd
00000210: 2e97 44bd 0df8 833d fc3a fbbd 614e d33d
00000220: 5f92 f13d 640b 843d a195 fdbb 90b6 fb3d
00000230: 319d 243d 3ab7 9e3d 4821 ddbd 5dba 5e3d
00000240: 714c 1e3d 563b c2bd 23bc 9dbc 0f93 5e3c
00000250: a9c7 583d 74d6 653d ee88 763d 2528 9c3d
00000260: a9a3 87bd ca8f 8b3d 6f53 a43c 85ab 4bbc
00000270: aa63 9cbd 64fb e63d e0ba d03d 0208 c13d
00000280: 335d d2bc 40b4 953b 0e20 a73d 3d66 bcbd
00000290: 6f0f 06be cb8b 0637 5d08 f7bd 59a6 163d
000002a0: def0 6e3d 0a27 b83c 25d1 74bb ae0b 02bd
000002b0: 2270 1dbe 47cd b4bd 1549 fdbc 12c0 8dbd
000002c0: 2810 cb3d 26c1 f73d 4e2f c33d a461 01be
000002d0: cf51 973d 4340 0dbe 13e5 883d 1516 e5bd
000002e0: 651b a7bd fbaa dcbd 63a2 783c a02a 52bd
000002f0: 106d cfbc 0b5d 2e3d 7009 b43d a114 9dbd
00000300: 72ba 7cbd 68db afbc 5a21 64bd ee72 e1bd
00000310: daa6 bd3d d868 dbbd d2ff bb3d 54df 93bc
00000320: d083 c8bd 9f2f 243d ac21 ffbd 9882 d83c
00000330: f0a5 b83c 6cc1 8e3d b263 e63d 0c88 aabd
00000340: fe37 52bd 15c8 aa3b 8ab4 98bd de2b dbbd
00000350: 68ff ff3d a3a9 9a3d 741e 90bd e0f2 3fbc
00000360: 4e6b e63d 93ba 1cbc 2847 9ebd 1f5a 45bd
00000370: d7cb 23bd 2c4e e23d e6f4 5bbc 2ae5 c73d
00000380: 44dd 833c 43f0 a1bd 12d4 4d3d 8c29 67bd
00000390: 0488 7b3d e924 7d3d 4ea6 a73d 15f4 6a3d
000003a0: 107f 0cbc a07b febd 6f4d fb3d b433 063d
000003b0: e49a a0bd c044 da3d 1f73 0fbe fcc8 b83d
000003c0: ef1c bd3d 5001 02be 7c59 9a3d 5530 0dbd
000003d0: 2866 053e 60d5 993b 3440 dbbd c35f edbd
000003e0: 560e 063e a095 22bc d84d 123d a0de 9cbd
000003f0: 40f0 8dbb 98cf 323d 98ec 2b3d 181f 26bd

layer.0.bias f4 [32]
-0.025682146 0.12852481 0.095736794 0.0018584109 0.04073105 -0.10740303 -0.11850646 0.01812214
-0.11958653 -0.017328708 0.057034537 0.1058844 0.005246344 0.122133195 0.0497722 -0.054190423
0.07371109 0.12244268 -0.034113307 0.0617713 0.056448136 0.1381561 -0.08803756 -0.018078549
0.016600814 0.12536702 -0.05117335 -0.03405348 -0.13321558 -0.038478583 -0.018417696 -0.05139145
00000000: 5d63 d2bc 029c 033e a711 c43d ec95 f33a
00000010: 9ad5 263d 1ff6 dbbd 84b3 f2bd e274 943c
00000020: c8e9 f4bd eff4 8dbc 0c9d 693d ecd9 d83d
00000030: 86e9 ab3b f820 fa3d efdd 4b3d c7f6 5dbd
00000040: d7f5 963d 3ac3 fa3d 65ba 0bbd e703 7d3d
00000050: 2936 673d cb78 0d3e 094d b4bd 7719 94bc
00000060: 6efe 873c 3660 003e 269b 51bd a97b 0bbd
00000070: aa69 08be b89b 1dbd b5e0 96bc d77f 52bd

layer.2.weight f4 [64, 32]
-0.17588814 -0.036806658 0.15583655 -0.062783584 -0.10255661 -0.15295677 0.06460778 0.07614566
0.15575853 -0.17833701 -0.09579204 0.17576335 0.16570146 0.046958778 -0.097713865 0.07431984
-0.03061257 -0.009843493 -0.09690906 -0.024849864 0.06195791 -0.007236877 0.15959382 -0.0701325
0.08709699 0.06354566 0.14089395 0.17465122 -0.17103092 0.114962436 0.07894918 -0.15926571
-0.044678856 -0.12396929 0.17338571 0.15527435 0.0045713414 -0.11437783 -0.15850154 0.15869264
0.13399051 -0.051161207 -0.09238032 0.17268749 0.029863691 0.11210022 0.044148616 -0.04288988
0.16681805 0.16311546 0.13360928 -0.0063836565 0.15638234 -0.13967235 -0.14737877 -0.09552332
0.108139075 0.050049443 0.027386565 -0.16786121 -0.10697162 0.103479594 0.15680537 0.07453362
-0.030764218 -0.07242356 -0.07929815 0.13504057 0.101786435 -0.1609907 -0.1003801 -0.093596876
0.09179471 -0.0055651404 -0.15433246 0.062538505 0.12173909 0.12745741 0.084673144 0.023500688
-0.12763278 0.0782914 0.06636995 -0.045419563 0.16394605 0.10112589 0.091483906 -0.1449752
-0.04171744 -0.16314681 0.055495963 0.0429143 0.0780455 0.065722026 -0.08229229 -0.121361755
-0.164253 -0.053958256 -0.10569301 0.047513567 -0.12039376 -0.085313894 -0.12885255 0.1420322
-0.1322052 0.13998808 -0.05260289 0.042313606 0.07876644 -0.028067019 0.10741272 0.03125162
0.047641817 0.014224223 -0.1388311 0.10070421 -0.0700167 0.11772347 -0.065929726 0.055370327
-0.012166115 -0.09226139 0.11166279 0.105812564 0.02476967 0.13245319 -0.10255601 -0.05434091
0.08372115 0.08965542 -0.081612006 -0.11657409 0.073281 0.03673653 -0.109812915 0.15884009
0.058069285 0.006316162 0.08491088 -0.07156358 -0.050257273 0.088887304 0.16998912 -0.05368387
0.091981806 0.010240835 -0.12225732 0.117054984 -0.073435076 -0.11220554 -0.06301849 -0.0019078255
-0.09711727 -0.08064099 -0.07332258 0.07621986 -0.049646776 0.029475888 0.1204293 0.08436844
-0.03540642 0.1674156 -0.1270979 0.01050524 -0.021962617 -0.019149678 -0.17925075 -0.058558706
-0.06440177 0.11434924 0.12146796 -0.06856985 0.12419037 0.14125165 0.12891702 0.1690543
-0.022375355 -0.16438724 0.041160155 0.12822281 -0.05387571 -0.16549619 0.010221873 -0.029674513
0.10965032 -0.040994428 -0.016866965 0.13660705 -0.03944674 0.08134224 0.09547335 0.12010871
0.10102175 0.09945412 -0.04665534 -0.14345682 -0.1402962 0.17142047 -0.15349609 -0.13235897
-0.044591404 0.17748076 -0.17573734 -0.09450554 -0.00026337802 0.115819 -0.12852553 0.065293245
-0.09707589 0.018204508 -0.0705491 -0.08268495 -0.15398465 0.061309014 0.051281165 -0.17012702
-0.08012447 0.06468912 0.17528062 -0.08473505 0.14391221 -0.06803915 -0.16012104 -0.08286658
0.12238338 0.12983201 0.16989604 -0.050093085 -0.06193785 -0.009543389 -0.0679785 0.092552796
0.16484268 0.17863566 0.064449266 -0.11997981 0.16059713 -0.04077552 -0.124338485 0.10534732
-0.06736733 -0.13183564 -0.05006502 0.04018652 -0.0059625967 0.0994557 0.08812881 0.097449906
0.060348544 -0.052590396 -0.11666863 0.037001986 0.025912661 -0.020375557 -0.051717702 0.0028506757
00000000: 051c 34be 94c2 16bd 9e93 1f3e ae94 80bd
00000010: 3309 d2bd b3a0 1cbe 1551 843d 41f2 9b3d
00000020: 2a7f 1f3e fa9d 36be 9e2e c4bd 4ffb 333e
00000030: a5ad 293e d957 403d 351e c8bd 0035 983d
00000040: 36c7 fabc 9a46 21bc 4278 c6bd f191 cbbc
00000050: 94c7 7d3d 5323 edbb 906c 233e a1a1 8fbd
00000060: e85f b23d 3a24 823d 8146 103e c5d7 323e
00000070: bb22 2fbe 6d71 eb3d 1cb0 a13d 8d16 23be
00000080: 2d01 37bd 9ce3 fdbd 068c 313e 3d00 1f3e
00000090: 31cb 953b ec3e eabd 3a4e 22be 5380 223e
000000a0: cf34 093e 6a8e 51bd e531 bdbd fdd4 303e
000000b0: b3a4 f43c cd94 e53d 2ed5 343d 4cad 2fbd
000000c0: 5ad2 2a3e bd07 273e dfd0 083e fe2d d1bb
000000d0: b122 203e 4506 0fbe 76ea 16be bba1 c3bd
000000e0: 0578 dd3d a500 4d3d ca59 e03c cfe3 2bbe
000000f0: f013 dbbd 1ced d33d 9691 203e 15a5 983d
00000100: 3e05 fcbc ce52 94bd 1267 a2bd 1348 0a3e
00000110: 6875 d03d bfda 24be 1594 cdbd b8af bfbd
00000120: ddfe bb3d c85b b6bb 5409 1ebe 3014 803d
00000130: 5852 f93d 3284 023e 1d69 ad3d 8484 c03c
00000140: 2bb2 02be 3e57 a03d f8ec 873d dd09 3abd
00000150: 79e1 273e 171b cf3d ea5b bb3d 6174 14be
00000160: e8df 2abd f50f 27be bc4f 633d e8c6 2f3d
00000170: 52d6 9f3d 4599 863d dc88 a8bd 838c f8bd
00000180: f031 28be 5503 5dbd 9475 d8bd 969d 423d
00000190: 0191 f6bd 0db9 aebd ecf1 03be e470 113e
000001a0: cd60 07be 0959 0f3e 2176 57bd 0851 2d3d
000001b0: 4d50 a13d ceec e5bc 33fb db3d b301 003d
000001c0: 1124 433d b70c 693c bd29 0ebe 023e ce3d
000001d0: ea64 8fbd 0119 f13d 2a06 87bd ffcb 623d
000001e0: 6354 47bc 8af3 bcbd 76af e43d 42b4 d83d
000001f0: c3e9 ca3c cfa1 073e e308 d2bd 9394 5ebd
00000200: ff75 ab3d 439d b73d 3224 a7bd 66be eebd
00000210: 5914 963d 0b79 163d 98e5 e0bd faa6 223e
00000220: 0fda 6d3d cff7 ce3b c1e5 ad3d ed8f 92bd
00000230: 92da 4dbd 8c0a b63d a111 2e3e 9ee3 5bbd
00000240: f560 bc3d 2dc9 273c 0c62 fabd 86ba ef3d
00000250: 2165 96bd 05cc e5bd d70f 81bd 0010 faba
00000260: 6be5 c6bd 1a27 a5bd 262a 96bd 2819 9c3d
00000270: 6b5a 4bbd 6b77 f13c a3a3 f63d 5cc9 ac3d
00000280: 5206 11bd ff6e 2b3e f425 02be 2c1e 2c3c
00000290: f2ea b3bc c9df 9cbc 828d 37be 41db 6fbd
000002a0: 13e5 83bd ef2f ea3d 32c4 f83d 596e 8cbd
000002b0: 8557 fe3d 46a4 103e d302 043e 921c 2d3e
000002c0: 854c b7bc 2155 28be 8d97 283d d74c 033e
000002d0: c7ac 5cbd d577 29be a579 273c f717 f3bc
000002e0: 5990 e03d c6e9 27bd 972c 8abc b8e2 0b3e
000002f0: e892 21bd c396 a63d 8887 c33d 8efb f53d
00000300: 7ee4 ce3d 9aae cb3d ab19 3fbd 58e6 12be
00000310: cfa9 0fbe d988 2f3e 142e 1dbe 1c89 07be
00000320: 7aa5 36bd 84bd 353e 7df4 33be 1f8c c1bd
00000330: 0016 8ab9 8332 ed3d 329c 03be 77b8 853d
00000340: b9cf c6bd 9f21 953c 0c7c 90bd ba56 a9bd
00000350: 27ae 1dbe 291f 7b3d 330c 523d c735 2ebe
00000360: 4c18 a4bd bb7b 843d c37c 333e 9289 adbd
00000370: b95d 133e 1c58 8bbd c5f6 23be f4b5 a9bd
00000380: 23a4 fa3d aff2 043e 3af9 2d3e 682e 4dbd
00000390: 8bb2 7dbd e05b 1cbc 5038 8bbd 528c bd3d
000003a0: 85cc 283e 44ec 363e fafd 833d fab7 f5bd
000003b0: 9373 243e 3b04 27bd 2da5 febd 56c0 d73d
000003c0: e2f7 89bd ecff 06be fa10 4dbd 9f9a 243d
000003d0: e361 c3bb 6eaf cb3d e17c b43d d193 c73d
000003e0: 0930 773d 0769 57bd f6ef eebd 658f 173d
000003f0: ca46 d43c a4ea a6bc f1d5 53bd 67d2 3a3b

layer.2.bias f4 [64]
0.053247485 0.020328553 -0.13233419 0.03539417 -0.15068226 0.11107956 -0.16918914 0.08048923
0.13544953 0.007827753 -0.14684732 -0.1308271 -0.027813636 0.08316146 0.080281615 -0.10999795
0.012318517 0.06782044 0.09770883 -0.012739575 -0.039352193 -0.17160235 -0.005230323 -0.16099134
0.029973513 0.15586473 -0.10109683 0.12152134 -0.12377077 0.031768717 -0.0897851 -0.04341194
0.08439342 -0.07602606 -0.026273414 -0.15441905 0.119249605 -0.066794045 0.09368034 -0.0890271
0.16658098 0.031650506 -0.036443897 -0.15424876 -0.13759845 -0.012682863 -0.15476598 0.058435068
-0.17008244 0.04417856 0.07216278 0.1362063 -0.14114277 -0.037202664 -0.11151979 0.07535316
0.06649058 0.14068027 -0.064660035 -0.1692857 -0.19080786 0.13601287 0.030946873 0.05993072
00000000: 091a 5a3d 1188 a63c 9d82 07be 7af9 103d
00000010: 734c 1abe ae7d e33d eb3f 2dbe 8ad7 a43d
00000020: 48b3 0a3e fa3f 003c 255f 16be 8af7 05be
00000030: 6cd9 e3bc 8e50 aa3d b06a a43d 9b46 e1bd
00000040: 9bd3 493c 71e5 8a3d 911b c83d a6b9 50bc
00000050: c42f 21bd 87b8 2fbe 2163 abbb eada 24be
00000060: 038b f53c 019b 1f3e db0b cfbd 2ee0 f83d
00000070: 887b fdbd ea1f 023d 40e1 b7bd b8d0 31bd
00000080: 75d6 ac3d 8db3 9bbd 583b d7bc 0720 1ebe
00000090: 2339 f43d 51cb 88bd 7adb bf3d d753 b6bd
000000a0: 3494 2a3e f6a3 013d 3246 15bd 63f3 1dbe
000000b0: 9ce6 0cbe c8cb 4fbc f97a 1ebe 9c59 6f3d
000000c0: 172a 2ebe 94f4 343d 14ca 933d aa79 0b3e
000000d0: bb87 10be d261 18bd 7d64 e4bd c252 9a3d
000000e0: 372c 883d 7d0e 103e 7b6c 84bd 3b59 2dbe
000000f0: 2363 43be f546 0b3e 4c84 fd3c ea79 753d

layer.4.weight f4 [128, 64]
-0.051772363 -0.06431299 0.04114054 0.02016665 0.112161115 -0.1249491 -0.08623135 -0.09528588
0.04341583 -0.08202034 -0.120576896 -0.06882536 -0.07058498 -0.06950641 -0.04560036 -0.111283034
-0.08583697 -0.013995171 0.044989094 0.06270361 0.038312063 0.0877395 0.074944705 0.1153252
0.02506033 -0.05952827 -0.087431565 0.0042079585 0.05307237 0.05893852 -0.1073771 0.000595386
-0.04344597 0.077058725 0.05587408 0.12024881 0.009370282 0.004845652 0.099083714 0.028634638
0.10622641 0.042549442 0.07246306 0.026141468 0.07738547 -0.07972619 -0.054832056 -0.055285662
-0.072638914 -0.08199849 -0.078055434 0.074858114 0.050584093 0.10484594 0.05660943 -0.027634418
-0.0028357855 0.086763635 -0.06650389 -0.02116561 -0.025339384 0.06901834 -0.041238084 -0.049022563
0.09306902 0.09015281 -0.020498639 0.062387418 0.03770472 -0.02703169 -0.07629534 -0.018295238
-0.038515016 0.064029805 -0.03076824 -0.061218936 0.092867106 0.06994865 -0.0020279808 -0.016528776
0.09107495 -0.061650775 0.0008600652 -0.10060761 -0.07180956 -0.035238247 -0.1264634 0.06466384
-0.020838285 -0.068050325 0.016825125 0.09516617 -0.11660329 -0.088618256 0.007071203 -0.057335354
0.07263789 0.0036801866 -0.004413709 -0.12221743 -0.08992168 0.11545551 -0.0024289712 0.06179945
0.04631395 0.09087887 0.11623871 -0.10794082 0.107831314 0.059170317 -0.07597596 -0.03116285
0.08997891 0.032623988 -0.09709559 0.10387594 -0.10396101 0.04211272 -0.004805279 -0.10013849
-0.11207087 -0.08959614 -0.023168853 0.017688379 -0.0633149 -0.047816195 0.08054094 -0.02294767
0.02235781 0.027972948 0.04932874 0.02913211 -0.10175237 0.03782954 0.081979446 -0.1065535
-0.08647475 -0.07313402 -0.06975671 0.006469138 0.10438923 -0.016014952 0.06326258 -0.08335242
-0.13840532 0.087241836 -0.07145123 -0.032071713 0.018982723 0.0009926403 0.018891912 -0.10814507
0.021081528 0.00013957953 -0.09341954 -0.0612623 -0.06937913 0.049429644 -0.08320711 0.032324802
0.026972374 -0.06553343 0.061179206 0.07063227 0.0047400785 -0.08008271 -0.1149696 -0.04551637
0.06162209 -0.060799778 0.027903667 0.08391931 0.11910709 0.118121475 0.07562571 -0.009170115
-0.04393505 0.051505078 -0.018199746 -0.103453636 0.078115866 -0.056921206 -0.0922576 -0.015697729
0.07036338 -0.023402225 0.099284485 0.119413555 -0.04238851 -0.040812694 0.048490983 0.12775391
-0.11819516 0.0913668 0.047359824 0.11239924 -0.031248823 0.036494955 -0.10853751 0.06925446
-0.11027559 0.066212095 -0.11860241 0.007239568 -0.115883544 -0.03876681 0.02420831 -0.050284863
0.020281898 0.08822755 0.09717324 0.0017935485 -0.11851424 0.0724654 0.041413512 0.017162845
0.0020267945 -0.07828322 0.11974837 -0.10867198 0.054846436 -0.030747227 0.058951672 0.05616756
-0.021480361 0.021985974 0.10155864 0.02901001 -0.080204494 0.081972115 0.09531859 0.08652428
-0.06533044 0.08461555 0.028871154 -0.083871625 0.030840904 -0.06296449 0.04176925 -0.077078246
-0.066836305 0.10182324 0.08057021 -0.10800291 0.064304896 0.07273318 0.041416317 -0.07063854
0.09592309 -0.10453773 0.086650364 0.022733554 0.09463985 -0.119592905 0.044765975 0.11641515
00000000: 420f 54bd 87b6 83bd fc82 283d 8834 a53c
00000010: bab4 e53d 50e5 ffbd 109a b0bd 3e25 c3bd
00000020: ccd4 313d 48fa a7bd 05f1 f6bd 4ff4 8cbd
00000030: dc8e 90bd 6059 8ebd 71c7 3abd 5ce8 e3bd
00000040: 4bcb afbd 004c 65bc 7c46 383d c06a 803d
00000050: 1ced 1c3d c4b0 b33d 9c7c 993d 9e2f ec3d
00000060: 524b cd3c ead3 73bd 520f b3bd eae2 893b
00000070: 6a62 593d 8469 713d 86e8 dbbd ae13 1c3a
00000080: 67f4 31bd f7d0 9d3d 38dc 643d 0245 f63d
00000090: d085 193c 46c8 9e3b 67ec ca3d 3093 ea3c
000000a0: 3b8d d93d 5348 2e3d 8367 943d a226 d63c
000000b0: 467c 9e3d 7c47 a3bd 9497 60bd 3873 62bd
000000c0: b6c3 94bd d3ee a7bd 87db 9fbd 364f 993d
000000d0: 4431 4f3d 78b9 d63d 4adf 673d 9361 e2bc
000000e0: 96d8 39bb 22b1 b13d 3133 88bd 8063 adbc
000000f0: 8a94 cfbc 7d59 8d3d 44e9 28bd e2cb 48bd
00000100: f89a be3d 09a2 b83d c3ec a7bc f389 7f3d
00000110: 4470 1a3d 9071 ddbc bb40 9cbd e5df 95bc
00000120: ecc1 1dbd 0f22 833d ad0d fcbc b5c0 7abd
00000130: 1c31 be3d 3d41 8f3d dfe7 04bb 5b67 87bc
00000140: 8185 ba3d 8685 7cbd 0076 613a 5d0b cebd
00000150: e410 93bd fb55 10bd 9f7f 01be 7a6e 843d
00000160: 0db5 aabc f85d 8bbd d8d4 893c 7be6 c23d
00000170: b5cd eebd 7d7d b5bd 8db5 e73b 7ad8 6abd
00000180: 2dc3 943d 492f 713b e0a0 90bb 224d fabd
00000190: dc28 b8bd f073 ec3d 602f 1fbb 6c21 7d3d
000001a0: b2b3 3d3d b31e ba3d 900e ee3d 1410 ddbd
000001b0: aad6 dc3d 935c 723d 4999 9bbd 3c49 ffbc
000001c0: dd46 b83d bba0 053d 0dda c6bd e9bc d43d
000001d0: 83e9 d4bd 637e 2c3d 9a75 9dbb 6915 cdbd
000001e0: 6a85 e5bd 2e7e b7bd 9bcc bdbc 38e7 903c
000001f0: 3eab 81bd eada 43bd a6f2 a43d c1fc bbbc
00000200: ba27 b73c 8627 e53c ef0c 4a3d 76a6 ee3c
00000210: 8c63 d0bd 26f3 1a3d d7e4 a73d b938 dabd
00000220: ac19 b1bd 4ac7 95bd 9bdc 8ebd 10fb d33b
00000230: 05ca d53d ca31 83bc d08f 813d acb4 aabd
00000240: 20ba 0dbe d9ab b23d 0655 92bd a15d 03bd
00000250: a881 9b3c 7b1b 823a 36c3 9a3c 2a7b ddbd
00000260: 2bb3 ac3c 185c 1239 be52 bfbd 2dee 7abd
00000270: a516 8ebd bd76 4a3d 7d68 aabd 0367 043d
00000280: 2bf5 dc3c 6436 86bd 0c97 7a3d a7a7 903d
00000290: a952 9b3b 6702 a4bd 2f75 ebbd 606f 3abd
000002a0: 7267 7c3d 3009 79bd 3b96 e43c e3dd ab3d
000002b0: 6bee f33d ace9 f13d a7e1 9a3d 403e 16bc
000002c0: 3df5 33bd fdf6 523d a217 95bc 80df d3bd
000002d0: 36fb 9f3d 3626 69bd 8df1 bcbd 8698 80bc
000002e0: ad1a 903d 06b6 bfbc aa55 cb3d 188f f43d
000002f0: 939f 2dbd 362b 27bd 7b9e 463d ecd1 023e
00000300: 4e10 f2bd 841e bb3d 60fc 413d 9331 e63d
00000310: 88fd ffbc bc7b 153d ea48 debd 48d5 8d3d
00000320: 2bd8 e1bd 359a 873d d2e5 f2bd e639 ed3b
00000330: 5a54 edbd f2c9 1ebd 8150 c63c 80f7 4dbd
00000340: 3926 a63c a5b0 b43d c302 c73d 8015 eb3a
00000350: 98b7 f2bd bd68 943d 37a1 293d 1899 8c3c
00000360: f8d3 043b f452 a0bd a23e f53d 6a8f debd
00000370: a8a6 603d 9ce1 fbbc 4f77 713d f50f 663d
00000380: 95f7 afbc ee1b b43c fafd cf3d 67a6 ed3c
00000390: 4142 a4bd ffe0 a73d 6536 c33d a433 b13d
000003a0: f7cb 85bd eb4a ad3d 3383 ec3c e3c4 abbd
000003b0: 10a6 fc3c 87f3 80bd 3c16 2b3d 33db 9dbd
000003c0: 79e1 88bd b488 d03d ff01 a53d a130 ddbd
000003d0: 49b2 833d 22f5 943d 28a4 293d f0aa 90bd
000003e0: 5373 c43d e117 d6bd bf75 b13d b83b ba3c
000003f0: 8ad2 c13d 20ed f4bd 875c 373d 116b ee3d

layer.4.bias f4 [128]
-0.063883066 0.06579172 0.0008753385 0.10275964 0.004077368 -0.08318907 0.11624128 -0.05073279
0.12442834 0.08446807 -0.0953067 -0.021121554 0.09367402 0.06720523 0.081274495 0.04424537
-0.08504284 0.01628064 -0.019362487 -0.036518775 -0.06712789 0.050440237 -0.04335793 0.11149028
0.0582242 -0.04159547 0.08394765 0.12482847 -0.005735103 0.057313938 -0.11832328 0.07195084
-0.07697941 0.0028983962 0.011935234 -0.037717395 0.047963046 -0.043237396 -0.0073858663 0.05260832
0.0025956852 -0.06476601 -0.11746248 -0.07146692 0.022324793 0.05624728 -0.04773575 0.08032569
0.045603894 -0.09968887 -0.016946862 0.103043586 0.07941933 -0.055437446 0.024565728 -0.05875918
-0.09226591 0.006704594 0.027765376 -0.085993685 -0.08979933 0.0060379086 -0.061504155 0.036660567
-0.054562937 -0.124078214 -0.08518586 0.053616192 0.0043082475 -0.07665831 0.03330382 0.043244366
-0.046392743 0.1251236 0.08439939 -0.085653104 -0.009735848 -0.06906158 0.029547274 0.08608219
0.100665994 0.048141442 0.090186015 0.034887876 -0.069808125 0.043420956 -0.06733029 -0.081265055
0.010716478 -0.09717021 -0.11030218 0.10842188 0.08909977 0.0065306327 0.004476135 -0.028118212
0.11223991 -0.043720163 0.11103157 -0.09096001 -0.07538666 0.050117645 -0.091165945 0.07874638
0.108197086 -0.038801663 -0.020518873 0.0068153306 -0.121672645 0.07944369 -0.010435082 0.03606516
-0.014345611 0.004024572 0.04964128 0.08584869 -0.10910176 0.0008726244 0.09442017 -0.008484087
0.08694089 0.026280329 0.07035246 -0.059916686 -0.10251398 -0.07259627 0.05062923 0.12255537
00000000: 20d5 82bd cfbd 863d f976 653a a573 d23d
00000010: 719b 853b 085f aabd e90f ee3d 30cd 4fbd
00000020: 49d4 fe3d 98fd ac3d 2930 c3bd 1c07 adbc
00000030: 2ad8 bf3d e5a2 893d 3e73 a63d a23a 353d
00000040: f12a aebd fa5e 853c 149e 9ebc b694 15bd
00000050: 597a 89bd 6c9a 4e3d 1698 31bd 0455 e43d
00000060: 807c 6e3d 0360 2abd bfec ab3d 12a6 ff3d
00000070: 88ed bbbb 05c2 6a3d 7a53 f2bd f65a 933d
00000080: 62a7 9dbd 05f3 3d3b 008c 433c 8e7d 1abd
00000090: e674 443d b219 31bd 2305 f2bb d27b 573d
000000a0: 5f1c 2a3b 0ba4 84bd 2b90 f0bd 405d 92bd
000000b0: 7ce2 b63c 8c63 663d 9086 43bd cc81 a43d
000000c0: 26cb 3a3d ae29 ccbd 25d4 8abc 8408 d33d
000000d0: 9aa6 a23d 6012 63bd 113e c93c 77ad 70bd
000000e0: e9f5 bcbd 36b2 db3b 3774 e33c 751d b0bd
000000f0: b6e8 b7bd a6d9 c53b c8eb 7bbd 6429 163d
00000100: 637d 5fbd b81c febd ed75 aebd a79c 5b3d
00000110: 332c 8d3b 08ff 9cbd 9669 083d 0121 313d
00000120: 5106 3ebd 6720 003e 96d9 ac3d e56a afbd
00000130: 1b83 1fbc 2870 8dbd 200d f23c dc4b b03d
00000140: f929 ce3d f62f 453d 72b3 b83d 97e6 0e3d
00000150: 90f7 8ebd 2cda 313d 77e4 89bd 4b6e a6bd
00000160: 2b94 2f3c 2d01 c7bd 1ce6 e1bd 4a0c de3d
00000170: f179 b63d ebfe d53b 8bac 923b 2a58 e6bc
00000180: 0ade e53d ea13 33bd 8564 e33d 3e49 babd
00000190: 5264 9abd 2948 4d3d 36b5 babd c845 a13d
000001a0: 6f96 dd3d 7eee 1ebd 3217 a8bc 2353 df3b
000001b0: 822f f9bd 60b3 a23d e8f7 2abc 10b9 133d
000001c0: db09 6bbc 8fe0 833b a854 4b3d 70d1 af3d
000001d0: be70 dfbd d5c0 643a 5d5f c13d d700 0bbc
000001e0: 110e b23d d849 d73c f314 903d 336b 75bd
000001f0: d9f2 d1bd 5aad 94bd 9860 4f3d 4ffe fa3d

layer.6.weight f4 [23, 128]
0.024828164 -0.019077472 -0.054977965 0.08472681 0.003169436 0.06920471 -0.013354297 -0.089695126
0.011112711 0.028531447 0.0038062816 0.08161871 -0.03947081 0.035107736 0.02363123 0.111372955
0.004169415 0.03579029 0.07975261 0.026070748 0.083075896 0.060219694 0.04087466 -0.041714024
-0.0120341 -0.008175246 0.012521519 -0.02745672 -0.061388828 0.06282087 0.07605652 -0.06564816
-0.055005528 -0.050046355 -0.048798442 -0.0075980453 -0.107278265 -0.02176841 0.09088693 -0.015453287
-0.056698155 -0.057778016 0.028959021 0.041440334 -0.0036592772 -0.051522028 0.02318883 -0.053878736
0.027933635 0.02372858 0.07015839 -0.014540123 -0.084274665 -0.08414493 -0.0655332 0.08870357
0.01364704 0.008811166 0.066878706 -0.044757687 0.011990504 -0.03353307 -0.05102762 -0.04693377
0.061306313 0.07067544 -0.08515342 0.015526449 -0.08711662 0.03527886 0.061613075 0.06721439
0.08625056 -0.06811646 -0.061133698 0.07321227 -0.06529694 -0.014215072 0.044196896 -0.06988566
0.015702348 0.07283822 0.055703886 0.020352798 0.04642157 0.03371511 -0.06644177 -0.04592683
-0.038100995 -0.010174502 -0.009590559 -0.07874477 0.020868238 0.05625847 -0.029688556 0.0017957145
0.04774371 0.058610003 0.0013736452 -0.066029966 0.061862193 -0.083992384 -0.026161693 0.022583067
-0.07184253 -0.03525316 -0.038662694 0.022684375 0.015686706 -0.044247903 -0.0005543802 0.07342059
-0.012416815 -0.02755735 0.023795862 0.0135336295 -0.0017184317 0.067222044 0.07648261 -0.0835381
0.063351296 0.043192066 -0.040039357 -0.06826664 0.061056685 -0.064685345 0.06618241 -0.042258866
-0.022538655 -0.016848153 -0.07467685 0.020731153 -0.069898225 0.050916635 0.050110027 0.04821605
0.008883376 -0.073374614 0.056310955 -0.0813133 0.08560034 0.068428196 0.07261004 0.05571584
0.035035994 -0.052180592 -0.012458832 -0.009959729 0.06081812 -0.051196598 0.032110456 -0.07910814
-0.037552934 0.020699732 0.04866768 -0.081942536 0.06770325 0.05293071 0.034488525 0.060823224
0.06610379 0.061010752 0.04982966 0.026116505 -0.030199489 -0.0142104365 0.038913477 -0.0151293455
0.06687664 -0.09036535 -0.07782908 0.015986893 0.057861023 -0.029755017 -0.0004960969 -0.07236948
0.07236001 0.0031814876 -0.008580107 0.070837945 0.07031533 -0.08732385 -0.023538616 -0.061653346
0.018796898 0.0033537736 -0.06502654 0.06271215 -0.041303013 -0.035088386 0.06915625 -0.02479864
-0.07119394 -0.084936254 -0.030085512 -0.039131906 -0.040346 -0.047436003 -0.024386253 0.047903556
0.014339661 -0.01839378 -0.008085117 0.022460204 0.031414796 0.004811632 -0.016664892 0.03768927
-0.0067947614 -0.059777435 0.0368992 0.06885345 0.018327024 0.07375348 -0.07275872 0.07575441
-0.020084132 0.06757808 -0.048714068 -0.01634684 -0.06866677 0.022405835 -0.014949555 -0.072401084
0.07813317 0.06853384 0.05354046 0.07160895 0.06782419 0.030840743 0.08605226 -0.011659514
0.031824734 -0.08441201 0.06904148 -0.0047134985 0.008641726 0.027316274 0.004301355 -0.021834332
-0.020102445 -0.011421997 -0.05958031 -0.001452677 0.0060596913 -0.023012137 -0.02343076 -0.018434651
0.055051763 -0.06965491 -0.023439057 -0.07253433 -0.004725456 -0.03597787 0.008659757 0.014588022
00000000: 6f64 cb3c 5c48 9cbc 9330 61bd 4085 ad3d
00000010: 50b6 4f3b 33bb 8d3d fbcb 5abc 14b2 b7bd
00000020: 1712 363c c8ba e93c cf72 793b b627 a73d
00000030: 25ac 21bd 21cd 0f3d 4896 c13c 8117 e43d
00000040: 979f 883b d798 123d 5655 a33d 5292 d53c
00000050: b223 aa3d eda8 763d 306c 273d 53dc 2abd
00000060: ac2a 45bc 78f1 05bc 0f27 4d3c eaec e0bc
00000070: da72 7bbd 3aa8 803d 85c3 9b3d 8b72 86bd
00000080: 7a4d 61bd 68fd 4cbd e0e0 47bd 06f9 f8bb
00000090: b5b4 dbbd aa53 b2bc ed22 ba3d c92f 7dbc
000000a0: 533c 68bd a4a8 6cbd 783b ed3c 57bd 293d
000000b0: 7cd0 6fbb c308 53bd 80f6 bd3c f3af 5cbd
000000c0: 14d5 e43c 7062 c23c 34af 8f3d b239 6ebc
000000d0: 3298 acbd 2d54 acbd 4536 86bd 38aa b53d
000000e0: d697 5f3c b55c 103c b4f7 883d d653 37bd
000000f0: d273 443c f959 09bd 5602 51bd a03d 40bd
00000100: 541c 7b3d 49be 903d eb64 aebd a662 7e3c
00000110: 336a b2bd 9180 103d fe5d 7c3d b3a7 893d
00000120: 22a4 b03d a580 8bbd 5467 7abd 51f0 953d
00000130: 67ba 85bd 55e6 68bc ce07 353d 3720 8fbd
00000140: 36a2 803c 342c 953d c229 643d e9ba a63c
00000150: 8b24 3e3d db18 0a3d 9f12 88bd c61d 3cbd
00000160: ca0f 1cbd f4b2 26bc b821 1dbc f044 a1bd
00000170: def3 aa3c 486f 663d 6a35 f3bc 2e5e eb3a
00000180: e98e 433d 0b11 703d e20b b43a b83a 87bd
00000190: 3663 7d3d 3304 acbd 0c51 d6bc 2000 b93c
000001a0: 2d22 93bd 9e65 10bd c65c 1ebd 95d4 b93c
000001b0: 6881 803c 4a3d 35bd d353 11ba 895d 963d
000001c0: e66f 4bbc f4bf e1bc 8aef c23c 28bc 5d3c
000001d0: 003d e1ba b6ab 893d eaa2 9c3d 0616 abbd
000001e0: 53be 813d 2aea 303d 4f00 24bd 61cf 8bbd
000001f0: 9316 7a3d c079 84bd a58a 873d a217 2dbd
00000200: fca2 b8bc 2305 8abc 2df0 98bd 61d4 a93c
00000210: cd26 8fbd f68d 503d 2c40 4d3d 317e 453d
00000220: 948b 113c 6e45 96bd 51a6 663d 9687 a6bd
00000230: 3b4f af3d 1524 8c3d 93b4 943d 4b36 643d
00000240: e781 0f3d 51bb 55bd 2120 4cbc 222e 23bc
00000250: 6c1c 793d 86b3 51bd 4186 033d 7303 a2bd
00000260: 1bd1 19bd 7c92 a93c c357 473d 7dd1 a7bd
00000270: 00a8 8a3d dfcd 583d d743 0d3d c621 793d
00000280: 6d61 873d 69e6 793d 301a 4c3d 48f2 d53c
00000290: eb64 f7bc e4d2 68bc bd63 1f3d 13e1 77bc
000002a0: 9ff6 883d 7811 b9bd da64 9fbd f2f6 823c
000002b0: aeff 6c3d cbc0 f3bc 800c 02ba 7336 94bd
000002c0: 7c31 943d 8180 503b 9493 0cbc 7c13 913d
000002d0: 7c01 903d d9d6 b2bd 0ed4 c0bc 3888 7cbd
000002e0: f4fb 993c fcca 5b3b a22c 85bd 3a6f 803d
000002f0: 592d 29bd d7b8 0fbd cba1 8d3d 8426 cbbc
00000300: 21ce 91bd 0ff3 adbd e475 f6bc c748 20bd
00000310: d941 25bd 414c 42bd aec5 c7bc 8536 443d
00000320: e6f0 6a3c 8dae 96bc 7077 04bc 76fe b73c
00000330: cdac 003d e5aa 9d3b d084 88bc 1060 1a3d
00000340: 97a6 debb 2fd9 74bd 9e23 173d 0a03 8d3d
00000350: 8e22 963c 110c 973d 8602 95bd 2125 9b3d
00000360: 7a87 a4bc 6066 8a3d 6788 47bd cfe9 85bc
00000370: 2aa1 8cbd 718c b73c faee 74bc 0547 94bd
00000380: 4904 a03d 785b 8c3d 3e4d 5b3d b7a7 923d
00000390: 69e7 8a3d baa5 fc3c 2b3c b03d 8c07 3fbc
000003a0: a75a 023d 34e0 acbd 9f65 8d3d b173 9abb
000003b0: 0796 0d3c 61c6 df3c 62f2 8c3b eadd b2bc
000003c0: e2ad a4bc 5423 3bbc 7c0a 74bd c067 beba
000003d0: 6090 c63b f383 bcbc ddf1 bfbc 4404 97bc
000003e0: f57d 613d 3ca7 8ebd 4403 c0bc e18c 94bd
000003f0: ffd7 9abb 885d 13bd a7e1 0d3c 9902 6f3c

layer.6.bias f4 [23]
-0.032814365 0.009461181 -0.022092024 -0.06364629 0.055856068 -0.08957643 0.00656799 0.012850841
-0.078097425 -0.029299015 0.08147089 0.038781635 0.049633455 0.00483691 -0.04826799 -0.057244103
-0.07478947 0.05352686 0.021466345 -0.048296724 -0.0022363022 -0.0037215084 -0.021347206
00000000: 5b68 06bd 1203 1b3c 55fa b4bc fc58 82bd
00000010: 55c9 643d d973 b7bd 4b38 d73b 558c 523c
00000020: 8bf1 9fbd 7d04 f0bc 36da a63d 7ed9 1e3d
00000030: 734c 4b3d f17e 9e3b a8b4 45bd cb78 6abd
00000040: 392b 99bd fb3e 5b3d 30da af3c c9d2 45bd
00000050: ed8e 12bb 8de4 73bb 56e0 aebc
