weight/save_800_22.951923389450727.pth (torch_old, 87748 bytes, 8 tensors)

layer.0.weight f4 [64, 54]
0	0xbdb8bb6a	-0.090201214
1	0xbe7fc696	-0.24978098
2	0x3e79fa71	0.24411942
3	0xbb808a92	-0.003922769
4	0xbccedf79	-0.025253044
5	0xbc9bc9fd	-0.019017214
6	0x3f0a3772	0.5399085
7	0xbee40433	-0.44534454
8	0x3dfbda0f	0.12297451
9	0xbf83c15b	-1.0293382
10	0x3d4b7090	0.049667895
11	0x3d6a9581	0.057271484
12	0xbd955cad	-0.07293067
13	0xbdd956c7	-0.106122546
14	0xbdea7db3	-0.114497565
15	0x3deab570	0.11460388
16	0xbd93dff7	-0.07220452
17	0x3caad730	0.020854563
18	0xbc699d18	-0.0142586455
19	0xbd850ed3	-0.06496968
20	0xbde656ba	-0.112470105
21	0xbd8288b6	-0.06373732
22	0xbd3bd0b7	-0.045853343
23	0x3d9d88a4	0.07692078
24	0x3cf0c5e3	0.029391235
25	0x3c50ce2f	0.0127444705
26	0x3dd389e0	0.10329032
27	0xbe0d4600	-0.13796234
28	0xbca0b2a4	-0.019616432
29	0x3d83cefc	0.064359635
30	0xbd36727c	-0.044542775
31	0x3d880fb0	0.06643617
32	0x3d83dfee	0.064391956
33	0x3dbed6c6	0.093183085
34	0x3cdd84e0	0.027040899
35	0x3d69483b	0.05695365
36	0xbdb075c6	-0.086162135
37	0xbdd6a5e2	-0.104808584
38	0xbd7150c8	-0.05891493
39	0x3d0f80ef	0.03503507
40	0xbd84eb72	-0.0649022
41	0xbde68f96	-0.112578556
42	0xbcfd08a0	-0.030887902
43	0x3c15054c	0.009095501
44	0xbce15808	-0.027507797
45	0x3e09c0b8	0.13452423
46	0xbcf3b064	-0.029747196
47	0x3e043d8b	0.12914102
48	0x3d0f7820	0.03502667
49	0xbde297b2	-0.1106409
50	0xbd71ae08	-0.05900386
51	0x3d0d8644	0.034551874
52	0xbdf34bcf	-0.11879694
53	0x3e043a80	0.12912941
54	0xbcb27f4c	-0.021789216
55	0x3e9cb9f6	0.30610627
56	0xbeac974e	-0.33709186
57	0x3b52be9a	0.0032157064
58	0x3e03c6f3	0.12868862
59	0x3d1ef4e7	0.038807776
60	0xbf44a77c	-0.7681806
61	0x3ee7a6f0	0.4524455
62	0xbe2b6d61	-0.16740943
63	0x3f935f0b	1.151338
64	0x3d37ba33	0.044855308
65	0x3c564865	0.013078784
66	0x3ba18942	0.0049296925
67	0x3c400dd4	0.011722047
68	0xbdf76fed	-0.12081895
69	0xbd8c729a	-0.06857796
70	0x3d055a84	0.032557026
71	0xbb1c5040	-0.0023851544
72	0xbba501f5	-0.0050356337
73	0xba3c8fb6	-0.00071930455
74	0x3bca1a3a	0.006167677
75	0x3cb8918e	0.022530343
76	0xbd3bc489	-0.045841727
77	0x3de3a9ca	0.11116369
78	0xbc0ae1cd	-0.008476687
79	0xbdff89e7	-0.12477475
80	0xbc2ad4f6	-0.01042675
81	0xbd747d1b	-0.059689622
82	0xbdf9d7a5	-0.12199334
83	0x3d1c3134	0.03813286
84	0xbd1b738f	-0.037952002
85	0xbdebbb4d	-0.11510334
86	0xbe0a4f8f	-0.13506912
87	0x3d84bb9e	0.06481098
88	0x3d9d3e01	0.07677842
89	0x3ded2b6e	0.11580549
90	0xbd9a294d	-0.07527409
91	0xbe085f26	-0.13317546
92	0x3d236fd1	0.03990156
93	0x3da0d52a	0.07853158
94	0x3d91105d	0.07083199
95	0xbdca7053	-0.098847054
96	0x3dc572e5	0.09641055
97	0xbd99d6d6	-0.0751168
98	0x3dbf2205	0.093326606
99	0x3e070e0a	0.13188949
100	0x3d925e67	0.07146912
101	0xbcb7b4e8	-0.02242513
102	0x3d096d3e	0.033551447
103	0xbd8eb38a	-0.06967838
104	0x3e015bc3	0.1263266
105	0x3c861338	0.016366586
106	0xbc4323f9	-0.011910432
107	0xbd87178e	-0.065962896
108	0x3cc95d90	0.024580747
109	0x3e35a9af	0.1774051
110	0x3dfa5d41	0.12224818
111	0x3d9118f1	0.07084835
112	0x3db6b383	0.08920958
113	0x3c5819ce	0.013189746
114	0x3d10628f	0.035250243
115	0x3e6c46b9	0.23073854
116	0x3cedcab7	0.029027326
117	0xbd81e11f	-0.063417666
118	0x3c485f54	0.012229759
119	0x3cbff4ce	0.023432162
120	0x3d96e79a	0.07368393
121	0x3e11fde6	0.14257011
122	0x3db88b38	0.09010929
123	0x3e63604f	0.22204708
124	0x3c600fb0	0.013675615
125	0x3deba640	0.11506319
126	0x3dc6e900	0.0971241
127	0x3cac94c6	0.021067034
128	0xbbef4543	-0.007301958
129	0x3d5262e2	0.051363833
130	0xbb84c962	-0.004052327
131	0x3c86efb4	0.016471721
132	0xbc8522f6	-0.016252022
133	0xbd9b6601	-0.07587815
134	0xbdb58298	-0.088627994
135	0xbd9c1916	-0.07621972
136	0xbc7d0a40	-0.015444338
137	0xbc6086b8	-0.013703994
138	0xbe0ad696	-0.1355842
139	0x3dd1ed90	0.102503896
140	0xbd90e5a1	-0.07075048
141	0x3c69e3f0	0.014275536
142	0x3da3d974	0.0800046
143	0xbd5d2552	-0.05399067
144	0x3c658804	0.014009479
145	0x3d8438b8	0.06456131
146	0xbddcdf0c	-0.1078473
147	0xbddcc4bb	-0.10779711
148	0x3df1107b	0.117707215
149	0x3daefac6	0.08543925
150	0x3da73a2a	0.08165391
151	0xbd0060d8	-0.031342357
152	0xbe07fe86	-0.13280687
153	0xbe00261b	-0.12514536
154	0x3c0e1c30	0.008673713
155	0x3cab16fa	0.02088498
156	0x3e048bc5	0.12943943
157	0x3d16c6dc	0.03681074
158	0xbdf93237	-0.12167781
159	0xbcea206e	-0.028579917
160	0xbe0306dd	-0.12795587
161	0xbd7c48e2	-0.061592944
162	0x3d490c80	0.049084187
163	0x3e699147	0.22809325
164	0x3dc95ed5	0.09832541
165	0xbcbba285	-0.022904644
166	0x3c2840ca	0.010269353
167	0x3c956b09	0.018239515
168	0xbe6a393c	-0.22873396
169	0x3e1879ef	0.14890264
170	0x3e01d6a6	0.12679538
171	0x3f3b22c1	0.73099905
172	0x3c8ecc3b	0.017431369
173	0x3ca44810	0.020053893
174	0xbc82f748	-0.015987054
175	0xbc10837c	-0.008820411
176	0x3ded9e20	0.116024256
177	0xbd34b518	-0.044118017
178	0xbda873d6	-0.08225219
179	0x3aba5b80	0.0014217943
180	0xbdbd3637	-0.09238856
181	0xbcd98597	-0.026552958
182	0xbdb10b3b	-0.0864472
183	0xbd3f1e24	-0.046659604
184	0xbdc9cfde	-0.09854101
185	0xbdae86c3	-0.085217975
186	0x3d1dbc84	0.03850986
187	0x3caf1398	0.021371648
188	0x3d5be3c6	0.05368402
189	0xbe031d05	-0.12804039
190	0x3db341a5	0.08752755
191	0xbd908c12	-0.07057966
192	0xbde418f1	-0.1113757
193	0x3def4480	0.11682987
194	0xbd96b7c0	-0.07359266
195	0x3dea5de0	0.114436865
196	0xbdd95611	-0.10612119
197	0xbe00a973	-0.1256464
198	0x3d0f328b	0.03496031
199	0x3dac3ca8	0.08410007
200	0x3b84e8a2	0.0040560523
201	0xbda5b88b	-0.080918394
202	0x3df614b4	0.120156676
203	0x3df9c170	0.121950984
204	0x3dfd0e3c	0.123562306
205	0xbdfe1a06	-0.12407307
206	0x3daccbd8	0.084373176
207	0xbb0520c0	-0.002031371
208	0x3dcb0a62	0.0991409
209	0x3dc40f52	0.095732346
210	0x3cd9ec97	0.026602073
211	0x3de75e86	0.11297326
212	0xbdde1ecd	-0.108457185
213	0xbd63075a	-0.055426933
214	0xbd78860b	-0.06067471
215	0x3dedbd64	0.11608389
216	0x3cd84dd8	0.026404306
217	0x3d3848dd	0.044991363
218	0x3d900fae	0.07034241
219	0xbbef8c86	-0.007310453
220	0x3c83df43	0.01609767
221	0x3b635522	0.0034688194
222	0x3d694d23	0.05695833
223	0xbdb9a056	-0.09063785
224	0x3d653cb2	0.055966087
225	0x3e7868b4	0.24258691
226	0x3c2c42b6	0.010513952
227	0xbb38ed3c	-0.0028217575
228	0xbaf86e53	-0.0018953778
229	0xbb1b332a	-0.002368162
230	0xbcfdf9a0	-0.03100282
231	0x3db65f35	0.08904878
232	0xbcc699ec	-0.024243318
233	0xbd2be910	-0.041970313
234	0xbc0689b8	-0.008211546
235	0x3af2fd99	0.0018538713
236	0xbaf96370	-0.0019026827
237	0xbaed89c0	-0.0018122718
238	0xbd1491c0	-0.03627181
239	0xbd2455cd	-0.04012089
240	0xbd7999b1	-0.060937587
241	0x3dbe0bb6	0.092795774
242	0x3e0636d5	0.13106854
243	0x3dbf70e4	0.09347704
244	0xbd4d46be	-0.050116293
245	0x3c48bb30	0.01225166
246	0x3d23e2e7	0.040011313
247	0x3de84c60	0.113426924
248	0xbb75241b	-0.0037405554
249	0xbdd1e41e	-0.10248588
250	0x3db19cc9	0.086724825
251	0xbd3170fe	-0.04332065
252	0xbd8e5015	-0.06948868
253	0xbdee0cc2	-0.11623527
254	0x3e0eb015	0.13934357
255	0xbd806ce0	-0.06270766

layer.0.bias f4 [64]
0	0xba6afae6	-0.00089637784
1	0xbd83b012	-0.06430067
2	0x3eafaa59	0.34309652
3	0x3da5638f	0.0807563
4	0xbcdf6bc9	-0.027273076
5	0x3db3f9fe	0.087879166
6	0x3da9e8c5	0.082963504
7	0xbd158d10	-0.03651148
8	0xbdcac297	-0.09900396
9	0xbd92dbd3	-0.071708344
10	0xbdd037a9	-0.10166866
11	0xbb931333	-0.0044883727
12	0xbd66d157	-0.056351986
13	0x3ca9bcba	0.020719875
14	0x3d55ef42	0.052230127
15	0xbda3d817	-0.080002
16	0x3c28a062	0.0102921445
17	0xbd1649be	-0.03669142
18	0x3d8fee73	0.070279025
19	0x3dd75f5e	0.10516237
20	0x3d8699b2	0.06572284
21	0x3df7e71d	0.12104628
22	0xbd31c9e5	-0.043405432
23	0xbc82d1b2	-0.015969131
24	0xbd85cba8	-0.06532985
25	0xbdd4a828	-0.10383636
26	0x3d532c9f	0.051556226
27	0xbdffea55	-0.12495867
28	0xbc9277d4	-0.017879404
29	0x3de0dd05	0.10979656
30	0xbdb51d28	-0.08843452
31	0xbd758ce0	-0.059948802
32	0x3d9c97bf	0.07646131
33	0x3d94507d	0.072419144
34	0x3df37779	0.11888022
35	0x3d742e40	0.05961442
36	0x3a919ba9	0.0011109012
37	0xbdee4e4a	-0.11636026
38	0x3df6b4f9	0.120462365
39	0x3d904fed	0.07046495
40	0x3de0ff28	0.10986167
41	0x3d13468a	0.035955943
42	0x3e017424	0.1264196
43	0x3dff4eb6	0.12466185
44	0xbdb0ca5e	-0.086323485
45	0x3dd024b2	0.10163249
46	0xbcb979eb	-0.022641143
47	0x3d7c9c24	0.061672345
48	0xbd3192a7	-0.04335275
49	0xbd7581a9	-0.059938107
50	0x3deb9c69	0.11504442
51	0x3d2116fb	0.039328557
52	0xbcd58419	-0.026063966
53	0xbdc2bf85	-0.09509186
54	0xbc89eb92	-0.016835961
55	0x3d090816	0.033454977
56	0x3db02040	0.08599901
57	0xbccc7333	-0.024957275
58	0xbb8dd5fc	-0.0043284874
59	0x3e055d70	0.13023925
60	0x3e6deb7b	0.2323436
61	0xbddcd5a5	-0.10782937
62	0xbc520ba1	-0.012820155
63	0x3d96b50c	0.07358751

layer.2.weight f4 [128, 64]
0	0xbde500a1	-0.111817606
1	0xbc61b4d2	-0.013776021
2	0xbd9e6ac1	-0.077352054
3	0xbd775e5b	-0.06039272
4	0x3cff5a8a	0.031171102
5	0x3d0497bb	0.032371264
6	0xbcff2438	-0.0311452
7	0xbd7a0d29	-0.061047707
8	0xbd1396d2	-0.036032505
9	0xbdb18e6e	-0.086697444
10	0x3c504cdb	0.012713636
11	0x3be2bdc6	0.0069195954
12	0x3d9f8df8	0.0779075
13	0xbce0fb95	-0.027463714
14	0x3cd85eb1	0.02641234
15	0xbd823cd8	-0.06359261
16	0x3ce59ea5	0.02802975
17	0x3d38a24a	0.045076646
18	0x3cb4ce69	0.02207108
19	0xbce5cb12	-0.028050933
20	0xbdf2fea9	-0.11864979
21	0x3db86b03	0.09004786
22	0x3be3d7a9	0.006953199
23	0x3d4f8e8c	0.050673053
24	0x3dae7ec6	0.08520274
25	0x3cb2bcb8	0.021818504
26	0x3dba5249	0.09097726
27	0x3d9d5ecd	0.076840974
28	0xbd6a2447	-0.057163503
29	0x3b615717	0.0034384185
30	0x3cc96bff	0.02458763
31	0xbd4a40b8	-0.049378127
32	0xbc7f43a1	-0.015580089
33	0x3caa7342	0.020806912
34	0xbc32f5b3	-0.010922837
35	0x3d60d9d4	0.054895237
36	0xbd04a612	-0.03238494
37	0xbd27f40d	-0.04100423
38	0xbc90546b	-0.017618379
39	0x3ba8f188	0.005155746
40	0x3e0019cc	0.1250984
41	0xbd38cc92	-0.04511697
42	0xbdcd97a2	-0.10038687
43	0x3d0c87e4	0.034309283
44	0xbdedec1c	-0.116173
45	0x3d960174	0.07324496
46	0x3d36f960	0.044671416
47	0x3da71992	0.08159174
48	0x3db26b59	0.08711881
49	0xbdf3621f	-0.118839495
50	0x3e114c37	0.1418923
51	0xbda0967f	-0.07841205
52	0xbdf313b9	-0.11868996
53	0x3dfe0ed8	0.12405175
54	0x3d86576f	0.065596454
55	0x3c669364	0.014073227
56	0x3d8419a3	0.06450202
57	0xbd063642	-0.032766588
58	0xbda641c1	-0.0811801
59	0x3d78116f	0.0605635
60	0xbdb4cc5f	-0.08828043
61	0x3d4dd741	0.05025411
62	0xbd166687	-0.03671887
63	0x3df3101f	0.11868309
64	0x3cff17b9	0.031139242
65	0x3d9445b8	0.0723986
66	0xbd4249c4	-0.04743363
67	0xbcfa2789	-0.03053643
68	0x3d7b25c1	0.0613153
69	0xbdd3a0f5	-0.103334345
70	0xbd88c20c	-0.066776365
71	0xbd1beef9	-0.0380697
72	0xbd4d4803	-0.050117504
73	0x3caaab3c	0.020833604
74	0x3de8d1d1	0.11368144
75	0x3d6db050	0.058029473
76	0x3dc0fc90	0.094231725
77	0xbd642b4d	-0.055705357
78	0xbd8c3014	-0.06845108
79	0xbdae43d7	-0.08509033
80	0x3cda36e8	0.02663751
81	0xbb9937e5	-0.0046758526
82	0xbd7b471e	-0.06134712
83	0xbcc97d28	-0.024595812
84	0x3e0620ce	0.13098451
85	0xbdb28cdf	-0.08718275
86	0x3db5bbda	0.088737205
87	0xbd997021	-0.0749209
88	0x3dea9534	0.114542395
89	0x3d44681f	0.04795086
90	0x3d5889e1	0.052865867
91	0x3dab53d8	0.08365601
92	0xbd9b70f7	-0.07589906
93	0x3da51766	0.080611035
94	0x3d960291	0.07324708
95	0x3d900376	0.0703191
96	0xbdecc942	-0.115618244
97	0xbe080fd0	-0.13287282
98	0x3dba7533	0.09104385
99	0x3c35c330	0.0110939
100	0x3dc8b7de	0.09800695
101	0xbdbec9fe	-0.09315871
102	0xbced0220	-0.028931677
103	0xbd865d71	-0.06560791
104	0x3de218ec	0.1103991
105	0xbc5bea21	-0.01342252
106	0xbc1f78b3	-0.009733367
107	0x3d2e7216	0.04258927
108	0x3d857793	0.065169476
109	0xbbd75992	-0.006571957
110	0xbdc957f3	-0.09831228
111	0xbdb3d434	-0.08780709
112	0x3ceb4c70	0.028722972
113	0xbde77267	-0.113011174
114	0x3d31d63f	0.04341721
115	0x3d93fdf6	0.072261736
116	0x3d11628d	0.035494376
117	0xbdc6fbc2	-0.09715988
118	0x3da58ae8	0.08083135
119	0x3dacf1e2	0.08444573
120	0x3dea4bed	0.11440263
121	0xbdd37e30	-0.10326803
122	0xbd7151b8	-0.058915824
123	0x3c4954aa	0.012288252
124	0x3dc70816	0.09718339
125	0xbd06d1ae	-0.03291481
126	0x3d3d9b91	0.046290938
127	0x3c2893a7	0.010289109
128	0x3dc82a7f	0.097737305
129	0x3d95bf3e	0.07311867
130	0x3d278fc5	0.040908594
131	0x3c0ab445	0.008465831
132	0x3e1c8461	0.15284874
133	0xbd0271ac	-0.031846687
134	0x3df6925c	0.120396346
135	0xbe102068	-0.14074862
136	0x3de8bdc4	0.1136432
137	0x3dd23da2	0.10265662
138	0xbdb3dcc9	-0.08782346
139	0x3da0f8f3	0.07859983
140	0x3d7711c7	0.06031969
141	0x3bc33e22	0.0059583345
142	0x3d9ec22a	0.077518776
143	0x3ca75b18	0.02042918
144	0xbd8fc2e5	-0.07019595
145	0x3d90bfc8	0.07067829
146	0x3d04a1c2	0.032380827
147	0xbd225c1f	-0.039638635
148	0x3cd48b41	0.025945308
149	0xbd580e7d	-0.052748192
150	0xbcb395f9	-0.021922098
151	0x3d446767	0.047950175
152	0xbdda2782	-0.10652067
153	0x3d424f26	0.047438763
154	0xbdd520a9	-0.1040662
155	0xbdc7d8ae	-0.09758125
156	0xbcf76537	-0.03019963
157	0x3dddbcac	0.10827002
158	0xbdbb9e42	-0.09161045
159	0x3cd18ca4	0.025579758
160	0x3cff6bce	0.031179335
161	0xbd8c709f	-0.06857418
162	0xbc37d96a	-0.011221269
163	0xbd153882	-0.036430843
164	0xbdc041c9	-0.093875475
165	0x3d1b11d5	0.037858803
166	0xbdaeb991	-0.08531488
167	0x3dadc455	0.08484713
168	0xbcf92882	-0.030414823
169	0x3de52c39	0.111900754
170	0xbdaf1dfa	-0.085506395
171	0x3d979e21	0.074032076
172	0x3dbc3baa	0.091910675
173	0xbda34f7e	-0.07974146
174	0x3d7bf2d8	0.06151089
175	0xbc0f7e05	-0.008758073
176	0xbdbc7df0	-0.09203708
177	0xbd929936	-0.07158129
178	0xbca13352	-0.019677792
179	0x3d7e2f3c	0.062056765
180	0x3df8fbb2	0.12157382
181	0xbd19b2bf	-0.03752398
182	0xbd4cc3ab	-0.04999129
183	0xbd9e318c	-0.07724294
184	0x3dd03ba4	0.101676255
185	0xbd741b39	-0.059596274
186	0x3dd399a4	0.10332039
187	0xbdc5a60e	-0.09650813
188	0x3d91b46f	0.07114493
189	0xbcb8f85c	-0.022579364
190	0xbd3b5828	-0.04573837
191	0x3dcbbb5c	0.09947845
192	0xbd996abe	-0.074910626
193	0xbdade589	-0.08491046
194	0x3d92a1fc	0.07159802
195	0x3dd939d0	0.1060673
196	0x3d97af70	0.07406509
197	0x3df4242d	0.119209625
198	0x3dcdabab	0.10042509
199	0x3dad70f8	0.08468813
200	0x3cb48287	0.022034897
201	0xbda8fb78	-0.08251089
202	0xbd7d27f8	-0.061805695
203	0xbdde6daf	-0.10860764
204	0x3d26d7a1	0.040732983
205	0x3cdf667e	0.027270552
206	0xbe05f85e	-0.13083026
207	0xbd1dbaf3	-0.038508367
208	0x3c4ee787	0.012628443
209	0xbde03a8b	-0.10948666
210	0xbddf6214	-0.10907379
211	0xbd7635a6	-0.060109757
212	0xbd801c0a	-0.06255348
213	0xbdae5be4	-0.085136205
214	0xbd9e29ce	-0.07722817
215	0x3db201ff	0.08691787
216	0x3d841761	0.06449772
217	0xbde3ffcf	-0.11132776
218	0xbda5bdf3	-0.080928706
219	0xbcbb5167	-0.022865964
220	0xbdba007f	-0.09082126
221	0x3d2d0f89	0.042251144
222	0x3dcf06b2	0.10108699
223	0x3c8992f8	0.016793713
224	0xbd42f894	-0.047600344
225	0xbd84e933	-0.06489792
226	0x3cf05cfe	0.029341217
227	0xbcaae763	-0.020862287
228	0x3d101c26	0.035183094
229	0xbdab6472	-0.08368768
230	0x3d171ecc	0.036894605
231	0xbc8e49d3	-0.017369187
232	0x3ca33d1a	0.019926596
233	0x3dc0e37c	0.09418389
234	0x3dab5834	0.08366433
235	0x3e0dcc1e	0.13847396
236	0xbc90a354	-0.017656006
237	0x3d7616ff	0.060080525
238	0x3983d8f5	0.00025147913
239	0xbdfd9e50	-0.12383711
240	0x3d8714ba	0.0659575
241	0x3dd1b6ed	0.102399684
242	0x3d400179	0.046876404
243	0x3df6895f	0.1203792
244	0x3d36f1af	0.04466408
245	0xbdc2dbcd	-0.0951458
246	0x3dbbb47c	0.09165284
247	0xbc8f220b	-0.017472288
248	0xbdd024d9	-0.10163278
249	0xbd735ec7	-0.05941656
250	0x3c9a8ea2	0.01886684
251	0xbc213cf8	-0.009841196
252	0xbcaca074	-0.021072604
253	0x3c12264e	0.008920265
254	0xbd250ea0	-0.04029715
255	0x3df50228	0.11963302

layer.2.bias f4 [128]
0	0x3d692bf6	0.05692669
1	0x3b9d97d7	0.0048093605
2	0x3d07d8d9	0.033165786
3	0x3e0465ee	0.12929508
4	0x3da3787f	0.07981967
5	0x3dd8857e	0.105723366
6	0x3d1a1749	0.037619863
7	0xbd3ef9d2	-0.046624966
8	0xbd1949e9	-0.037424
9	0x3cfff980	0.0312469
10	0xbc2b5aee	-0.010458691
11	0xbdb6cee5	-0.08926181
12	0xbd5a501b	-0.05329905
13	0x3c4b7ced	0.012419921
14	0x3daa4e74	0.08315745
15	0x3d93badb	0.07213374
16	0x3d3e0483	0.04639102
17	0x3d3afe39	0.045652602
18	0xbd88027d	-0.066410996
19	0x3c1204b7	0.008912257
20	0x3c0b3af0	0.0084979385
21	0xbd2ebe8c	-0.04266219
22	0xbdcaffa4	-0.09912041
23	0xbd402b87	-0.04691651
24	0xbcde6f9d	-0.02715283
25	0xbd34a4c8	-0.04410246
26	0x3da87397	0.08225172
27	0x3daffdef	0.08593356
28	0x3d57818c	0.05261378
29	0xbd5c3ca8	-0.053768784
30	0x3dd048a2	0.101701036
31	0x3dfc9d03	0.12334635
32	0xbd8bb674	-0.068219095
33	0xbcd9c340	-0.02658236
34	0xbdb6f4f2	-0.08933438
35	0xbdaf3a93	-0.08556094
36	0x3dc02abe	0.093831524
37	0xbac9b936	-0.001539028
38	0x3b0d12ee	0.0021526176
39	0xbdae49be	-0.08510159
40	0x3d9317c4	0.07182267
41	0xbd295142	-0.04133726
42	0x3deef9f1	0.11668766
43	0x3bd5ed8d	0.0065285624
44	0xbce247a5	-0.027622053
45	0x3dbd63a3	0.0924752
46	0xbc7d2a64	-0.015452001
47	0x3dbd88d8	0.092546165
48	0x3db8ba2e	0.09019886
49	0x3dcec2c1	0.1009574
50	0xbb0bcfa6	-0.0021333485
51	0x3d83c762	0.06434514
52	0x3ca5bcf6	0.020231705
53	0x3d1a9e32	0.037748523
54	0xbdb1b14f	-0.08676397
55	0x3dd04256	0.101689026
56	0x3ccf9e5b	0.025344064
57	0xbcc1a691	-0.023638995
58	0x3e654d04	0.2239266
59	0x3d9fc1c2	0.07800628
60	0xbd884b1c	-0.06654951
61	0xbcb1e8a5	-0.021717379
62	0xbd9abe2f	-0.07555806
63	0x3d8d4dc1	0.06899596
64	0xbdba3a3a	-0.09093137
65	0xbd9059c0	-0.070483685
66	0x3b5bc41f	0.0033533645
67	0x3dbde9f3	0.09273138
68	0x3ceb307c	0.028709643
69	0x3dd15fd3	0.10223355
70	0xbdd2db38	-0.10295719
71	0x3dbefd4f	0.093256585
72	0x3df68627	0.12037306
73	0x3d24e2b6	0.04025527
74	0x3b6f7c3d	0.0036542558
75	0xbc909dfb	-0.017653456
76	0x3d5a72d4	0.053332165
77	0xbe067f9c	-0.13134617
78	0xbde889f1	-0.11354435
79	0x3ce966cf	0.028491406
80	0xbd7c6dbf	-0.0616281
81	0x3d10350e	0.035206847
82	0x3d901334	0.07034913
83	0x3d9cd729	0.07658226
84	0x3ddfafa0	0.1092217
85	0x3b83482a	0.0040064054
86	0x3d8fc202	0.07019426
87	0x3dd65db1	0.10467089
88	0x3cac0e07	0.021002783
89	0xbde28374	-0.11060229
90	0x3dbefc1b	0.09325429
91	0x3ddc8830	0.10768163
92	0x3db4c392	0.088263646
93	0xbc7b5e3b	-0.0153422905
94	0x3de8ae3b	0.11361357
95	0xbcac91d1	-0.021065624
96	0xbd1b8580	-0.037969112
97	0xb85e885c	-5.305592e-05
98	0x3bdea62a	0.0067947106
99	0xbd722013	-0.05911262
100	0xbcf23206	-0.029564869
101	0x3d9ce616	0.07661073
102	0x3c7fe9fb	0.01561975
103	0xbdec9937	-0.11552661
104	0xbc7f6952	-0.015589075
105	0xbb80bab8	-0.0039285086
106	0x3c410212	0.011780279
107	0xbd4bd528	-0.04976383
108	0xbd1ae3f2	-0.03781504
109	0x3de2d39b	0.11075517
110	0x3e063c55	0.13108952
111	0x3d946d60	0.07247424
112	0xbc46c100	-0.012130976
113	0x3ab10f64	0.0013508615
114	0xbdc67e7e	-0.09692095
115	0xbd93e9ed	-0.07222352
116	0x3dde9205	0.10867695
117	0x3dd3bfaf	0.10339295
118	0x3d8460c9	0.06463773
119	0x3db9ddca	0.09075506
120	0xba11a43d	-0.00055557844
121	0xbd97c3e9	-0.07410414
122	0x3dde605c	0.10858223
123	0x3d103d30	0.035214603
124	0x3b879a48	0.004138265
125	0x3ddcc425	0.10779599
126	0xbc9bce45	-0.019019255
127	0xbc8070b5	-0.015678743

layer.4.weight f4 [64, 128]
0	0x3bb1a57b	0.005421338
1	0xbd9e7a82	-0.0773821
2	0x3cfb695a	0.030689884
3	0xbcb50f1a	-0.022101928
4	0xbd8ed869	-0.06974871
5	0xbd25d12c	-0.040482685
6	0x3d6a5087	0.057205703
7	0x3d109bd8	0.035304874
8	0x3d34253d	0.043980826
9	0x3c105920	0.008810312
10	0xbdbdeee6	-0.09274082
11	0x3d8595f8	0.06522745
12	0xbd18e49e	-0.0373274
13	0xbce0cfc0	-0.027442813
14	0x3ce62050	0.02809158
15	0xbc19730b	-0.009365807
16	0xbb471a92	-0.0030380827
17	0x3c9e7034	0.019340612
18	0x3cd3447b	0.02578949
19	0x3bab40d6	0.005226235
20	0xbbff1122	-0.007784025
21	0xbd0d3966	-0.034478568
22	0x3d0b6326	0.034030102
23	0xbd979c73	-0.07402887
24	0xbc395bb7	-0.01131337
25	0xbda67ceb	-0.08129295
26	0xbd163a5d	-0.036676753
27	0x3c43ede4	0.011958573
28	0x3c98e889	0.018665569
29	0x3cf51322	0.02991635
30	0xbd97c29c	-0.07410166
31	0xbcd4d5c6	-0.025980841
32	0xbcb07c0a	-0.021543521
33	0xbd162500	-0.03665638
34	0xbcc1ab6a	-0.023641307
35	0xbd8a5a00	-0.067554474
36	0x3d522e46	0.05131366
37	0x3d40dba5	0.04708447
38	0x3d50a17a	0.050935246
39	0x3d92d879	0.07170195
40	0x3d298c92	0.041393824
41	0xbbea62cc	-0.007152891
42	0xbd66c4c2	-0.056339987
43	0x3d4a063f	0.049322363
44	0x3d9e9cc2	0.07744743
45	0x3d0c4e68	0.03425446
46	0x3c24abe9	0.010050752
47	0x3db50963	0.08839681
48	0xbd2fe577	-0.042943444
49	0xbd1ee886	-0.03879597
50	0xbd60e5d2	-0.054906674
51	0xbd72da7d	-0.059290398
52	0xbcb37dd2	-0.021910582
53	0x3d825eff	0.06365775
54	0xbba29baf	-0.0049624066
55	0x3d817467	0.0632103
56	0xbd991c7c	-0.07476136
57	0xbd7d3017	-0.06181344
58	0xbd673846	-0.05645015
59	0x3afa5a03	0.0019100312
60	0x3c34dc84	0.011038903
61	0xbd55b512	-0.052174635
62	0xbdb99112	-0.09060873
63	0xbd250dcf	-0.040296372
64	0xbd285556	-0.041097008
65	0x3d808b1f	0.06276535
66	0xbcee8cb0	-0.02911982
67	0xbd382da2	-0.044965394
68	0xbca3ef8d	-0.020011688
69	0x3cd32241	0.02577317
70	0xbc0b1502	-0.008488895
71	0x3c2503b8	0.010071687
72	0x3d960e4d	0.073269464
73	0xbc9cd654	-0.019145168
74	0x3d88c077	0.06677335
75	0xbdbdec75	-0.09273616
76	0xbd50a072	-0.050934263
77	0xbbdb43ff	-0.0066914554
78	0xbd2027b3	-0.03910036
79	0xbbf84d06	-0.0075775413
80	0xbdb1b0d4	-0.086763054
81	0xbd175600	-0.03694725
82	0xbd890922	-0.06691195
83	0xbd973755	-0.073836006
84	0x3cac76a0	0.021052659
85	0xbd8c9751	-0.06864799
86	0x3ca1a9b3	0.01973424
87	0x3d9251ac	0.07144484
88	0xbcd389c4	-0.025822528
89	0x3d82696c	0.06367764
90	0x3d3fe883	0.0468526
91	0xbd93862d	-0.072033264
92	0x3db39dff	0.0877037
93	0x3cd8c522	0.026461188
94	0xbd80a210	-0.06280911
95	0xbd85d3ab	-0.06534513
96	0xbd85ccd7	-0.06533211
97	0xbd013dcf	-0.031553086
98	0xbd2e5bf4	-0.042568162
99	0xbd698cea	-0.05701915
100	0x3d058b4f	0.03260356
101	0x3ca6317e	0.020287272
102	0xbd5a6bf2	-0.0533256
103	0xbd625cc2	-0.055264242
104	0x3d95921c	0.07303259
105	0x3d018fae	0.031631164
106	0xbcdfb1d9	-0.027306484
107	0xbd90983e	-0.07060288
108	0xbdae5e5b	-0.085140906
109	0x3d7da625	0.061926026
110	0xbc885581	-0.016642334
111	0xbd1e6be7	-0.038677122
112	0x3cfbf3f2	0.03075597
113	0x3d038352	0.03210766
114	0xbcc505a1	-0.024050536
115	0xbdbe339e	-0.09287189
116	0xbdbe1666	-0.09281616
117	0xbd724e1c	-0.059156522
118	0x3da00ebf	0.078153126
119	0x3c4256e5	0.011861538
120	0xbc47393e	-0.012159644
121	0xbc8a487a	-0.016880263
122	0x3d41106d	0.047134805
123	0xbc9aedba	-0.018912185
124	0x3d4d065d	0.050054897
125	0xbc9e99b6	-0.019360404
126	0xbc7637a8	-0.015027918
127	0x3d75a6c0	0.05997348
128	0x3d99e10f	0.0751363
129	0xbd42f1e6	-0.047593974
130	0xbd7113c6	-0.058856748
131	0x3c8c5c2b	0.017133793
132	0x3c40a833	0.011758852
133	0xbdb2bc10	-0.08727276
134	0xbc858b6c	-0.016301833
135	0xbd5d5aad	-0.054041553
136	0x3d48d107	0.04902747
137	0xbda3617a	-0.079775766
138	0xbd316b16	-0.043315016
139	0x3d0a5f06	0.033782028
140	0x3d8afc7a	0.06786437
141	0x3d40e049	0.047088895
142	0x3d0a5486	0.033772014
143	0xbda30dbe	-0.079616055
144	0x3d5638a8	0.052300125
145	0x3c8b1071	0.016975613
146	0x3dce938f	0.10086738
147	0xbdb0ae58	-0.086270034
148	0x3d2170e9	0.03941432
149	0xbcc34456	-0.023836296
150	0x3d81be85	0.06335167
151	0x3c503265	0.0127073275
152	0x3ce978eb	0.028500041
153	0x3cdd84ff	0.027040957
154	0xbc98ddd7	-0.018660469
155	0xbd216c2a	-0.039409794
156	0x3d2db99a	0.04241333
157	0x3d84b5fb	0.064800225
158	0x380efdc1	3.4091765e-05
159	0xbc5254e9	-0.012837627
160	0xbdb1c3be	-0.08679913
161	0x3d0f36a7	0.03496423
162	0xbdc90cf8	-0.09816927
163	0x3d191cb1	0.037380878
164	0xbdb41e00	-0.087947845
165	0x3ca49af9	0.020093428
166	0x3ccbe7c5	0.02489079
167	0x3cd22b8d	0.025655532
168	0x3d42180f	0.047386225
169	0xbdbb6a67	-0.09151154
170	0x3d6b6db4	0.057477668
171	0xbd261801	-0.040550236
172	0xbc2fa885	-0.0107213305
173	0xbdbfeba9	-0.093711205
174	0x3d89d2a4	0.0672963
175	0xbdc2ee23	-0.09518077
176	0x3d82ddca	0.06389959
177	0x3cb1a79c	0.021686368
178	0xbd3e10ee	-0.046402864
179	0xbda6d5bf	-0.081462376
180	0x3ca2f0cd	0.019890213
181	0xbd5d1960	-0.053979278
182	0x3c540954	0.012941677
183	0xbd0e6963	-0.034768473
184	0x3d618784	0.05506088
185	0x3d8f9915	0.0701162
186	0xbd11f017	-0.03562936
187	0x3d61dde7	0.055143263
188	0xbd29b07a	-0.041428067
189	0xbdb20c9d	-0.08693812
190	0x3da1f013	0.07907119
191	0xbdc0f100	-0.09420967
192	0xbd7ff374	-0.062488034
193	0xbd3bbe62	-0.04583586
194	0xbd125231	-0.035722915
195	0xbd215c29	-0.03939453
196	0x3ba71ca6	0.0050998507
197	0xbb1af7d4	-0.0023646252
198	0x3d871bc4	0.06597093
199	0x3c20eea4	0.009822521
200	0xbe02b1ab	-0.12763087
201	0x3c5dd995	0.013540645
202	0x3d9250d3	0.07144322
203	0xbd5b0e90	-0.053480685
204	0xbc7d5568	-0.015462257
205	0x3d2e0937	0.042489257
206	0xbc0a9a44	-0.008459631
207	0xbcd47a61	-0.025937261
208	0x3d4331f9	0.04765508
209	0xba4136c8	-0.0007370529
210	0x3d7ca63e	0.06168198
211	0xbda98591	-0.08277429
212	0xbda41686	-0.080121085
213	0x3d0fb5e2	0.035085566
214	0xbaeade3c	-0.0017919014
215	0x3d809663	0.06278684
216	0xbce93b4b	-0.028470656
217	0x3d8f9d1f	0.0701239
218	0xbca223f6	-0.019792538
219	0xbd20c5d5	-0.039251167
220	0x3c5ec5da	0.013596976
221	0x3d55fea8	0.052244812
222	0xbd0e9554	-0.03481038
223	0xbdabf4bf	-0.08396291
224	0x3d950cf4	0.07277861
225	0x3c958676	0.018252593
226	0x3d916b8d	0.07100592
227	0x3d98f624	0.074688226
228	0xbba962ae	-0.0051692342
229	0x3c31db22	0.010855468
230	0x3d0d5ada	0.03451047
231	0x3d8b645e	0.06806253
232	0x3cb908c9	0.022587197
233	0x3d2350de	0.039872043
234	0xbcad9295	-0.02118806
235	0xbdaac476	-0.08338253
236	0xbd56c71d	-0.052435983
237	0x3d9ca22f	0.076481216
238	0x3d74a147	0.05972412
239	0xbd8d5d81	-0.069026
240	0xbd3fcbe3	-0.0468253
241	0xbd208b59	-0.039195392
242	0xbdab8ca9	-0.08376438
243	0xbc887c58	-0.016660854
244	0x3a4ea6ec	0.00078831497
245	0x3d95e3b4	0.073188215
246	0x3cbc45eb	0.022982558
247	0x3c4c71b7	0.012478284
248	0xbce78944	-0.028263696
249	0xbd70a206	-0.058748268
250	0x3d2ac636	0.041692935
251	0x3d4fc831	0.050728027
252	0xbd78cc44	-0.060741678
253	0x3d824f9e	0.06362842
254	0x3924fc4a	0.00015734244
255	0x3cdcd110	0.026955158

layer.4.bias f4 [64]
0	0xbb5709ed	-0.0032812313
1	0x3d2dc3d5	0.042423088
2	0xbc6ceb80	-0.014460444
3	0xbd05c4ec	-0.032658502
4	0xbc93d581	-0.018046143
5	0xbcc38957	-0.0238692
6	0x3cca8ca6	0.02472527
7	0x3c99f706	0.018794548
8	0xbd9490ce	-0.07254182
9	0xbd3a6b12	-0.045512266
10	0x3c1d7f83	0.009612921
11	0x3d6be286	0.057589076
12	0x3cf712af	0.030160276
13	0xbd8546f0	-0.06507671
14	0xbd634d92	-0.0554939
15	0x3d33c97e	0.04389333
16	0xbd445551	-0.047932927
17	0xbda3674c	-0.07978687
18	0x3d3f9f04	0.04678251
19	0xbd4dae9f	-0.05021536
20	0xbbc925db	-0.006138546
21	0xbcfe3b33	-0.031034088
22	0x3c0acb0b	0.008471261
23	0x3ce8fa8a	0.028439779
24	0x3d6980ba	0.05700753
25	0xbd1e19de	-0.038598888
26	0xbc720748	-0.014772244
27	0xbd73f5cd	-0.059560586
28	0xbc33cdcc	-0.010974359
29	0xbc9ff2bd	-0.019524926
30	0xbd6c2205	-0.05764963
31	0xbdb7ddc9	-0.08977849
32	0xbcce788c	-0.025203966
33	0xbccdd707	-0.025126947
34	0x3d9e5eff	0.07732963
35	0x3db060a3	0.08612182
36	0x3c1efd98	0.009704016
37	0xbd922b59	-0.07137174
38	0x3d8e2296	0.069401905
39	0x3c87166c	0.016490184
40	0x3d2227d4	0.039588764
41	0x3d880fe9	0.066436596
42	0xbd87d9a6	-0.0663331
43	0xbd7f24b6	-0.06229087
44	0xbd49e2a2	-0.0492884
45	0xbc4cbb7a	-0.01249587
46	0xbd7bcfad	-0.061477352
47	0xbd65b992	-0.056085177
48	0x3cd13c9f	0.025541602
49	0x3cf8150d	0.030283475
50	0xbd9a0d2a	-0.07522042
51	0x3d37b25b	0.044847827
52	0x3c674390	0.014115229
53	0xbd804689	-0.062634535
54	0xbd19c1fe	-0.03753852
55	0xbdb00269	-0.0859421
56	0xbcdc8859	-0.026920484
57	0xbcf896b1	-0.030345293
58	0xbd6a86b7	-0.05725738
59	0x3c1ed83f	0.009695112
60	0x3d2410b6	0.040055
61	0xbda74115	-0.0816671
62	0x3d25b87e	0.04045915
63	0x3d645008	0.055740386

layer.6.weight f4 [23, 64]
0	0xbc14aa89	-0.009073862
1	0xbc231ef1	-0.0099561075
2	0x3d3b0bd4	0.045665577
3	0xbd226a29	-0.039652023
4	0xbc9d00fa	-0.019165505
5	0xbd4c3d00	-0.04986286
6	0xbd864a6b	-0.06557163
7	0x3c04838a	0.008088002
8	0xbca617f7	-0.0202751
9	0x3b52972e	0.0032133567
10	0x3d18224e	0.03714209
11	0x3cf82e83	0.030295616
12	0x3d1e867f	0.038702484
13	0xbdd2e578	-0.10297674
14	0xbde33836	-0.11094706
15	0xba188545	-0.00058181986
16	0xbd7f1af8	-0.06228158
17	0x3da407e7	0.0800932
18	0xbcb54587	-0.02212788
19	0x3d417966	0.047234915
20	0xbd3e2362	-0.046420462
21	0xbdcc6c7e	-0.09981631
22	0x3d8c5365	0.06851844
23	0xbdb2aad1	-0.08723987
24	0x3d4e6e38	0.05039808
25	0xb9793e56	-0.00023769712
26	0x3c1a3ef8	0.009414427
27	0xbe0ef9c5	-0.13962467
28	0x3b8d8b53	0.0043195873
29	0x3d986ace	0.074422464
30	0xbc298d59	-0.010348641
31	0x3dd1afad	0.102385856
32	0xbd971b4d	-0.07378254
33	0x3da5287e	0.08064364
34	0x3b9cb92c	0.0047828164
35	0x3dbb5ac7	0.09148174
36	0xbd721a74	-0.05910726
37	0x3dc4a5c5	0.096019305
38	0xbd50653e	-0.050877802
39	0xbad24eef	-0.0016045253
40	0x3de7c8a3	0.11317565
41	0x3db0b507	0.08628278
42	0x3d828848	0.0637365
43	0x3e03c68c	0.12868708
44	0x3d0c1452	0.034199066
45	0xbdc2fd85	-0.09521011
46	0xbcc85257	-0.024453325
47	0xbc805a09	-0.015667932
48	0x3c906060	0.01762408
49	0x3be3b066	0.0069485186
50	0x3d8e672b	0.069532715
51	0xbd3a0907	-0.045418765
52	0x3d80e81a	0.0629427
53	0xbd40e631	-0.047094528
54	0x3c863f1e	0.016387518
55	0xbda3ee84	-0.080044776
56	0x3dbed2c3	0.09317543
57	0x3d072da1	0.0330025
58	0xbc6a165f	-0.01428756
59	0x3d0cf869	0.03441659
60	0xbb1e3dd4	-0.002414574
61	0xbd3de8f7	-0.04636475
62	0x3cd55f25	0.026046345
63	0x3dae81f3	0.085208796
64	0x3d852b9a	0.06502457
65	0x3ba13dee	0.0049207127
66	0x3d101701	0.03517819
67	0x3d1b7346	0.03795173
68	0x3c2ac3d3	0.010422665
69	0x3d9bb476	0.076027796
70	0x3d69f310	0.057116568
71	0x3d71efbd	0.059066523
72	0x3d28e13a	0.041230418
73	0x3d5417c4	0.051780477
74	0xbd6b0648	-0.057379037
75	0x3d137e9c	0.036009416
76	0x3b6dae06	0.0036267056
77	0x3d8f0b99	0.06984634
78	0xbda45225	-0.0802348
79	0xbd191b9a	-0.03737984
80	0x3dc9c36a	0.098517254
81	0xbcd5e0a8	-0.026108101
82	0xbdc4e369	-0.096136875
83	0x3bdc71b9	0.006727424
84	0xbd88d88c	-0.06681928
85	0x3cdc904a	0.026924271
86	0xbcbc6ebf	-0.023002027
87	0xbd9c67c8	-0.07636982
88	0x3cd8b6a0	0.02645427
89	0xbcf3f55c	-0.029780082
90	0xba423228	-0.00074079866
91	0xbd469969	-0.048486147
92	0xbdb69bf7	-0.08916467
93	0x3dce75cb	0.10081061
94	0x3d2af27c	0.041735157
95	0x3de8e833	0.113724135
96	0xbc62048c	-0.013795029
97	0xbd4bdfd4	-0.049774006
98	0x3dddd307	0.10831266
99	0xbcca4e4c	-0.024695538
100	0x3d5588be	0.05213236
101	0x3d6597ba	0.0560529
102	0xbd9891fc	-0.07449719
103	0xba668c29	-0.0008794689
104	0xbd0138d4	-0.031548336
105	0x3da08124	0.078371316
106	0x3ca9bafb	0.020719042
107	0x3c9d34ac	0.019190155
108	0x3cd8fa60	0.026486576
109	0xbd0d8611	-0.034551684
110	0xbd3667c3	-0.04453255
111	0xbd8b9193	-0.068148755
112	0x3d0534c7	0.032521036
113	0x3dc9018e	0.0981475
114	0x3d56a650	0.0524047
115	0xbde12f37	-0.10995334
116	0xbd99eaf0	-0.07515514
117	0xbcff0aec	-0.031133138
118	0xbd6c6484	-0.057713047
119	0xbdbaeea1	-0.09127546
120	0xbb93885a	-0.0045023384
121	0x3d7fdd28	0.06246677
122	0x3b2e6f47	0.002661662
123	0x3d873654	0.06602159
124	0xbdf360d8	-0.11883706
125	0xbd1fcc4a	-0.039013185
126	0x3d1e738c	0.038684413
127	0xbc90fe71	-0.017699452
128	0xbd2ba845	-0.04190852
129	0xbda42fc0	-0.0801692
130	0x3b2eef78	0.0026693027
131	0x3c416b9d	0.011805442
132	0x3dd9e6b5	0.10639707
133	0xbd972084	-0.07379249
134	0x3ca8fc80	0.020628214
135	0xbde49c2e	-0.111626014
136	0x3dc3edfa	0.09566875
137	0x3dab4dfb	0.08364483
138	0xbdd51e83	-0.1040621
139	0xbbf664ff	-0.007519364
140	0xbd4a48a4	-0.04938568
141	0x3dab6618	0.08369082
142	0x3d89e68c	0.067334265
143	0x3cedb834	0.029018499
144	0x3ccd4a6e	0.025059905
145	0xbd429495	-0.04750498
146	0x3cd30745	0.025760302
147	0x3d007880	0.031364918
148	0xbd35ecdc	-0.04441534
149	0xbc74737b	-0.014920111
150	0xbca01bd5	-0.019544521
151	0x3d7e4911	0.0620814
152	0xbd18a140	-0.037263155
153	0x3d9692a2	0.07352187
154	0xba6e3ae6	-0.0009087756
155	0xbd54a6ca	-0.051916875
156	0x3ce4eff9	0.02794646
157	0x3d1a517e	0.037675373
158	0x3daa178b	0.08305272
159	0x3c76b86f	0.015058621
160	0x3dc2881f	0.09498619
161	0x3d7e3fa1	0.0620724
162	0xbde380e6	-0.1110857
163	0x3d856def	0.06515109
164	0x3d51fed9	0.051268432
165	0x3cfe1c61	0.031019391
166	0x3db4d6f5	0.08830062
167	0xbd79efe7	-0.061019804
168	0xbcd05fa1	-0.025436224
169	0xbcca47f6	-0.024692517
170	0x3d88c2b5	0.066777624
171	0xbbb677d9	-0.005568486
172	0x3d9502bc	0.07275912
173	0x3d99864e	0.0749632
174	0x3dce53d3	0.10074582
175	0x3d6ed4b0	0.058308303
176	0xbdc8b516	-0.098001644
177	0x3ce8b786	0.028407823
178	0x3dd6fd4e	0.10497533
179	0xbd8f687b	-0.0700235
180	0xbcf2bdc0	-0.029631495
181	0xbcf25cea	-0.02958532
182	0x3d97f2f2	0.07419385
183	0x3d22131b	0.039569
184	0xbd8d5a05	-0.069019355
185	0x3dc06879	0.093949266
186	0x3deb5f9b	0.11492845
187	0x3d8b9833	0.06816139
188	0x3c2cd1dd	0.010548082
189	0x3dad374d	0.084578134
190	0xbcb2ca85	-0.021825084
191	0xbd98d30f	-0.07462131
192	0xbc8dcbdf	-0.017309127
193	0x3c07f4a5	0.008298074
194	0xbd013007	-0.031539943
195	0x3d3ba5c4	0.045812383
196	0xbd3c2e67	-0.04594269
197	0xbd70aba4	-0.05875744
198	0xbc39228b	-0.01129974
199	0xbcd719a7	-0.02625735
200	0xbd8650dc	-0.065583915
201	0xbc7340a7	-0.014846957
202	0xbc8ffee5	-0.017577598
203	0xbd8faeec	-0.070157856
204	0x3cfb4e58	0.030677006
205	0x3d2673a0	0.040637612
206	0xbd490b5e	-0.049083106
207	0xbd66798b	-0.056268256
208	0x3c2148ce	0.009844018
209	0x3cbf469c	0.023349099
210	0x3d46d312	0.048541136
211	0x3d2a9104	0.041642204
212	0xbcc85df8	-0.02445887
213	0xbbcc0ba4	-0.0062269736
214	0x3dc1cb08	0.09462553
215	0xbcac9845	-0.021068702
216	0xbdb5d8de	-0.08879255
217	0x3c02999d	0.007971195
218	0x3aeea933	0.0018208384
219	0xbd2ad54f	-0.041707333
220	0xbc6025d5	-0.013680895
221	0xbd41a776	-0.047278844
222	0x3d2d8071	0.04235882
223	0xbd9b146f	-0.07572257
224	0xbcc5afe1	-0.024131717
225	0xbc5a9dd9	-0.013343298
226	0xbdaf8460	-0.085701704
227	0x3c0c4426	0.00856117
228	0xbcc87a56	-0.024472397
229	0xbcaba5d7	-0.020953102
230	0xbda7547f	-0.08170413
231	0x3d619e2b	0.05508248
232	0xbbe27c34	-0.006911779
233	0xbd9d83b3	-0.07691135
234	0xbd17d8bd	-0.037071932
235	0xbc5f08d8	-0.013612948
236	0xbd3a3b5f	-0.045466777
237	0xbd2132bf	-0.039355036
238	0x3de10a45	0.10988287
239	0x3b9a942a	0.0047173696
240	0x3d5ccc5e	0.053905837
241	0x3bfa8b54	0.0076460037
242	0xbda21d26	-0.07915716
243	0x3c8a3a43	0.016873484
244	0xbdcd5ab4	-0.10027066
245	0xbd289a1c	-0.041162595
246	0x3d3898ea	0.045067705
247	0x3da0341b	0.07822438
248	0x3dcf8040	0.101318836
249	0xbd455348	-0.048175126
250	0xbbedf222	-0.0072615305
251	0x3dcbf81d	0.09959433
252	0xbda0299c	-0.07820436
253	0xbdb3f71d	-0.087873675
254	0xbde30a5e	-0.11085962
255	0xbc8d4ab4	-0.017247535

layer.6.bias f4 [23]
0	0xbdffa4e2	-0.12482621
1	0x3c14c157	0.009079299
2	0x3c2d485a	0.010576332
3	0xbcccaed1	-0.024985703
4	0xbb2513e2	-0.0025188853
5	0x3d224b8f	0.03962284
6	0x3dfacf24	0.1224654
7	0x3d1f75fe	0.038930885
8	0x3c9dbebd	0.01925599
9	0x3da1f4df	0.079080336
10	0x3c9bbc36	0.019010644
11	0x3d30fe52	0.04321129
12	0xbbfc83c2	-0.0077061364
13	0xbdc06037	-0.093933515
14	0xbd4f2630	-0.050573528
15	0xbe026b29	-0.12736191
16	0x3ca939c8	0.020657435
17	0x3db27b91	0.08714975
18	0x3d92c0ef	0.071657054
19	0x3d9d2cd7	0.07674568
20	0xbc672ba7	-0.014109529
21	0xbd35cf34	-0.044387057
22	0x3d999d95	0.075007595
