weight/save_4_40.402196357238644.pth (torch_old, 87748 bytes, 8 tensors)

layer.0.weight f4 [64, 54]
00000000: 8cee f03d 4a68 883d 452d 733b 1d37 97bd
00000010: 5413 e8bc 0857 a53d 258d 8f3c cd27 06bd
00000020: 9082 023e 7bff eabd de2a 7e3d 2aec b03d
00000030: 8549 a9bd 7d8b b43d 5a41 03bd 22e0 53bd
00000040: ecd0 c23d 2036 20bc b370 6bbd c066 613d
00000050: 00b8 f33d 6c04 853d 1a11 e1bd cce9 fd3b
00000060: 9eab cbbd d401 cfbc c046 853d c819 213d
00000070: 7652 0bbd 1e47 c33d 4614 ba3d ecd5 c2bd
00000080: 3265 00bd 8876 f53c 5c7f 933d 0834 803c
00000090: 70cd fe3d 38ba 62bc 603c 9fbb 6172 dabd
000000a0: 9e13 d1bd 00be 043e 6078 de3b c7b7 d6bd
000000b0: 57a6 b8bd 3600 f7bd 54a9 093d 263c 013e
000000c0: 94ec 84bd 3c6b 1ebd ec2d 1abd 405e fcbb
000000d0: d8bd aa3d 9844 d6bd a04a 57bc ede5 02bd
000000e0: 3cf2 33bd 01ed 303d 0ca4 90bc fb6e 04bd
000000f0: b61f 88bd 067f ddbd 82d6 8bbd 1e4e c9bd
00000100: a67e 04be 4e34 ef3d cac1 39bd 36d2 ec3c
00000110: fa41 063e c8da b9bd 36f9 f9bd 982b ff3d
00000120: 5d83 2abd 448d 8cbd 2831 8bbc 22a9 04be
00000130: 1176 533d 4f7d 5c3d 103d c73d cb9c 00be
00000140: c40d 9cbd 2f46 89bd ca08 d5bd 58ad b03c
00000150: 629b 8f3d 253c 3b3b e53a 273d a237 82bd
00000160: ebe4 25bc eec0 16bd ab87 14bc 51fe 87bd
00000170: fcf4 91bd ecbb 6dbd 629e cc3d 3cfd c13d
00000180: fb29 eabd f6ed fe3d 2e52 06be 684b a83c
00000190: ee73 033e 2678 97bd a19a 26bd 9293 a03d
000001a0: 0f87 0e3d 17cc a3bd 82d9 babc b9c0 9abd
000001b0: 9133 ccbd fe46 3abd fc10 d8bc 468b fcbd
000001c0: 521c dd3d 547a ffbc ba00 a6bd 58c3 dc3d
000001d0: 869b 23bd 6015 e23c 4073 1c3d d476 6e3d
000001e0: 2641 993d 00ff 27ba 005f 553a c443 d0bd
000001f0: 5823 89bc 3cc9 eb3d dc77 133d 9522 c9bd
00000200: b028 e13d d958 f8bd b4da 65bd 4c15 5a3d
00000210: a0c8 db3b 7c65 b23d c020 efbd e881 04be
00000220: cc95 e3bc 1866 fa3c 1cc2 b53d 541a 8c3d
00000230: 8a50 db3d c2f6 823d a2c8 8e3d c470 81bd
00000240: 40ff 88bb 5ccb afbc 926f a7bd 8921 fdbd
00000250: 3679 3ebd 2c47 4f3d 8a3c 883d a065 f0bc
00000260: 10dc 48bd 7e86 f6bd d8e9 6b3d 6e26 63bd
00000270: 6a2b 9abd a021 063d b6bc 41bd 4cb2 0abe
00000280: a679 043e d043 103d ea24 8b3d 1f52 ac3b
00000290: 6f44 4d3d 0817 bf3d cf8f 35bd 8f37 9cbc
000002a0: 92dc 6abd cbde ac3c e943 adbd 3176 0a3e
000002b0: 71a5 013e 16ae e83d ca4d ef3d 89fb 3d3d
000002c0: 5efb cd3d a993 d7bd 4e6f 7bbd 00c2 f53c
000002d0: e9d0 ea3d 03e8 c2bd 4b88 103e 9ac6 3dbd
000002e0: c04a a23c 38c5 0abe 4515 073c b5d9 f1bd
000002f0: 2c6d 66bd 232c 6a3d 35e1 13bd 707c 71bc
00000300: ce1a efbd a783 f63d 53c0 323d d689 b9bd
00000310: 1f9f 08be 9f57 813d 4fbf a23d 5cb3 9d3d
00000320: 305b 05bd 5b0e d53d 42a4 0cbe 30ff 843d
00000330: d0ab 4d3c f8dd 853d 96ec d4bd ea08 09be
00000340: 248d 49bd b69f aa3d 6c20 6f3d 983e 4fbc
00000350: f692 8f3d c604 a43d 451c 363d d04a 1b3c
00000360: 5ad0 fabd 93c7 8f3d 6335 08be 0960 993d
00000370: 1d13 e6bd 1031 723c 2ada 2abd f402 82bd
00000380: ab3a 3ebd 66d8 cd3d f722 ff3d 46b8 d03d
00000390: 850f 00be f904 0bbd 608a a53b 4812 923d
000003a0: 2b2f fdbd 38a1 d03d 55c4 51bd b127 c2bd
000003b0: 3740 babd 0791 24bc cf61 d63c deb5 4fbc
000003c0: be0f f3bd c019 2fbc f897 ce3c f6cc a1bd
000003d0: 7af9 fcbd 664a e73d 46f5 f3bd da85 883d
000003e0: 1fbf 193d dbb3 02be 9850 7ebc 069d 06bd
000003f0: 730d ab3d 405e 3d3c 3008 e8bd 7c89 cbbc
0.11764249 0.066605166 0.003710584 -0.07383559 -0.028329529 0.080732405 0.017523358 -0.0327528
0.12745118 -0.1147451 0.0620526 0.08638795 -0.08265976 0.08815668 -0.032044746 -0.05172742
0.09512505 -0.009778529 -0.057480525 0.05502963 0.119003296 0.06494984 -0.1098959 0.007748818
-0.09944843 -0.025269426 0.06507635 0.039331228 -0.034014188 0.09535049 0.09085898 -0.095134586
-0.031346507 0.029963747 0.07202026 0.01564981 0.12441528 -0.013838343 -0.004859492 -0.10666347
-0.1020882 0.12963104 0.006789252 -0.104842715 -0.09016102 -0.12060587 0.03360875 0.12620601
-0.06490436 -0.038676485 -0.03764145 -0.007701665 0.08336991 -0.10462302 -0.013140351 -0.031957556
-0.043932185 0.043194775 -0.017656349 -0.0323324 -0.066466734 -0.108152434 -0.068280235 -0.09829353
-0.12938938 0.11679898 -0.045350827 0.02890883 0.13111106 -0.09074932 -0.12205736 0.12459487
-0.041629184 -0.06862882 -0.016991213 -0.12955144 0.05162627 0.05383044 0.097284436 -0.12559812
-0.07619813 -0.067028396 -0.10402067 0.021567032 0.07012059 0.0028569784 0.04082765 -0.06358267
-0.010125379 -0.036805086 -0.009065549 -0.06640304 -0.07126805 -0.058040544 0.099911466 0.09472129
-0.114337884 0.12447731 -0.13117287 0.020543769 0.12837192 -0.07395963 -0.04067481 0.07840647
0.03479677 -0.079979114 -0.022808794 -0.0755629 -0.09970773 -0.04547786 -0.026375286 -0.12331252
0.10796417 -0.03118626 -0.08105607 0.10779446 -0.03994324 0.027598083 0.03819585 0.058218792
0.07483129 -0.00064085424 0.0008139461 -0.10169175 -0.016740486 0.11512992 0.03600298 -0.09821049
0.10994089 -0.12126321 -0.056116775 0.053242967 0.006707266 0.08710763 -0.116761684 -0.1294018
-0.02778139 0.03056626 0.08874914 0.06840959 0.10708721 0.063947216 0.069718614 -0.063203365
-0.004180819 -0.021459274 -0.08175577 -0.12359912 -0.046502315 0.050604984 0.06652172 -0.029345334
-0.049037993 -0.12037371 0.057596058 -0.05545657 -0.07527812 0.03274691 -0.04729911 -0.13544577
0.1293703 0.03522092 0.0679415 0.005258813 0.05011409 0.09330565 -0.0443266 -0.019069461
-0.05733926 0.02110233 -0.084602185 0.13521649 0.12660767 0.11361329 0.11684759 0.04638246
0.1005771 -0.10526211 -0.061385445 0.029999733 0.11465628 -0.09516909 0.14114492 -0.04633198
0.019811034 -0.13551795 0.008244817 -0.118091024 -0.05625646 0.057171 -0.036103446 -0.014739141
-0.116750345 0.120368294 0.043640446 -0.09059493 -0.1334195 0.063155405 0.079466455 0.07700226
-0.032557666 0.10403129 -0.13734534 0.06493986 0.01255317 0.06536478 -0.10396688 -0.13382307
-0.049206868 0.08331244 0.05838053 -0.012649201 0.070104524 0.08008723 0.044460554 0.009478286
-0.12246771 0.07020488 -0.13301615 0.074890204 -0.11234114 0.014782205 -0.041711964 -0.063482195
-0.04644267 0.1005104 0.12457841 0.10191397 -0.1250592 -0.03394029 0.005051896 0.07132393
-0.12362512 0.10187 -0.051212627 -0.09480227 -0.09094279 -0.010044343 0.026169686 -0.012677638
-0.11868237 -0.010687292 0.025218949 -0.07900421 -0.123522714 0.11293487 -0.119120166 0.06666155
0.037535783 -0.12763922 -0.015522145 -0.032864593 0.083521746 0.0115581155 -0.11329687 -0.024845831

layer.0.bias f4 [64]
00000000: a648 b03d 2bf5 c03d 74e5 80bd 75ef 913c
00000010: fdf7 843d 826f e6bd 8640 033e cf58 073e
00000020: 568c 023e 8646 3c3d 496a 0d3e fc59 003e
00000030: 7607 ebbd 42e9 d43d cb00 bbbd 3ff8 f63c
00000040: 3792 ae3c 5f30 c03d 7fd5 37bd bf22 3a3b
00000050: ab70 adbd b514 f13c f55e 08be 18e2 0a3e
00000060: b251 dabd 2edd 35bd 0ed0 57bd 9e1b a13c
00000070: eaa9 2dbd 4d8d 0cbe b868 f13c bf97 ef3c
00000080: 8f76 223b 8665 ef3d af4c 00be 34a2 c8bd
00000090: 3e27 22bd 3a7b a73d 677a 09be c01a 893d
000000a0: 732a 9b3d 14ba cabd 8c1e 1bbd 5b6b 63bc
000000b0: b10c 853d 99d3 85bd 9d60 83bd 8eb6 b83c
000000c0: 4fd1 04bd d4bf 9b3d 607a af3b f199 663d
000000d0: 52ea 1abe 9f19 8ebd 301c 4ebc 3ddd 603d
000000e0: 7059 f2bd 0f90 bbbd 1adf 9fbd 1fa7 d93d
000000f0: 5602 2a3d 4c45 513d 15e5 1f3d fe58 81bc
0.086076066 0.09421762 -0.06293765 0.017814377 0.064926125 -0.11251737 0.12817582 0.13217472
0.12748846 0.045965694 0.13810076 0.12534326 -0.114760324 0.10396053 -0.091310106 0.03014767
0.021309955 0.09384226 -0.04488134 0.0028402058 -0.08468755 0.02942882 -0.13317473 0.1356281
-0.106601134 -0.044400387 -0.05268865 0.01966649 -0.04239837 -0.13725777 0.02946888 0.029247163
0.0024789905 0.11689286 -0.12529252 -0.09796563 -0.039588206 0.081778005 -0.13425599 0.06694555
0.07576456 -0.09898773 -0.03787093 -0.013880576 0.06496561 -0.065345 -0.06414912 0.022547986
-0.032426175 0.07604948 0.0053551644 0.056299154 -0.15128449 -0.069384806 -0.012579963 0.05489849
-0.11833465 -0.09158336 -0.07806225 0.10627579 0.041506134 0.051091477 0.03903683 -0.015789505

layer.2.weight f4 [128, 64]
00000000: dbed ae3c 066a a3bd 341f 29bd 4024 09bd
00000010: 22cb febd 50b3 1a3d d075 d03d 3439 ef3b
00000020: 05dd e93d e011 37bc 1f45 b73c 4ef5 813d
00000030: 3ec4 6f3d c99d 35bd 001a 833a e81b 363d
00000040: 56fc 81bd a8bf 74bd e4c9 be3d d28f 82bd
00000050: 0929 413c 9777 993c a4e2 47bd a17e bebc
00000060: 03fd 80bd 845f e93d 3c8b 953a 7000 70bc
00000070: 0001 f5ba f6e3 a0bd faa3 953d 404b a53c
00000080: 3de0 e5bd 1852 34bd 0384 38bd ea4b 313d
00000090: f578 863d b6ee 883c e8a3 89bc 6383 d9bc
000000a0: de02 d63d 2a67 9dbd 685d bf3d dae2 b73d
000000b0: 203f 83bd 1088 1e3d 4223 47bd 4872 223d
000000c0: c23f febd 3724 103c 1446 f7bd 1182 eb3d
000000d0: e41e 8e3d 0052 bfb9 d5c0 bf3d 04d7 49bd
000000e0: f02c 0b3c 3278 8fbd 90d0 183c 894a 61bd
000000f0: 7286 3cbd 7842 f3bd c28c f2bd 7063 67bd
00000100: 009d 9d3d c009 31bc b01a 98bd cff7 8ebd
00000110: c1d0 0d3d 4c25 87bd 8d2e 3b3d 1ed0 813d
00000120: e8a1 f7bd 9cc0 e33d 0e35 81bd caf7 d1bd
00000130: 81da d7bc 9a90 89bc 7723 98bd 4330 53bd
00000140: ee1a f53d 787a c43d bba8 833d a900 c4bd
00000150: 6471 033d d252 d33d d846 c8bd 4b9c bd3c
00000160: 912c 103d 507b 033d 489b 8c3c 6f61 5fbd
00000170: 10f7 00bd e97e 79bd 1501 c13d 4b40 fabc
00000180: db84 bc3d 1236 49bd 6e2e 8b3c 4247 17bc
00000190: 65e6 d0bd 306f e0bd 5df1 a0bc 006e f43b
000001a0: 5535 eabb 5542 993d 60bf cb3d ea28 92bd
000001b0: 43d6 d3bd e01d 5fbd 5781 dabb a241 a33d
000001c0: e294 683d db7c 37bd 136f 94bc c090 003e
000001d0: d59d 05be a8f3 b3bd 9a63 cfbd fa34 0abe
000001e0: 5c04 8dbd d396 603d 1a1e 0b3d fa9d edbd
000001f0: 3d1f d9bd f096 6dbc 5199 b83d 3f31 973d
00000200: 8940 c5bd e018 e83b 1cf9 22bd 92f9 a6bc
00000210: eb54 d3bd 5419 693d 6709 283d f97c e63c
00000220: ba11 bb3d 7bc3 9bbb d9dd a53d 8e44 653b
00000230: d196 0e3d 0a50 793a 6ca4 703d 92d7 ebbc
00000240: 004c 0a3d 1cff 993d 3c8f 33bd 1f64 03bd
00000250: 1cae 6dbd 52fa 1cbc 4dff e13d 1e7e 903c
00000260: 7a90 82bd 4f79 b5bd 0b35 3dbb d167 ecbc
00000270: 229f cd3d e5ad cdbd f9c3 2cbd 0577 ccbd
00000280: 27a2 c03d b17a 85bd e4a3 09bd ed19 a83d
00000290: 4e98 2cbd e032 b1bc c859 cebb c1ab 88bd
000002a0: 2f8b 0b3e e5b2 ffbc 67ec 24bd 11d4 07be
000002b0: 802e 883c ad10 9dbd c15d abbd c10e da3d
000002c0: 814e c9bd bfe9 873d 2e16 033e d75c 2b3d
000002d0: 366d 443d 9ab0 a93d ef2a d33d 09ce ed3d
000002e0: 2f98 fa3d c749 3d3d 4bbb 3e3d 3c8c 4fbd
000002f0: 74ac c6bd ebb2 e6bd c21e d2bd 28f3 99bd
00000300: c629 863d c115 b43d 62e1 f6bd ee8d 81bd
00000310: 5ddb 1fbc 2083 8bbd 0e4d ff3c 821d 6ebd
00000320: 5f38 c539 0681 fdbd 64b3 68bb 528b 55bb
00000330: a41d dbbd b0ab 073c 1218 923d ec68 debd
00000340: 11d6 0aba e086 89bd ee39 bf3d a7d2 18be
00000350: c67c 16be b8ec 43bc 6365 d23d b7a0 e03c
00000360: 3c22 f9bd 2b91 e33d 92ab f5bd 02f8 ae3d
00000370: 123d 99bd 692a 3dbd 1685 80bd 52ed 1e3d
00000380: 4cf0 2c3d 908f 493d d5a9 e23d eabc 433c
00000390: af1a c23d e400 5b3d 168e 2d3a cbe4 ef3b
000003a0: bc9c dcbd 021d bbbd 217c babd c308 823d
000003b0: 43ee 7c3d 3420 383d bb22 f2bd 8d32 b6bd
000003c0: 2ab6 c23d 22a2 d63d 0422 d4bc cf12 a43d
000003d0: d0a0 7dbc e1b4 973d bf99 263c de92 d9bc
000003e0: 13f5 babd cb51 89bc 26b0 bfbd e110 68bd
000003f0: 3d60 03be c943 fc3c 8814 4d3d 64ca d73d
0.021353653 -0.07979207 -0.041289523 -0.033481836 -0.12441088 0.037768662 0.10178721 0.0073005203
0.11419109 -0.011173695 0.022371827 0.06345616 0.05853676 -0.04433993 0.0010002255 0.044460207
-0.063469574 -0.05975309 0.09315851 -0.06375088 0.011789569 0.018733783 -0.048800126 -0.02325374
-0.06298258 0.11395171 0.0011409293 -0.014648542 -0.0018692315 -0.0785598 0.07306667 0.020177484
-0.11224411 -0.044023603 -0.04504777 0.043285288 0.065660395 0.016715389 -0.01680179 -0.026551908
0.104497656 -0.076856926 0.09343988 0.089788154 -0.064085245 0.038703978 -0.04861761 0.03965977
-0.124145046 0.008797697 -0.12073913 0.114994176 0.06939486 -0.00036491454 0.09362952 -0.04927732
0.008494601 -0.07005347 0.009327069 -0.055002723 -0.046026655 -0.11877912 -0.11843254 -0.056491315
0.07695961 -0.010805547 -0.07426965 -0.069808595 0.03462291 -0.06598911 0.04569869 0.06338523
-0.12091428 0.11120722 -0.063089475 -0.1025234 -0.026349308 -0.016792584 -0.074286394 -0.051559698
0.11968027 0.095936716 0.06428667 -0.095704384 0.03209056 0.10318531 -0.097791374 0.023145815
0.03519875 0.03210002 0.017163888 -0.05453628 -0.031485617 -0.060912047 0.094240345 -0.030548235
0.09205028 -0.04912383 0.016989913 -0.009233298 -0.10200194 -0.10958707 -0.019646341 0.007459402
-0.007147471 0.07483355 0.09948611 -0.0713671 -0.103436016 -0.05447185 -0.0066682505 0.07971503
0.05678261 -0.044796806 -0.01811937 0.12555218 -0.1304849 -0.08786708 -0.10126419 -0.13496771
-0.06885597 0.054831337 0.033964254 -0.11602397 -0.10601661 -0.014501318 0.09013618 0.0738244
-0.0963145 0.0070830435 -0.03978835 -0.020382676 -0.10318931 0.05690892 0.04102459 0.028135763
0.091342404 -0.0047535277 0.08098955 0.0034983489 0.0348118 0.0009510523 0.058750555 -0.028789315
0.033763885 0.075193614 -0.04383777 -0.032077905 -0.05802737 -0.009581165 0.11035023 0.017638262
-0.06375213 -0.088610284 -0.0028870727 -0.028858097 0.10040118 -0.100429334 -0.04217908 -0.09983639
0.09405928 -0.06517542 -0.033603564 0.0820807 -0.042137437 -0.021630704 -0.006297324 -0.066733845
0.13627313 -0.031213233 -0.040264513 -0.1326449 0.016623735 -0.07669196 -0.083674915 0.10647345
-0.098294266 0.066363804 0.1280143 0.041836586 0.047955714 0.08285637 0.10310923 0.11611564
0.12236058 0.046212938 0.046565335 -0.050670847 -0.097008616 -0.11264595 -0.10259773 -0.075170815
0.065509364 0.08793212 -0.12054707 -0.06325899 -0.00975689 -0.068121195 0.031164672 -0.05813361
0.00037616768 -0.12378125 -0.0035507316 -0.0032584262 -0.10699013 0.00828068 0.07133497 -0.10859856
-0.00052961806 -0.067151785 0.09337221 -0.14924107 -0.14696035 -0.011958294 0.10273244 0.027420385
-0.12164733 0.11111673 -0.11995615 0.085433975 -0.07482351 -0.046183024 -0.06275384 0.038800545
0.042221352 0.049209177 0.11067549 0.011946896 0.09477746 0.053467646 0.0006620599 0.0073209754
-0.10772082 -0.09136392 -0.09105707 0.063493274 0.06175066 0.044952586 -0.118230306 -0.088963605
0.09507401 0.10480143 -0.025895126 0.080114 -0.015480235 0.07407547 0.010168492 -0.02655929
-0.091287754 -0.016762635 -0.093597695 -0.056656722 -0.1282968 0.030794041 0.05006841 0.1053665

layer.2.bias f4 [128]
00000000: 0e68 be3d 89dc b3bd a3c9 393b 2162 63bd
00000010: d376 833d 9281 ab3d 5b91 b13c 6962 b23d
00000020: 4f3f 143d f654 46bd a0be 21bd 3440 7fbd
00000030: 1a12 6cbd 09e0 fd3d c7a4 84bd 98c0 ce3d
00000040: dd45 ad3d 9fee 38bd fbe4 04bd c6e0 3cbb
00000050: d756 9cbc 64d8 483c b355 8a3d 2eea 7cbd
00000060: 04fe f93d 2d88 b13d 92cb d8bd e2d0 8b3c
00000070: 08d1 0a3d 1c29 dbbc 614a 2fbd f4b6 cebd
00000080: e5a0 eabc 7c67 cbbb fda4 04be 46a2 ccbd
00000090: 7a58 19bd ed6e ecbc 29e5 a2bd 166a 9a3d
000000a0: 1a80 63bc 71d4 36bd 2ec9 6b3d 17bf 693d
000000b0: 23c9 9d3c cae3 41bd 1aa4 bd3d 3cf6 a7bd
000000c0: 03b7 3bbd 5350 ccbc 64ff d0bd 8c9b 84bd
000000d0: 5dac a5bd 298e e13c 2aa2 67bd 027b a13d
000000e0: a3f5 c9bd 8105 3a3d b207 82bd 8b88 01bd
000000f0: d37d a9bd bdea b73d 9cd4 f1bd d23a 55bd
00000100: 48a8 3e3d 8258 f5bd e771 d03d ed97 573d
00000110: 25a5 86bd 6f75 9fbd f3be d9bd d92d 893d
00000120: c904 f03c e129 7fbd 9ab4 f93c 5820 81bd
00000130: d515 9dbd 7f12 973d 56b9 db3d e9ad 753d
00000140: 37d3 ee3d 605b 3ebb 8ea9 24bd a340 83bd
00000150: 53c6 fcbc 8c41 013d 1360 f6bd da58 5fbd
00000160: ac93 e53d ba96 423d d8bb 5b3d b10a dfbd
00000170: 3a7f 4bbd c22b fbbd 9f9b 30bd 0b3e 6fbd
00000180: 10c9 bb3d 5f49 dc3b 8b7a cebd e46d 103d
00000190: 2f58 243d 2e5d 2d3d 588e b53c 8931 f1bc
000001a0: 91ae cbbd babe d3bd 8620 b33d 366f e8bd
000001b0: 8721 43bd 5ff4 11bd 4413 96bd 56b1 f3bb
000001c0: a239 c0bd 5434 d03d f65c 203d f9fb c33c
000001d0: 6549 bcbd 55a0 d43d 106a 773d 9771 a7bd
000001e0: cac5 d53d 64cc c43d 441a e1bc d4f9 493d
000001f0: fa78 d4bd 77d6 e83d 0bd3 123d 0e82 a4bd
0.092971906 -0.08782298 0.0028348945 -0.055513505 0.06419148 0.08374323 0.021675756 0.087101765
0.03619319 -0.04842087 -0.039488435 -0.06231709 -0.05763445 0.12396247 -0.06476741 0.10095328
0.08460591 -0.04514944 -0.032444935 -0.00288205 -0.019084377 0.012258623 0.06754627 -0.06174677
0.12206653 0.086685516 -0.10585703 0.017067377 0.033890754 -0.026753 -0.042795543 -0.10093489
-0.028641174 -0.0062074047 -0.12953563 -0.09991889 -0.037437893 -0.028861487 -0.07953865 0.075397655
-0.013885522 -0.044636194 0.057564907 0.057067003 0.019260949 -0.047336377 0.092598155 -0.08201262
-0.04582883 -0.024940645 -0.10204962 -0.06474981 -0.08089516 0.027533608 -0.056551136 0.0788479
-0.098613046 0.045415405 -0.06349124 -0.03162436 -0.08275952 0.0898032 -0.1180813 -0.05205805
0.046547204 -0.11979772 0.10177975 0.052635122 -0.065744676 -0.077860706 -0.10632124 0.06698198
0.029299157 -0.0622958 0.030481625 -0.06304997 -0.0767018 0.07376575 0.107287094 0.059980307
0.1166138 -0.0029046163 -0.040200762 -0.06408813 -0.030856287 0.03155665 -0.120300435 -0.054528095
0.11209807 0.047507025 0.05364594 -0.10890711 -0.04968188 -0.122642055 -0.04311716 -0.05840878
0.09169209 0.0067226137 -0.10081967 0.03526105 0.04012316 0.04232519 0.022162601 -0.029442566
-0.09945405 -0.103391126 0.08746438 -0.11349337 -0.047639396 -0.03563344 -0.073278934 -0.0074369116
-0.093859926 0.10166231 0.039151154 0.02392386 -0.091936864 0.103821434 0.060403883 -0.081759624
0.10438116 0.09609297 -0.027478345 0.04931052 -0.10374637 0.11369031 0.035845798 -0.080326185

layer.4.weight f4 [64, 128]
00000000: b5d4 99bc 1833 9839 c143 e9ba f636 38bd
00000010: 230b 75bd e0dc 0a3d 1696 f0bc 3262 f33c
00000020: 1528 9abd d0ea 26bd 6278 6d3d b9ce 9b3d
00000030: 891a 44bc 60e0 6cbd a674 84bd e8c6 033d
00000040: 52d9 78bd 43ef b43c ef3b 9dbc 456e 493d
00000050: fa17 883d a0fc 62bd 7311 5dbd 29f4 433d
00000060: e5fc 9a3d 79d5 55bd a981 383d bdfd 923d
00000070: ba64 dabd c5d7 5a3d 8939 d0bc 1c2d aa3d
00000080: 448e 723d 0765 c43c 95f8 91bd 781c 843d
00000090: 972e de3c 5d7d 9ebd 0dd8 82bd f707 3f3c
000000a0: 4243 83bb cfd7 52bc 27f2 883d be6b 8c3d
000000b0: 2cbd 8d3b e0ac efbb cece e2bb 4adf 333d
000000c0: 71bf 4a3d 699e 6bbd 4933 3fbd 4e54 78bd
000000d0: d39d 6f3d 289d 123d dde3 873d a385 6f3d
000000e0: ae90 42bd d3d3 05bd bd20 afbd cde5 253d
000000f0: c25f 31bc 70ac f53b ffdc 67bd bf76 803d
00000100: f62d d7bb 1237 49bd 5b11 9e3d ca56 48bd
00000110: 6d1a 413d bf01 983d 6ea1 33bc b2ac e63b
00000120: 5dab 6abc 68c7 96bd f6e9 4abd 5ddc 3ebc
00000130: 92e7 84bd 5e64 a03c 2709 d5bc 341c a3bd
00000140: b87f 693c ea6b 703d 5294 c6bc 90ce 01bd
00000150: 88d1 a5bd f7e0 843d 77dc 82bd 7051 033c
00000160: 1a5b 9a3d 2d31 86bc 7ee3 35bc 5476 1b3d
00000170: 94aa adbd ae7b 93bd b23a 7fbd e76b a33d
00000180: ca64 9a3d 38c1 17bd 9c9f abb9 f4cf 86bd
00000190: d14d c53c 5d13 07bd aa53 a3bd 37e8 3c3d
000001a0: 34e6 163d ad78 153c f3ed cabc e189 a63b
000001b0: 2204 633d 7b02 1e3d b209 ccbd ed3b 00bd
000001c0: 23b2 cbbc 68ed 80bc ec13 5dbd 9274 87bc
000001d0: 77c7 393d e830 8fbd f92b 13bd 43d7 98bd
000001e0: 4a2f 06bd 2502 cc3c 2447 923d 1722 9bbd
000001f0: a5cb ff3c e8c5 b03d 4711 00bd ac27 b7bc
00000200: 44b0 3abd 278b 9dbb 2065 be3b e174 ab3d
00000210: 4f54 a5bd d8fe c1bc 60f4 93bb a677 8fbd
00000220: 80f9 9eba e921 37bd b93d 40bd 512d 513d
00000230: e025 7c3b cf68 aa3c b27f 873c 6d94 3abd
00000240: 6ad3 093d 516f 533d caa5 703d 56eb 23bd
00000250: 9418 8d3d 1f83 a73d d2d8 73bd 5b05 6c3d
00000260: f76b 29bc e76b e73c a69e 5d3d bb7e f7ba
00000270: b612 25bc 28a2 b03c ca54 1a3d e4b6 7d3c
00000280: fbdf a63d 4231 4b3c 79cb 123c 8c2e 4ebd
00000290: 9ecd 48bd 62d4 7cbd e4d6 a9bd 7c7b 91bd
000002a0: 3876 a5bd 52c2 6e3d a92b 1d3d 7bc4 a2bc
000002b0: d0bb 4fbd cd7d 04bd 0dde 0ebd 00db a9b9
000002c0: 69eb 113d d8fc 353c a8b3 473c aac8 873d
000002d0: f4ee ca3c 212b f43c 44b0 983d 2d2c 143d
000002e0: 3fd2 c43b d1d5 29bd df85 903d 583a 35bd
000002f0: 03a6 a7bd 1f09 f4bc 7a27 32bd 455b a13d
00000300: a292 aebd 8a23 71bd 6b2f 88bd df5e 43bd
00000310: d994 ff3c b261 423d 389e 143d 30f5 053c
00000320: c002 66bd 64dd e8bc 141f ab3d 34b7 e03c
00000330: 5ce2 d13b cd1d 853d d584 35bd 7458 60bd
00000340: 61e4 c83c 4331 963d d9de 89bd 4da0 edbc
00000350: 8481 9c3c 2d48 a73d b79b 293b 16a4 c2bc
00000360: af49 dcbc a333 e13c c6d9 87bd 2a01 703d
00000370: 546e 153c 7fe4 8e3c b8b3 a1bd f6aa a2bd
00000380: 0cf8 833c 0312 213d 6fe5 1d3d 63d4 923c
00000390: faa4 93bd 3455 88bd 2345 76bd 001b 583b
000003a0: 0e81 66bd 6675 9dbd a846 77bd 942e 6cbc
000003b0: c94e 0d3d 6706 003c 0eec e5bc 4254 19bd
000003c0: 90ad 8fbd 2932 273d 43d3 833d bb91 443d
000003d0: 3f71 963d b75a 19bd ba21 53bd 1d42 86bd
000003e0: 48fd 883d bbc0 a0bc 6b36 923d 28fe e43c
000003f0: 52f5 263d dd16 3fbd 80e2 703d 8781 953d
-0.018778184 0.00029029767 -0.0017796681 -0.04497429 -0.059825074 0.03390205 -0.029368442 0.02970991
-0.07527176 -0.04075128 0.057976134 0.076077886 -0.011969217 -0.05783117 -0.064675614 0.032172114
-0.060754128 0.022086745 -0.019193618 0.049177427 0.06645198 -0.055416703 -0.05397172 0.04784027
0.07567767 -0.052205537 0.04504553 0.07177303 -0.10663743 0.05342843 -0.02541806 0.08309385
0.059217706 0.023973955 -0.071274914 0.064507425 0.027121825 -0.07738755 -0.06388865 0.011659614
-0.0040058205 -0.012868836 0.06686812 0.06856488 0.0043255296 -0.0073143095 -0.0069216257 0.043914117
0.04949898 -0.05752412 -0.04667977 -0.060627274 0.058500122 0.035794407 0.06635258 0.058477055
-0.04750126 -0.032672714 -0.08551166 0.04050236 -0.010826053 0.007497363 -0.056607243 0.06272649
-0.0065667583 -0.049124785 0.07718154 -0.048910893 0.047144342 0.07422208 -0.010963781 0.00703963
-0.014323083 -0.073622525 -0.04953953 -0.011649218 -0.06489481 0.019579109 -0.02600534 -0.07964364
0.014251642 0.058696665 -0.024240647 -0.031691134 -0.080966055 0.06488221 -0.063897066 0.008015022
0.075369075 -0.01638087 -0.011101602 0.037954643 -0.08479801 -0.072013244 -0.062311836 0.07979565
0.07538755 -0.037049502 -0.0003273458 -0.06582633 0.024084957 -0.03297745 -0.07974942 0.046119895
0.036840633 0.00912301 -0.024771666 0.0050823544 0.055423863 0.038576584 -0.09962787 -0.03130715
-0.024865216 -0.015738204 -0.053974077 -0.016535077 0.04535624 -0.0699175 -0.035930607 -0.07462933
-0.032759942 0.024903366 0.07142475 -0.075748615 0.031225035 0.086314976 -0.031266477 -0.022357784
-0.045578256 -0.004807848 0.005810395 0.08371902 -0.08072721 -0.02368109 -0.0045152158 -0.07005243
-0.00121288 -0.044710074 -0.046933863 0.051068608 0.0038474724 0.02080193 0.016540382 -0.045551706
0.033648886 0.05161983 0.05875186 -0.040019356 0.068894535 0.08179306 -0.059532948 0.057622295
-0.010340682 0.028249694 0.054106377 -0.0018882373 -0.010075262 0.021561697 0.037678517 0.015485499
0.0814819 0.012401881 0.0089596445 -0.05033736 -0.049024217 -0.06172598 -0.0829294 -0.07103631
-0.08079189 0.058290787 0.038371716 -0.01986908 -0.05071622 -0.032346535 -0.034879733 -0.0003239736
0.035624895 0.011107646 0.0121888295 0.066300705 0.024772145 0.029805722 0.07455495 0.03617494
0.0060065086 -0.041463677 0.07056784 -0.044245094 -0.08185961 -0.029789506 -0.04349468 0.078787364
-0.08524062 -0.058871783 -0.06649669 -0.047697898 0.031198906 0.04745645 0.0362837 0.008176133
-0.056154966 -0.02842588 0.08355537 0.027431108 0.006405158 0.06499825 -0.04431613 -0.054771855
0.024522962 0.07333615 -0.06731958 -0.029007101 0.019104727 0.08168063 0.0025880167 -0.023759883
-0.026890604 0.027490443 -0.06633334 0.05859486 0.009120543 0.01744294 -0.07895607 -0.079427645
0.016109489 0.039323818 0.038548883 0.01792354 -0.07209201 -0.06656876 -0.060124528 0.0032975078
-0.05627542 -0.076884076 -0.060370117 -0.014415402 0.034498964 0.007814026 -0.028066661 -0.03743387
-0.07015526 0.04081932 0.06436779 0.047990542 0.07345819 -0.037440028 -0.051545836 -0.06555579
0.066889346 -0.019623151 0.07139286 0.027953222 0.0407613 -0.046652663 0.058809757 0.07300096

layer.4.bias f4 [64]
00000000: f056 883d c9de a33d ef50 323d 9c60 57bd
00000010: cbab 503d 3368 303d 3803 abbc 7d3a 803d
00000020: be39 753d ad5b 333d 3047 803d 527b 0e3c
00000030: 498c a23d 5c38 8ebd 96d6 293d 9f4d 3abc
00000040: 14d7 a73d 0a20 fe3c 99dc 9bbd 5e16 2dbc
00000050: 871a 603d a928 94bc 75e2 d43c 213a a8bd
00000060: c40a a13d 771d 803d 4e37 afbd 3de2 a1bd
00000070: 3b5d 2b3d 95d1 1fbd 6c17 bb3c 62f1 8abd
00000080: bf33 b53c 7a36 b6bd ff59 973d fabc 38bd
00000090: 2d21 103d 77d7 2cbd fab9 9e3d 98c0 003d
000000a0: 2c24 c1bc e596 7f3a d849 73bd f366 103d
000000b0: be8a 4cbd 1058 1f3d d81f 2dbd cfdc 97bc
000000c0: a430 6ebd 9406 903d 1e82 9b3c b444 c23b
000000d0: d993 b13d c377 9a3c 1c69 54bb 0110 b2bd
000000e0: 5008 e73c 1992 953d 553d 3bbd 875e c0bd
000000f0: 12e0 2e3b ff9a 0a3d 5303 ad3d 48ee 41bd
0.06657207 0.08001477 0.043534216 -0.05258237 0.050945085 0.043068122 -0.020875558 0.06261156
0.05986952 0.0437886 0.06263578 0.008696394 0.079369135 -0.069443434 0.04146441 -0.011371045
0.0819532 0.031021137 -0.07610435 -0.010564415 0.0547128 -0.018085795 0.02598689 -0.08214212
0.078633815 0.0625562 -0.085554704 -0.0790448 0.04183696 -0.039018232 0.022838317 -0.06784321
0.022119401 -0.08897109 0.07390212 -0.045102097 0.03518789 -0.04219767 0.07750316 0.03143367
-0.023576818 0.0009749963 -0.059396595 0.03525443 -0.049937002 0.038902342 -0.042266697 -0.018537907
-0.058151856 0.07032505 0.018982943 0.0059286 0.08670778 0.018855935 -0.0032411283 -0.08694459
0.028202206 0.073032565 -0.045712788 -0.0939303 0.002668385 0.033839222 0.084479 -0.047346383

layer.6.weight f4 [23, 64]
00000000: 3d9c e5bc bce4 603d 0fe6 a83b 2418 c93c
00000010: ba4d ae3d 2219 a43c aebb 3abd 6449 f53d
00000020: e1e9 bfbc b457 01ba c13b c0bd e6d5 d3bd
00000030: 17d8 123c 9c7b 513d a30b 40bd f3c2 f5bc
00000040: 38f4 eebb 35ec da3d 2305 b73d 7a92 ed3c
00000050: e973 1e3d 2a0b d13d e8bf 723d b4f5 b2bd
00000060: ae87 76bd 7e13 a0bd 0b3f e7bd 5636 d73d
00000070: 6558 a83c c4b9 d33d 4b13 84bd da81 f8bd
00000080: 7b28 45bd 71d2 37bd 44aa 953d 9156 d43d
00000090: 49d8 e83d afda 85bd 0d4f 6d3d c7e8 44bc
000000a0: f45a 7ebd 934a 5e3c 1c67 d33c 7960 d0bd
000000b0: a7a8 bdbc fbf0 54bd fe7e 92bd f6ea f43d
000000c0: 66dc a0bd c5f0 6a3d 3ef4 84bd e3f1 21bd
000000d0: 60f1 88bb f985 99bd 5d08 f33d bac9 cbbc
000000e0: 6ca0 81bd e5a4 91bb f1cc ce3d 6ba4 973d
000000f0: 3ab1 6a3d 02a4 a1bc bb9b 3f3d c11b 60bd
00000100: bb43 363d de6c aabd 9026 443c 6076 ff3c
00000110: 69bc c43d 8f51 af3d 83f3 d1bc 105b 61bc
00000120: 813e 893d 4805 103d 3b65 e03d 6808 863d
00000130: 9d72 c43d ca0a bbbd 46cc a7bd 21bd 9ebd
00000140: b1f9 ef3d 4b51 d3bd d4f3 833c 5642 2abd
00000150: a96a cdbc e9ef 713c 943f 20bc 42fb 86bd
00000160: 2fcc 0cbd ba31 1dbd 2af1 df3d 4a07 46bd
00000170: cd42 82bc 17e6 93bd db43 c4bd 76ec f43d
00000180: 69f5 423d 4ffd a03d b61c a3bd 5358 a83c
00000190: 9918 013d dd55 e83d f232 8ebd 31d2 3fbd
000001a0: 4cb4 9fbd 0005 c73d 72f0 983d fbfa 29bd
000001b0: 2a4b 91bd 74b1 613d 6df5 ccbc bb39 46bd
000001c0: 78bd 39bd d3b0 493d 77d1 b4bb 4b5c b83d
000001d0: eaec 9b3d f907 23bd 5443 23bc 34e6 b43d
000001e0: 00da 953d c925 b7bc b73f 37bd f92c b43d
000001f0: 8c95 44bb bcc3 473d 8004 a8bd c16c a13d
00000200: 320c 873d d0ec f4bd 5df7 e5bd 6226 ab3d
00000210: 842a 83bd 5248 ba3d 4518 01be 4cb9 933d
00000220: ee05 483d b061 2bbd cfe9 99bc 2064 af3d
00000230: 8cef b3bd dc78 f5bd 62b0 083d 360f bebd
00000240: 9d27 d3bd 2ac5 873d fcf0 aabd 0f62 01bc
00000250: f68f 81bd da42 b4bd d5b8 533c dc3b 09bd
00000260: ef16 153d a483 0dbd 9449 ea3d a0a3 81bb
00000270: 1657 28bd dcf8 c8bd 9dc8 af3d e9ff a73d
00000280: 9c50 073d 5d19 b8bd d0e4 ffbc 460f 82bd
00000290: bf8e ecbc e83d 06bb 2f2e 82bd ca1d 5d3d
000002a0: c8ec 493d 9215 d7b7 689f a83d 3f7c 823d
000002b0: 24c0 743c cebe d93d 8ed9 b53c b848 a33c
000002c0: 0656 85bd f4a2 233d c3be 34bd 4d53 47bd
000002d0: b496 d3bd dbd0 d83d 5779 aebd 32b8 cf3d
000002e0: 00f5 c03d 9060 a73d 2200 56bb 2ddb 793d
000002f0: b424 0cbc a5b0 8ebd 3297 12bd ef1e 493d
00000300: 7def 0f38 eae6 5c3d b44c 81bd 668a cb3d
00000310: 0706 de3d 8060 6dbd 8f59 6c3c 6c5c c6bd
00000320: b061 70bd 544d 803c 83f3 9e3d b1f0 1abd
00000330: c565 703d c0c7 9cbc f036 69bc 2124 dcbd
00000340: 62e7 adbd 5766 cb3d 4535 ebbd 0e32 d7bd
00000350: 6532 9e3d 7f1a a03d 4a37 9cbd fc51 5ebc
00000360: 1b89 efbd 6d4d 973d 548d efbb eea8 13bd
00000370: 5757 353b 6fd6 abbd 96f7 113d 5d92 853d
00000380: ae88 b73a bcdb e8bc 806c 88bd 9f18 eabc
00000390: 1fed d7bd 1442 17bd 1e4e 10bd 58c7 c13d
000003a0: 00ba d8ba 55a2 073d 2406 e43d 538e 9a3b
000003b0: cd0e 923a 07d3 93bd 79ab c3bd 391d df3b
000003c0: 9951 32bd 01c2 f83d ee66 f9bd e063 053d
000003d0: 58d7 7dbd 713b babd 7f26 8c3b 5805 f43d
000003e0: e584 09bd 685d d5bc a2c6 6ebd fc91 a63d
000003f0: fbaa ce3d e8e1 cc3d afe2 f33c fc46 a5bd
-0.028028602 0.054905638 0.0051543782 0.024547644 0.08510919 0.020031516 -0.04558914 0.11976889
-0.023426952 -0.0004934028 -0.09386397 -0.10343532 0.008962653 0.051143274 -0.046886098 -0.030000186
-0.0072922967 0.10689584 0.089365266 0.02900051 0.03868476 0.102072075 0.059265047 -0.087382704
-0.060187988 -0.07816218 -0.11291321 0.10508411 0.020549962 0.10338166 -0.06448992 -0.12134142
-0.04813431 -0.044878427 0.07307866 0.10368074 0.11369378 -0.06535851 0.057936717 -0.012018389
-0.06209846 0.013567585 0.025806002 -0.10174651 -0.023151709 -0.05198763 -0.07153128 0.11958878
-0.07854538 0.057358522 -0.06491898 -0.03953732 -0.004179165 -0.074962564 0.118668295 -0.024876464
-0.06329426 -0.004444706 0.10097683 0.07404407 0.057297923 -0.019731525 0.046779376 -0.05471397
0.044498187 -0.08321546 0.011972085 0.031184375 0.09606249 0.08560478 -0.02562881 -0.013754621
0.06701375 0.035161287 0.10956808 0.06544572 0.09592173 -0.09132917 -0.08193259 -0.07750917
0.11717547 -0.1031824 0.016107477 -0.04156717 -0.025075274 0.014766672 -0.009780783 -0.065908924
-0.034374412 -0.0383775 0.1093467 -0.048346795 -0.015900994 -0.072216205 -0.09583255 0.11959164
0.047597323 0.07860815 -0.079644606 0.020549929 0.0315176 0.11344502 -0.06943311 -0.046831314
-0.07798061 0.097177505 0.07467736 -0.04149912 -0.070944145 0.055100873 -0.025019372 -0.0483949
-0.045346707 0.0492409 -0.005518134 0.090019785 0.07613547 -0.039802525 -0.009964783 0.0883297
0.07316971 -0.022356885 -0.044738498 0.0879764 -0.0029996363 0.04877065 -0.08203983 0.07882071
0.06594123 -0.11959231 -0.112288214 0.0835693 -0.064045936 0.09095825 -0.12606914 0.07213077
0.04883378 -0.04184121 -0.018788246 0.08564019 -0.08785924 -0.11985943 0.033371337 -0.09280245
-0.1031029 0.06629403 -0.08346745 -0.007896914 -0.063262865 -0.088018134 0.012922485 -0.033504352
0.036398824 -0.03454937 0.11439815 -0.003956273 -0.041098677 -0.09813091 0.08583186 0.08203108
0.03303586 -0.08989213 -0.031237036 -0.063505694 -0.02887666 -0.0020483676 -0.06356465 0.053983487
0.049298078 -2.5640042e-05 0.08233529 0.06371354 0.014938388 0.10632096 0.022198465 0.019932136
-0.06510548 0.039950326 -0.044127237 -0.048663426 -0.10331479 0.10586711 -0.085192375 0.10142554
0.0942173 0.08172715 -0.0032653888 0.061000038 -0.008553673 -0.06967286 -0.035788722 0.049101766
3.4316898e-05 0.053931154 -0.06313458 0.09938507 0.108409934 -0.057953358 0.014425649 -0.09685597
-0.058686912 0.015661873 0.0776129 -0.037827197 0.058690805 -0.019138217 -0.0142342895 -0.107490785
-0.084913984 0.09931629 -0.1148477 -0.10507594 0.07724456 0.07817554 -0.07627733 -0.013569351
-0.11696073 0.07387815 -0.007310549 -0.036049776 0.0027670467 -0.08390509 0.035636507 0.06522057
0.0014002526 -0.02842509 -0.0666132 -0.028576193 -0.10543274 -0.03692825 -0.03523075 0.0946185
-0.0016534925 0.033113796 0.11133984 0.0047166734 0.0011143327 -0.07217985 -0.0955419 0.0068089035
-0.04353485 0.12146378 -0.121778354 0.03256595 -0.061972946 -0.09093369 0.00427705 0.11915082
-0.033574004 -0.026045516 -0.0582949 0.08133313 0.10091206 0.10004026 0.029771177 -0.0807018

layer.6.bias f4 [23]
00000000: 236c ddbc 904f a9bd cb52 97bd df42 79bd
00000010: 156a b33c 023c 9ebd 6f8c 643d 065a c13d
00000020: f8ef b13c 2a0d cb3d 4486 07bd ad11 673d
00000030: 9119 c5bd f179 2abb 95d7 aa3b 360d a6bd
00000040: 79af 02be 3f09 583d faae 61bd 93d3 d1bc
00000050: dfeb a5bd e948 a83b dc03 dbbc
-0.027029103 -0.082671285 -0.073888384 -0.06085479 0.02190117 -0.07726289 0.05579799 0.09440999
0.021720871 0.0991462 -0.03308703 0.05641334 -0.09624017 -0.0026012624 0.0052136877 -0.081079885
-0.1276225 0.052743193 -0.05509851 -0.025613582 -0.081016295 0.0051356447 -0.026735239
