weight/save_180.pth (torch_old, 72900 bytes, 8 tensors)

layer.0.weight f4 [32, 139]
000000 d5 4a a4 3d 1a 88 0d be c9 7b a3 3c 55 92 a4 bd
       0.080220856 -0.1382145 0.019956486 -0.08035723
000010 68 2f 7c bd ba 6d f1 bc 06 12 88 bd 21 b0 dc 3c
       -0.061568648 -0.029471267 -0.06644063 0.026939454
000020 83 bd 84 ba 69 4a 4e bd b2 29 07 bd cc 43 14 3d
       -0.001012728 -0.05036393 -0.032998748 0.03619747
000030 b9 72 2d 3d c7 10 75 3d b5 3c a7 bd 24 21 8f bc
       0.042345736 0.059830453 -0.08165876 -0.017471857
000040 cb 61 ce bc 42 d8 98 3b 01 df f9 3c fc 90 6a 3b
       -0.025193116 0.004664452 0.030501844 0.0035791984
000050 98 71 b0 bc 17 f1 20 3c 3b 3b 3b bd 71 82 6d bc
       -0.02153854 0.009823105 -0.045710783 -0.014496432
000060 9b ce a3 bc cd bd bd 3c bf f2 8f 3d 9c 24 43 3d
       -0.019995978 0.023161793 0.07028722 0.047642335
000070 7c ed 08 3d 2b 4a 30 bd 50 8a 24 3d 07 eb 3c bd
       0.033429608 -0.043039482 0.040170968 -0.046122577
000080 c0 57 0a 3d 57 47 34 bd c7 bc a2 bd b2 75 bb bc
       0.03377509 -0.044013347 -0.07946163 -0.02288327
000090 70 7c 2d bc e2 cb 6c bb 4e d5 69 3c aa de 87 bd
       -0.01058875 -0.0036132266 0.014272047 -0.06634267
0000a0 2f f1 97 3c 2d 7f 3c 3d 26 a8 e9 3c 01 d9 e8 bc
       0.018547622 0.04601972 0.028522562 -0.028423788
0000b0 4a 8b 25 bc 96 9b 84 3c 57 69 f1 3b b4 5e 35 bb
       -0.01010401 0.01618747 0.007367294 -0.0027674856
0000c0 e0 1f 7e 3d 11 0d 9e bd 89 3a 3a bd b6 82 79 3b
       0.062042117 -0.07717336 -0.04546598 0.0038072295
0000d0 60 a9 13 3d 42 f4 80 3d 28 fa 67 bd 55 5e 94 3d
       0.0360502 0.062965885 -0.056635052 0.07244555
0000e0 75 be 05 bd 23 1b 7c bd 0d 0a ef 3b d9 5d 85 bd
       -0.032652337 -0.061549317 0.0072948993 -0.06512041
0000f0 d7 1a 0d 3b 85 88 51 bd 8e 81 f1 bb a4 aa 72 3d
       0.002153089 -0.051155586 -0.0073701805 0.059244767
000100 86 5d 6c bd ae d4 5c 3c 54 4e 16 bd d3 ba 67 bc
       -0.05770638 0.013478441 -0.036695793 -0.014143663
000110 a2 45 0c bd 54 45 69 bc 3c 94 86 bd 46 eb 70 bd
       -0.034246095 -0.0142377205 -0.06571242 -0.058818124
000120 92 82 95 3c 63 e9 13 3b 0f f4 c3 bc a3 b0 44 3c
       0.018250737 0.002256953 -0.023920087 0.012005004
000130 6a 3e d1 3c 43 17 04 bd 83 5c 9a bd 22 7b 87 bd
       0.025542457 -0.032248747 -0.075371765 -0.066152826
000140 24 fa e2 bc 76 0e 82 bc 62 12 46 3d ae 1d 13 3d
       -0.027707167 -0.015876036 0.048357375 0.035916977
000150 ba 30 63 bc 00 bc a7 bd b6 e8 d1 bc 88 5c 4b bd
       -0.013866598 -0.08190155 -0.02562366 -0.04964879
000160 c1 56 d3 bc d2 f7 57 3d 30 c2 18 3c c3 2f 45 bd
       -0.025798203 0.052726574 0.009323642 -0.048141252
000170 20 d2 4e 3c 68 5a cd bc 00 28 90 3c f9 3b 70 bd
       0.01262334 -0.025067523 0.017597198 -0.058650944
000180 e6 f2 6f bc b2 fd b5 3b aa e7 49 3d da 30 30 bd
       -0.014645314 0.0055539245 0.049293198 -0.04301534
000190 97 8f b8 bd 89 84 32 bd 57 39 98 bd 60 63 09 3c
       -0.090117626 -0.043583427 -0.07432812 0.008385509
0001a0 8a 22 91 3c ff 7c 3a 3b 70 1b 88 3c 24 2b ac bd
       0.017716665 0.002845585 0.016614646 -0.08406666
0001b0 04 e9 4c bb 90 1f 79 3d 6a f7 9d bd 25 17 5a 3d
       -0.0031266818 0.060821116 -0.07713206 0.05324473
0001c0 9e b9 98 b7 d1 df 66 bd e2 11 12 3d e8 42 17 bc
       -1.8206247e-05 -0.05636579 0.035661586 -0.00923226
0001d0 d9 7e 9d bc 2d 98 5a 3d 9c e1 21 bd be 67 82 3d
       -0.019225525 0.053367782 -0.0395218 0.063674435
0001e0 c8 2a 7e bb dd 3c 10 bc 93 2f f6 3c 52 93 3f bd
       -0.0038782824 -0.008803573 0.030051982 -0.046771355
0001f0 39 95 a1 bd 64 0f 46 3d 65 00 0f bd 3c 5d 12 bd
       -0.0788979 0.04835452 -0.034912486 -0.035733446
000200 14 86 9f 3b 24 c6 1e bd 4a 7b 4a bc 50 39 25 bd
       0.0048682783 -0.03876318 -0.012358496 -0.04033786
000210 c3 78 9d bd 87 51 86 bd 5f 54 7b bd 8e 7f a9 bd
       -0.07689049 -0.06558519 -0.06135976 -0.08276282
000220 46 67 08 3d 19 6d c1 3b 64 7d 4b 3c 02 3e 46 3d
       0.033301614 0.005902898 0.012420032 0.04839898
000230 30 e6 84 bc 53 dc 10 3e 52 66 76 3d f2 0d 95 3d
       -0.016223043 0.14146547 0.060156174 0.072780505
000240 2a 9a 3a 3d 45 a0 90 bd a4 7c b9 bc 9a 13 57 3b
       0.04555718 -0.07061819 -0.022642441 0.003281808
000250 d6 a8 7b bc 31 dc 07 bd af d5 a2 3c c7 83 6d 3d
       -0.015360078 -0.033168975 0.019877283 0.057987
000260 c1 bb d1 3b 7f 15 6e bd 8f 12 78 3b 27 ba 2a bd
       0.006400556 -0.05812597 0.0037852859 -0.041681435
000270 af 62 52 bc 6e 93 7c 3d 92 21 a9 3c e5 da 45 bc
       -0.012840911 0.061664037 0.02064589 -0.012076114
000280 01 2d 7b 3d 12 78 2f 3d 64 69 a1 bc 3b 39 20 3d
       0.061322216 0.042839117 -0.019703574 0.03911708
000290 c6 1f 81 bc af 68 a3 3c e4 90 9a bd 81 14 c6 bc
       -0.015762221 0.019947378 -0.07547167 -0.024179699
0002a0 d5 bd 18 3c f2 07 7a 3d bb ec a9 bc 8c 13 74 bc
       0.009322603 0.061042733 -0.020742765 -0.014897238
0002b0 31 e7 03 bd 49 b3 86 bd e6 56 b1 bc e8 09 0f bc
       -0.032202903 -0.06577165 -0.021647882 -0.008730389
0002c0 cf 3f 79 bd c7 7a c5 bc 65 11 82 bd 94 c9 8b 3b
       -0.06085187 -0.024106396 -0.06350974 0.0042659733
0002d0 c3 a6 6c 3d 0c f5 9d bd aa f5 98 3c c1 df f9 3c
       0.057776224 -0.077127546 0.01867183 0.030502202
0002e0 f0 0f aa 3b d2 4e c8 3b bd ad 68 bd b1 7d d7 bc
       0.005189888 0.0061129117 -0.056806315 -0.026305052
0002f0 6e 36 b8 3c 7d d2 d7 bb 04 7e b7 3d 0c 0e e9 3b
       0.022486892 -0.0065863715 0.089595824 0.00711227
000300 af 76 1f bd 20 da d8 bc b2 d5 b9 bc e7 68 92 bb
       -0.038931545 -0.026471198 -0.022684906 -0.0044680717
000310 25 7a ae bc 60 8e 87 3b dd ba a3 bd 1f 4e 1b bb
       -0.021298477 0.0041368455 -0.07994626 -0.0023697687
000320 92 a0 56 bd 7f 8e 1a 3d 99 f7 ad bd 02 36 52 bd
       -0.052399226 0.03773355 -0.08494491 -0.051321037
000330 cf 2f 1c 3d f1 d0 06 bc 99 d3 c7 bd 8a aa ba bd
       0.03813153 -0.008228526 -0.09757156 -0.09114559
000340 e3 94 17 bd 91 d3 9d bd 34 3a 3a 38 3e 45 53 3d
       -0.037007224 -0.07706369 4.440006e-05 0.051579706
000350 89 86 1c bc cb 66 c9 bd 62 e6 92 bc f2 0c 18 3d
       -0.00955356 -0.09834059 -0.01793212 0.03712172
000360 5e 6a 6c bd b4 70 2e 3d 30 a5 c5 bd 1e 32 cd 3c
       -0.057718627 0.04258795 -0.09650648 0.025048312
000370 ba 14 2a bd a2 1e e3 bd 5c a4 5d 3d c7 3a c8 bc
       -0.041523673 -0.11089827 0.054111823 -0.02444209
000380 0f da be bd 8b e6 c5 bd a8 2b 42 bd 00 92 90 bd
       -0.09318935 -0.09663113 -0.047404915 -0.07059097
000390 c4 8a e7 3b 7b 8b 74 3d af b3 3c bd a8 8f fc 3c
       0.0070661027 0.05970333 -0.046069797 0.03083022
0003a0 39 a9 e0 b8 77 6b 34 3c fa f8 c5 3c a5 a2 93 3c
       -0.000107126725 0.01101195 0.024166573 0.01802189
0003b0 34 20 b7 bb a6 6d 1a 3d 01 fa 88 bd f3 d9 10 bd
       -0.0055885557 0.037702225 -0.066883095 -0.035364103
0003c0 f3 32 6c bb 0c ba 3a 3c 12 91 69 bd 59 d5 5b bd
       -0.003604111 0.011396896 -0.057023115 -0.05367026
0003d0 b9 30 c6 bc 23 57 42 bc 64 9c ba bd cd 12 02 3d
       -0.024193155 -0.011861595 -0.091118604 0.03175621
0003e0 f3 c3 f2 3c 99 78 bf bc 85 c0 8a bd b4 ce f2 3c
       0.029634451 -0.023372935 -0.067750014 0.02963958
0003f0 5b 90 6b bb 32 a6 67 bd 6b cc 30 3d 3d 60 9c 3c
       -0.0035944197 -0.05655498 0.0431637 0.019088859

layer.0.bias f4 [32]
000000 4b fa 51 3c 03 8e 98 3d 61 60 b5 bd f7 95 b4 3c
       0.012816022 0.074489616 -0.088562734 0.022044165
000010 a7 ad d1 bd 23 f0 4b 3d e1 c4 79 3c f2 1b 3c 3d
       -0.102382 0.04978956 0.0152446935 0.04592509
000020 dc b2 34 bd 6f f5 27 3d 54 31 24 3d e4 52 c2 bd
       -0.044115886 0.041005548 0.040086105 -0.094884664
000030 e6 73 9a bd 5d 50 ca bb 5b 67 8f 3d 6a fa 42 3d
       -0.07541637 -0.006174131 0.07002135 0.047602095
000040 08 c1 f5 bc 9c 7f 65 bd 74 c1 3e 3d a7 75 63 3c
       -0.029999271 -0.0560299 0.04657121 0.013883031
000050 9f ff d1 bd 01 66 09 3e d2 8f b4 bd 8f cd 94 bd
       -0.10253834 0.13417818 -0.08816494 -0.0726577
000060 c0 f3 b1 bd f3 57 e5 3d b1 2f b2 bd af 39 71 3d
       -0.0868907 0.111984156 -0.08700503 0.058892902
000070 c8 52 69 3e 96 d8 6b 3c c4 1b f5 bd 50 2e 96 bc
       0.22785485 0.0143949 -0.119681865 -0.01833263

layer.2.weight f4 [64, 32]
000000 9c 94 0a 3d ce 7d 9a bd 02 e7 ec bd 7d 25 a6 3d
       0.03383313 -0.075435266 -0.11567499 0.08112619
000010 91 54 1b bd 51 89 68 bd 28 13 90 3d f0 a9 14 3e
       -0.037922446 -0.05677158 0.07034904 0.14517951
000020 a4 5d 2b 3e 92 a0 16 be 2a 38 b1 3d 93 27 1d 3d
       0.1673494 -0.1470969 0.086532906 0.03836782
000030 db 38 16 3e e6 2e 8b 3c ca ce 15 3e 0c c4 2a 3d
       0.14670126 0.016990136 0.14629665 0.04169087
000040 00 8e 1f 3e 79 75 7e bd 98 64 83 3d 2a b5 f6 3d
       0.15581512 -0.06212375 0.06415671 0.12046273
000050 08 ad 93 bd 7a 4f 1b be 92 f5 2d bd 8d bd 4b 3b
       -0.072107375 -0.15167037 -0.042470522 0.0031088323
000060 1d 06 7d 3c 86 79 79 3d f5 73 27 3e 00 06 75 3d
       0.015443352 0.06090691 0.16352828 0.059820175
000070 70 66 38 3d b2 69 1e 3e 2a 6a 7a bd de 9f 22 be
       0.045019567 0.15470007 -0.061136402 -0.15881297
000080 0b 67 aa bd 01 6e e2 bd 3e 95 4c 3d 63 38 1c be
       -0.08320435 -0.11056138 0.049947016 -0.15255885
000090 4b d2 bb bd 95 3e 3c be ec 16 68 bd 84 4c 92 3d
       -0.091709696 -0.18383248 -0.056662485 0.071435004
0000a0 ec f6 b3 bd a2 ac be 3d 7e 52 3b bd 1e 2b 87 3c
       -0.08787331 0.09310271 -0.045732968 0.016500052
0000b0 47 c9 e8 bd 93 33 0f be 9b 2f 14 3e f3 d2 a3 bd
       -0.113665156 -0.13984518 0.14471285 -0.0799922
0000c0 2d c3 54 3d 95 4b 18 3e 83 18 3d bd df 60 5f 3c
       0.051943947 0.14872582 -0.046165954 0.013633936
0000d0 25 e1 bd 3d ae 7c 48 3c 3e 6c 6d be 79 dd ed bd
       0.092714585 0.012236757 -0.23185822 -0.11614508
0000e0 1f 20 bb bd 99 5b 86 bd 46 2c 17 be 78 2f 53 bd
       -0.09136986 -0.065604396 -0.14762983 -0.05155894
0000f0 81 7a 1f bd 2d f5 1f 3d 4c 0c 04 3e 6f 55 c1 3c
       -0.03893519 0.039052177 0.12895316 0.023600308
000100 4a 3f ac bd 6d 5c 47 be e3 c0 74 3d ff 76 d0 bd
       -0.08410509 -0.19468851 0.059754264 -0.10178947
000110 0d c1 13 be 6f 97 1f be 0f 83 c3 3d 30 db 9d 3d
       -0.14429112 -0.15585111 0.09546482 0.07707822
000120 23 ed 20 3e 69 de bd 3d 79 1d fb 3d 7e e2 06 be
       0.1571546 0.09270937 0.12261481 -0.13172337
000130 cf 7e b3 3d de 71 0d be 5f a3 33 be 26 db 99 3d
       0.08764421 -0.13812968 -0.1754279 0.07512502
000140 e5 3b a3 3c 51 0d 95 3d ec 51 d0 bd 30 84 b5 3c
       0.01992602 0.072779305 -0.10171875 0.022157758
000150 77 65 06 3e 2a af ae 3c fd 9f bd bd dd 93 0f 3e
       0.13124643 0.02132376 -0.09259031 0.14021249
000160 45 8b d0 bd 26 a8 9e bd d5 9d 28 bd 21 1e e2 bd
       -0.101828136 -0.077469155 -0.041166145 -0.11040903
000170 b9 bc 1b be 44 2c ab 3d 3b c1 b6 bd cb 3a 1b bb
       -0.1520871 0.083580524 -0.089235745 -0.0023686166
000180 c1 94 ab 3d 29 3e 0a 3e b7 23 01 be 2a 85 ac bd
       0.08377982 0.13500275 -0.1261128 -0.084238365
000190 a1 76 d2 bd 4f 48 23 be b1 d7 49 bd 56 35 37 3d
       -0.10276533 -0.15945552 -0.049277965 0.0447286
0001a0 f7 b2 be bd 66 a8 37 3d b3 a0 09 3e 64 f8 59 3e
       -0.093114786 0.04483833 0.13440208 0.2128616
0001b0 4f e7 a7 3c 01 55 55 bd f0 1f d8 3d bd 8a 0f be
       0.020496039 -0.05208302 0.105529666 -0.14017768
0001c0 65 87 a1 3d 69 46 e8 3d 37 2e 29 be d2 4f 0c bd
       0.078871526 0.11341555 -0.16521536 -0.03425581
0001d0 6c 07 c1 ba 65 0a f8 bd c8 8e 01 be 7a 46 89 3d
       -0.0014726943 -0.121113576 -0.12652123 0.067028955
0001e0 fe 7c 22 3e a4 aa 7e 3c 2b f9 24 3d 91 5d a7 3d
       0.15867993 0.015543614 0.040276688 0.08172143
0001f0 16 75 3a 3e 8d fc 08 be 43 4c 02 3d ed ad 9f 3c
       0.18208727 -0.1337759 0.03181101 0.019492114
000200 ad 0c 0b bd 8a 56 a7 3d 6f 63 e2 3d 0d 9c 8a bd
       -0.033947635 0.08170803 0.11054122 -0.067680456
000210 e2 93 a0 3c d0 77 d5 bc 9b bf 89 3d 99 07 20 3e
       0.019601766 -0.026058108 0.06725999 0.15627898
000220 d8 90 a1 bd 25 60 e0 bc d0 bb c0 bd 7f 04 c8 3b
       -0.07888955 -0.027389595 -0.094108224 0.0061040516
000230 3c 80 a6 3b 29 ca c3 3d 03 fb 43 3d 4f f1 b8 3d
       0.0050812047 0.09560043 0.047846805 0.09030401
000240 0e aa 21 be 5a 2c b7 3d 01 7c e1 bd 48 d6 e0 bc
       -0.15787527 0.08944006 -0.1100998 -0.027445927
000250 c5 f6 ed bc 19 69 a5 bb 0c b2 61 3d 35 a6 b7 bc
       -0.029048333 -0.005047929 0.05510144 -0.02241812
000260 79 fe 8d bd f8 ef 04 be 96 d6 9f bd 80 b4 aa bc
       -0.069333024 -0.12982166 -0.07804601 -0.020838022
000270 2f a5 f4 bc 48 49 0b 3e 74 c5 03 be 9c e2 5b bd
       -0.029863922 0.13602173 -0.12868291 -0.05368291
000280 1b 37 00 be f1 3d 43 be b5 fa c4 bc ce ad a5 bd
       -0.12521021 -0.19066598 -0.024045328 -0.08089791
000290 a4 0e 15 3d 9d 11 0a 3d 21 28 7f 3c a2 8a 28 3d
       0.036390916 0.033708204 0.015573532 0.041147836
0002a0 8b 79 91 3c 54 52 fa 3c 2b 9d 37 3e b6 21 2d be
       0.017758152 0.030556835 0.17931049 -0.16907391
0002b0 b4 8c 81 3d 42 9d 41 bd 99 7d 11 be 84 de 46 be
       0.06325665 -0.047269113 -0.14208068 -0.1942082
0002c0 19 3e d9 3c 67 ba 00 3e 0e c2 ba bd 40 d1 74 3d
       0.026518868 0.12571107 -0.09119044 0.05976987
0002d0 79 01 4c be 5a 1f d4 bd c2 75 73 3c 48 dc cc 3d
       -0.19922437 -0.10357542 0.014859619 0.10002953
0002e0 c1 52 34 be 1b 90 3a bd c6 55 0b be 7d 57 81 3c
       -0.17609693 -0.045547586 -0.13606939 0.015788788
0002f0 16 f1 01 be f3 25 39 be a9 f8 9d 3c 64 2e e7 3d
       -0.12689623 -0.18080883 0.01928361 0.11288145
000300 06 73 c9 3d c0 f1 ba bc 2f 1d 22 3e 29 17 91 bd
       0.09836392 -0.022820354 0.15831445 -0.070844956
000310 a9 66 9c bd ab c8 12 bd 30 90 b3 3d 3b d6 09 be
       -0.07636768 -0.035835903 0.08767736 -0.13460629
000320 73 92 d9 bd 72 3b 84 bd 1c 9d 42 3d 25 4a 01 bd
       -0.10623636 -0.06456651 0.047513112 -0.03156485
000330 c9 ce e4 bd 02 6d 05 3e 5b 95 20 3e 88 f6 29 3d
       -0.11172254 0.13029864 0.15681975 0.041494876
000340 f0 f8 a0 bc de f9 b8 bd 0d 43 26 bc 0d d6 2e be
       -0.019649953 -0.090320334 -0.010147822 -0.17073841
000350 f0 c9 dd bd 01 6d ea bd 78 ac 2b 3e 1a 9e d9 3d
       -0.10829532 -0.11446572 0.1676501 0.106258586
000360 ea 8e 8d bc 33 b9 ad bd ef 89 46 3d e9 e6 de 3d
       -0.01728006 -0.084825896 0.048471387 0.10883886
000370 25 22 8a bd 55 68 16 bb 35 34 c2 3d b2 91 22 be
       -0.06744794 -0.002295037 0.09482614 -0.15875891
000380 12 cb ce bc 00 78 13 3e 15 83 bc bc c2 af a5 bd
       -0.025243316 0.14401245 -0.023011724 -0.08090164
000390 e1 9c b5 3d e6 c6 3b be 5c 37 c8 bd 3a 23 2a be
       0.08867813 -0.18337592 -0.09776184 -0.16615
0003a0 b0 f7 bd 3b da 4b 75 3c 1d a1 e7 3d a3 6f 33 3d
       0.005797349 0.014971698 0.11310027 0.043807637
0003b0 65 ab ad bd 79 75 8b bd eb a9 31 be cb 7e 37 3d
       -0.084799565 -0.068095155 -0.17349975 0.044798654
0003c0 6c f3 97 bd af bd f2 bd 63 d5 68 3c 42 63 4a 3d
       -0.07419476 -0.118525855 0.014211032 0.049411066
0003d0 d8 fc 08 be 63 18 8f 3c c9 38 0a bd 24 79 d9 3d
       -0.13377702 0.017467683 -0.03374556 0.10618809
0003e0 e6 e9 47 be 3d 14 fb 3d 04 61 28 be 1a 0f 16 3d
       -0.19522819 0.122597195 -0.16443259 0.036635496
0003f0 5d bc 24 be ed 2c da 3d 88 4c e9 3c 1c 7e 98 bd
       -0.1608748 0.106531 0.028478876 -0.074459285

layer.2.bias f4 [64]
000000 a9 8b 3f 3e 2e 61 44 be 3c bc 84 bb b7 cb e5 3c
       0.1870562 -0.19177696 -0.0040507596 0.02805124
000010 a7 fe aa bd b3 af c6 3e c8 89 3a be 4f 3d 08 3d
       -0.08349352 0.38805923 -0.18216622 0.033261593
000020 65 87 d8 3c d7 d8 a8 bd 09 d8 3d be 43 64 2b ba
       0.026431749 -0.08244484 -0.18539442 -0.00065380725
000030 1c e7 48 3d 23 49 c1 3d 48 b8 26 be ae c8 b1 bd
       0.049048528 0.09437778 -0.16281235 -0.08680855
000040 2d 62 95 bd 10 ac cd bd d3 95 49 be 30 ae 94 bd
       -0.07294116 -0.10042584 -0.1968606 -0.07259786
000050 f8 06 07 be 04 3c e8 3c ba 2c 99 bd 2a d0 5d 3d
       -0.13186252 0.02834893 -0.07479234 0.0541536
000060 84 b6 79 bd da c5 3c 3e 98 88 34 be 67 eb c2 bd
       -0.060965076 0.1843485 -0.17630231 -0.09517556
000070 dc e6 45 3d ca 51 d4 3c 6e ab 4b 3d 23 81 1c 3e
       0.048315868 0.025917906 0.049724035 0.15283637
000080 8d ca c1 bd 48 e6 14 be a8 a4 27 3e 51 5c 14 be
       -0.094624616 -0.1454097 0.16371405 -0.14488341
000090 98 e3 d6 bd 03 58 28 be 92 9e a4 bd 5a 59 d2 3d
       -0.10492629 -0.16439824 -0.080380574 0.10270949
0000a0 3d 1a 23 be 54 5d af 3c e3 0b cc bb 04 75 b1 3d
       -0.15927978 0.021406807 -0.006227003 0.08664897
0000b0 6d be c0 bd 4f 47 e5 3d 0e 24 b0 bd c4 86 15 be
       -0.09411321 0.11195242 -0.08600627 -0.1460219
0000c0 13 ca d6 bd 34 87 29 bd c3 9d 20 bd f3 57 a0 bd
       -0.10487761 -0.041388705 -0.039212953 -0.07829275
0000d0 3e 59 22 3d bc 32 cf 3e 7c 9d 4a bd b8 14 2f 3c
       0.03963589 0.40468395 -0.049466595 0.010686092
0000e0 27 99 1d be e0 84 4a 3e de 6d 0d be bf 93 3e 3e
       -0.15390454 0.1977725 -0.13811442 0.18611048
0000f0 4a ef d4 3d a4 2c bd 3e a2 9b 3f 3e 0b d9 8c 3e
       0.10397203 0.3694812 0.18711713 0.2750934

layer.4.weight f4 [128, 64]
000000 d0 4b cf bc a5 76 d5 bd d6 46 66 3d 7f ca 85 bd
       -0.025304705 -0.1042302 0.0562199 -0.06532764
000010 23 76 5f 3d e6 ce c2 bc fb d7 e7 3d d0 06 24 3d
       0.054556023 -0.023780297 0.11320492 0.04004556
000020 97 d4 ab bd 8c fe bf bc 09 6a 26 bd 4a 02 fd bb
       -0.08390158 -0.023436807 -0.040628467 -0.00772122
000030 a3 3f 18 bd 4b 94 02 3d 59 02 84 bd 48 56 00 3d
       -0.037170064 0.031879704 -0.0644576 0.031332284
000040 b8 fb 8a 3d 18 cf 57 3d a0 01 91 3d 89 27 0e 3d
       0.06786293 0.052687734 0.07080388 0.034705672
000050 40 f3 a1 3d 6f 76 c8 bd 24 c5 b9 bd 1b 22 ee 3d
       0.079077244 -0.097882144 -0.09070805 0.11627599
000060 1d af 12 bd a5 11 73 bb e0 3f 0f 3d 45 a0 20 3d
       -0.035811532 -0.0037089374 0.034973025 0.039215345
000070 3f 4d a8 bd 33 3a 72 3d 7f 0a 6c 3d ec 55 cd 3d
       -0.082178585 0.059137534 0.057627197 0.10026154
000080 5f 13 77 3c bd 13 4c 3d 49 53 57 bd b8 46 6a 3c
       0.015080302 0.04982351 -0.05256966 0.014299087
000090 da 99 36 bd 29 cb b5 3b 5b db 44 3c 5e 76 54 3d
       -0.044580318 0.0055479 0.012015189 0.051870696
0000a0 41 be 23 bd d2 2c 88 bd 10 64 1c bc e3 8b c4 3d
       -0.039976362 -0.06649174 -0.009545341 0.09596994
0000b0 79 da b7 3d 4c b8 e4 3c 3e 0f c6 3d a7 61 99 3d
       0.08977217 0.02791991 0.09670876 0.07489329
0000c0 f1 c7 7a 3d ed e6 07 bd fd d4 a0 3d 84 87 9d bc
       0.061225835 -0.033179212 0.07853124 -0.019229658
0000d0 cb 7e 1e 3d c9 a2 22 bc ea 47 59 bd 54 35 9e bd
       0.038695138 -0.009926506 -0.0530471 -0.07725015
0000e0 6f f5 c3 ba 50 76 88 bc 86 91 3b 3d 92 20 85 bd
       -0.0014950464 -0.016657978 0.04579308 -0.06500353
0000f0 ba e2 03 3d 15 c3 85 3c 4b 97 e7 3d 04 3d d5 3c
       0.032198645 0.016328374 0.11308154 0.026030071
000100 a4 36 07 bd 95 de 58 3d 17 0b 0f 3e b3 2f 1b 3d
       -0.033011094 0.052946646 0.13969074 0.037887286
000110 12 cd 02 bc dc a2 34 be 54 3a d7 bd 31 2e 78 bd
       -0.007983463 -0.17640251 -0.10509172 -0.060590927
000120 b0 15 cc 3d 74 70 75 3d ca df a0 3d 4a d9 87 bd
       0.09965074 0.059921697 0.078551844 -0.066332415
000130 e1 f4 80 3d 9a 59 fd bd 88 15 08 bd 66 2b aa bc
       0.06296707 -0.12370606 -0.03322366 -0.020772647
000140 2d 32 dd 3d da 13 53 bd c7 bf 1f be 13 25 56 3c
       0.10800586 -0.051532604 -0.15600501 0.013070363
000150 8d 46 55 bd 70 a4 65 3c 60 3a 40 bc 0f eb e7 bd
       -0.052069236 0.014016256 -0.011732668 -0.11324131
000160 b7 d5 2d 3e 9c c5 85 bb 69 53 2a be d0 0f a0 3d
       0.16976057 -0.0040823948 -0.16633381 0.07815516
000170 d2 c7 6a bd 97 74 d7 3d 15 20 c1 3c 91 90 61 bc
       -0.05731947 0.105202846 0.023574868 -0.0137673775
000180 34 da 9a bd b1 59 52 3c 30 fe e3 3c e7 38 a3 bc
       -0.0756115 0.012838767 0.027831167 -0.019924594
000190 dd 76 61 bc d2 50 ef 3c c5 91 80 3c 97 c8 d3 3d
       -0.013761249 0.029213343 0.015694508 0.10340994
0001a0 bd 04 a0 3d b7 c3 fe 3d 80 ff 25 bd f9 f0 70 3c
       0.07813404 0.124396734 -0.040526867 0.01470589
0001b0 07 5d 6f 3d c8 9c da bc 5a cf 44 be 73 03 43 3c
       0.058438327 -0.026686087 -0.19219723 0.011902678
0001c0 04 bb c2 bd 39 8f 79 3d 94 e7 b0 bd 63 f4 a0 ba
       -0.09508327 0.060927603 -0.0863792 -0.0012279864
0001d0 99 7f 2b 3d 58 17 f5 bd 09 93 70 bd 19 a5 f7 bc
       0.041869733 -0.11967343 -0.058733974 -0.030230092
0001e0 a5 b2 07 bc 96 8b c1 bd a6 36 85 bd b0 5b 17 be
       -0.008282338 -0.09450452 -0.06504564 -0.1478107
0001f0 1c 80 8a bd 26 39 90 bd 64 76 0c be 76 35 08 be
       -0.06762716 -0.0704215 -0.13717037 -0.13301644
000200 b9 d8 fb bc 76 d0 a1 bd a9 13 66 3d 7b b6 79 3c
       -0.03074299 -0.07901089 0.056171093 0.015241261
000210 17 ab d4 bd 17 a6 2a 3e e6 5a ee 3d 15 7f d6 3d
       -0.10384195 0.16664921 0.11638431 0.10473458
000220 a1 9e ad 3d 09 23 4c bc ed d2 cf bd a2 a5 04 3d
       0.08477522 -0.012459525 -0.10147653 0.032384522
000230 33 1d 30 bd 38 20 a5 bd 3e d3 45 bc c8 77 c5 3d
       -0.042996597 -0.08062786 -0.01207429 0.09641987
000240 b9 d7 ba 3c aa 7c 26 3c 34 d4 72 bc 57 bf 44 bb
       0.022807943 0.010161558 -0.014821101 -0.0030021274
000250 bd a8 a3 3c a2 ca a2 3d 1f 76 13 3c 30 bb 87 3c
       0.019977922 0.079488054 0.00900033 0.01656875
000260 7a be c3 3c 9e 83 70 bd 60 ca 20 3d e2 40 02 bd
       0.023894537 -0.05871927 0.0392555 -0.03180016
000270 20 33 87 3d 4c 29 b6 bc ae 61 9b bd 8b 3c 8a 3d
       0.06601548 -0.022236489 -0.0758699 0.06749829
000280 99 aa b2 3d 08 47 13 be a8 c1 98 bd a4 8f e0 3d
       0.08723945 -0.14382565 -0.07458812 0.10964897
000290 d2 d6 c0 3c 73 21 94 3c e1 0e 03 be 29 f7 db bd
       0.023539934 0.018082356 -0.12798645 -0.107405014
0002a0 b7 e8 97 bc 7f c9 93 bd 7b 10 f9 bd 81 62 af 3d
       -0.018543584 -0.07216167 -0.121613465 0.0856371
0002b0 3b b8 e1 3b 24 97 96 bd 58 cd 52 bd 48 ad d2 bb
       0.006888417 -0.073530465 -0.051465362 -0.006429348
0002c0 9e 56 c0 bd 02 9c ea ba c3 ed 52 3d 00 0e 9b bc
       -0.09391521 -0.0017899277 0.05149628 -0.018927574
0002d0 d1 18 20 bd f4 cd 5b bb 11 16 97 bd 0f b1 a9 3d
       -0.039086167 -0.0033539506 -0.07377256 0.08285724
0002e0 92 9c 1a bd fc 63 48 3d 86 82 a9 bd b0 15 26 ba
       -0.037746973 0.048923478 -0.082768485 -0.0006335629
0002f0 19 c6 32 bd 5a 45 07 3d 94 1a d0 3a 56 95 6c bd
       -0.043645952 0.033025123 0.0015877062 -0.057759605
000300 da 34 64 bd 79 24 eb 3c 86 ad 87 bd f5 e1 99 bd
       -0.055714466 0.028703915 -0.06624894 -0.07513801
000310 7e 24 89 bd 36 82 1c be 0b 1e 8f 3c a3 de cd 3d
       -0.066964135 -0.15284047 0.01747038 0.1005223
000320 4f 7b 44 3d 33 7b a0 bd 55 fe 36 3d 93 89 80 bd
       0.04796916 -0.078359984 0.044676144 -0.0627624
000330 4a ef 23 3d 95 1a 0e 3d d2 0a 4c bd 31 93 87 3c
       0.040023126 0.03469332 -0.049815007 0.016549679
000340 64 1d 05 3d d1 46 44 3e 80 1d d7 3c 38 89 12 3d
       0.032498732 0.1916764 0.026259184 0.035775393
000350 76 6f e9 bc 35 d8 6d bc 87 3a e5 bd 9a 5c 54 3d
       -0.028495532 -0.01451688 -0.11192804 0.051846124
000360 e8 37 69 3c 55 d4 17 3d be 69 ae bc 90 97 83 3d
       0.0142345205 0.03706773 -0.021290656 0.06425393
000370 6f da 18 3c 36 de 98 3c 10 b2 0d be a6 51 0f bc
       0.009329422 0.018660646 -0.13837457 -0.008747494
000380 49 cf 54 bc 93 fa 73 3d 21 1b 6f bd c6 01 8b bd
       -0.012988874 0.059565138 -0.05837548 -0.06787448
000390 ea 2f 59 bd 07 da 87 3d 85 f5 cd 3c 1a 15 03 3e
       -0.05302421 0.06633382 0.025141487 0.12801018
0003a0 29 ff cf bd 1c cd 45 bd 03 04 ec 3b 46 a5 74 3d
       -0.1015609 -0.04829131 0.0072026267 0.05972793
0003b0 24 a6 56 3c f6 50 a2 bc 82 fe 24 bc e7 56 fd 3d
       0.013101134 -0.019813996 -0.010070445 0.12370091
0003c0 58 e1 ee bd e7 7b de bc 8d ef 91 3d 96 c9 c6 3d
       -0.11664075 -0.02715869 0.07125769 0.09706418
0003d0 17 05 10 3d dc 93 21 be df 57 d9 3d ae 2a f6 bc
       0.035161104 -0.1577906 0.10612463 -0.030049648
0003e0 77 66 8e 3d 74 04 b5 bd 1d 8f a3 3b 3d e0 e5 3d
       0.06953137 -0.0883874 0.0049914257 0.11224411
0003f0 ea d8 6a 3d 74 06 11 3e 1f d3 7d 3c b4 27 2f 3e
       0.05733577 0.14162618 0.01549223 0.1710499

layer.4.bias f4 [128]
000000 3b df 34 bc 04 8f d7 3d 5f e5 68 bd c6 9e 99 3d
       -0.01103955 0.10525325 -0.05685937 0.07500987
000010 f1 28 09 bc a2 09 8f 3d 52 21 45 3d 0f 3f a0 bd
       -0.008371578 0.06984259 0.04812748 -0.078245275
000020 2f 62 3e bd d5 7d 55 3c b9 cc 09 3e 6e 43 ee bd
       -0.046480354 0.013030489 0.13457002 -0.11633955
000030 94 14 13 3d 5e 20 09 be 4a 52 0b bd 57 c8 b4 3d
       0.035908297 -0.13391253 -0.034014024 0.08827274
000040 ad 33 4b bd 30 c2 56 3d 69 42 0c be fe 63 bd bd
       -0.04960983 0.052431285 -0.13697208 -0.092475876
000050 06 70 2d 3e 51 4e 9b bd bf bf c2 bd d1 65 c3 3d
       0.16937265 -0.07583297 -0.09509229 0.09540904
000060 17 f7 b6 3d ff 10 a4 bd 68 ef a5 3c ec 4f fd bd
       0.089338474 -0.08011054 0.02025576 -0.123687595
000070 40 2e d5 3c fc 0b 94 3b 2b c0 24 3e 41 b9 28 bd
       0.02602303 0.00451803 0.16088931 -0.041192297
000080 db e0 86 3d 2b 40 96 3d f6 f8 df bd 8f 74 83 3b
       0.065858565 0.07336458 -0.109361574 0.0040116976
000090 91 16 26 be ab 10 ec 3d aa 6a 25 3b 52 f5 d5 bd
       -0.16219546 0.11526617 0.0025240579 -0.10447182
0000a0 6b 27 03 be c9 94 ca bc 4c e4 42 bd 12 e2 a4 3b
       -0.12808006 -0.02472915 -0.047581002 0.0050318325
0000b0 07 62 70 bd e3 27 12 3d a3 d4 9d bd 51 57 de 3d
       -0.058687236 0.03568257 -0.07706573 0.10856498
0000c0 6d 80 be 3c db 92 cc bd 49 11 17 3d ea c5 de bc
       0.023254598 -0.09988948 0.03688172 -0.027193982
0000d0 4e 95 12 be 17 eb 74 3e 1e c5 ce bd bb b7 57 3c
       -0.14314768 0.23917805 -0.10096191 0.013166363
0000e0 4b c2 8b bd 17 b2 cd 3d 26 1b 85 bd 87 38 a3 3d
       -0.06824168 0.100437336 -0.06499319 0.07969766
0000f0 5c b7 7a bd a9 c4 e4 bd f6 5d 7c 3e bc 47 9c bd
       -0.06121002 -0.111703224 0.24645218 -0.0763087
000100 41 e6 9e 3d 62 1b 96 bd e7 78 ab bc 8f 2e 84 3d
       0.07758761 -0.073294416 -0.020931674 0.06454193
000110 f9 ae b6 3d 2e 54 b0 3d 99 7d 19 3e 55 a9 1c 3d
       0.08920092 0.08609806 0.14989318 0.038247425
000120 e8 3c 0a be c1 01 6e bd e9 80 21 bc 98 f7 8a 3c
       -0.13499796 -0.05810714 -0.009857395 0.016963765
000130 d9 fb 2e be 26 43 14 3e ad 70 a7 ba 77 c0 35 3d
       -0.1708826 0.1447874 -0.0012774669 0.044373002
000140 a4 26 f3 bc db 76 03 3e 99 2c 18 3d c7 28 9e 3d
       -0.029681511 0.12838309 0.037151907 0.077226214
000150 a1 49 c8 3d c2 d4 9b bd 59 03 bc bd 82 7b e8 bd
       0.097796686 -0.0760894 -0.09180326 -0.11351682
000160 4b 1a 1d be 3e d9 fb bd ff f8 d5 3e 8b 4f e6 3d
       -0.15342061 -0.12297295 0.4179153 0.1124564
000170 41 4b b2 3d 15 c9 d6 3c 09 25 94 3d fa 12 91 bd
       0.0870576 0.02621893 0.072336264 -0.070836976
000180 be 3a bc bd ae ef b0 bc b3 fd 05 3e be 96 1e 3d
       -0.09190892 -0.021598663 0.1308506 0.038717978
000190 38 5e 9f bd cd 1a 41 3e 99 74 8d 3c 00 1a d9 bd
       -0.07781643 0.1885788 0.017267512 -0.10600662
0001a0 cf 04 4e 3d 66 77 d0 bd 87 bb 7c 3d fa 20 83 3b
       0.050297555 -0.101790234 0.061702278 0.004001734
0001b0 e0 69 80 bd 76 e5 85 bc 73 a3 bb bc 40 67 55 bd
       -0.06270194 -0.016344767 -0.022905087 -0.05210042
0001c0 0f fa 97 3d cb b4 8d bd 20 3b b9 3c 97 41 bd bd
       0.07420742 -0.06919249 0.0226112 -0.09241026
0001d0 7b d4 8a 3c 5a 4d 07 bd 94 20 fc 3c a0 39 49 3d
       0.016947022 -0.033032753 0.030777253 0.04912722
0001e0 4d b6 59 bd 1a 5d 67 bc 7c 85 09 3e 51 de f8 bc
       -0.05315237 -0.014121318 0.13429826 -0.030379446
0001f0 9b 90 ac bd a1 91 ae bd 27 7d d0 bd 55 d3 65 3d
       -0.08426019 -0.0852387 -0.10180121 0.056109745

layer.6.weight f4 [23, 128]
000000 09 d6 15 bd 13 8a 1d bb bc a2 59 3d 41 dc 34 3d
       -0.036581073 -0.0024038597 0.05313371 0.044155363
000010 63 59 b6 3c df 70 90 3c 9e 1d 76 3d a3 50 b4 bc
       0.02225942 0.017631946 0.06008684 -0.022011107
000020 ba 12 a5 bd 82 fa e7 bc f4 7a 11 bd e2 0c a6 bc
       -0.080602124 -0.028317694 -0.035517648 -0.020269815
000030 e7 30 cd 3c fe 1f ef 3b 58 46 59 3d 45 2d b1 ba
       0.025047733 0.007297515 0.0530456 -0.001351752
000040 f7 b7 7b 3d 0c 51 54 3d 33 3d 89 bd 9c 24 67 bd
       0.06145474 0.051835105 -0.06701126 -0.056431398
000050 43 9a 73 bd c0 1d bb bc 1b 29 38 bd ed df 62 3d
       -0.059473287 -0.022841334 -0.044961076 0.055389334
000060 d2 a9 83 bd a7 69 71 3d 7c 77 66 3d cc b5 9d bd
       -0.06428875 0.05893865 0.056266293 -0.077006906
000070 8c 47 c4 bc 98 e4 83 bc 38 cb ed bb 32 8f 85 3c
       -0.023959897 -0.016100213 -0.0072568916 0.016303632
000080 95 03 21 3d fe c7 20 ba 68 98 65 bd 7e 4b 4e 3d
       0.039310057 -0.0006133317 -0.05605355 0.050364964
000090 62 92 85 bc 12 e3 08 bd 7a 35 14 bc da 45 89 bc
       -0.016305152 -0.033419676 -0.009045953 -0.01675694
0000a0 77 b8 45 bb dc 6f dd 3c e1 f8 9a 3c f3 c5 7c bd
       -0.0030169764 0.027030878 0.018917503 -0.061712217
0000b0 89 ab 3d 3d ae f2 05 3a a6 09 ff bc 5e c0 45 3a
       0.046306167 0.00051097095 -0.03113253 0.00075436186
0000c0 06 11 fa bc 74 84 24 bc 48 8a 88 bd 71 e8 0e bd
       -0.030525696 -0.010041345 -0.06667 -0.034889642
0000d0 b3 df 75 bc 78 95 4a 3d 74 9c 1c 3d 1b 3c 82 3d
       -0.015006947 0.04945895 0.038235143 0.063591205
0000e0 4c 3a ca bc db 6d fc 3c ce 2e 9c 3d 04 37 63 3d
       -0.024686001 0.030814102 0.07626115 0.05547239
0000f0 5c e4 81 bb 16 55 f4 bc 33 a4 54 bd 4a 51 a2 bc
       -0.00396399 -0.029825728 -0.051914405 -0.019814152
000100 08 a9 a7 3c fa 07 bf bc 99 9d ce bc 71 ff 90 bd
       0.020466343 -0.023319233 -0.025221633 -0.070799716
000110 c2 e0 7f bc 1d fa 8b bc 90 72 28 bd 15 dc e5 3b
       -0.015617551 -0.017087037 -0.04112488 0.007014761
000120 70 1b 72 bd b6 ec d1 bc 67 d8 d0 39 7f 91 03 bd
       -0.059108198 -0.025625568 0.00039834084 -0.032121178
000130 44 ea 27 bd 19 48 4f bc af b4 24 3d 43 7e fa bb
       -0.040994897 -0.012651467 0.040211376 -0.007644446
000140 5d 7c 89 bd 06 d1 59 bd 22 d5 ac bc c2 3a 5b 3d
       -0.067131735 -0.053177856 -0.021097723 0.053522833
000150 81 4d 85 3d 39 e5 cb 3c 9d 0f 55 bb b9 46 d0 bb
       0.06508923 0.024889575 -0.0032510527 -0.006356087
000160 2a 45 25 3c 92 ee 84 3d 76 f4 07 bd 9d fc bf bc
       0.010087291 0.06490816 -0.03319212 -0.023435885
000170 a5 d1 9d bd 3f ab 9f bd bb ce 35 3c e8 2d 36 3d
       -0.07706002 -0.077963345 0.011096652 0.044477373
000180 94 f7 53 bd a9 28 6e 3d bf 82 96 bc d3 e5 a0 bc
       -0.05174978 0.058144245 -0.018372891 -0.019640839
000190 46 a2 cf bc 30 01 8b 3d 60 26 22 3d b2 4a 36 3a
       -0.025345933 0.06787336 0.03958738 0.00069538795
0001a0 a2 0a 2a bb 3a 89 09 bc 22 ca 10 3d b0 74 ee bc
       -0.002594628 -0.008394534 0.03534902 -0.029108375
0001b0 21 a2 aa bb 98 63 02 3d ce 17 82 3d c2 da c8 3d
       -0.0052073156 0.03183326 0.06352197 0.0980735
0001c0 c5 aa 3b bc 70 86 de 3c b8 c2 57 3d 93 7e 3f bd
       -0.011454289 0.027163714 0.052675933 -0.04675157
0001d0 dd 7b 33 bd 9d 8f 20 ba 89 eb 67 bd 0b d7 8b 3c
       -0.043819297 -0.00061249157 -0.05662111 0.017070314
0001e0 00 d9 88 bc 18 3b 1f 3d ea 4e c2 3c c5 25 a4 bc
       -0.016705036 0.038874716 0.02371927 -0.020037541
0001f0 28 69 85 3d 82 4c a4 bc c0 01 90 bc 54 c6 54 bd
       0.065141976 -0.020056013 -0.01757896 -0.051946953
000200 3e b4 dc bc 24 fd 1f bc 69 81 16 bd dd 36 08 bc
       -0.026941415 -0.009764943 -0.03674451 -0.008313862
000210 ee a9 79 bd f7 e8 64 3d 2b aa 7a bd c3 38 2a 3d
       -0.060953073 0.055886235 -0.06119744 0.04155804
000220 dc dc c1 bc 38 fa ae bc 17 21 cc 3c 0e b9 27 bb
       -0.023664884 -0.021359548 0.024918122 -0.002559248
000230 6f 69 10 bc 46 41 e7 3c 7f 48 ca 3c ee 4c e0 bd
       -0.0088142 0.028229367 0.024692772 -0.10952173
000240 1b f3 b6 bb 3d 95 42 bd 88 70 85 bc 10 5a 1e 3d
       -0.0055831796 -0.047505606 -0.01628901 0.03866011
000250 78 82 46 3d 59 55 fc 3b b4 29 c0 ba d9 07 da 3c
       0.04846427 0.007700604 -0.0014660866 0.02661507
000260 08 ae 81 3d 24 d0 46 bd 62 81 59 3d 87 f4 03 3d
       0.06332022 -0.048538342 0.053101905 0.03221562
000270 84 ea ac bd be cf 43 3d 75 40 42 3d 7b 21 81 3b
       -0.08443168 0.04780554 0.047424752 0.0039407588
000280 23 ba 0f 3d 3e 75 40 3d ff a6 4f bd 89 82 32 bc
       0.035089623 0.04698681 -0.05069637 -0.01089538
000290 0c 33 0a 3d a5 fa 19 3d 6f a2 99 3d 9c 81 c5 3c
       0.03374009 0.03759255 0.07501685 0.024109654
0002a0 c9 ed 43 3d ac d0 88 bc 56 a6 ec 3b 20 54 91 3c
       0.04783419 -0.016701065 0.007221977 0.01774031
0002b0 8f 16 9e bd 93 0a 0f bd b5 c9 63 bc 88 93 db 3c
       -0.077191465 -0.034922194 -0.013903071 0.026803747
0002c0 64 61 b2 bc 4f 3f 64 3d a6 75 9c 3c 54 c6 2b 3d
       -0.021774955 0.05572444 0.019099068 0.041937187
0002d0 3d 56 99 3a 75 d2 0d 3d 00 2f 55 3d 68 af 8d 3d
       0.0011698675 0.034624536 0.052046776 0.06918222
0002e0 a4 6e 19 bd 0a 5e 0f bd cb 96 18 3d cd 00 12 3d
       -0.03745903 -0.035001792 0.037253182 0.035645295
0002f0 35 81 95 bd 0e aa 18 bd 52 43 25 3d fb 1e 93 3c
       -0.07300035 -0.03727155 0.040347405 0.017959109
000300 bd 04 6e bd 5a 04 2f 3d 29 3a ec 3c fd 22 16 bd
       -0.058109988 0.04272876 0.028836327 -0.03665446
000310 b8 fa 28 3b fc ca d5 3c 21 48 9a bd 2f f2 39 bd
       0.0025784206 0.026097767 -0.07533289 -0.04539698
000320 84 49 e6 3c 72 0f ea 3b 84 86 dd 3c 36 e6 48 3b
       0.028111227 0.0071429545 0.027041681 0.0030654795
000330 11 f7 8b 3d cd 53 32 bc 55 0f 81 bc 2b 0c 21 bd
       0.068342336 -0.0108842375 -0.015754381 -0.039318245
000340 5a c3 1a bc e4 f3 c7 bb 88 c6 d6 bc 6d 99 5f bc
       -0.0094459895 -0.006102072 -0.026217714 -0.013647419
000350 23 68 5a 3d 50 a0 8d bd fe d9 b0 3c 5c 73 42 ba
       0.05332197 -0.06915343 0.021588322 -0.00074177026
000360 11 d5 56 3c 01 25 34 bd 81 2b 6f 3d 6e 03 21 3d
       0.013112322 -0.043980602 0.058391098 0.03930991
000370 06 e0 a2 3c 59 e0 c7 bc a4 e7 06 bc 1f fc 12 3d
       0.019882213 -0.02439897 -0.008233938 0.035884973
000380 f8 e0 83 bc e0 82 07 3c 37 25 77 bd 42 18 a2 bd
       -0.016098484 0.008270949 -0.060338225 -0.07914783
000390 54 a9 68 bd e9 f2 c0 bc e5 d8 49 bd 3d b4 0c 3d
       -0.05680211 -0.023553329 -0.049279112 0.034351576
0003a0 30 eb af bd 0c 91 a1 3d 9f 0d 05 3c d6 d3 25 bb
       -0.0858978 0.078889936 0.008120923 -0.0025303266
0003b0 cf 5d 62 3c 7d f9 e1 bc 97 f8 9a 3d 31 6c ed 3c
       0.013816311 -0.027584786 0.07566946 0.028982254
0003c0 a3 70 e4 3c 8f 6a 23 3c 88 f8 7d bc db b9 06 bd
       0.02788574 0.009974136 -0.015501149 -0.03289209
0003d0 eb 86 4c 3c 77 5a 00 3c fd 9c 81 bd fc 34 97 3c
       0.012483339 0.0078340685 -0.06328771 0.018457882
0003e0 4e 9c 64 3d 69 59 46 3c 1a 24 2c 3d 3c 16 56 3d
       0.055813126 0.012106278 0.042026617 0.052267298
0003f0 80 34 ca 3c 3b 64 28 bc e6 54 2a bb bd be 08 3d
       0.024683237 -0.010277803 -0.0025990545 0.033385027

layer.6.bias f4 [23]
000000 8a 39 db 3c 8f 7f 3c bd 8b 8e 5d 3d 2e 51 56 bb
       0.026760835 -0.046020087 0.054091018 -0.0032702195
000010 b0 8a 25 3d b2 0b d0 3d 57 74 a3 3b 57 0f 61 3d
       0.040415466 0.10158481 0.004988234 0.05494627
000020 7e 49 14 bd 78 b9 db 3c 50 d1 96 bc 6a 7e ea 3c
       -0.0362029 0.026821837 -0.018410355 0.028624732
000030 54 89 9b 3c 26 52 31 bd b3 de 8d 3c 89 84 46 bd
       0.018986382 -0.043291233 0.017318105 -0.04846624
000040 87 f6 06 3d 87 c7 83 3d 7e 2f 01 3d bc 3e f6 3c
       0.03294995 0.06434541 0.031539433 0.030059211
000050 36 80 a2 3b ce bd 87 bc 3e a2 82 3c
       0.0049591316 -0.016569998 0.015946504
